data/CTC/Fluo-N2DH-SIM+/02_RES_GAT/20250718_195318/top1_model_fold2.pth (torch, 11177 bytes, 15 tensors)

gat1.att_src f4 [1, 1, 16]
00000000: d270 453e e086 2e3e 9425 fc3d f97d 043b
00000010: 2d73 a93e c117 86be 3fa9 123e f699 7abd
00000020: b860 28be 17c3 0c3e f44c 29bf ac4a b8be
00000030: ee3f 1fbf 3816 063e eb69 12bf c394 0bbf
0.19281319 0.17043638 0.12311855 0.0020216687 0.33095685 -0.26189998 0.14322375 -0.061181985
-0.16443145 0.13746296 -0.66133046 -0.3599447 -0.62206924 0.13094413 -0.5719287 -0.5452387

gat1.att_dst f4 [1, 1, 16]
00000000: e732 58be 451a 2ebf 380d 11be 782e abbb
00000010: 74f0 493f 8f67 58be e0c5 b23d 5505 adbe
00000020: 15cf 8a3e 95e4 65be 0544 11bf 4400 d1be
00000030: a8f4 47be f9f8 e8bd c350 e2be ce69 233f
-0.21113168 -0.68008834 -0.14165199 -0.0052240454 0.7888253 -0.21133254 0.08729148 -0.3379313
0.27111116 -0.22450478 -0.56744415 -0.40820515 -0.19526923 -0.11375613 -0.4420224 0.6383332

gat1.att_edge f4 [1, 1, 16]
00000000: f2b7 33be 5030 1ebf ac28 5fbf e982 4e3d
00000010: 4c0c af3e cb4a 563f adf8 babe 935a 47bf
00000020: b4fc afbe 1b4b f73e 56c0 65bf 2873 a5bf
00000030: b7ba 07bf 70f7 543f 8307 083f b1df 683f
-0.17550638 -0.6179247 -0.87171435 0.050417814 0.3418907 0.83707875 -0.3651785 -0.7787258
-0.34372485 0.48299488 -0.89746606 -1.2925768 -0.5301928 0.8319006 0.5313646 0.90966326

gat1.bias f4 [16]
00000000: f495 563f 0fbd 293f a88b 02bf d11b 4c3f
00000010: 537b 3f3e ccbe a63d fc8c 3d3f 16f7 133f
00000020: e5cb 0abf 1c5e 5b3f bb07 a73e 4653 863e
00000030: 3886 a73e 2f6b 533e 1a51 03be 50e8 153f
0.8382256 0.66304106 -0.5099435 0.79729944 0.18699388 0.0814186 0.7404325 0.577989
-0.5421737 0.85690475 0.32623085 0.26235408 0.32719588 0.20646356 -0.12823907 0.58557606

gat1.lin.weight f4 [16, 14]
00000000: 8ca5 00bf 4516 f73e 80b9 0d3d ecb5 2f3f
00000010: 09ee 93bf 022f 193f 7b7e 51bf c415 413f
00000020: a4e4 2fbf 5803 5dbe 839a a5be d2f7 be3e
00000030: 7c30 01be 6ed6 e3bc 9ae9 4cbe 13b6 073f
00000040: e2c3 0fbf 0d29 fc3e 04c2 53bf 06a1 93bd
00000050: 3523 30bf c2ee 813e 8de9 a2bf 3cfe 9abe
00000060: 5409 fdbe 72a9 4a3d 5ac3 3f3d fff4 99bd
00000070: 9ed3 b1be 2784 aebe 589e 9f3e e63e 223d
00000080: 4e25 873e c94a 153e ef0f c33e 7de0 d7bd
00000090: 1bf4 ebbe abd3 00bf a3a4 bb3e 7e70 50be
000000a0: 14c0 013f b72e a53e 9c7f bdbe ff0e b73d
000000b0: f5e0 9d3d f70c 5cbf ec99 b9bf e473 80be
000000c0: 1e1d 89bf de86 3dbe c19a bcbf 4918 a43e
000000d0: 8641 cf3e ca14 d6be f7b9 35bd ca8d f2bd
000000e0: b5ae 6c3d 9e0b ea3e d13a 4b3f 6710 0f3f
000000f0: cba8 c6be 8ac4 443f beb3 0dbf a3a1 fd3d
00000100: bb34 4cbe 4804 893d fbc8 5b3f 3892 f6bc
00000110: e115 9b3d 0a09 f7bd b681 413e 834a 043e
00000120: 5b6a d5be 82ae a0be 7185 d2bc 28b5 87be
00000130: ff9a 03bf 8cba eabd 509a d6be aeb6 4ebe
00000140: 2306 dbbe c6ad 373e 9606 2d3f 096a ef3e
00000150: b52a 9b3d 44e9 823f 193d 1e3e 6a83 683f
00000160: f583 0ebf a78e 683f e5ff 1fbf f548 373f
00000170: 184a 09bf e7e4 2c3e 2f13 44bd cdcf 1d3f
00000180: 3888 25bf 6156 a13e b1c4 4b3c 36fc 28bd
00000190: f4a7 9fbe eb3d df3e dfbf 65bf 053b 0a3f
000001a0: 32dc a5bf 1d14 ac3e bf70 64bf 297e cf3e
000001b0: c98f 15bf ed36 1bbd 8478 16bd 37eb 0e3d
000001c0: 4f9a 2a3e aaae 11bf 77b1 213f f481 763e
000001d0: 81d5 a13c 8ddd 973d 9d7d 5cbc 174e 983d
000001e0: f5a3 febe e093 e1bd 38c4 c33e 85d2 233d
000001f0: 6fc8 27be c55b e4bd 931b 4f3e 06bf 6d3e
00000200: 38fc 81bc 37e4 b23e 1086 53bf 4e51 1b3f
00000210: 1fa5 97bf 1dfd 8b3f 670e 9dbf 7546 28be
00000220: 58bc 46bd 410a 73be de8e 42bf f2c6 3ebd
00000230: e9f1 0bbf 5a12 aa3e 190a 8b3e bf48 193f
00000240: b16b a33d 1c80 5e3f 6bf0 9e3e 7e59 0b3f
00000250: dcbd e83e 5308 393e 6f6b 8bbe cc7a 83be
00000260: d33e 4dbf b4ff 03be 664f a43e 84b7 df3e
00000270: e318 a53e 818e 76be f6f2 42be 5978 1cbf
00000280: 5721 75be e5f7 10bf fabd 5abc f514 a7be
00000290: dad9 173d e518 5cbe 7fff a7be 74fe f8bd
000002a0: fd18 12bf 8a04 dfbe 52bd a73e f655 bb3e
000002b0: 95f9 54bc 24ef a13e 8ec5 ca3e 8bec 053f
000002c0: b298 b03e c984 0cbf 313e c23d 8139 c83d
000002d0: 6f3e b63e d148 443d ea44 08bf 4b9c 4d3d
000002e0: 2933 c33e dfa4 2abf f332 c6be 5ae1 3bbf
000002f0: 6627 083e fce3 b8bc fa89 14bf bee7 0abf
00000300: d653 dc3e 35e3 273e 53fa 14bd b840 1f3e
00000310: 8f6d 3a3e 4443 1bbf 2b26 073e 8df4 8c3d
00000320: 03ac c83c 88a6 e93e 1894 84bd 8c3b ea3a
00000330: f2f5 8b3e d9e2 9abe adef 743e fd02 9b3e
00000340: 923e 073f 5ddc c9bd a3e4 fc3d 2965 a3be
00000350: 177f a43e 3245 0fbf c2af 2a3f 4511 f6be
00000360: d314 363f eb6e 11be 5b16 f03e 4d19 c6be
00000370: 8a17 1d3f 7f04 08bc 544e 1e3c 2c6c 1c3e
-0.50252604 0.48259178 0.034600735 0.68636966 -1.1557018 0.59837353 -0.8183362 0.75423837
-0.6870825 -0.21583307 -0.32344446 0.37298447 -0.12616152 -0.027812209 -0.20010987 0.530122
-0.5615827 0.4925007 -0.8271792 -0.07208447 -0.6880372 0.2537747 -1.2727524 -0.3027209
-0.4942118 0.049478002 0.04681716 -0.075174324 -0.34731764 -0.340852 0.31175494 0.039610766
0.2639565 0.1457931 0.38098094 -0.105408646 -0.46084675 -0.5032298 0.36649045 -0.20355412
0.5068371 0.32262203 -0.3701142 0.08938407 0.07708923 -0.8595728 -1.4500098 -0.25088418
-1.0712011 -0.18508479 -1.4734727 0.32049778 0.40479678 -0.41812736 -0.044366803 -0.1184345
0.0577838 0.45711988 0.7938662 0.55884403 -0.38800654 0.76862395 -0.5535239 0.123843454
-0.1994199 0.0669027 0.85853547 -0.03009902 0.075725324 -0.12062271 0.18897137 0.12919049
-0.41682705 -0.3138314 -0.025698395 -0.265054 -0.5140838 -0.11461362 -0.41914606 -0.20186874
-0.4277812 0.17937383 0.67588174 0.46760586 0.07576505 1.0227437 0.15452994 0.9082552
-0.556701 0.9084267 -0.6249984 0.715957 -0.53628683 0.16884194 -0.047869857 0.61645204
-0.6466098 0.31511214 0.012437032 -0.041256152 -0.31182826 0.43601927 -0.897459 0.53996307
-1.2957823 0.33609095 -0.89234537 0.4052594 -0.58422524 -0.03789418 -0.036736026 0.034892287
0.16660427 -0.5690714 0.63161415 0.2407301 0.019755127 0.07415304 -0.013457683 0.074367695
-0.49734464 -0.11014533 0.3823564 0.03999569 -0.16385053 -0.11150316 0.20225362 0.23217401
-0.015867338 0.3493974 -0.8262644 0.60670936 -1.1847266 1.0936619 -1.227002 -0.16433127
-0.048519462 -0.2373438 -0.7599925 -0.046576448 -0.54666 0.33217126 0.2715614 0.59876627
0.07979525 0.8691423 0.310428 0.5443343 0.4545735 0.18069582 -0.27230403 -0.25679624
-0.8017399 -0.12890512 0.32091826 0.436947 0.3224555 -0.24077798 -0.19037995 -0.61121136
-0.239385 -0.5662826 -0.013350958 -0.32633176 0.037072994 -0.21493872 -0.32812116 -0.12157908
-0.5706938 -0.4355815 0.32761627 0.3658902 -0.012998958 0.31627762 0.39603847 0.5231406
0.34491497 -0.54890114 0.09484518 0.09776593 0.35594508 0.047921006 -0.53230155 0.05019788
0.3812497 -0.66657823 -0.38710746 -0.73390734 0.1329628 -0.022569649 -0.58023036 -0.5425986
0.43032712 0.16395266 -0.03637154 0.15552032 0.18205856 -0.60649514 0.13198154 0.06882582
0.024496084 0.45634866 -0.06473559 0.001787053 0.2733608 -0.30251196 0.23919554 0.30275717
0.5282985 -0.09856484 0.123482965 -0.31913117 0.32128212 -0.5596496 0.66674435 -0.4806005
0.71125525 -0.14202468 0.46892056 -0.38691178 0.6136404 -0.008301853 0.00966223 0.1527564

gat1.lin_edge.weight f4 [16, 2]
00000000: 4869 e2bd e823 16bf 77bb 693f 7e74 55be
00000010: 9c13 053f c892 cdbf 0d05 45be 91d0 c23d
00000020: 59fc 16bf c72e 433f 2698 f1be 46e8 893f
00000030: ddd4 323f 10bf e3be 7636 253f 741d 08bf
00000040: b702 413e 4eda bbbe e6e7 65bf 3293 8c3f
00000050: eeae 723f 4157 aebf ba1a 2b3f 9032 86bf
00000060: e8f3 913e 4c7b 71bf 6977 dcbe d3a7 923f
00000070: f839 4dbf 615d 643f edcf 41bf 1f75 bb3f
-0.11055237 -0.5864854 0.91301674 -0.2084522 0.51983047 -1.6060419 -0.19240208 0.09512437
-0.589788 0.7624325 -0.47186393 1.0774009 0.69856054 -0.44481707 0.64536226 -0.5316994
0.18848692 -0.3668999 -0.89806974 1.098242 0.9479817 -1.3620378 0.66837656 -1.048418
0.28506398 -0.9432876 -0.43059853 1.1457466 -0.8016658 0.89204985 -0.75707895 1.4645118

gat2.att_src f4 [1, 1, 16]
00000000: 2b19 ab3e 16fa a1be 68b6 813e 1d0e b2be
00000010: 63c6 8a3e 3670 3f3f e9f0 5d3e fd8f 463d
00000020: f101 943d 1f33 733f e5fc 89be e97f 83be
00000030: 87c0 0abf 5f18 41be 0c0b 61bf 4f62 b83e
0.3341764 -0.31636113 0.25334477 -0.34776393 0.27104482 0.74780595 0.21673931 0.04847716
0.07226933 0.9499988 -0.26950756 -0.25683525 -0.54200023 -0.18856953 -0.8790748 0.36012504

gat2.att_dst f4 [1, 1, 16]
00000000: bfe7 9abe bfa7 383e 78ad 15bd d27e b43e
00000010: de3b c33e 4fa8 c5bc d43f f9be cc73 84bd
00000020: 362a 1abf 624e 55bc 5e2c dc3e 9079 9d3d
00000030: b988 2b3f e4fb 9b3e dbd1 0a3f ae36 e5be
-0.30254933 0.1803274 -0.036542386 0.35253006 0.38131613 -0.024128107 -0.4868151 -0.06467399
-0.6022066 -0.013019176 0.430026 0.07689202 0.670055 0.30465615 0.54226464 -0.4476828

gat2.att_edge f4 [1, 1, 16]
00000000: c7ff a8bf 3faa 073f d9a9 603f 609b 95bf
00000010: e684 5a3f 3ae2 a0bf 14f4 94bf 61cb c03f
00000020: f16e ab3f f5eb 2f3f 1355 943f 0fe7 6b3f
00000030: 4044 ae3f 3f6d c43f 4b6a c53f beb2 5c3f
-1.3203057 0.5299415 0.87759167 -1.1688042 0.85359037 -1.2569039 -1.1636987 1.5062066
1.3393232 0.68719417 1.1588463 0.9214944 1.3614578 1.5345839 1.5423063 0.8621024

gat2.bias f4 [16]
00000000: cc5f c43e 22c0 b03e 4d8a 193f 0eea 18be
00000010: 16bb b63e 7f04 ea3b 1a25 663d aff4 63be
00000020: f336 0a3f 293b 38be 8d93 9fbd a562 8abe
00000030: 78c9 00be 5239 e6bc b82b a9be 12d5 6c3e
0.38354337 0.34521586 0.59976655 -0.14933035 0.3568961 0.0071416493 0.056187727 -0.22261308
0.53990096 -0.17991318 -0.07791815 -0.27028385 -0.12576854 -0.028103504 -0.33041167 0.23128155

gat2.lin.weight f4 [16, 16]
00000000: 0f81 34bf de1b e33e 66fb 51bf 0f89 e13e
00000010: ffba f13e 3eaa ea3d 2f74 5bbe 5492 17bf
00000020: 0a45 9f3e e6fc 0abf 9042 07bf 1217 063f
00000030: fbed 2bbf 37dc 2e3f 9505 d3be 644f 8d3f
00000040: 2d74 e23d 5de1 213e af50 153f 75c4 c7be
00000050: b88b a63d 9e45 613e 5384 a43c 9757 bd3e
00000060: 4954 53be 9027 96be a794 9d3e 8e04 a43c
00000070: fce4 d03e e7bf 3d3e 87f5 bbbe 0d11 623f
00000080: 1ff2 8e3f 038d 8c3f adf7 66bf e912 6c3f
00000090: efec 763f 469b c0bb 0884 ae3f 6d7a 3c3f
000000a0: 94d2 8bbf d967 8b3f 94be 623f b7c4 0bbf
000000b0: 894c ee3e b339 9dbe 5501 cabe c185 2ebf
000000c0: 1a4f 15be 6e9b d2be 97c8 843e e40d 903e
000000d0: 463d 2f3e f1bd dcbe f2c2 01be e904 6b3e
000000e0: 5b60 8e3e 35e6 64be b147 8ebe 6dad a7be
000000f0: 935d 073f 586f c0be 8ece 123f 93b4 9c3d
00000100: 0648 5f3f 39a2 333e 4c6a 643d 0406 a23e
00000110: b176 c53e 8e06 623e 0b6a 4abd 3052 ef3e
00000120: 0514 00be 5df5 153e cb68 7dbf 76ff 8b3d
00000130: 1cb2 863e c897 9d3d 84cb 413e 5e53 a53d
00000140: cefc b93e 35ab aa3e 5ad3 7d3e ace7 d53e
00000150: 6d6d a33d 948f 37be ef65 a5be 4105 b2be
00000160: 4fb8 0b3e 9b30 ad3e 4cd4 fb3c 8ab3 e03d
00000170: 94a7 69be 3220 263f 95f7 1fbe f177 c03d
00000180: 9811 c73e 8c54 0f3f 02e4 3d3e e636 163f
00000190: 78c4 a1bd 6fa6 fc3e d63f 143f 593c 0c3f
000001a0: 3f36 693f e70e fb3e 1c43 a1bf 5710 6abe
000001b0: a81e 3dbf b4f0 0e3e b4bd bbbd b1d4 b1bf
000001c0: c83f ad3d 12eb df3e afba 123f b02b cc3d
000001d0: 3e6e a23e 2e03 ba3e ca7d 87be b3dc d5be
000001e0: 620e 0fbf e24b 90bc 2eb3 45bf 6c9e 24bf
000001f0: ffad 433e 974d edbd f287 203f 429b e73e
00000200: a8ac 9e3e 0341 903e 2af4 1ebf 6aa6 9e3f
00000210: 785f da3d d293 153f fefa 113f 191b 783f
00000220: 90fa 64be c44f 8a3e caef e6bd d069 a03e
00000230: aebc 1dbf b641 773f c5e0 33be f8a4 5bbe
00000240: caba 1c3f dd80 3abe 2400 4c3f 85f8 803e
00000250: 87a7 e1bd 4b11 e5bc 646a 31bf 5b61 25be
00000260: e054 703e 6e2a 1c3e 472e d9be 4eee efbe
00000270: 08a8 613e 242e e33e 27ea 813e f7cd 5b3d
00000280: c56c cebd 0239 993c 4615 603e bb35 b33c
00000290: efcd 84be 2401 fcbd 581f 1cbe 5fed 483f
000002a0: 2f77 923e 10db af3e 8d9c cbbe 975d 09bf
000002b0: 5fd1 bd3e 48f3 e33b f0c0 cc3e 7903 19be
000002c0: dde3 ae3e 8868 2c3e 840b 59bf 97d6 74be
000002d0: ecd0 a1bd 89c2 c0bd 3523 583e 8e79 cc3e
000002e0: dd4f 6abf 557a 1ebd 9303 75bf 79fa 953e
000002f0: a80c 25bf d252 ba3d 4790 4dbe 3d6e cabe
00000300: f40b 10bf bd0c 0cbf 610c 383d 47f3 1dbf
00000310: 733d 16bf 8b7c ca3c cd90 fbbe da8e 1e3e
00000320: e57d 87be e94f afbc 297f 673e ccf4 85bd
00000330: 9314 55bf 0993 13be 0005 92bf 94d4 f13d
00000340: b4be 47be 6799 403e 3960 2d3e e2cf 923e
00000350: 78bd 45bd 047b 88bd d95a 8c3e fa50 003f
00000360: 561d 3f3c 74a3 883e 58aa a239 2f45 a73e
00000370: e28f 86be 9190 5f3e 701f 49be 139b 54be
00000380: 1418 d1be ecd7 c0bd 48d1 ff3e 03b2 debe
00000390: cce1 d63e ac3d 97bf 3664 fabd 33c4 053f
000003a0: 01e4 a33e 906e e13e 6460 08bf fb71 c8be
000003b0: 2eab 7abe 5f53 d6be 8396 2c3f 6cfc 1a3e
000003c0: 38b9 923f 90a4 183f 2a69 1d3f f5dd af3e
000003d0: 6782 333f 8fa7 9ebd 5c03 453f d689 a13f
000003e0: d3e8 883e 32f8 393f 917c e93e 68ef 01bf
000003f0: 346f ed3e af46 87be f6e3 7c3f d289 14be
-0.7050943 0.44357198 -0.8202423 0.4404988 0.4721298 0.11458252 -0.2143104 -0.59207654
0.3110736 -0.5429214 -0.5283594 0.5237895 -0.67160004 0.6830477 -0.41215196 1.1039853
0.11057315 0.15808626 0.5832624 -0.39017072 0.08132118 0.21999213 0.020082628 0.36980888
-0.20637621 -0.2932706 0.30777475 0.020021703 0.407997 0.18530236 -0.3671076 0.8830727
1.116764 1.0980533 -0.90221673 0.92216355 0.9645528 -0.005877885 1.3634043 0.73624307
-1.0923638 1.0891067 0.8857205 -0.5459704 0.46542767 -0.30708084 -0.3945414 -0.6817284
-0.14580956 -0.41134208 0.25934288 0.28135598 0.17113218 -0.43113664 -0.12672022 0.22951092
0.27807888 -0.22353442 -0.2778907 -0.327495 0.5287716 -0.3758495 0.5734643 0.07651629
0.87219274 0.17542352 0.055765435 0.31645215 0.38567117 0.22072813 -0.049417537 0.46742392
-0.12507637 0.1464438 -0.98988026 0.06835835 0.26307762 0.076949656 0.18925291 0.08072542
0.36325687 0.33333746 0.24787655 0.41778314 0.07979856 -0.17925864 -0.32304332 -0.34769633
0.13644527 0.33826146 0.03074088 0.10971744 -0.22817832 0.64892876 -0.15621789 0.09397877
0.3888061 0.55988383 0.1854401 0.5867752 -0.078988016 0.4934573 0.57909906 0.54779583
0.910984 0.49034807 -1.2598605 -0.22857796 -0.738749 0.13959008 -0.091670424 -1.3893033
0.08459431 0.43734032 0.57316107 0.0996927 0.31724733 0.3633055 -0.26463157 -0.41769943
-0.5588132 -0.017614309 -0.7722653 -0.6430423 0.19109343 -0.11587065 0.62707436 0.4523564
0.309911 0.281746 -0.62091315 1.2394536 0.106627405 0.5842868 0.5702361 0.9691635
-0.22361207 0.2701398 -0.11276205 0.3133073 -0.6161603 0.9658464 -0.17566212 -0.2144965
0.6122252 -0.1821322 0.79687715 0.25189605 -0.110182814 -0.027962347 -0.69302964 -0.1615042
0.23469877 0.1525056 -0.4241812 -0.468615 0.22036755 0.4437114 0.25373957 0.05366322
-0.1007934 0.018703941 0.21883115 0.021876207 -0.25938365 -0.12304905 -0.15246332 0.784872
0.28606555 0.3434682 -0.39767876 -0.5365843 0.370738 0.0069564916 0.3999095 -0.14942731
0.3415822 0.1683675 -0.84783196 -0.23909985 -0.07901177 -0.09412105 0.2110718 0.3993649
-0.9152811 -0.038690884 -0.9570858 0.29292658 -0.64472437 0.09097828 -0.20074569 -0.3953723
-0.5626824 -0.5470694 0.04493368 -0.61699337 -0.58687514 0.02471759 -0.49133912 0.15484181
-0.26463237 -0.021400409 0.22607102 -0.06540832 -0.8323452 -0.14411558 -1.1407776 0.11808124
-0.19506341 0.18808518 0.16931237 0.28674227 -0.048276395 -0.06664088 0.2741306 0.5012356
0.011664709 0.26687205 0.00031025964 0.3266997 -0.2628165 0.21832491 -0.19640899 -0.20762281
-0.40838683 -0.09416184 0.49964356 -0.43495187 0.41969144 -1.1815696 -0.12226145 0.522525
0.3200989 0.44029665 -0.5327208 -0.3914946 -0.24479362 -0.41860482 0.6741716 0.15135354
1.1462774 0.596261 0.6148859 0.34349027 0.70120853 -0.07746803 0.7695825 1.2620189
0.2674013 0.7264434 0.4560285 -0.5075593 0.46373904 -0.26421115 0.9878534 -0.145057

gat2.lin_edge.weight f4 [16, 2]
00000000: 58f2 c73f d69f 523f 6af3 21bf 5c26 59be
00000010: 3d56 a8bf 9732 bd3e 4d6a af3f a7b6 283e
00000020: f5e9 9dbf 29c0 8d3e e950 5f3f f24b 223f
00000030: 437f ae3f 1177 833f c02e c1bf 35e8 83be
00000040: ad68 99bf f97d 69bf 1ba1 45bf ec5a 6d3b
00000050: 22db babf 1e98 dc3b b0c7 a2bf 439e 4cbf
00000060: e828 ccbf c6d9 35bf 61fc a2bf 7f0c d53d
00000070: b758 97bf 0024 b4be 984c 28bf 251d f2be
1.5620832 0.8227514 -0.63262045 -0.21206039 -1.3151318 0.3695266 1.3704315 0.16475926
-1.2337023 0.2768567 0.87232834 0.63397133 1.3632587 1.0270711 -1.5092392 -0.25763097
-1.198507 -0.91207844 -0.7719895 0.0036217524 -1.4598124 0.006732001 -1.271719 -0.7992899
-1.5949984 -0.7103542 -1.273327 0.10402774 -1.1823949 -0.35183716 -0.6574187 -0.4728786

mlp.0.weight f4 [16, 32]
00000000: 135e ffbc 31bc 903d 4f6e fbbc 710b c0bd
00000010: 3192 eabd e2a7 c6bd 1e43 3ebe 120a 963d
00000020: f20d 3cbe 3797 a23d 0fce a33d 601f c93c
00000030: 82e8 00bc 2afa d63d e124 b2bd dddd d5ba
00000040: f0d7 4b3d 9f8a f1bd b8ba d93c 3aa1 64be
00000050: 7a3c 06be 5a96 d13d d73f 173d c4db 1cbe
00000060: 5989 60be 25d5 5f3c e7e0 98bc 60be d63b
00000070: f7d3 10be 0dbb 55be 8a72 fabc 4a5d 3abe
00000080: 578d acbe aa95 813c 59da 82bf 9ec6 ef3d
00000090: 5858 1bbd a60d aebd fb99 b2be 74f5 203e
000000a0: 6271 223d 1c2a 133f 4039 3d3e cc81 2bbf
000000b0: 49c2 963c c38f d0be 4c7f ad3e 6c52 0abf
000000c0: 1cf9 87be 9189 7a3e 7d3d 57be 34c5 0b3f
000000d0: 41cd bd3e 7dc4 a4be 8612 e23e a609 9abf
000000e0: e501 68be 77f5 303f 2a19 233f 106a 033f
000000f0: b5fc 61be 8911 08be 8f6d cc3e beb4 083f
00000100: 399b 61bf 4b18 f3bd 0b30 173f fd1d 333e
00000110: f802 5abe 8f5c 4fbe a1fe 9b3e 0f9c e0be
00000120: f87a 11be a6e3 8a3d 6c4c ef3d d120 eb3d
00000130: c4cf 1dbe 12aa 61be 83b1 653e b578 073f
00000140: 763c 90be 5721 6d3e cc13 c1bc 44b4 9d3e
00000150: d8b1 dfbe 8412 7bbe 8955 58be 2e03 0cbf
00000160: f1d8 d5be 768c 3e3d 3710 be3d f344 8abe
00000170: 380c 6c3e a628 1bbf af28 a03d d5d6 6a3d
00000180: d08b 85bc 5a3d ecbd 0099 e8bd bf2e 09be
00000190: 6666 89bd b592 6fbe 7889 77be 62ea f13d
000001a0: 30b9 b4bd f3c2 b8bb 081a bdbd 18b7 4bbe
000001b0: 706e 6cbe 6ffe a33c c040 e4bd fee5 ca3d
000001c0: a577 0a3e bbc5 33be b76a 2fbe bc6b 01bd
000001d0: 018b 26be fbcb b8bd a23c ba3c fe0b 04be
000001e0: 15a0 1a3e 9cc6 8abe f43c 173d 274f 94bd
000001f0: b3ee 88be 7a56 703c 90d3 573c 98e9 6f3d
00000200: 7d9f 02bf 3351 dabe 43f7 133f 1c81 65be
00000210: 6baa 873d 3a23 5fbb 8500 b23e a404 743e
00000220: ea43 173f 47d6 4f3d 4199 723e 2f76 5b3e
00000230: 4c7d 6b3e bb37 733e ecd7 78be 9c73 4b3f
00000240: 0d14 223f f960 9f3e 9c80 70bf f8ae 803d
00000250: 22a7 2ebf aeae eebd 540a e8bd e859 143e
00000260: da24 f8be ed46 57be 5b1d 1f3d 838e 0ebe
00000270: 1aae 503e a334 8b3d cd14 45be 41e6 cbbe
00000280: ebf9 4b3e cd46 f53e 86c9 85bf 6fad 1f3c
00000290: 2f46 2d3d bb99 30bb d820 34bf 1500 d83e
000002a0: ccc9 883d 2105 0abe ba89 be3a eaac 1bbf
000002b0: 50b5 013c 3579 25be 7733 2e3e b03a 4ebf
000002c0: 4725 163e 5619 ae3e fcf5 90bf 65e3 083e
000002d0: f5a4 0b3e ef7f 00be 8bcf 26bf 545a 003f
000002e0: f0df c7bd 0748 423e 835c da3d 64f0 c8be
000002f0: b0a6 23be 8990 45bd ab5c 963d 2f3a 76bf
00000300: aefd 3f3e 6690 883e f3d9 3fbf 5347 823e
00000310: fc74 613e 60aa 39bd 8646 d7be f604 d43e
00000320: 4171 82be 7660 5bbe 59e3 e03d 774b 08be
00000330: 792e 973b 89e7 2b3b 2ce2 643e 41c0 c8be
00000340: 4c29 3b3e 6adf 073f 6f48 5ebf 7a1f 053e
00000350: 676a 8c3e 1d9b 00be af1a d0be ed53 5f3f
00000360: 6176 5ebe 8470 383d aa36 4f3d 1bf1 ccbd
00000370: 3523 47be 2f56 663e 09af 2c3e 5fee 0fbf
00000380: 3efb 633e f34f b73e 077a 4fbf 6b09 013e
00000390: c416 0fbd 0e83 323d 71f7 61be 39fc 8c3f
000003a0: a84c a2be 9a92 9ebd a746 843d e03b aabe
000003b0: 9107 2a3e 8464 933d 7a45 093e e53f 02be
000003c0: fe4d 573e fa34 153f e676 3abf f039 b73e
000003d0: c068 f5bb 9306 febc 97a2 82be 4af5 6c3f
000003e0: d083 63be c357 653e 324c 0a3e 4193 aabe
000003f0: aa4e 573d 8dc4 0c3e 55c5 b13d dfdc 66be
-0.031172788 0.07067145 -0.030692248 -0.09377182 -0.11453665 -0.0969999 -0.1858029 0.073261395
-0.18364695 0.07938998 0.07998287 0.024551094 -0.007867934 0.10496934 -0.0869844 -0.0016316731
0.04976648 -0.11794018 0.026578292 -0.22327128 -0.13109007 0.102337554 0.036926117 -0.15318209
-0.21927394 0.013661657 -0.01866193 0.006553456 -0.14143358 -0.20872135 -0.030572195 -0.1819965
-0.33701584 0.015818436 -1.0222884 0.11707805 -0.037926048 -0.08498697 -0.34883103 0.15718633
0.03965891 0.5748613 0.1847887 -0.6699493 0.01840319 -0.4073468 0.33886182 -0.54032016
-0.26557243 0.2446654 -0.2101955 0.54597783 0.3707066 -0.3218116 0.44154757 -1.2034194
-0.22656973 0.6912455 0.6371027 0.51333714 -0.22069056 -0.13287939 0.39927337 0.5340079
-0.88127476 -0.11869868 0.5905768 0.17491908 -0.21290195 -0.20250152 0.30467704 -0.43869063
-0.14207065 0.06781702 0.11684498 0.114808686 -0.15411288 -0.22037533 0.22430997 0.5291856
-0.28171128 0.2315725 -0.02356901 0.30801594 -0.43690372 -0.24518782 -0.21126379 -0.5469235
-0.41767076 0.046520673 0.092804365 -0.2700573 0.23051536 -0.606089 0.0782026 0.057333786
-0.01630202 -0.115351394 -0.113573074 -0.13396738 -0.06708984 -0.23395808 -0.24173534 0.11812283
-0.08824384 -0.005638474 -0.09233481 -0.19894063 -0.23089004 0.020018784 -0.111451626 0.09907149
0.13522203 -0.17555897 -0.17130552 -0.031596884 -0.16263963 -0.09023281 0.02273399 -0.128952
0.15100129 -0.27104652 0.036923364 -0.072416596 -0.26744613 0.014669055 0.013172999 0.05857238
-0.5102461 -0.42640075 0.57799166 -0.22412533 0.066243015 -0.0034048096 0.3476602 0.23829895
0.59088004 0.05074146 0.23691274 0.21431802 0.22997016 0.23751728 -0.24301118 0.7947328
0.63311845 0.31128672 -0.9394624 0.06283373 -0.68223774 -0.11654411 -0.11330095 0.14487422
-0.48465616 -0.2102315 0.038846355 -0.13921551 0.20378914 0.06797149 -0.19246216 -0.39824107
0.19919555 0.4790558 -1.0452125 0.00974594 0.04230326 -0.00269471 -0.70362616 0.42187563
0.06679115 -0.13478519 0.0014536895 -0.6081072 0.007916763 -0.16159518 0.1701182 -0.805583
0.14662658 0.34003705 -1.1325068 0.13367994 0.13637145 -0.12548803 -0.65160435 0.5013783
-0.097595096 0.18972789 0.106621765 -0.39245903 -0.15981555 -0.048233543 0.07341894 -0.9618253
0.18749115 0.26672667 -0.7494194 0.2544504 0.22017282 -0.045328498 -0.42045993 0.41410035
-0.2547703 -0.21423516 0.10980863 -0.13310038 0.0046136943 0.0026230535 0.22351903 -0.39209178
0.18277472 0.5307528 -0.86829275 0.13000289 0.2742493 -0.12559171 -0.40645358 0.87237436
-0.21724845 0.04502918 0.05058924 -0.10006925 -0.19447024 0.22493814 0.16863646 -0.562231
0.2226381 0.35803184 -0.81045574 0.12601249 -0.03493382 0.043582015 -0.22067048 1.1014472
-0.3169911 -0.07742806 0.06458788 -0.33248806 0.16604449 0.07196906 0.1340541 -0.12719686
0.21025845 0.5828396 -0.72837675 0.3578639 -0.007489294 -0.031008994 -0.2551467 0.9256178
-0.22218251 0.2239676 0.13505629 -0.3331547 0.052565254 0.13746853 0.08680216 -0.22545193

mlp.0.bias f4 [16]
00000000: 7184 73be 8739 c4bc f2fc 99be 1e62 24be
00000010: 6958 153e 2192 843e cfb3 423e c8e9 5b3e
00000020: d55d 953e c48a 9a3d 0d31 02be 9626 aa3d
00000030: 2367 42be 835b 22be b156 c53d de55 ddbd
-0.23780991 -0.023953212 -0.30075794 -0.16053054 0.14584507 0.25892738 0.19013904 0.21475899
0.2917315 0.07545999 -0.12714024 0.08308141 -0.18984656 -0.15855221 0.09635676 -0.108073935

mlp.2.weight f4 [1, 16]
00000000: 01cf a93d 4d25 1c3f 88f1 2e3f b3ce ca3d
00000010: 8a5f 5ebf 5209 ab3e 0f3d 903e 0e5b a73e
00000020: 9529 223f 8472 263e 28d4 cd3e f5b3 9abe
00000030: 8083 dcbd 2fc8 0b3f 279a 953e eca1 30be
0.08291436 0.60994416 0.683373 0.09902706 -0.8686453 0.33405548 0.28171584 0.32686657
0.633447 0.16254622 0.40200925 -0.3021542 -0.10767269 0.5460233 0.2921917 -0.17249268
