data/CTC/Fluo-N2DH-SIM+/02_RES_GAT/20250718_191838/manual_fold_3_best_model.pth (torch, 11177 bytes, 15 tensors)

gat1.att_src f4 [1, 1, 16]
00000000: 5a80 8fbe 5b35 53be df6c da3d cc8d 4ebd
00000010: 36b8 bf3e 7b79 ee3c 1f3f 92be ce48 fb3e
00000020: 95a0 a73e 59fa a33e f8f8 7ebe ecc3 c8be
00000030: 917a eb3e 3cfe 6dbe 0bec 713e b329 a03e
-0.28027612 -0.20625822 0.10665297 -0.050428197 0.3744523 0.02911066 -0.28563783 0.49078983
0.32739702 0.32026938 -0.24899662 -0.39211977 0.45991948 -0.23241514 0.236252 0.31281814

gat1.att_dst f4 [1, 1, 16]
00000000: 78bc aebe 6af4 f7bc 3d41 9a3f 9b86 fe3d
00000010: 64a9 51bf 36b9 d9be 9722 593f c405 2c3f
00000020: a9ca bc3e 1b75 7c3f 3a63 86be fc81 723f
00000030: 812c 263e bc66 0e3f 6f3c d33e 2f7f 023f
-0.34128165 -0.030267913 1.2051159 0.12428018 -0.81899095 -0.42524117 0.84818405 0.671963
0.36873367 0.9861619 -0.2624758 0.9472959 0.16227914 0.5562551 0.41257045 0.50975317

gat1.att_edge f4 [1, 1, 16]
00000000: 1559 06bf f774 26bf b912 acbe 8fe7 753f
00000010: 9f5b 0fbf d9ad 57bd 18b4 20bf adab 6c3f
00000020: 52bb 33bf 82f0 7ebf 98cb 8ebf c091 b3be
00000030: e342 323f f0c4 fb3e d635 bc3e cbf6 c9be
-0.5247968 -0.65022224 -0.33608034 0.96056455 -0.5599918 -0.05265603 -0.627748 0.92449456
-0.70207703 -0.99585736 -1.1155882 -0.35072136 0.6963331 0.4917369 0.36759824 -0.394461

gat1.bias f4 [16]
00000000: 2f18 fd3e b36e 193e 8f85 773e e13b 0c3d
00000010: f469 863d a51f 04bc aa95 fcbe 009c f8bd
00000020: 036d 6abe 2175 c4be 57c3 0c3e b1eb 8c3e
00000030: 5ff8 873e 672d acbe 3da8 6bbe 86cf f0be
0.49432513 0.14983635 0.24172042 0.034236792 0.06563178 -0.008064185 -0.49332935 -0.1213913
-0.22893147 -0.38370612 0.13746391 0.27523568 0.2655668 -0.3362839 -0.23013397 -0.47033328

gat1.lin.weight f4 [16, 14]
00000000: 264f 893e 8f57 223f 9013 8e3d 0edf 80bf
00000010: c7ab 4d3f 0a4d 66be 7037 9d3e ca07 d6be
00000020: 3653 1a3e 4198 4b3e 997f 80be e0bc 96be
00000030: 1de9 26be 01a2 05be 0707 ed3e c766 b73e
00000040: fb9f c6bc 9542 44bf 07aa 0bbe 1020 d3be
00000050: c4a7 353e b211 0dbf b725 11be f706 8ebe
00000060: 2e07 343d 2553 f8bd 657f a33e 22cc 1c3e
00000070: e1b1 c73e 4c6d d73e 49bf a4be 02bd df3e
00000080: 168d bcbe 952e 0b3f a7a9 6bbf 0d33 5a3f
00000090: 751e 2dbf 04a3 6e3e 9561 643e 3748 a6bf
000000a0: 9801 36bf f0ab abbd 2a31 963e 09a6 9cbe
000000b0: 200c ab3e 38bc 40bd 568e 53bd bb8b dc3e
000000c0: e597 42be d757 1dbd 1b08 89be e888 923c
000000d0: afae 13bf e2f5 89be bcc0 1ebf 1f47 1ebd
000000e0: 8546 3b3e f569 81bd 6daa 123f b3f8 a0bc
000000f0: 37eb f33e 0c12 9bbe 6f50 df3d ae2b 11bf
00000100: d2dc 973d 90fa 47bd fdf9 453f 2ade efbe
00000110: 6679 b83e 0eca 7d3c e85a b73e 496d 023f
00000120: 1522 f5be 267e 21bf 3b81 bb3e 1c8f 12bf
00000130: 11aa 203f 8b7b 50bf 905d 363f 9a6b bc3e
00000140: 3d68 ee3d 5d67 f9bd 6d86 863d 597e f73c
00000150: ea4c 87be 4131 e9be 76b5 d33e 96ab f23e
00000160: 1048 fbbe 5fa1 eb3e c184 9bba 4f11 d33e
00000170: a428 d6be 6570 86be 6cd3 b9be 805e e838
00000180: 9e22 103f c5e5 e3bc daa6 e63e a52e 203f
00000190: f47e c73e e49d d3be c381 86bd 0f43 72be
000001a0: a9d8 34bd 0f55 08bf 4702 1e3d 1169 a93e
000001b0: d1df d83d 27d9 ac3c 5907 df3e ce69 633e
000001c0: a89b ca3d 495f 00bf a955 b93e b8f6 12be
000001d0: 2635 f03c 4471 b83d 389c 4dbe 41a1 d6be
000001e0: 32e4 f9be ee7d d5bd 5366 323e 3622 733e
000001f0: 1eab 973d ded3 cb3d 003d c7be 95c1 e93e
00000200: 0279 7bbe aab6 c53e 93ac 07bf 9d50 47be
00000210: ba9f e2be f7af 293c 512b 2fbc b5cc 583b
00000220: 51c6 0b3e 0821 643e 380e 013d 3d88 6a3e
00000230: c5ed 273f 93a8 873e 60bb e93d 8236 d3be
00000240: d9d7 1c3f 41d8 07bf f25b fa3e a853 30bf
00000250: 3399 0a3f d1ed 89be 3202 34bf 446c 66bd
00000260: 2352 56bc 0786 233e a1a7 f5be f81f df3e
00000270: ee62 a93e 5f54 0e3f 271d 933e d3ea e13e
00000280: 0903 00bf c6e8 ff3d 3693 36be 37df 473e
00000290: b829 59be 92fb 1a3e 053c 17be d0aa b9bd
000002a0: ae52 72bc 3d5d cf3e f964 8fbd a2c4 3ebe
000002b0: 81e5 1b3e 02c7 22bf 71e3 373f e816 4cbf
000002c0: cb0d ee3d 7870 d83e becf d8be 7773 a13e
000002d0: 9d51 8cbe 52a3 6bbe 6e59 12bf ab8f 11be
000002e0: 7dcf 33bd e65e 0e3f 4661 9c3b fd4b 033f
000002f0: 7e60 a03e ade3 e93e 5b80 343d 3c7f 57bd
00000300: 14bc 77bd 6c83 cc3e 6ac6 ed3e 55b6 dfbd
00000310: aec0 ad3b 6020 b13d cd15 0cbf 73ef b6bd
00000320: 31e7 0f3d 9efa 923e f5c0 003d b83d e53e
00000330: 6be2 fabe 1e72 b93d 0c17 443d 107b 823e
00000340: 435d 743e 37e6 4fbe fa09 873e 9696 723e
00000350: 6515 babe f493 eebe 5a12 c4be fd02 14bf
00000360: 925e fcbe 2740 2bbe 93b6 c6be 1e37 70bb
00000370: 9460 06bb ec4b 2fbe f895 be3d db70 a9bd
0.26818198 0.63414854 0.06937325 -1.0068071 0.80340236 -0.22490326 0.30706358 -0.41802818
0.15070805 0.19882299 -0.2509735 -0.29440975 -0.16299863 -0.13050081 0.46294424 0.358206
-0.024246207 -0.76664096 -0.13639079 -0.412354 0.17739779 -0.55105126 -0.14174543 -0.2773969
0.04395216 -0.121252336 0.31933132 0.15312245 0.39002898 0.42075574 -0.3217719 0.4369889
-0.3682639 0.54367954 -0.92055744 0.8523415 -0.676246 0.23304373 0.2230285 -1.2990788
-0.7109618 -0.08382404 0.29334384 -0.30595425 0.33407688 -0.0470545 -0.051649414 0.43075356
-0.19003256 -0.03841385 -0.26763996 0.017887548 -0.5768842 -0.26945406 -0.6201284 -0.038642045
0.1828862 -0.06319038 0.572913 -0.019649839 0.47640392 -0.30287206 0.10904013 -0.56707275
0.07415165 -0.04882294 0.77334577 -0.46849185 0.3603012 0.015490068 0.35811543 0.50948006
-0.47877565 -0.6308311 0.36622033 -0.5724962 0.627595 -0.8143851 0.71236515 0.36800843
0.116409756 -0.12177918 0.065686084 0.030211614 -0.26425868 -0.4554539 0.4134938 0.47396535
-0.49078417 0.46021554 -0.0011865125 0.41224143 -0.4182788 -0.26257625 -0.36294115 0.00011080224
0.5630282 -0.027819524 0.45049173 0.62571174 0.38964045 -0.41331398 -0.06567719 -0.23658393
-0.044151936 -0.5325479 0.03857639 0.33087972 0.105895646 0.02109964 0.43560293 0.2220833
0.0989297 -0.50145394 0.36198166 -0.14351928 0.029322218 0.09005979 -0.20079124 -0.41919902
-0.48806912 -0.1042441 0.17421846 0.23743519 0.07405685 0.0995252 -0.38913727 0.45655504
-0.2455788 0.38615924 -0.529977 -0.19464345 -0.44262487 0.010356895 -0.01069148 0.0033081
0.1364987 0.22278225 0.0315077 0.22903533 0.6559718 0.264958 0.11412692 -0.41252524
0.6126686 -0.5306435 0.48898274 -0.6887765 0.54140013 -0.26939252 -0.7031585 -0.056255594
-0.013081106 0.15969096 -0.47979453 0.43579078 0.3308329 0.5559749 0.2873318 0.4412447
-0.5000463 0.1249557 -0.17829594 0.19518743 -0.2120732 0.15135029 -0.1476899 -0.09065783
-0.01479022 0.40500823 -0.07001681 -0.18629697 0.15224268 -0.6358491 0.71831423 -0.7972245
0.116237246 0.42273307 -0.42345995 0.31533405 -0.27406016 -0.2301152 -0.5716771 -0.14214961
-0.043899048 0.55613554 0.004772338 0.51287824 0.31323618 0.45681515 0.04406772 -0.052611575
-0.0604821 0.39944017 0.4644044 -0.10923449 0.00530251 0.08648753 -0.54720765 -0.0893239
0.03513259 0.2870683 0.03143402 0.4477365 -0.49000868 0.09054969 0.04787354 0.25484514
0.23863702 -0.20302664 0.263748 0.23690256 -0.36344448 -0.46597254 -0.3829525 -0.5781706
-0.492909 -0.16723691 -0.38811168 -0.0036653946 -0.0020504342 -0.17118806 0.09305948 -0.082734786

gat1.lin_edge.weight f4 [16, 2]
00000000: 7479 813e e737 413f 37eb 26be 29c2 ae3f
00000010: b155 33bf e9bd 0b3f a283 a63e e973 15bf
00000020: 6858 32be 210b 123f 06bd 40be 0866 83bc
00000030: cf9f 5ebe 8f6b bf3e bd65 be3e f68f 95bf
00000040: 94a1 1dbf e9cc 303f 8524 06bf 459f 623f
00000050: 2eba aabe 4a2c 903f e225 05bd 0aea 533f
00000060: 1584 2c3f 68c3 12bf f564 84bb 50b8 06bf
00000070: f529 02be 24ee 98bf 28f2 a8be 26a6 ad3d
0.25287974 0.75475925 -0.16300665 1.3653003 -0.7005263 0.54586655 0.32522303 -0.5837999
-0.17416537 0.5704823 -0.18822107 -0.016039863 -0.2174065 0.37386748 0.37186995 -1.1684558
-0.61574674 0.6906267 -0.52399474 0.88524276 -0.3334517 1.1263516 -0.03250683 0.8277899
0.6738904 -0.57329416 -0.0040403553 -0.5262499 -0.12711318 -1.1947675 -0.3299725 0.08478956

gat2.att_src f4 [1, 1, 16]
00000000: e858 c03e b203 5cbe 402c eabe 879b 03bf
00000010: 3015 90be a074 7ebe 7ef8 c7be dc65 ae3e
00000020: 5cef 8abe f0da ed3e f84a 17bf 75cf ab3e
00000030: 2c73 53bf 930f 1cbd d8ed a2bd 430d 2cbf
0.3756783 -0.21485785 -0.45736885 -0.5140919 -0.28141165 -0.24849176 -0.39056772 0.34062088
-0.27135742 0.464561 -0.5909877 0.33556715 -0.82597613 -0.03810079 -0.07955521 -0.67207736

gat2.att_dst f4 [1, 1, 16]
00000000: e444 8dbe 483c f5be 389d 083f 0d93 b9bd
00000010: f81c 07be 0715 6bbc 9c51 80be a478 8abe
00000020: 435e 1fbe fe94 793e 536a 023f 81ed ad3e
00000030: 8671 30bf 0452 eb3e 465c 0abf 37b2 0cbe
-0.27591622 -0.47897553 0.53364897 -0.09061251 -0.13194644 -0.014348275 -0.25062263 -0.27045166
-0.15563302 0.24373242 0.5094349 0.33970264 -0.68923223 0.4596101 -0.5404705 -0.13739859

gat2.att_edge f4 [1, 1, 16]
00000000: 7e80 81bf 1bd0 2dbb b6f3 08bf 2aa0 00be
00000010: 4184 a93f c771 ad3e e21b 713f 61bd b0be
00000020: 269f 073f 88bc 22bf 8283 d1be 7eff ef3e
00000030: 2a36 8bbf e89a fb3e 2a44 dcbe 8754 39bf
-1.0117338 -0.0026521746 -0.53496873 -0.12561098 1.3243486 0.33875868 0.9418317 -0.34519485
0.52977216 -0.63568926 -0.40920645 0.46874613 -1.0875905 0.49141622 -0.43020755 -0.72394603

gat2.bias f4 [16]
00000000: c6fe 873e 6525 c0bd dbe2 f13d 3a08 933f
00000010: ca22 8bbe 0f98 0c3f 1d0d 8dbe 3167 a5bb
00000020: 7cb5 bcbe 4c30 903e 2c41 823e 354f 89be
00000030: e5dc cabc d2a7 843e 6a07 f4bd 2d1f f9bc
0.26561564 -0.093821324 0.11810847 1.1486886 -0.2717498 0.54919523 -0.27549067 -0.0050477018
-0.36857212 0.28161848 0.25440347 -0.26818243 -0.024763534 0.25909287 -0.119154766 -0.030410374

gat2.lin.weight f4 [16, 16]
00000000: 5dd5 87be 7b99 e33d 849b 25be 546a cf3e
00000010: 1375 a23e 0d4a 953c a3ec 183f 4664 883e
00000020: 06bf dd3d 9ad7 523d ad7a c73e 46cc 48be
00000030: f702 d73e 79c4 523e 49c5 b73d 954e bbbc
00000040: 10e0 363d 90e6 90be 0a7c edbe 7b8b 683c
00000050: bb25 f43e f98c 1dbe dddd 2a3f 61df e2be
00000060: 5193 fc3c 6358 d93e 326b bcbd a863 dcbe
00000070: 1e00 463e f7ee a83e 6168 da3d aa56 6dbe
00000080: 3548 ca3e a6fa 17be ca5b 7bbd b518 7cbd
00000090: c7bf f03e 3f0f 0b3f 8ed6 14bf 9342 2a3f
000000a0: 89f6 213e dbb4 f83c b31e f83e e610 9a3e
000000b0: d0b3 2a3f ef96 a03e 788d 303d 4387 e2bc
000000c0: 6bd9 67bf e2ce 56bf 6ac4 783f 13a1 143f
000000d0: 808a b7be bab1 46bf f37b 22bf ad4f b9be
000000e0: f162 b7be d7bf 5f3e eb2c aebd 7c38 893f
000000f0: 0201 33bf 60e4 113e 40ed 68be 3e60 c3be
00000100: f7ae 813d 335c ff3e 715c aebe 382d e0bd
00000110: 9037 e23d d1d9 853e 0c4b b2bd 1885 423f
00000120: 3f05 1f3d 0821 8dbe ab3a 483f 1b03 dbbe
00000130: ad4e 0d3f 81c3 773e f1e2 13bf 950e e43c
00000140: fb34 a0bf 1aee 8abf 2900 843f 8555 84ba
00000150: cfbe 68bd 261b 53bf 1cf3 1ebf 14bd 46bf
00000160: 0a71 90bd 9397 ffbe e15c 86be 971a f63e
00000170: 47a4 bfbd 017e 69be c910 11bf e113 54bf
00000180: 2ab9 723d 1732 aabd 904b 71bd 8ae3 263e
00000190: d79a 803e db46 bebe c3d6 9e3f 8293 86be
000001a0: 874e 923e e52b b63e ca64 ab3e 4de3 993e
000001b0: 2908 99be ad7b 353f 551d 883f 2681 bdbd
000001c0: e5bf f63e e8ab 1a3f c84d 1ebf 0b59 83be
000001d0: b267 043e 6cc0 2d3f a63e 2c3e 9471 94bd
000001e0: 5651 743e f1e6 91bd 1d44 da3e 6052 423e
000001f0: f1d0 d13e 4642 1d3f 03b5 d6be 0920 683e
00000200: 962a 283f 7d2d d73e 425e 0ebf 13a0 96be
00000210: 3070 293e 315d d73e 6ff0 73be 822c 3d3e
00000220: 2534 dabe ce00 063f ccbf f83e 3a6d d9be
00000230: 077a 053f 4758 26bf ff61 693d ad2c 06bd
00000240: ef0d 073f 8d30 8f3e 7dee 9abe 12d3 a83e
00000250: b5d5 043f f6fd 293e 1159 af3e 670a 6fbe
00000260: f8cc 073f 4a79 4c3e f91e f73d f471 1bbe
00000270: e383 97bd cd29 1b3e ad5d 57be 2a91 963e
00000280: bbfb 5e3e b070 c13e 4e7b 143e 8a53 b0bd
00000290: 0452 083f 1a9a 2fbd 44b3 a53e 7f9d d9bd
000002a0: fb6c 323e be71 3f3e 34dd 853e 235c 6c3d
000002b0: 0b8a 6e3e 9e1d e33d 6422 96be a5b9 8a3b
000002c0: 0052 b1bd a57e 56bd aaf2 aebe fa57 ac3d
000002d0: 4467 183e 2ced 953e 6a87 9f3f 8d2f 96be
000002e0: aaad 193f b63e b0be 63cd e5be aa63 aebe
000002f0: fbbe 05bf 3d73 7c3f 20e2 d93a 95a8 e13d
00000300: 16b7 3cbe b7a1 72be e20e b6be 43e4 d7be
00000310: f712 133f 7f5e 93bc f46d b4be 1068 61be
00000320: a989 733e dc3d 413e 3e16 7a3e edb7 ce3e
00000330: 4b46 43be 22c5 d5bd e4b6 c93e 5c40 25bd
00000340: c735 7e3e 3f7c 813e 61e0 bfbd a179 8f3e
00000350: 7afa dfbe 2eb5 233e e6f5 b7bd ef6e 00bf
00000360: f423 34be 4fb8 e3be 973e a5bc 9139 2fbe
00000370: 5a7a be3e e5b8 a2bf e336 b6bd aa40 8abe
00000380: 5df3 06be f0f2 96bd 2e8f 35be 1842 a73d
00000390: fb8d 1e3f b2a9 a0be c330 fe3e d5d7 c5be
000003a0: 1ffd 8b3e ba9d bf3d fd85 a3bd 6a6a c9bd
000003b0: 2055 be3e 5281 083f 1c63 acbe 3708 41be
000003c0: aeeb 5a3e c6e5 883e 2297 56bd 0672 1cbe
000003d0: aad5 9cbd f667 303f dbe3 f13e 13b0 cd3e
000003e0: 903e 68bc feba b6be fadf 103f d300 07be
000003f0: 5d9d 1f3f f658 813f 42c6 8bbe 7d9f 7abe
-0.2652997 0.111132585 -0.16172606 0.4051081 0.31729946 0.018223787 0.5973608 0.26639003
0.108274505 0.051475145 0.38960782 -0.19609174 0.4199445 0.20582761 0.08973176 -0.02286462
0.044647276 -0.28300905 -0.46383697 0.014193411 0.47685036 -0.15385808 0.66744787 -0.4431105
0.030831965 0.42450246 -0.092001334 -0.43044782 0.19335982 0.32994816 0.1066444 -0.23177591
0.39508215 -0.14841709 -0.061366834 -0.061547 0.47021315 0.5432014 -0.58139884 0.66507834
0.15816702 0.030359676 0.48460922 0.30091017 0.6668062 0.31365153 0.043103665 -0.027652388
-0.9056613 -0.8390943 0.97174704 0.5805828 -0.35847855 -0.7761494 -0.6347038 -0.361936
-0.35817674 0.21850525 -0.08504661 1.0720363 -0.6992341 0.14247274 -0.22746754 -0.38159364
0.063322 0.4987503 -0.34054902 -0.10946125 0.11045754 0.26142743 -0.0870572 0.75984335
0.038823362 -0.27564263 0.7821452 -0.42775807 0.55198175 0.24195673 -0.5776816 0.027838985
-1.2516168 -1.0853913 1.0312549 -0.0010096288 -0.056822594 -0.824633 -0.62089705 -0.7763226
-0.070528105 -0.4992033 -0.26242736 0.4806716 -0.09357505 -0.22801973 -0.5666624 -0.8284283
0.059258617 -0.08310335 -0.058909953 0.16297737 0.25118133 -0.37163433 1.240929 -0.26284415
0.28575537 0.35580364 0.33475333 0.3005623 -0.29889038 0.7089184 1.0633951 -0.09253149
0.4819328 0.6041856 -0.61837435 -0.25653872 0.12930182 0.6787174 0.16820773 -0.07248226
0.23859152 -0.07124127 0.4263009 0.18976736 0.40979722 0.6142925 -0.41934976 0.2266847
0.6568998 0.42026892 -0.55612576 -0.29419002 0.16546702 0.42063287 -0.23822187 0.1847401
-0.42617908 0.5234498 0.4858383 -0.42466146 0.52139324 -0.6497845 0.056978222 -0.03275745
0.52755636 0.2796673 -0.30260077 0.32973534 0.5188859 0.16600785 0.3424764 -0.23343812
0.5304713 0.19968143 0.120664544 -0.15180188 -0.07398202 0.15152664 -0.21031828 0.29407626
0.21775715 0.37781286 0.14500162 -0.08609684 0.53250146 -0.042871572 0.3236333 -0.10625743
0.17424385 0.18695733 0.26145327 0.057705056 0.23294847 0.110896334 -0.29323113 0.0042335563
-0.086582184 -0.05236687 -0.34169513 0.08415218 0.14883143 0.2928251 1.24632 -0.29333153
0.60030615 -0.34422845 -0.4488326 -0.34060413 -0.5224454 0.9861334 0.0016623177 0.110184826
-0.18429217 -0.23694502 -0.3555823 -0.42166337 0.57450813 -0.017989395 -0.35240138 -0.22012353
0.23782982 0.18871254 0.24422547 0.403747 -0.19069783 -0.10437991 0.39397347 -0.04034458
0.24825202 0.25290105 -0.09368969 0.28022483 -0.43745786 0.15987083 -0.08982448 -0.5016927
-0.1759184 -0.44476554 -0.020171447 -0.17111804 0.37202722 -1.2712675 -0.088971876 -0.2700246
-0.13178773 -0.073705554 -0.177304 0.08166903 0.61935395 -0.31379467 0.49646577 -0.3864123
0.27341554 0.09356256 -0.079845406 -0.0983475 0.3717432 0.5332233 -0.33669364 -0.1885079
0.21378967 0.26737803 -0.052390225 -0.15277871 -0.07657941 0.6890863 0.47244152 0.40173396
-0.014175072 -0.3568954 0.5659176 -0.13183908 0.6234949 1.0105274 -0.27299696 -0.24474902

gat2.lin_edge.weight f4 [16, 2]
00000000: de61 f63e 2e01 b7bf d719 83bb 77b3 babf
00000010: 2592 fdbe 10db 2bbf f627 c7be c416 c33e
00000020: 63bb c2be 5267 d43f 4aec 953e 703f 863f
00000030: fd7e d9bd 8f18 c23f d60c 6bbd 8b4f cdbf
00000040: 8235 37bf ba0c 553f 5ed6 0a3f 7535 42bf
00000050: 498e b5be 7856 16bf 3ce8 fcbe 4e9d 543f
00000060: 366c f63e a533 babf 3c72 73bf f12a b33f
00000070: f0cb b8be f1b7 54bf 5c9d 943f 6581 d8bf
0.48121542 -1.4297235 -0.004000883 -1.4586018 -0.49525562 -0.6713114 -0.38897675 0.38103306
-0.3803359 1.6594031 0.29281837 1.048811 -0.10619924 1.5163745 -0.05738529 -1.60399
-0.7156602 0.83222544 0.5423335 -0.7586282 -0.35460117 -0.5872569 -0.4939593 0.8305253
0.48129433 -1.4547011 -0.9509618 1.399748 -0.36093092 -0.8309317 1.1610522 -1.6914488

mlp.0.weight f4 [16, 32]
00000000: eadb 543d 92c2 f53e 050e c43d 4132 22bf
00000010: 96ec d83e a689 9fbe 2a7f 843e ce9b 623e
00000020: efa1 b63e c5f1 9d3e a8a6 483e 1258 f33d
00000030: 651c 103d a259 843d 1e8c 583d 0364 533e
00000040: 9d35 debe b1f6 cdbc c532 5ebf 5700 5ebe
00000050: d561 85bf 2e3d f03b c532 5e3f 3fd8 39bf
00000060: 27f2 33bf 8608 03bf 8718 13bf 4413 5b3e
00000070: dc7a ac3e 084a 9fbf 66f3 2e3e f834 51bf
00000080: 32d9 863e 4e3e 5f3e f6fb bd3e b755 84bf
00000090: f6d4 003f 9bd0 4dbf c2a7 1b3f 7585 d03e
000000a0: 098b 823e 87a2 d73e faa6 633e 72b6 1e3f
000000b0: 3c1c cd3d 51b3 c63e 1903 ea3e 1f45 a43e
000000c0: eefc f2be 7f7a 6a3e dc2a c9be c4c4 7a3f
000000d0: e16b 91be 8366 5f3f 515c 773e f09c e2be
000000e0: 3a3f 84be a82e bfbe 6b36 94be 9c21 c73e
000000f0: 30a5 cd3d 99fe a7be 171f 4f3d 4ac7 ddbe
00000100: d939 69be 37dd eb3d eb64 1fbe 4896 35be
00000110: 27f7 033e fa2e 6cbd 7fe5 343e f545 963c
00000120: 5306 c9bd ca8d acbd 9fdb 52bd 2ffc ad3d
00000130: 7cf5 1abc a072 1ebc c54f 43be 7797 5dbe
00000140: 27fb 21be 9856 3bbd b76f 23be 0078 2f3b
00000150: 224b 25be afca 20be 9ad1 6fba 4e4a 45be
00000160: 2ce9 1cbe 300f d7bc 27ee 24be 95da 26be
00000170: d60f d23d d848 2a3d 5d56 2cbe 0682 363d
00000180: 0eaa 653d 21bb d2bd 9670 dabd 95be 37be
00000190: 7bf4 4abd 95b6 953d e4f6 2bbe dd9e 7e3d
000001a0: 0ed7 81bd a2ff 09be 59b0 893d 6f31 55be
000001b0: b917 11be b94d b93c 7b02 c3bc 9339 863d
000001c0: b5e4 85be 66a5 0cbe 621b 17be c5c6 77be
000001d0: 37b0 f1bd 187f 7f3e 8f04 3bbe b460 71be
000001e0: e8ed 21be 02b5 a1bd 340f eabc b86e 39be
000001f0: ecc1 abbc 0f97 443e f3c9 2f3e 5c72 23bd
00000200: 1338 d33e 2b50 983e 3edc 3b3e 0a54 17bf
00000210: a42b c13d 5428 c2be 830a 3a3f bbec 8e3e
00000220: 2e35 913d 8941 c73e c272 0a3e e4d2 253f
00000230: d04d f13d f6ef 053f 4a3e 8e3e 1e6f dc3d
00000240: 7c91 b93e 3511 4d3e a3ec a9bc 0dbf 4abf
00000250: 1648 ddba 37a7 4bbf 4189 973e 081b dc3c
00000260: eb1f 3d3d 21ae b63d 7b75 773e 894d fc3e
00000270: 4bcf 543e 53ef 8a3e 44b2 b83d 7634 59bc
00000280: 1226 b1bc 9929 c83c 30e0 9b3d 1d0c 16be
00000290: 8ef1 2fbd 774d 02be 92ea 44be 86df 63be
000002a0: f173 bc3d 644e 70be 7b2f 35bd 112c 893d
000002b0: 8005 08bc 3a77 6ebd c7bf bb3d b164 f43d
000002c0: 1756 a6bd 7165 4bbd 4b8d a43b 6df0 4cbd
000002d0: e5be adbd e0f8 b63c 39c4 0bbe 1131 6cbe
000002e0: cadc 53be 637f 9bbc d87f 79be 2785 8cbc
000002f0: e1c2 193d 64da d93d 73db 1ebe 1853 46be
00000300: 545e 943d 33a4 2abe 77ca 30be a981 0abe
00000310: 288b 17be 714e 49be ab87 67be e5c1 74be
00000320: bdc3 3cbe 3321 18bc 98b1 323b 08ee 53be
00000330: 4200 943d 6446 81bd 4ccd 3fb9 8397 b1bc
00000340: 0f41 29be faae 0bbe dd55 35be 35d4 9b3d
00000350: 0888 4abe 97a1 f7bc 9680 d3bb 7e12 30be
00000360: 84af a23a 9dd1 b4bd fa89 283d 58f5 7fbe
00000370: a1dd f43b 7552 72bd ef48 963b 86d2 30be
00000380: ddde 253d 3288 87be 9978 0fbc d9ce 483f
00000390: a5d8 e43d 688f 243f ae52 95be 170f 86bd
000003a0: 75cb 71bd 5d57 ad3d f3e6 753d 8492 aebe
000003b0: a8b5 0ebe 1ba9 edbd eb01 43bd cd05 d7bd
000003c0: e633 4f3e 5fbe 37be 5a38 0b3e 36e7 9d3e
000003d0: c93a cb3c ba65 35bc 2c5e 0d3d 932d 993e
000003e0: b92a 5c3e 2b1b b93e 882a 07bd da69 e63e
000003f0: 3a21 4fbe 1118 00bc 6b9c d73d aa35 b1b9
0.05196754 0.48000008 0.095729865 -0.6335793 0.42368 -0.31159705 0.25878268 0.22129747
0.3567042 0.30848518 0.19594824 0.118820325 0.03518333 0.064624086 0.052868 0.2064362
-0.4340028 -0.025142046 -0.8679622 -0.21679817 -1.0420481 0.007331512 0.8679622 -0.7259559
-0.7029137 -0.5118488 -0.574593 0.21394068 0.33687484 -1.2444468 0.17085037 -0.8172145
0.26337582 0.21801111 0.37106293 -1.0338658 0.5032495 -0.8039643 0.60802853 0.4072682
0.254967 0.42116186 0.22231665 0.6199714 0.10015151 0.38808683 0.45705488 0.32083985
-0.47458595 0.22898291 -0.39290512 0.9795649 -0.28402618 0.87265795 0.2415631 -0.4426036
-0.25829488 -0.37340283 -0.28947768 0.3889283 0.10041273 -0.3281143 0.05056676 -0.43316108
-0.22775973 0.11516803 -0.15565841 -0.17733109 0.1288725 -0.057661988 0.17665671 0.018343905
-0.098156594 -0.084254816 -0.05147898 0.08495366 -0.009457942 -0.009670883 -0.19073398 -0.2163981
-0.15818463 -0.04573688 -0.15960585 0.0026774406 -0.16141942 -0.15702318 -0.00091483595 -0.19266626
-0.15323323 -0.02625236 -0.16106473 -0.1629432 0.10256927 0.041573375 -0.1682982 0.044557594
0.05607038 -0.10289598 -0.10666005 -0.17943795 -0.04954956 0.073102154 -0.167934 0.062163223
-0.063398466 -0.13476422 0.06723089 -0.20819639 -0.14169206 0.022620069 -0.023804894 0.0655395
-0.26151052 -0.1373497 -0.1475654 -0.24196918 -0.118011884 0.24950826 -0.18263458 -0.23572046
-0.1581341 -0.078958526 -0.028571703 -0.18108642 -0.020966493 0.1919825 0.17166881 -0.039903983
0.4125372 0.29748663 0.18345734 -0.5911261 0.09432152 -0.37921393 0.7267229 0.27914986
0.07090221 0.38917187 0.13520339 0.6477492 0.1178242 0.52319276 0.27781898 0.107633814
0.36243808 0.20026095 -0.02074272 -0.7919777 -0.0016882445 -0.79552025 0.29596904 0.026868358
0.046173017 0.08919931 0.24165909 0.49277905 0.20782201 0.27135715 0.090183765 -0.013257137
-0.021624599 0.024433898 0.0761112 -0.14653058 -0.042954974 -0.12724863 -0.19230106 -0.22253236
0.092018016 -0.23467404 -0.044234734 0.06697858 -0.008302093 -0.058219172 0.09167438 0.11933268
-0.08121889 -0.04965729 0.0050217262 -0.050033975 -0.08483676 0.02233547 -0.13649072 -0.23065592
-0.20689693 -0.018981641 -0.24365175 -0.017153336 0.037539367 0.10637358 -0.155134 -0.19367635
0.07244554 -0.166642 -0.17264734 -0.13526024 -0.14799178 -0.1965883 -0.22610347 -0.2390209
-0.18434043 -0.009285259 0.0027266499 -0.2069627 0.07226612 -0.06312254 -0.00018291658 -0.021678692
-0.16528724 -0.13640967 -0.17708535 0.07608835 -0.19778454 -0.03022842 -0.0064545376 -0.17194554
0.0012411927 -0.08829043 0.04114721 -0.24995935 0.0074727093 -0.05916067 0.004586331 -0.17267808
0.040495742 -0.26471096 -0.00875678 0.78440624 0.11174134 0.6428132 -0.29164642 -0.06545847
-0.059031922 0.08463929 0.060034703 -0.34096158 -0.13936484 -0.1160452 -0.04760925 -0.10499153
0.20234641 -0.17943715 0.13595715 0.30840462 0.024808304 -0.011071617 0.034513637 0.29917583
0.21500672 0.3615354 -0.032999545 0.45002633 -0.20227519 -0.007818238 0.10527881 -0.00033800054

mlp.0.bias f4 [16]
00000000: 7641 3bbf b31c b03c 9574 0dbe 7b1e e5bd
00000010: 95b5 393e 22bb bebd ca0c 07be 7172 1ebe
00000020: ebd8 29be 1010 723d 089d 3f3e 6bc3 1f3e
00000030: d9b0 953d 42e9 d1bd ffc4 b93e 577c 5c3d
-0.7314676 0.02149806 -0.13814004 -0.11187454 0.18135674 -0.093130365 -0.13188472 -0.15473343
-0.16586654 0.05909735 0.18712246 0.1560189 0.07309122 -0.102495685 0.3628311 0.053829517

mlp.2.weight f4 [1, 16]
00000000: 20bc 383f 0347 a8bf 1a6e 6e3c f6d1 ab3c
00000010: d5ed d53e 6ac2 523d 03c0 173c ff81 cbbd
00000020: 5e30 f73c 5196 85be 730d c83e ac12 0c3f
00000030: f0b6 efbd e84e 81be e63d 093f 444e 62be
0.72162056 -1.3146671 0.014552617 0.02097414 0.41783014 0.05145494 0.009262088 -0.09936904
0.03017443 -0.26091245 0.3907276 0.5471599 -0.117048144 -0.25255513 0.53610075 -0.22100168
