data/CTC/Fluo-N2DH-SIM+/02_RES_GAT/20250718_191838/manual_fold_4_best_model.pth (torch, 11177 bytes, 15 tensors)

gat1.att_src f4 [1, 1, 16]
0.18473479 -0.014033535 0.11473713 0.059350673 0.5587373 -0.35468933 0.3536337 0.11726948
0.11206334 0.34348217 -0.30131564 0.13089158 -0.102653705 0.1439313 0.21510883 0.3455193
00000000: 1e2b 3d3e e9ec 65bc 4dfb ea3d b119 733d
00000010: 6809 0f3f d799 b5be 7a0f b53e fb2a f03d
00000020: 7781 e53d e5dc af3e 0b46 9abe 7108 063e
00000030: 1b3c d2bd ba62 133e 7d45 5c3e e8e7 b03e

gat1.att_dst f4 [1, 1, 16]
0.4735716 0.90102345 0.19457033 0.22621757 -0.41037127 -0.49826488 -0.40742895 -0.17742342
-0.42900905 0.012939101 -0.15709265 -0.52129084 0.34225962 -0.11844441 -0.3688734 -0.13694362
00000000: fa77 f23e 79a9 663f 723d 473e 94a5 673e
00000010: 2f1c d2be 931c ffbe 879a d0be 7cae 35be
00000020: 13a7 dbbe 86fe 533c e5dc 20be 5173 05bf
00000030: a73c af3e fc92 f2bd f9dc bcbe f33a 0cbe

gat1.att_edge f4 [1, 1, 16]
0.7577361 -0.59304464 -0.15246767 -0.44511494 0.3291543 0.6795575 0.98499256 -1.030533
-0.6260338 0.48004675 -0.79298544 0.83973926 -0.7474737 0.73464894 -0.5243752 0.17950706
00000000: fefa 413f c6d1 17bf 7c20 1cbe 1be6 e3be
00000010: ea86 a83e 7bf7 2d3f 7928 7c3f 81e8 83bf
00000020: c043 20bf b0c8 f53e 1801 4bbf 27f9 563f
00000030: 705a 3fbf f411 3c3f 743d 06bf b3d0 373e

gat1.bias f4 [16]
0.29258928 0.15357763 -0.05453326 -0.30969462 -0.025266703 0.058714278 0.24482384 0.4974101
-0.1375146 0.0683136 0.015184293 0.17136796 -0.06776825 -0.08450591 -0.45741707 -0.028325124
00000000: 43ce 953e 7443 1d3e 455e 5fbd 4b90 9ebe
00000010: 1efc cebc 627e 703d 1ab3 7a3e 89ac fe3e
00000020: a1d0 0cbe 00e8 8b3d 8ac7 783c 157b 2f3e
00000030: 15ca 8abd 6f11 adbd 9232 eabe 170a e8bc

gat1.lin.weight f4 [16, 14]
0.5064321 0.22995341 0.54480666 -0.090776905 -0.7098136 -0.37149018 -0.09899527 0.066930905
-0.5087349 -0.12349383 -0.16999179 -0.45252717 0.059436068 -0.35630405 0.30453882 -0.16481425
0.21317118 -0.0053458987 -0.49297488 -0.101137675 -0.6586878 -0.42043886 -0.79373324 0.66292983
0.4563767 0.4349289 0.06880138 0.0019394886 -0.49825406 0.604533 0.012881396 -0.1582543
0.09953162 -0.014394397 -0.15669289 0.27950674 -0.0009100493 0.5707872 0.1615663 0.20461597
0.13080317 0.14574598 -0.17681243 -0.026197288 -0.18943542 0.18148068 0.46246684 -0.2015626
0.28460976 0.09230276 -0.18353927 0.21778858 0.4532935 -0.070528716 0.68786234 0.17270418
0.27286664 0.56664574 -0.28423724 0.3735603 0.11426307 -0.075971775 -0.22888133 -0.05936024
0.0492406 -0.04187695 0.38268095 -0.21549003 -0.44782117 -0.29540342 -0.3861944 0.2362658
-0.37551874 -0.46004403 -0.17468505 0.1788523 0.117978595 -0.33144024 -0.13857883 -0.24178024
-0.07777193 -0.0791389 -0.31881478 -0.31951892 -0.17354247 0.4070305 -0.047408897 -0.028252726
-0.32726058 -0.554568 -0.7076353 0.19058268 -0.53249145 -0.24602348 0.4879524 -0.16240749
0.1446978 -0.5146123 0.50454897 0.24960515 -0.04565052 -0.45385048 -0.11768853 -0.06676135
0.07612905 0.2801324 -0.37236503 -0.12822412 0.48798856 -0.0723993 -0.1460693 0.2689659
0.1578899 -0.0832083 0.05652086 -0.272464 0.103904925 -0.04548289 0.282699 0.41346064
-0.04645144 0.21411273 -0.33949262 0.049333118 0.17742579 0.18493715 0.3973673 -0.031058533
0.051183928 -0.40234572 0.4840262 -0.31772274 0.25830477 0.4126637 0.19023548 0.19284315
0.47003087 0.0036426983 0.17359424 -0.04233125 -0.44571033 -0.38910273 -0.04320696 0.0661695
0.5206621 0.10226884 0.36215985 -0.15197031 -0.26844573 -0.391735 0.26870316 0.29194394
0.017384706 0.26598284 0.56988454 -0.11177871 -0.07081164 -0.1146411 0.9455427 0.49921966
0.41981438 0.13139848 0.55033433 -0.35118595 0.28864866 0.17074984 -0.3790162 0.11269293
-0.10683802 -0.17640309 0.014510561 -0.035941917 0.70566744 -0.018865757 0.26878047 -0.26441285
0.22296545 -0.3007801 0.15341127 0.02035606 0.2031241 -0.18874234 -0.53680027 -0.34819987
0.05616939 0.41441834 -0.25256342 -0.27613166 0.26052648 -0.03299082 -0.29440972 -0.0679922
0.6190793 0.29549345 -0.063095674 -0.11751157 0.17877343 -0.13132441 -0.23582472 -0.17502168
-0.17870918 -0.047619153 0.17246643 0.4758098 -0.023846867 0.19575097 -0.18753818 -0.18331587
0.05081015 -0.0668437 -0.13950217 -0.45084944 0.46987373 0.14830728 0.238408 -0.27667633
0.9485943 -0.26133326 0.23584843 -0.10713965 0.21777613 0.04524437 -0.22838034 0.13433237
00000000: 89a5 013f e878 6b3e 7378 0b3f 3ee9 b9bd
00000010: 58b6 35bf f633 bebe 08be cabd 1213 893d
00000020: 733c 02bf 55ea fcbd 5412 2ebe a4b1 e7be
00000030: 3c73 733d 7c6d b6be 83ec 9b3e 11c5 28be
00000040: 8c49 5a3e a62c afbb 3467 fcbe 4521 cfbd
00000050: c39f 28bf c343 d7be 1a32 4bbf c5b5 293f
00000060: 35aa e93e 00af de3e bde7 8c3d 7036 fe3a
00000070: 281b ffbe adc2 1a3f 7e0c 533c 6a0d 22be
00000080: 3cd7 cb3d 7ad6 6bbc 1a74 20be 821b 8f3e
00000090: 6090 6eba 1c1f 123f a371 253e d986 513e
000000a0: 44f1 053e 6f3e 153e 510e 35be b29b d6bc
000000b0: 5cfb 41be 12d6 393e 74c8 ec3e 6d66 4ebe
000000c0: 5fb8 913e 3b09 bd3d b8f1 3bbe f803 5f3e
000000d0: 1616 e83e 5c71 90bd bf17 303f 5dd9 303e
000000e0: 2db5 8b3e b20f 113f 8b87 91be 4c43 bf3e
000000f0: c202 ea3d 1797 9bbd de5f 6abe b923 73bd
00000100: 83b0 493d 2a87 2bbd c2ee c33e 6ba9 5cbe
00000110: d148 e5be 1e3f 97be 46bb c5be a9ef 713e
00000120: fe43 c0be e48a ebbe a3e0 32be 0f25 373e
00000130: c39e f13d 89b2 a9be 9ce7 0dbe 3d95 77be
00000140: e446 9fbd 9313 a2bd b13b a3be fc97 a3be
00000150: 1eb5 31be 4d66 d03e d52f 42bd 4372 e7bc
00000160: b38e a7be 2bf8 0dbf 9627 35bf 1b28 433e
00000170: 5c51 08bf 94ed 7bbe e6d4 f93e 264e 26be
00000180: a92b 143e a2bd 03bf 1f2a 013f 7e98 7f3e
00000190: 0afc 3abd 175f e8be af06 f1bd 2dba 88bd
000001a0: 8ce9 9b3d 846d 8f3e a1a6 bebe 2f4d 03be
000001b0: a3d9 f93e 1646 94bd 3193 15be e6b5 893e
000001c0: e4ad 213e 1d69 aabd 6b82 673d 6780 8bbe
000001d0: 1bcc d43d 444c 3abd ecbd 903e 1db1 d33e
000001e0: dd43 3ebd 5e40 5b3e fad1 adbe 8611 4a3d
000001f0: 1baf 353e 2a60 3d3e ba73 cb3e 776e febc
00000200: 3da6 513d 4200 cebe 48d2 f73e 8eac a2be
00000210: 8640 843e a848 d33e 17cd 423e ad78 453e
00000220: e3a7 f03e 56ba 6e3b b0c2 313e 8863 2dbd
00000230: 2534 e4be 7938 c7be c8f9 30bd e083 873d
00000240: 1d4a 053f 5372 d13d 046d b93e 1b9e 1bbe
00000250: b871 89be 7d91 c8be 7693 893e ad79 953e
00000260: 5f6a 8e3c e72e 883e f4e3 113f 3cec e4bd
00000270: b105 91bd f4c8 eabd 160f 723f b899 ff3e
00000280: e9f1 d63e 538d 063e b6e2 0c3f a5ce b3be
00000290: c2c9 933e 0cd9 2e3e 690e c2be 8dcb e63d
000002a0: e4cd dabd 03a3 34be b4bd 6d3c d537 13bd
000002b0: 9fa6 343f 5c8c 9abc 989d 893e 1f61 87be
000002c0: 0e51 643e d9ff 99be d817 1d3e c0c1 a63c
000002d0: c4ff 4f3e ac45 41be be6b 09bf 4147 b2be
000002e0: e011 663d a42e d43e fe4f 81be 2161 8dbe
000002f0: ba63 853e 6221 07bd dfbc 96be 7f3f 8bbd
00000300: fb7b 1e3f eb4a 973e 4e38 81bd e8a9 f0bd
00000310: 6210 373e e879 06be 097c 71be e238 33be
00000320: 8aff 36be 4d0c 43bd 0a9b 303e 589d f33e
00000330: 815a c3bc f172 483e 020a 40be 28b7 3bbe
00000340: 4e1e 503d 5ae5 88bd a8d9 0ebe bdd5 e6be
00000350: 4a93 f03e dddd 173e 3a21 743e 85a8 8dbe
00000360: 13d7 723f 79cd 85be 4082 713e 086c dbbd
00000370: b500 5f3e 2952 393d 89dc 69be 6d8e 093e

gat1.lin_edge.weight f4 [16, 2]
-0.61358666 -0.2986975 0.83688194 0.48638096 -0.05885773 -0.22503494 0.54310644 -0.05975398
-0.2680871 -0.62124366 -0.6339021 -0.20240885 -0.7383933 -0.13347903 0.94990873 -0.24877994
0.661224 0.14995979 -0.8560691 0.099884175 0.67088854 -0.11852004 -0.8072918 -0.5555537
0.6815473 0.62637144 -0.4478214 -0.38484728 0.5743067 -0.36980772 -0.14764284 0.4870711
00000000: 0414 1dbf e1ee 98be e53d 563f ed06 f93e
00000010: ce14 71bd 8f6f 66be 0609 0b3f 97c0 74bd
00000020: b642 89be d309 1fbf 6847 22bf 4444 4fbe
00000030: 5807 3dbf baae 08be 382d 733f 2bc0 7ebe
00000040: fa45 293f 0f8f 193e 5827 5bbf 1390 cc3d
00000050: 5abf 2b3f a2ba f2bd adaa 4ebf c438 0ebf
00000060: e279 2e3f e159 203f d948 e5be b40a c5be
00000070: c405 133f 7057 bdbe af2f 17be 6261 f93e

gat2.att_src f4 [1, 1, 16]
0.402214 -0.47569138 -0.41722396 0.17732263 -0.07251374 0.27916586 0.20123705 -0.1031415
-0.32998398 -0.23675516 0.41736135 0.3867488 0.33462673 0.47945243 -0.5693681 0.17024428
00000000: feee cd3e d28d f3be 619e d5be 1094 353e
00000010: 1582 94bd d4ee 8e3e 1611 4e3e da3b d3bd
00000020: a9f3 a8be f26f 72be 63b0 d53e f003 c63e
00000030: 3254 ab3e ca7a f53e 1cc2 11bf 8454 2e3e

gat2.att_dst f4 [1, 1, 16]
0.054725282 0.40681583 -0.2486231 0.007011081 -0.6660214 0.8876029 0.3981088 0.44874674
-0.29103807 -0.35560364 -0.3449043 -0.33271748 0.33470705 0.29412648 -0.23122407 0.24996199
00000000: 9e27 603d 2a4a d03e 0e97 7ebe 36bd e53b
00000010: 6180 2abf f239 633f ebd4 cb3e 22c2 e53e
00000020: f102 95be ae11 b6be 4c97 b0be f259 aabe
00000030: b95e ab3e bf97 963e 01c6 6cbe 09f6 7f3e

gat2.att_edge f4 [1, 1, 16]
-0.26537377 0.6427823 0.8667841 -1.030124 1.0956477 -3.7910417e-05 -0.5235207 -0.46967357
-1.0789806 0.9572333 1.1797967 0.0002454375 -1.034682 0.10799836 -0.6382237 0.49926975
00000000: 12df 87be 618d 243f 90e5 5d3f 1adb 83bf
00000010: 2f3e 8c3f 0002 1fb8 7405 06bf 0e79 f0be
00000020: 091c 8abf 3e0d 753f 9403 973f 10ae 8039
00000030: 7670 84bf 3f2e dd3d a162 23bf 49a0 ff3e

gat2.bias f4 [16]
0.00015172828 -0.07361604 -0.001558138 -0.22931075 -0.0795495 -0.119154215 -0.060737137 -0.12651306
-0.05369641 0.011972487 -0.023695344 -0.02161486 -0.10635954 -0.03851152 -0.13229986 0.25535464
00000000: 4019 1f39 02c4 96bd 703a ccba 70d0 6abe
00000010: d9ea a2bd 2007 f4bd 81c7 78bd a48c 01be
00000020: c4f0 5bbd 4028 443c bd1c c2bc a611 b1bc
00000030: 08d3 d9bd 41be 1dbd 9d79 07be d8bd 823e

gat2.lin.weight f4 [16, 16]
-0.28311372 0.092009895 -0.5224119 0.46870154 -0.23013481 0.21179509 -0.33316717 0.16206291
-0.016361462 -0.32075298 0.5480809 -0.15902641 0.3495055 0.0074586715 -0.060163703 0.26470315
0.18156384 0.06512317 -0.55769867 0.51413083 0.065709926 -0.14936055 -0.25780988 -0.14902946
0.53597564 0.3442747 -0.15232973 0.43874353 0.3498484 0.5146018 -0.21839309 0.19487344
-0.1930063 0.6370319 -1.3135889 0.40483153 -0.89499146 0.5192865 -0.0077749966 -0.91599476
0.9029995 0.48614922 0.30694675 -0.14703003 -0.17093416 0.18642701 -0.73920786 -0.3421019
-0.45988542 0.1931637 -0.60996854 0.07231603 0.06560378 -0.18376803 -0.2100389 0.098188505
-0.17333212 0.09397478 0.23426455 0.8989381 0.35998788 0.105480805 0.35777384 0.24985822
-0.14971559 -0.049724635 -0.7100323 -0.42327368 -1.0582622 -0.73969865 -0.1627432 -0.52234447
0.005147918 -0.1976793 -0.63218915 0.026780684 -0.12446201 -0.410449 -0.54582924 -0.5239932
-0.07989636 -0.03511377 0.281443 0.4805545 0.31680706 0.072070405 -0.39101908 0.281712
0.3664146 -0.008109687 0.14144969 -0.26077282 0.007731329 -0.15256563 0.103280984 0.34880555
0.335873 0.16496864 -0.44471508 0.5062373 -0.26733914 -0.6155374 0.45076072 0.0027428502
-0.0725793 0.39957997 0.3070489 0.267004 0.20507215 -0.3208565 -0.30443132 0.10564629
-0.029600821 -0.46827894 0.36374846 0.59509236 0.19763152 -0.081017196 -0.43919173 0.119535156
0.027075723 -0.2988517 -0.27652937 0.3179979 0.17514867 0.11408438 -0.3535009 -0.2661009
-0.31239405 -0.4231568 -0.00029154797 0.036742404 -0.46499172 -0.012362398 0.22424701 -0.22890891
-0.36307704 0.02381359 -0.2368389 -0.028108904 0.31158358 0.034003608 0.14147177 -0.23742688
-0.42654908 -0.19775729 -0.4084192 -0.0061604204 0.12011026 -0.06497724 -0.3124317 0.35724202
-0.26664776 0.20728469 -0.027839959 0.42230394 -0.030071689 0.25800708 0.2648792 0.18322265
-0.28154853 -0.7189158 -0.18977626 0.1936688 -0.26613176 -0.084316604 -0.5175455 0.28050953
-0.3784398 0.4304079 0.40665916 0.8889264 0.19247824 0.15267754 -0.14068566 0.32646534
-0.5591785 -0.32129723 -0.057434 -0.13773 0.04107906 -0.07375564 -0.84289515 0.26490837
0.23496118 0.29245445 0.2356763 0.5408087 0.40137386 -0.2916772 0.23309463 0.5161841
-0.18904182 0.3288155 -0.40135428 -0.009026526 0.14383641 0.08107261 0.36826596 -0.26902276
-0.24592409 0.024546055 0.18888366 -0.2311304 0.09340975 0.120963246 -0.44223884 0.4676695
0.116362676 -0.13997799 -0.253243 0.16914642 0.34943154 -0.021525927 -0.32530126 -0.044641767
0.23536617 0.48192737 -0.28489858 1.1277231 -0.4304611 -0.07906155 -0.14490104 -0.41782913
-0.05722546 -0.42033312 -0.2501628 -0.16984245 0.20781626 -0.12723199 -0.2794984 -0.48016816
0.17952624 -0.14122632 -0.21693577 0.7170586 -0.03169298 -0.5121766 -0.37520698 -0.1727457
0.7163111 0.7042907 0.24433014 0.06081054 0.20030458 0.2967695 0.75533813 0.7476512
-0.16597247 0.06765246 0.21392097 -0.04649 0.13517591 -0.013520632 0.27038094 -0.073246345
00000000: 48f4 90be af6f bc3d c9bc 05bf a6f9 ef3e
00000010: 76a8 6bbe d0e0 583e e394 aabe d2f3 253e
00000020: 7908 86bc bc39 a4be 084f 0c3f d2d7 22be
00000030: 63f2 b23e df67 f43b 376e 76bd 2c87 873e
00000040: dfeb 393e 4c5f 853d 57c5 0ebf 149e 033f
00000050: ed92 863d f9f1 18be a8ff 83be 2e9b 18be
00000060: b335 093f c644 b03e 53fc 1bbe fea2 e03e
00000070: 541f b33e f2bc 033f 70a2 5fbe e78c 473e
00000080: 72a3 45be 8614 233f ae23 a8bf 1446 cf3e
00000090: 291e 65bf f6ef 043f 66c5 febb a27e 6abf
000000a0: fa2a 673f 8de8 f83e 2028 9d3e 0a8f 16be
000000b0: 5d09 2fbe b9e6 3e3e ba3c 3dbf fb27 afbe
000000c0: 1a76 ebbe b4cc 453e e626 1cbf 6d1a 943d
000000d0: 465b 863d b02d 3cbe 7014 57be 0e17 c93d
000000e0: fa7d 31be d975 c03d 0ce3 6f3e cf20 663f
000000f0: 5550 b83e 5206 d83d 222e b73e d5da 7f3e
00000100: 0b4f 19be 0fac 4bbd adc4 35bf 54b7 d8be
00000110: 2375 87bf e45c 3dbf 27a6 26be 5eb8 05bf
00000120: deaf a83b 716c 4abe 26d7 21bf 2a63 db3c
00000130: f0e5 febd 5f26 d2be 77bb 0bbf 6b24 06bf
00000140: b4a0 a3bd 75d3 0fbd 4c19 903e 3d0b f63e
00000150: 8934 a23e a699 933d a733 c8be 8e3c 903e
00000160: b29a bb3e 7ede 04bc 30d8 103e 0484 85be
00000170: 1757 fd3b 2a3a 1cbe fb84 d33d a496 b23e
00000180: 8cf7 ab3e 8aed 283e b2b1 e3be c598 013f
00000190: ade0 88be dc93 1dbf 1cca e63e 64c1 333b
000001a0: 75a4 94bd bf95 cc3e 8335 9d3e c0b4 883e
000001b0: 6ffe 513e 4e47 a4be 6cde 9bbe 155d d83d
000001c0: 6c7d f2bc 42c2 efbe 3d3d ba3e f957 183f
000001d0: eb5f 4a3e 58ec a5bd bddd e0be d9ce f43d
000001e0: e8cd dd3c 1703 99be 4295 8dbe 9fd0 a23e
000001f0: 2c5a 333e 12a5 e93d 12fe b4be 613e 88be
00000200: 1df2 9fbe 02a8 d8be e8da 98b9 347f 163d
00000210: 6513 eebe a88b 4abc 02a1 653e 1967 6abe
00000220: 3ce5 b9be b814 c33c e685 72be a544 e6bc
00000230: e287 9f3e 5e47 0b3d fadd 103e 0820 73be
00000240: a464 dabe e380 4abe 521c d1be 5add c9bb
00000250: 5efc f53d ca12 85bd 0cf7 9fbe 6de8 b63e
00000260: 0e86 88be 7042 543e a010 e4bc 3938 d83e
00000270: e758 f6bc 8119 843e 3f9e 873e b89e 3b3e
00000280: 2127 90be de0a 38bf b554 42be 1d51 463e
00000290: 6c42 88be 2fae acbd dd7d 04bf f29e 8f3e
000002a0: ddc2 c1be 6d5e dc3e a135 d03e ae90 633f
000002b0: 0419 453e 8057 1c3e e70f 10be 7726 a73e
000002c0: 5226 0fbf 1281 a4be ea3f 6bbd 1809 0dbe
000002d0: 8442 283d 320d 97bd fac7 57bf 12a2 873e
000002e0: aa99 703e 97bc 953e 2155 713e 7072 0a3f
000002f0: e080 cd3e b756 95be 5cb0 6e3e a424 043f
00000300: 2e94 41be 815a a83e 4f7e cdbe fee3 13bc
00000310: da49 133e 6609 a63d 5b8d bc3e 5abd 89be
00000320: 86d3 7bbe cf14 c93c b86a 413e 73ad 6cbe
00000330: 9c4d bf3d 94bb f73d 216d e2be 6072 ef3e
00000340: 8e4f ee3d 6456 0fbe 11a9 81be b834 2d3e
00000350: b1e8 b23e 2457 b0bc e38d a6be 49da 36bd
00000360: d403 713e 2fbf f63e 3ade 91be 3b59 903f
00000370: 6665 dcbe 06eb a1bd f060 14be b3ed d5be
00000380: 3e65 6abd e735 d7be 5715 80be 2eeb 2dbe
00000390: c9cd 543e 1a49 02be 6a1a 8fbe 9ad8 f5be
000003a0: bad5 373e a29d 10be 6924 5ebe 2791 373f
000003b0: 80d0 01bd 011e 03bf 211b c0be 40e4 30be
000003c0: 2a60 373f 654c 343f ae31 7a3e 7914 793d
000003d0: a51c 4d3e 2cf2 973e d75d 413f 1266 3f3f
000003e0: b0f4 29be 5f8d 8a3d 190e 5b3e 4c6c 3ebd
000003f0: 8e6b 0a3e a485 5dbc 5f6f 8a3e 2e02 96bd

gat2.lin_edge.weight f4 [16, 2]
-0.3173332 -0.3222059 -0.78857213 0.19239478 -0.9317907 1.0217497 0.5554238 -0.62253857
-0.3570069 0.8787862 -0.32258415 -0.21723756 0.27497455 -0.91581273 0.84098774 -0.5692818
0.369939 -0.9240849 -0.83986205 0.54488677 -0.7589492 1.1368868 0.05227364 -0.20247819
0.847613 -1.1298298 -0.3513174 -0.04983464 0.6215337 -0.5174676 -0.100879624 0.7075519
00000000: 7f79 a2be 2cf8 a4be dddf 49bf 2303 453e
00000010: d689 6ebf b2c8 823f 4130 0e3f b05e 1fbf
00000020: 9cc9 b6be 22f8 603f c029 a5be 8673 5ebe
00000030: 77c9 8c3e b472 6abf f94a 573f 74bc 11bf
00000040: a568 bd3e d490 6cbf 3301 57bf b37d 0b3f
00000050: 7f4a 42bf 8285 913f e21c 563d 7156 4fbe
00000060: 2afd 583f 439e 90bf e0df b3be 681f 4cbd
00000070: d51c 1f3f c278 04bf fa99 cebd 1f22 353f

mlp.0.weight f4 [16, 32]
0.02339893 0.03668878 0.30854654 0.07557284 0.14495952 0.057047226 -0.011563463 0.031424318
-0.102563165 0.1831589 0.1946379 0.24637417 0.07046196 0.18140273 -0.084764585 -0.19985743
0.22280729 0.19055946 0.6355543 0.0007782021 -0.00012661517 0.07009909 0.10097727 -0.05851145
0.0070049623 0.044940636 0.27160096 0.07065337 0.09454035 0.003697727 -0.0071104113 -0.48606592
0.2506152 0.18174417 0.53698945 -0.13681585 0.073152006 0.09883668 -0.084378526 0.026924713
0.017098915 0.1841805 0.06426128 0.3083422 -0.048790768 0.038226724 -0.2619664 -0.10719881
0.30962536 0.255652 1.0168306 -0.0065950872 -0.0025408268 0.11164923 0.16467181 -0.28099656
0.025722355 -0.040280703 0.17593734 0.013092827 0.124200284 -0.104039714 -0.00041422574 -0.3382417
0.06286187 0.36389372 -0.29600114 0.21173072 0.055524964 0.24822196 0.34924322 0.19728142
0.01863638 0.18307559 0.41483036 0.2984416 -0.022763567 0.14017771 0.34574392 0.023377635
-0.012676715 0.024985854 -0.6473633 0.2656216 0.11039516 0.21904619 0.26530257 0.069197096
0.05222078 0.3175543 0.5227095 0.34565562 0.031172216 -0.28416777 0.38713917 0.018165559
0.047911923 -0.14637013 0.4787876 -0.054217257 0.082767144 0.112080716 0.033340618 -0.2666354
-0.03211308 -0.03369468 0.15374431 0.051239952 0.22525078 -0.06440792 0.057121832 -0.33121914
0.058601473 0.097662166 0.20794362 0.0031408162 -0.07204662 -0.034236204 -0.26600876 0.016544446
-0.0876652 -0.058979973 -0.009303977 0.027917694 -0.057234038 -0.3335228 -0.24021602 -0.20965749
0.2370413 0.30151144 -0.37949568 0.21603726 -0.19182214 0.07055465 0.15650553 0.22999878
-0.21955729 0.22276536 0.34257483 0.2832243 -0.01353409 0.8703593 0.36676982 -0.032943085
-0.090083376 0.38349575 -0.8322269 0.3810278 -0.12618758 -0.02129152 0.031275444 0.06592384
0.06971346 0.15326014 0.14743248 0.44182393 0.22801207 0.5554766 0.318654 0.032234307
-0.31258172 0.05796075 0.36112684 0.11274459 -0.024179041 -0.2574044 -0.120735504 0.3246156
-0.026897583 -0.07177741 -0.07530559 0.069343686 -0.2678625 0.7625152 0.1165809 0.14326598
-0.1425462 0.19999368 -1.0519154 0.088014215 0.109689444 -0.037356995 0.2248091 0.10457823
-0.077687986 0.07976001 0.13491397 0.105456196 0.013334379 0.8477694 0.18434404 -0.028215662
-0.07672495 0.06957844 -0.15464365 -0.0826417 0.16917048 -0.095346615 0.026735079 -0.039059363
0.081043325 -0.04480892 -0.070607714 -0.12783973 0.014344077 -0.30234975 -0.14575969 0.021340966
-0.11952648 -0.21195856 -0.009289563 -0.021301959 0.06319505 -0.16247202 -0.16916373 -0.36001268
-0.20112978 -0.08013433 -0.12409801 -0.22567478 -0.10736512 -0.37687886 0.0074983686 -0.10278932
-0.23515575 -0.11979626 -0.06853598 -0.1250871 -0.16256794 0.05836779 -0.0675969 0.07614217
0.038177237 0.07175011 0.10505045 0.048292518 -0.113121495 -0.1824331 0.029348388 -0.21129136
-0.18011686 -0.20761755 -0.1506266 0.07038745 -0.0713174 -0.16249332 -0.019478403 0.0076571526
0.030174777 0.055474386 0.0202519 0.01757697 -0.17728491 0.10633847 0.047900237 -0.14187567
00000000: 1daf bf3c f946 163d d0f9 9d3e efc5 9a3d
00000010: 4570 143e 5aaa 693d ae74 3dbc c9b6 003d
00000020: a30c d2bd 028e 3b3e 284f 473e 8349 7c3e
00000030: 5c4e 903d a3c1 393e 0e99 adbd 6da7 4cbe
00000040: 9827 643e 0522 433e b0b3 223f 4200 4c3a
00000050: 00c4 04b9 1d90 8f3d 2ccd ce3d b4a9 6fbd
00000060: e289 e53b ac13 383d 480f 8b3e b7b2 903d
00000070: 5f9e c13d 9155 723b 74fe e8bb a2dd f8be
00000080: a350 803e 251b 3a3e 2478 093f 7419 0cbe
00000090: b8d0 953d e36a ca3d a6ce acbd 3791 dc3c
000000a0: 0613 8c3c d099 3c3e 6b9b 833d 07df 9d3e
000000b0: d4d8 47bd a093 1c3d 7620 86be 0d8b dbbd
000000c0: 3787 9e3e d2e4 823e 8127 823f 9a1b d8bb
000000d0: 0084 26bb 5aa8 e43d ba9f 283e c8de 8fbe
000000e0: b0b7 d23c 61fd 24bd eb28 343e 4c83 563c
000000f0: b85c fe3d c612 d5bd 702c d9b9 042e adbe
00000100: b9bd 803d 4750 ba3e 768d 97be f0cf 583e
00000110: 256e 633d e62d 7e3e 02d0 b23e 2404 4a3e
00000120: 52ab 983c 2b78 3b3e a564 d43e 56cd 983e
00000130: a97a babc bf8a 0f3e 5905 b13e 7482 bf3c
00000140: ffb1 4fbc 22af cc3c 9ab9 25bf 8eff 873e
00000150: dc16 e23d a54d 603e bdd5 873e 35b7 8d3d
00000160: 75e5 553d 7a96 a23e 4ad0 053f c6f9 b03e
00000170: e05c ff3c 707e 91be 1b37 c63e f0cf 943c
00000180: 4b3f 443d 0de2 15be a623 f53e ea12 5ebd
00000190: d281 a93d 938a e53d 2c90 083d 6f84 88be
000001a0: 0189 03bd 6f03 0abd 266f 1d3e fce0 513d
000001b0: 24a8 663e 4de8 83bd 95f8 693d 8e95 a9be
000001c0: 1908 703d 1a03 c83d 2cef 543e 27d6 4d3b
000001d0: 2e8d 93bd 433b 0cbd 4d32 88be 3888 873c
000001e0: d089 b3bd fc94 71bd b56f 18bc a6b3 e43c
000001f0: 3d6e 6abd 80c3 aabe 30fb 75be 74b0 56be
00000200: f4ba 723e b55f 9a3e 424d c2be df38 5d3e
00000210: 066d 44be f57e 903d fc42 203e cd84 6b3e
00000220: a0d3 60be 9a1c 643e f865 af3e c702 913e
00000230: 16be 5dbc decf 5e3f 41c9 bb3e 54ef 06bd
00000240: a27d b8bd 8e59 c43e d20c 55bf 1316 c33e
00000250: 5137 01be 8e6b aebc ae1a 003d 1403 873d
00000260: eec5 8e3d 3af0 1c3e 8af8 163e bf36 e23e
00000270: ff7b 693e b733 0e3f 9e26 a33e 1f08 043d
00000280: b60a a0be 4068 6d3d 9ee5 b83e a3e6 e63d
00000290: 2013 c6bc 82ca 83be 2d44 f7bd 0434 a63e
000002a0: 5258 dcbc 0900 93bd d139 9abd 1004 8e3d
000002b0: 4625 89be 3234 433f f8c1 ee3d 51b4 123e
000002c0: a2f7 11be 25cb 4c3e 2aa5 86bf cc40 b43d
000002d0: dca4 e03d a603 19bd 5b34 663e 1c2d d63d
000002e0: e11a 9fbd 3759 a33d e326 0a3e 6bf9 d73d
000002f0: 7078 5a3c 6a07 593f afc4 3c3e 8824 e7bc
00000300: f821 9dbd 247f 8e3d e85a 1ebe 0d40 a9bd
00000310: 073b 2d3e 1645 c3bd 8603 db3c b6fc 1fbd
00000320: 0bfa a53d 8f89 37bd c79a 90bd 6be8 02be
00000330: 6b03 6b3c 96cd 9abe 0742 15be 40d3 ae3c
00000340: 4dca f4bd aa0b 59be 4033 18bc 7281 aebc
00000350: 686c 813d 115f 26be 4239 2dbe 9553 b8be
00000360: f7f4 4dbe 781d a4bd 1927 febd 4a17 67be
00000370: 3ee2 dbbd 44f6 c0be e0b4 f53b 3583 d2bd
00000380: abcc 70be be57 f5bd 985c 8cbd d516 00be
00000390: 3678 26be 1013 6f3d 3e70 8abd 6df0 9b3d
000003a0: bc5f 1c3d b9f1 923d b124 d73d 60ce 453d
000003b0: 3eac e7bd becf 3abe 086c f03c c35c 58be
000003c0: 8e70 38be b299 54be dc3d 1abe 4c27 903d
000003d0: db0e 92bd a664 26be 2c91 9fbc dae8 fa3b
000003e0: 1831 f73c 1c39 633d 50e7 a53c 94fd 8f3c
000003f0: 2d8a 35be fcc7 d93d 0a33 443d db47 11be

mlp.0.bias f4 [16]
-0.13384484 0.0414415 0.051276125 -0.0120128095 0.14914699 0.10903728 -0.25223356 -0.04588137
-0.1431307 0.11798452 -0.27822226 -0.21156545 -0.26685703 -0.05981749 -0.085999995 -0.05564629
00000000: 9f0e 09be 90be 293d ea06 523d 60d1 44bc
00000010: fdb9 183e f04e df3d c224 81be 1aee 3bbd
00000020: db90 12be dea1 f13d 2673 8ebe 9da4 58be
00000030: 7ca1 88be 2f03 75bd c420 b0bd 5ded 63bd

mlp.2.weight f4 [1, 16]
0.380516 0.14114378 -0.26398656 -0.0024021186 -0.4444435 -0.22896092 0.018416828 0.121282816
0.2266417 0.2605163 0.47423682 0.27537483 0.26372227 0.10003033 0.11706595 0.38057965
00000000: fed2 c23e ff87 103e 3f29 87be dd6c 1dbb
00000010: 198e e3be bb74 6abe e3de 963c 2063 f83d
00000020: c314 683e 6462 853e 2bcf f23e eefd 8c3e
00000030: 9b06 873e b4dc cc3d 46c0 ef3d 56db c23e
