data/CTC/Fluo-N2DH-SIM+/02_RES_GAT/20250718_191838/manual_fold_2_best_model.pth (torch, 11177 bytes, 15 tensors)

gat1.att_src f4 [1, 1, 16]
00000000: b247 1c3e 7348 ab3d 2a34 643e 1dc8 4c3e
00000010: 0d57 dabb f031 56be 4612 573e a190 9ebd
00000020: 66ca 51be 61c2 bc3e da3e a6bd d006 3dbe
00000030: 2ab7 e0be 23fb 223e b591 a53e 337f d7be
0.15261725 0.08363428 0.22285524 0.19998212 -0.0066632093 -0.20917487 0.21003065 -0.077424295
-0.20487365 0.3686705 -0.08117457 -0.1845963 -0.43889743 0.15916114 0.32337728 -0.42089233

gat1.att_dst f4 [1, 1, 16]
00000000: 3b20 7f3f 10fb 153f 9158 b73c adeb 163f
00000010: 5316 64bf 6bbf 7dbc debd ed3e a91a 0ebe
00000020: 750b 823f 2657 98bf cf66 f33e 0cf6 473f
00000030: 7f7d 2e3e 8547 8abf 6599 70bf 88eb 393f
0.99658555 0.58586216 0.022381099 0.5895336 -0.89096564 -0.015487532 0.4643392 -0.13877358
1.0159746 -1.1901596 0.47539374 0.7810981 0.1704006 -1.0803076 -0.9398406 0.7262502

gat1.att_edge f4 [1, 1, 16]
00000000: 88fe 40bf 7430 5f3e 3077 283f 25c2 5f3f
00000010: a48a 90bf 06d9 1c3e 2175 6cbf c4c0 69bf
00000020: cec2 bc3e 0729 7dbf 17f4 7dbf f0a8 863d
00000030: 1a74 52bf 632e cd3e f892 46bf cbc9 ed3e
-0.75388384 0.21795827 0.65806866 0.87405616 -1.129231 0.15317163 -0.92366225 -0.9130976
0.36867374 -0.9889073 -0.99200577 0.06575191 -0.82208407 0.40074453 -0.77568007 0.46443018

gat1.bias f4 [16]
00000000: 01ba 4c3e 5e5e f53e 607a 633e a06b e13e
00000010: 80ae 78bd 2cf4 b9be 16c9 31be 5c08 3cbe
00000020: eded ef3e 98c3 4d3e d7ff 8bbe 88b1 643f
00000030: 861f 683b e20f 913e 6388 d43d 8fed c53e
0.1999283 0.4792356 0.22214651 0.44027424 -0.06071329 -0.363191 -0.17361864 -0.18362564
0.4686121 0.20094144 -0.27343628 0.8933339 0.003541918 0.2833243 0.10377576 0.38657805

gat1.lin.weight f4 [16, 14]
00000000: a8e6 b83e d702 183f 14a4 39be 3468 15bf
00000010: 59d3 9f3d ccc7 2bbf a581 883d 86e8 9dbe
00000020: e281 f53d 5782 3e3d b552 193f a4c5 f9be
00000030: ac86 04bf fad2 69bd 1c87 52bd 218a 51be
00000040: cc11 b23e 4adf 79bf ecf2 2a3f 4378 97be
00000050: 0322 5e3e 5330 8dbf d642 783e d5f2 26bf
00000060: 591e 633e 03df 2fbe 50ce ac3e a42d a43d
00000070: 0de1 3a3e 2917 ea3e e4f7 dd3d f875 3b3e
00000080: 1b07 a9bf 1959 cc3e 5210 94bf c9fb 703f
00000090: ca0c 5fbf e4eb c3be dbc7 4a3e e247 6d3e
000000a0: dda3 f2be 71d4 063d e95a 813e 7e63 243e
000000b0: 5a64 f7bd cfec 1ebf edc3 9abe 3cdf 2fbf
000000c0: 5c5d 92be 6f68 32bf 78c2 11bf 7e31 82be
000000d0: 1204 d73d 38b9 b93e dc14 57be 5a55 053e
000000e0: b563 823e d9bc 3abf 5417 b13e 0418 ee3d
000000f0: 4533 3dbd 8427 f43e 5854 e93e 074e 133f
00000100: ed10 2c3f fa4b 04be 0c61 2c3f 2d1a 8abd
00000110: 649b e23e 7634 c2bd 25f2 a13b b464 1bbf
00000120: 6592 8ebc ebfc 9dbd fe80 d93e db45 4dbd
00000130: dd60 8b3e f0b5 753e c0b8 983d 7b2a 9ebe
00000140: baa0 0e3f 3073 dfbd 178a 163f 463a a43e
00000150: da7c 35bf a3e1 06bf b196 9dbd cfb9 a7be
00000160: c94c e0be aa03 cfbe d203 b8bd f86e d1be
00000170: 27c2 90be 3955 3fbe e2e1 473d 5962 bf3d
00000180: 4004 023f f70e bdbc 1e7f 4abf 4dac 3a3f
00000190: 9f0d 1abf 095c 873d da4b cc3c 3dce 05be
000001a0: 3836 623e 9fdb 99bd be2a 69be 9195 923e
000001b0: 90ef 16bf 4edf 193e 40ab d8be c8b3 bfbd
000001c0: 06cc 2cbe 83d4 c23e 2d21 993e 9dca 5cbf
000001d0: cd58 4a3f b10f 58bf 1e08 353f 839a bdbe
000001e0: 9252 483f 08a0 3ebe 11fb 463f ef0c 783e
000001f0: d1f2 993e c6ed 8f3e b827 a2bd a0d3 a53e
00000200: e1af 573e 4b73 323f b5a3 75bf c066 523f
00000210: 61b7 91be b9d3 493f dc2c 67bf 38de 7bbe
00000220: 6b5f 923e 3e2e 433e e047 08bf 3417 46bd
00000230: b986 d7be 0bcc 5e3e 75cf 163f abf7 34be
00000240: 8da5 8abd 53fa 12be b5f3 8b3e 570f 0ebe
00000250: 29a0 1bbd 718c df3e 6c3a 213e 1eae 863e
00000260: d23a 0cbf 3ed7 44be f81c be3e 217b 373f
00000270: 94ea 1abc 35ea a5be e861 693f 5177 09bf
00000280: 7c85 103f 6c88 e7be 3ba4 683e d67b ca3d
00000290: f1d4 f7bc 3978 01bd fb90 e7be 3065 71be
000002a0: 8246 73be ddfa 7f3f 433f 753e 268c 6ebe
000002b0: 7968 c43e 7ba2 f5bd 8877 093f a67d 87bc
000002c0: 57ba 303f c001 8fbe de27 e93d 9544 0b3f
000002d0: 72c6 bc3e 4d36 86bd dce0 8b3d 4831 ec3d
000002e0: 2056 1c3e 314b 313f 8fb5 183e 9c08 6d3f
000002f0: 0732 06bf 4e7d 173f eb92 b6be bb59 7c3d
00000300: 88aa 3a3f 3693 a2be 208a 92be 3583 303e
00000310: d350 403e 2cca 3f3e cb4f f43e 9a03 263f
00000320: 5628 0b3c c95d 2b3f 1966 60be d551 223e
00000330: f4f4 e5be 3afa 933e a472 f8be 8391 fd3e
00000340: df6d 983d d944 ddbc b75c 243e 1437 043f
00000350: 1a1c 073e 28d9 12bf 30d8 273f b987 febe
00000360: 1e96 4a3f 3769 61bf 9bd3 773f 6202 f9be
00000370: 60bc b03a 14e9 7bbe be44 1d3d 6463 d63c
0.36113477 0.59379333 -0.18128997 -0.58362126 0.07803983 -0.6710174 0.06665353 -0.30841464
0.11987664 0.04651102 0.59891826 -0.487836 -0.5176799 -0.05708597 -0.05139838 -0.20462848
0.34779203 -0.9760634 0.6677692 -0.2958394 0.21692662 -1.1030372 0.24244246 -0.6521428
0.22179545 -0.17174916 0.33751154 0.08016518 0.18249913 0.45720795 0.10838297 0.1830672
-1.3205293 0.39911726 -1.156748 0.94134194 -0.8712889 -0.38265908 0.19802801 0.23171952
-0.47390643 0.032917444 0.2526467 0.16053578 -0.120796874 -0.6208009 -0.30227605 -0.68700004
-0.28586853 -0.69690603 -0.5693736 -0.25428385 0.10498823 0.36274123 -0.21004051 0.1302084
0.25466695 -0.7294441 0.3458811 0.11625674 -0.046191473 0.47686398 0.45572162 0.57540935
0.67213327 -0.12919608 0.6733558 -0.06743274 0.4425918 -0.094826624 0.004942196 -0.60700536
-0.01740379 -0.07714256 0.42481226 -0.050115447 0.27222338 0.23995185 0.07457113 -0.30891785
0.55714 -0.10910642 0.5880446 0.3207571 -0.70893633 -0.52688044 -0.07694758 -0.32758948
-0.43808582 -0.40432483 -0.08985104 -0.40904975 -0.28273126 -0.18684854 0.048799403 0.0934493
0.50787735 -0.023078425 -0.79100215 0.7291916 -0.60177034 0.06609351 0.024938513 -0.13066955
0.22090995 -0.075125925 -0.22770211 0.28629735 -0.58959293 0.1502659 -0.42318153 -0.093604624
-0.16874704 0.3805276 0.29908124 -0.86246663 0.7904175 -0.84398943 0.7071551 -0.37031946
0.7825099 -0.18615735 0.77726847 0.24223684 0.30068067 0.28111094 -0.07917732 0.3238802
0.21063186 0.69707173 -0.9595292 0.82188034 -0.2846022 0.7883869 -0.90302825 -0.24596488
0.28588423 0.19060609 -0.5323467 -0.048361972 -0.42094973 0.21757524 0.58910304 -0.17672603
-0.067698576 -0.14353304 0.2733437 -0.13873039 -0.037994538 0.43661836 0.15744942 0.26304716
-0.5477725 -0.19222733 0.37131476 0.71672255 -0.009455342 -0.32405248 0.9116502 -0.5369769
0.5645368 -0.4522127 0.22718899 0.09886901 -0.030252906 -0.031608794 -0.452278 -0.23573756
-0.23757365 0.9999216 0.23949914 -0.2329565 0.38360956 -0.11993881 0.53698015 -0.016539406
0.6903433 -0.27931023 0.11384557 0.5440152 0.36870152 -0.06553326 0.06829998 0.11532837
0.15267229 0.6925536 0.14913009 0.9259126 -0.52420086 0.59175575 -0.35658965 0.06160901
0.7291646 -0.31752938 -0.28621006 0.17237552 0.18780832 0.18729466 0.47717127 0.64849246
0.008493504 0.6693998 -0.21913947 0.15851529 -0.44913447 0.28901845 -0.48524964 0.4952508
0.07442831 -0.027010368 0.16050993 0.5164654 0.13194314 -0.57362604 0.6556425 -0.49712923
0.7913531 -0.8805117 0.9680726 -0.4863463 0.0013483874 -0.24600631 0.038395636 0.02617044

gat1.lin_edge.weight f4 [16, 2]
00000000: 76cc 943f 6df4 d7be c273 1bbe df70 99be
00000010: ca6e 22bf fa96 be3e f708 81bf 0bd3 a43d
00000020: d694 8a3f 80df edbe 2894 61be 0ae0 7bbe
00000030: 329a 7e3f e1df dcbe 7096 543f cb9b 003e
00000040: ce1c a6be e2f8 273c 99ca 883f f49e 923e
00000050: d5f2 5b3f 9c6d 9bbd baff 93be 85b0 bc3e
00000060: c735 9b3f d0c1 0bbf 8808 a4be 126d 843e
00000070: 322e a93f 4b47 d23e 1cfa 4abf 3964 49bf
1.1624897 -0.4217867 -0.15180877 -0.29968926 -0.634503 0.3722456 -1.0080861 0.08048066
1.0826671 -0.4645958 -0.22029173 -0.24597183 0.99454033 -0.43139556 0.8304205 0.1255943
-0.3244385 0.010252209 1.0686828 0.28636897 0.8591741 -0.07589266 -0.2890604 0.36853424
1.2125787 -0.5459261 -0.3203776 0.25864464 1.3217223 0.41070017 -0.79287887 -0.7866855

gat2.att_src f4 [1, 1, 16]
00000000: b033 643e e25b 6dbe e135 383d a126 743e
00000010: ea0f b6bd c2b9 563f 2249 19bf 19a4 dd3e
00000020: 4948 8a3e ef1b a3bf 04d5 76bf 3212 56bf
00000030: 7b75 6f3e ed04 643e 2f21 813e 3572 3cbe
0.22285342 -0.23179582 0.044973258 0.23842861 -0.08889754 0.83877194 -0.59877217 0.4328926
0.27008274 -1.27429 -0.96418786 -0.83621514 0.23384659 0.22267504 0.2522063 -0.18402942

gat2.att_dst f4 [1, 1, 16]
00000000: f9b4 cf3c 4e47 89be 38fb f4be 906d c43e
00000010: 9218 24be 7c9f c83e 82be bcbe a0d3 1dbf
00000020: 2698 05bf 7ece 5ebf 3efe d0be ada5 f43e
00000030: 0aae 853e f798 37bf 0539 23bf 5663 06bf
0.02535485 -0.26812214 -0.47847915 0.3836484 -0.16024998 0.39184177 -0.36864096 -0.6165104
-0.52185285 -0.8703383 -0.4081897 0.4778265 0.26109344 -0.7171778 -0.6375888 -0.52495325

gat2.att_edge f4 [1, 1, 16]
00000000: 5ec1 813f ea55 6dbf 65b0 e6be 7a1e adbf
00000010: eacd 9a3f c12a 813f bdd9 71bf af29 1ebf
00000020: a03a 7d3f 3189 79bf 93dd 373f f103 3cbf
00000030: dc57 84bf 7bff fa3e a4af 54bf 2170 903f
1.0137136 -0.9270922 -0.45056453 -1.3524926 1.209409 1.0091172 -0.9447287 -0.61782354
0.9891758 -0.9747496 0.7182247 -0.73443514 -1.0339313 0.4902304 -0.83080506 1.1284219

gat2.bias f4 [16]
00000000: 9baf e93e 8d9e 933e ffb2 cfbd 85d9 373f
00000010: 5d57 613e d316 9c3e 8b04 653e c2dd 34be
00000020: 50fe febd 3c3e a3be 958e 20bb 1ad8 81be
00000030: 7a88 1e3e b913 053f 9868 e6bd d3a2 003e
0.4564179 0.28831902 -0.10141563 0.71816283 0.22005983 0.30486163 0.22365014 -0.17662719
-0.1245085 -0.3188342 -0.0024499048 -0.25360185 0.15481749 0.5198322 -0.112504184 0.12562113

gat2.lin.weight f4 [16, 16]
00000000: d792 343f d404 473f 2fa2 4fbf ae90 b53e
00000010: 50c1 c23e 89f3 fcba 3d32 08be 6fff 66bd
00000020: ecd5 403f b0f6 33be f935 cfbd 924b 4c3f
00000030: ab05 333f ff96 b2bf 17d4 f2be 0bbc 873f
00000040: ac79 823e 97da ab3e f50e 8ebc b3f6 123f
00000050: 6653 f93d 2eac 153f 6a16 323f 330f 14bc
00000060: 33de 193f b879 d8bc 5801 48bd c437 113f
00000070: 5f66 40be 78ff c8be 2876 f13d 50c7 9ebd
00000080: b4de 97be 5587 b43e 1260 4b3f f121 083f
00000090: 65d8 61bf 2c14 15bf b827 393d c36b 193f
000000a0: d2f3 bdbe d718 a83e 7c91 e93e d73d 9fbe
000000b0: 3839 2e3e 2d4a 223e 0e69 a63e d9fa e7be
000000c0: ebde 1fbf 942e 8dbf 9fce 97be ff97 f2be
000000d0: dbb6 2d3f a459 29be 5652 2bbf 542f d9be
000000e0: d0c7 ee3e 67c4 933e 4a55 16bf 07cb 293f
000000f0: 6f73 d53e 0422 173f 9a6b babc 0259 92bd
00000100: ec00 97bc f034 1f3f fc1b 633e df1a 313f
00000110: 615b e43e 042f 283e a2c2 b23e c0f3 dc3d
00000120: 4f50 bf3e 1ee8 2cbe 68be 3ebe aeee 263f
00000130: c02b fc3e fa8a c8be ad52 0b3e 53a5 903e
00000140: 021f eebd f3f1 4a3e b99a 823d 9c37 7e3d
00000150: 63ba efbd e044 9dbe 9db7 72be d587 80be
00000160: 37f3 593e c013 b73d 66b8 87be a85d 36be
00000170: 5d0d b23d 2fc2 1f3f 1309 ce3e a491 85bd
00000180: 0741 f7be c60f 57be c450 993f 0ab9 73bf
00000190: 2d17 0fbe b3fa f23e ce63 653e 6ed9 e73e
000001a0: a212 d43e a211 103f da95 04bd 8440 84bf
000001b0: 786a 2dbf bc68 2c3e d0a7 943e 640f 193f
000001c0: b535 15bf eae6 db3e 0ed9 e4be 9851 3cbe
000001d0: a03c f93e a5dd 663f ba65 84bd 5a44 88be
000001e0: 9df3 913d 14ab 27bf 880e 0abf ebef 9cbe
000001f0: b110 01bf 49eb 5abf b862 eb3e 5c23 10bc
00000200: e6fa 683d 9ed9 f13d 4deb 94be cc97 eabe
00000210: 58e1 af3e 1d74 b73e 89e1 8e3e 7bd8 d3be
00000220: f071 07bd 6c02 26be b560 95be 13f7 6fbe
00000230: fd19 903e d8aa 0ebf e09d 70be a1a5 05bd
00000240: 5010 8e3e 190e 823e 56f9 313e 73d8 a8be
00000250: 9581 fa3e 0030 e13d 3f2a ce3e d4a8 003f
00000260: 69d3 e4bd cedb 10be 9235 f23d 1453 82be
00000270: ada3 15be d440 ec3d 8a99 e1be 2fdf 64be
00000280: 9cc6 57bd 6a42 153f 79ad c0bd aeec 233b
00000290: 77b8 473e 2934 263f 92ec d53c ea9d a53e
000002a0: a091 173f 045b 52be 6641 b33e ac75 cbbd
000002b0: d243 e33d 339e 20be 4a37 27bf 5039 933e
000002c0: f105 de3d 3e73 9ebc 452f 5b3f 08f0 c1be
000002d0: 6cbf d43e 0646 d63e 59a5 b23e 62e6 173f
000002e0: 3027 68bd 7946 ff3e c79c 4a3e 11bb 013e
000002f0: c072 0fbf 78ee ad3e ee18 4d3e a0a5 87bb
00000300: b378 ddbe 8887 473b 9cc9 443f 8259 12be
00000310: 2277 7bbf 7e13 1cbf 08cc 9ebf 93d5 1ebf
00000320: dd7a 7abe e6c8 2f3f ccbe b43d fd21 c03e
00000330: 6ca7 c33c ca11 f03e 356c a5bc acdd c5bd
00000340: d5c4 47bf 8394 28bf 6846 af3f f56f 1bbf
00000350: fb4b 97bf 4212 a7be 40b5 89bf d04e 093e
00000360: 2251 afbc 6fcd 853f 2e96 8cbe aa39 0ebf
00000370: 06e7 f7bd 91d0 013e 9330 233f acd9 3fbf
00000380: ff87 b3be 0e9d e83e 3561 60bf 8dc3 f5be
00000390: a8aa f1be a7f7 4b3d d83c 473f 7e6d a3be
000003a0: 697a 4cbe 6b53 6ebf c098 e2be 7d78 dabe
000003b0: b28b 7a3e 046a a7be 5635 69bd 83c1 9bbe
000003c0: 930b 823e 46a8 173f 0a12 8cbe a8fe 323e
000003d0: e58c 993e 3dc7 76be a8f4 ec3b 4cbb 883e
000003e0: f135 58be 1a53 f8be 37c2 af3e 7004 583e
000003f0: 446a ab3d a377 ce3d 2fdb fc3d e29e 3abe
0.7053656 0.7774174 -0.8110685 0.35461944 0.3803811 -0.0019298653 -0.13300414 -0.056395944
0.7532642 -0.17574573 -0.10117716 0.7980281 0.69930524 -1.395233 -0.47427437 1.0604261
0.25483453 0.33565208 -0.017341116 0.57407683 0.1217411 0.5846585 0.6956545 -0.009036827
0.60104674 -0.026425228 -0.048829406 0.56725717 -0.18789051 -0.39257407 0.11790115 -0.077528596
-0.29662097 0.352595 0.79443467 0.5317679 -0.88220817 -0.58233905 0.045203894 0.59930056
-0.37100083 0.3283145 0.45618808 -0.31101868 0.17014015 0.15848608 0.32502025 -0.4530857
-0.6244952 -1.102984 -0.29649827 -0.4738159 0.6785714 -0.16538101 -0.6692251 -0.4241892
0.4663682 0.2886078 -0.5872389 0.6632542 0.4168963 0.5903628 -0.022756387 -0.07145883
-0.018433057 0.6219015 0.22178644 0.6918163 0.44600967 0.16424185 0.34914118 0.10788679
0.37365958 -0.1688542 -0.18627322 0.65207946 0.4925213 -0.3916853 0.13605757 0.28251132
-0.11627008 0.19818859 0.06377167 0.062064752 -0.11705472 -0.3071661 -0.23702855 -0.25103632
0.21284185 0.08939314 -0.26507872 -0.17809165 0.08693955 0.62405676 0.40241298 -0.06521919
-0.482918 -0.21002111 1.1977773 -0.9520422 -0.13973685 0.47456893 0.22401354 0.45283073
0.41420466 0.56276906 -0.032369472 -1.0332189 -0.67740583 0.16836828 0.2903428 0.5978911
-0.58285075 0.4294961 -0.4469685 -0.183905 0.48679066 0.9018195 -0.06464715 -0.26614648
0.07126544 -0.6549542 -0.5392842 -0.30651793 -0.50416094 -0.85515267 0.45973754 -0.008797493
0.0568799 0.11809085 -0.2908577 -0.45818937 0.3435161 0.35830775 0.27906445 -0.413761
-0.033067644 -0.16211861 -0.29175344 -0.23434095 0.28144827 -0.55729437 -0.23497725 -0.03262866
0.2774682 0.2540138 0.1738027 -0.32977638 0.48926988 0.109954834 0.40266606 0.5025761
-0.11173136 -0.14146349 0.11826624 -0.2545401 -0.14613219 0.115358025 -0.44062454 -0.22350763
-0.052679643 0.58304465 -0.09408087 0.0025012898 0.19503962 0.6492334 0.026113782 0.3234704
0.5920658 -0.20542532 0.35010833 -0.099345535 0.1109692 -0.15685348 -0.6531874 0.28754663
0.10840977 -0.019342061 0.85619 -0.37878442 0.41552293 0.418503 0.34891775 0.5933591
-0.056677997 0.49858454 0.19786368 0.12669016 -0.5603447 0.33971 0.20029041 -0.004139617
-0.4325615 0.0030445773 0.7687013 -0.14291957 -0.9822866 -0.6096724 -1.2406015 -0.6204464
-0.24460931 0.6866592 0.08825454 0.3752593 0.023883544 0.46888572 -0.020193199 -0.09661421
-0.78034717 -0.6585161 1.3693361 -0.6071771 -1.1820062 -0.32631117 -1.0758438 0.13408971
-0.021400992 1.0453318 -0.27458328 -0.5555674 -0.12104611 0.12677218 0.63745993 -0.74941516
-0.35064694 0.45432323 -0.87648326 -0.48000756 -0.47200513 0.049796727 0.77827215 -0.31919473
-0.19968571 -0.93096036 -0.44257164 -0.4267005 0.24467352 -0.3269807 -0.05693563 -0.30421075
0.25399455 0.5924114 -0.27357513 0.17479956 0.29990306 -0.24099441 0.0072313137 0.26705396
-0.21114327 -0.485009 0.34327862 0.21095443 0.08369878 0.10081413 0.123464935 -0.18224671

gat2.lin_edge.weight f4 [16, 2]
00000000: bd92 41bf 4a31 b93e 53ea 6b3f 39f8 e0be
00000010: 643f a439 98ac 36bf f821 043f 3a00 7bbf
00000020: d3a5 57bf 768d af3f b97c 09bf bd08 a53f
00000030: 938d 4d3f 427f 70bf f34b 5a3e 41b0 5dbf
00000040: 3f30 00be 0e37 ac3f 8ff2 8f3f e141 4abf
00000050: 8997 15bf 9a34 ac3e 6d61 533e bd27 36bf
00000060: f625 263f 8dff 47bf 5feb 17be a41f 3b3f
00000070: 2c6f 273e 206a 9ebf 8a52 6ebf 9628 3e3f
-0.7561453 0.36170417 0.92154425 -0.4393938 0.00031327747 -0.7135711 0.5161433 -0.9804722
-0.842374 1.3715045 -0.53705937 1.2893292 0.8029415 -0.9394418 0.21318035 -0.8659707
-0.12518404 1.3454301 1.1245898 -0.79006773 -0.5843435 0.33633882 0.20642634 -0.71154386
0.64901674 -0.78124315 -0.1483588 0.73095155 0.16351002 -1.2376137 -0.93094695 0.7428068

mlp.0.weight f4 [16, 32]
00000000: 9556 de3e 5b31 823e 1e03 b63e 476c cfbe
00000010: 1faa 743d 74f0 5d3d 3edc 1f3f a340 ebbc
00000020: e29f 223e 3563 a03a e775 733e f1fb a33e
00000030: 4957 fd3e a60a cd3e 0f9d c93d 70d1 0ebd
00000040: b2fc cb3e ef7b be3e 7dd8 a7bd bc1f 273e
00000050: 99b5 f93d 533f dc3c cd9d 04bf 7d34 b2be
00000060: 45be 03be e81d f53d dfbb b53d affe e5bd
00000070: bfaa 6cbe 6845 70bf 160a cf3e 83c1 5c3d
00000080: 9e1a ec3e be2c 2f3d 7abc 6dbe cfc6 f83d
00000090: edb2 223d 763b 9dbd 34fe 82bf 83e2 28be
000000a0: d7ad 62be 40e3 5ebe 7647 49be e9d7 e0be
000000b0: 69e7 9cbe 58c0 40bf 7c5f 3ebd d105 123e
000000c0: 125a 263f fbbd ebbc fea1 ec3c 984f d8be
000000d0: a311 b23d 56dd 5abe 0385 d4be 0e08 46be
000000e0: be64 85bc 68e1 27be 1c7f 1dbd 2cb5 70be
000000f0: f350 5cbe 60ea 28bf 34a5 e0bb 6030 bc3d
00000100: fe85 ec3e 8b57 89bd 0a6e 5a3e c60c f4be
00000110: 65df 03bd 150e 8e3e ace6 5a3e baba 193e
00000120: 80c0 7a3d c489 cfbc f46f 8e3d 1a63 613e
00000130: 1c53 c43e c90a 0b3f 6ed1 4e3d 95ac e03e
00000140: 569b 133f c60a 9b3e 5eb9 b4bd c0cc fb3e
00000150: ed73 023e bec1 40be e76e f5be 9699 77be
00000160: d9ff f7bd d456 61bc 875e 4fbd af00 87bd
00000170: 291b e6be f903 0ebf 1bc7 cd3e 92e0 5c3d
00000180: 7392 043f 8d87 723e b125 d2be 1563 61bf
00000190: f46e 183e e0d5 dbbe f13a 29bf 83d0 563e
000001a0: ef6b 1b3e 469b 87bd 1aef a03e db64 e7be
000001b0: eff4 24bf c2c9 7bbf a57d 5ebe 0cea 3f3b
000001c0: faa4 8bbc 5103 2d3d 6d61 973f cbb4 30bf
000001d0: 026f 81bc a4b8 65be 5dd9 243f 4cfa cf3d
000001e0: 5a65 933e bd98 0b3e 8c72 63be 5cb0 853e
000001f0: e5b1 533e 9acf e43e 8b0c 293e 6c41 94be
00000200: 474e e93e da09 1e3d 0801 00be 8151 bb3e
00000210: 4ded 1b3b 6f2f f8bd 57ca 40bf a4eb 7abe
00000220: 8c89 55be 9deb 5fbd b9cc 8c3d 6886 63be
00000230: 11c3 8abe dcba 8dbf 695b 7e3d de12 1a3e
00000240: 82a6 1b3f ca94 153e 2183 71bd 9ee2 08bf
00000250: a8e3 9ebc f27f 9f3d 71c9 23bf 1e84 a5bd
00000260: 787a 1bbe 65b9 87bc c9d3 fa3c fbf0 83be
00000270: da49 9ebe f647 1cbf e936 ce3d 6292 4f3e
00000280: 912b a43e 6a33 1ebe c093 02bf 1ec0 5a3f
00000290: bb5d 303d bb1a 883d 1eae 1bbe 9f42 033f
000002a0: afb9 8bbd 3efa 79be 4cb0 e03e 0515 4ebe
000002b0: bf1e 25be e7e5 16bf f433 24bf 63ec 7bbc
000002c0: ecad 57bd 6088 0ebf d2e0 d73c fddf 613f
000002d0: a020 11bf cdb4 b43e b388 363f 6841 f53d
000002e0: c70e 9dbd 40b9 ccbd 915f acbe 956f 943e
000002f0: 371e bb3e c663 8b3e 57ee 03bf a3b6 08bf
00000300: 804c ed3e d815 c83e 984f 753a d3ad ccbe
00000310: 69d5 d73e 38a1 1dbf 2b20 da3e a250 dd3e
00000320: 66b5 173e 97c9 863e b1be ad3e 4a6f c23e
00000330: 3fcb f0be dcdf 483b 81a4 a5be c12d edbc
00000340: fe08 fa3e 15be a93d 09fa 48bd de46 533e
00000350: c0e3 8b3e a8a8 4ebf b427 893e 236a e13e
00000360: 8e55 b23e 1e91 123e 44ec 2d3e 8bf3 543e
00000370: 9f46 dabe 6ca2 993d 47b9 39bf 90c2 07be
00000380: a42b 543c 0784 91bd 21d5 0b3c 1beb 173c
00000390: 2d8e 3ebd 0cda 453d 7308 e4bd f6b9 24be
000003a0: a997 33be 33b5 a8bd b93c ad3d 785b 47bb
000003b0: 1f1c 2bbe 2eb7 29be 79ac 15be b5f8 f43c
000003c0: 9a20 85be 1c7d 57be f0dc 833b 1c0e 0fbe
000003d0: b3ab debd 95f0 19bd 5a8d e0bd aa7e 98bd
000003e0: 3f6c 7ebe b189 37be b5c1 8c3d d0f6 4dbe
000003f0: c781 873d 652c 2f3d 6443 1abe 4194 54be
0.43425432 0.2542828 0.35549253 -0.40512297 0.059732553 0.054184392 0.6244544 -0.028717345
0.15881303 0.0012236597 0.23775445 0.32028154 0.49480656 0.40047187 0.0984441 -0.034867704
0.3984123 0.3720393 -0.08195589 0.163207 0.1219284 0.026885664 -0.51803285 -0.3480567
-0.12865551 0.11968595 0.08873724 -0.11230218 -0.2311201 -0.93855906 0.40437382 0.053895485
0.46114057 0.04276728 -0.2321643 0.12147295 0.03972142 -0.07677357 -1.0233827 -0.16492657
-0.22136627 -0.21766376 -0.19656166 -0.43914726 -0.30645302 -0.75293493 -0.04647778 0.14260031
0.64981186 -0.028777113 0.028885838 -0.42248225 0.0869477 -0.21373495 -0.4150773 -0.1933901
-0.01628339 -0.1639458 -0.0384513 -0.23506612 -0.21515255 -0.6598263 -0.0068556312 0.09188914
0.46195978 -0.067061506 0.21331039 -0.47665995 -0.032195468 0.2774512 0.21377057 0.15012637
0.06121874 -0.025334246 0.06954947 0.2201046 0.38344657 0.5431333 0.050492696 0.4388167
0.576589 0.30281657 -0.088244185 0.4917965 0.12739535 -0.18823907 -0.47936174 -0.24179682
-0.12109346 -0.013753612 -0.050627258 -0.06591927 -0.44942597 -0.5547481 0.40190968 0.053925104
0.51785964 0.23684521 -0.4104438 -0.8804181 0.14886075 -0.4293661 -0.6610556 0.20977978
0.15177892 -0.06621413 0.3143242 -0.45194134 -0.6443624 -0.98354733 -0.21727617 0.002928379
-0.01704644 0.04223949 1.1826607 -0.6902587 -0.015800003 -0.22433716 0.6439417 0.10155162
0.28788263 0.13632484 -0.22211665 0.26111114 0.2067333 0.44689637 0.16508691 -0.28956163
0.45567533 0.038583614 -0.12500393 0.3658562 0.0023792565 -0.12118422 -0.75308746 -0.24503952
-0.20853251 -0.054668058 0.06874985 -0.2221924 -0.2710195 -1.107265 0.062098894 0.1504626
0.60800946 0.1460754 -0.058962945 -0.5347079 -0.019395664 0.077880755 -0.6397925 -0.0808184
-0.15183437 -0.016567895 0.030618565 -0.2576979 -0.3091572 -0.61047304 0.10069067 0.20270684
0.3206449 -0.154493 -0.510067 0.854494 0.04305814 0.066457234 -0.15203139 0.5127353
-0.06822526 -0.24411866 0.43884504 -0.20125206 -0.1612501 -0.58944553 -0.64141774 -0.015376183
-0.0526561 -0.5567684 0.02635232 0.88232404 -0.56690407 0.3529419 0.71302336 0.11975366
-0.07668834 -0.09996271 -0.3366666 0.2899138 0.3654649 0.2722456 -0.5153555 -0.5340368
0.46347427 0.39079165 0.00093578687 -0.39976367 0.42155007 -0.61574125 0.42602667 0.4322558
0.14815292 0.26325676 0.33934548 0.37975532 -0.47030064 0.0030651009 -0.3235207 -0.028952481
0.48834985 0.082882084 -0.049066577 0.20632502 0.27322197 -0.807261 0.26788104 0.44026288
0.34830898 0.1431317 0.1698466 0.2079603 -0.42632005 0.07501683 -0.72548336 -0.13257813
0.012949858 -0.0710526 0.008534701 0.009272362 -0.04652231 0.04830365 -0.11134424 -0.16086563
-0.17538323 -0.08237686 0.084588476 -0.003041951 -0.16709946 -0.16573784 -0.14616574 0.029903749
-0.26001436 -0.21043819 0.0040241405 -0.13970226 -0.10872593 -0.037582953 -0.10964461 -0.07446034
-0.2484598 -0.17923619 0.06872884 -0.20113683 0.0661655 0.042766947 -0.1506477 -0.2075968

mlp.0.bias f4 [16]
00000000: be75 803e 808a 803e 743b 663e 6e2b d6be
00000010: 859f 253e 9d4a 63be 3485 bcbd 8c98 3bbe
00000020: 4e06 58be d1bf 3c3d dea0 f6bd 434d d3bd
00000030: 5306 07bd 1e23 fdbd ae87 78be 34f9 a7bd
0.2508983 0.25105667 0.22483617 -0.4183001 0.16174133 -0.22196431 -0.09205094 -0.18319911
-0.21096155 0.046081368 -0.12042402 -0.10317471 -0.032965016 -0.12360214 -0.24270508 -0.082018286

mlp.2.weight f4 [1, 16]
00000000: 8136 64be ae71 c1be 22dc 96be 2cb6 8e3e
00000010: 8b7d b6be 0382 ff3e eb78 033f 527b d0bd
00000020: 7d51 9f3e a1d2 ad3e ec5c 6bbf d945 07bf
00000030: 17c8 923d c9fa 923c 26e2 f1bd 8ba0 c23e
-0.22286417 -0.37782043 -0.29464823 0.2787336 -0.35642657 0.4990388 0.5135638 -0.101797715
0.31116858 0.3394976 -0.9193866 -0.52840954 0.0716707 0.01794185 -0.118107125 0.3801311
