data/CTC/Fluo-N2DH-SIM+/02_RES_GAT/20250714_182241/manual_fold_1_best_model.pth (torch, 11177 bytes, 15 tensors)

gat1.att_src f4 [1, 1, 16]
0	0x3e4b7137	0.19867407
1	0x3cc0409b	0.023468306
2	0x3ee169b1	0.4402595
3	0xbf24e426	-0.64410627
4	0x3f52c4c4	0.8233149
5	0xbd04ee92	-0.03245408
6	0x3ec490c8	0.3839171
7	0x3da1bd09	0.07897384
8	0x3f0a3f2e	0.54002655
9	0xbe680105	-0.22656639
10	0x3f4d3974	0.8016579
11	0x3ddff03b	0.10934492
12	0xbd0d36d2	-0.03447611
13	0x3e9c2128	0.30494046
14	0xbc17f41c	-0.009274509
15	0xbd2be52e	-0.04196661

gat1.att_dst f4 [1, 1, 16]
0	0xbf28d918	-0.6595626
1	0xbe290557	-0.16505943
2	0x3ec0bbe7	0.37643358
3	0x3f3a4cb8	0.72773314
4	0xbf95f24f	-1.1714572
5	0x3ee273c0	0.44228935
6	0x3fdabee8	1.708951
7	0xbf4517ff	-0.7698974
8	0xbf3db682	-0.7410661
9	0xbe325300	-0.17414474
10	0xbf874e77	-1.057082
11	0xbe0565e1	-0.13027145
12	0xbec4d439	-0.38443163
13	0x3e078dc9	0.1323768
14	0x3eb9fefb	0.36327347
15	0x3f7c992b	0.98671216

gat1.att_edge f4 [1, 1, 16]
0	0x3f670fab	0.9025828
1	0x3f6f7d7d	0.93550855
2	0xbf4a5b40	-0.79045486
3	0xbf86bcc2	-1.0526354
4	0x3f2fa8dd	0.6861704
5	0x3f70e472	0.9409858
6	0x3e748e3c	0.23882383
7	0xbf3a8e25	-0.72873145
8	0xbf8469c2	-1.0344775
9	0x3f7e0e37	0.9924044
10	0x3e9d528d	0.30727044
11	0xbf4f9059	-0.8107963
12	0x3f5e88a8	0.8692727
13	0x3f256236	0.64602983
14	0xbf8f936b	-1.1216863
15	0xbf8605e6	-1.047055

gat1.bias f4 [16]
0	0xbec51512	-0.38492638
1	0xbdcedcb0	-0.101006866
2	0x3d128530	0.03577155
3	0x3f0863ab	0.5327708
4	0x3dd24291	0.10266603
5	0x3ee156b5	0.44011465
6	0x3ebff4bd	0.37491408
7	0x3f0f5269	0.5598512
8	0x3f06d5f9	0.52670246
9	0x3f00c20b	0.50296086
10	0x3eb38fa4	0.35070527
11	0x3f0fc948	0.56166506
12	0x3f8087ed	1.0041481
13	0x3ea2cf7d	0.31798926
14	0x3e911217	0.28334114
15	0x3efd3e09	0.49461392

gat1.lin.weight f4 [16, 14]
0	0x3f143fa0	0.57909584
1	0xbf14aef4	-0.5807946
2	0x3e2dee0e	0.16985342
3	0x3eedbf98	0.46435237
4	0x3f129a95	0.57267123
5	0x3e42ebf5	0.19035323
6	0x3f04f85f	0.51941484
7	0x3ebb9289	0.36635235
8	0xbbe53efc	-0.0069960337
9	0x3ebcea60	0.36897564
10	0xbeac3ac1	-0.33638576
11	0xbdbd45c7	-0.092418246
12	0x3cf15ff6	0.029464703
13	0x3efe9d6f	0.49729487
14	0x3ed44a44	0.4146291
15	0x3e86dc2d	0.26339856
16	0x3c675ac0	0.014120758
17	0x3e459115	0.19293626
18	0xbebf0f92	-0.37316567
19	0xbdcb617e	-0.099307045
20	0xbf0e9283	-0.5569231
21	0x3e56cf4c	0.20977515
22	0x3cf5c420	0.030000746
23	0xbc401e6c	-0.011726003
24	0xbe4a7095	-0.19769509
25	0x3eb881c2	0.36036497
26	0x3ee38855	0.4443995
27	0x3ecd0d12	0.40049034
28	0x3f16d605	0.5892032
29	0x3f792494	0.9732144
30	0xbd5b5d07	-0.053555515
31	0x3e9c8d7f	0.30576703
32	0xbe9d3b78	-0.30709434
33	0x3f4394be	0.7639884
34	0xbe8d5702	-0.27605444
35	0x3ea69c5e	0.32541174
36	0xbf3be1f0	-0.7339163
37	0x3e68c58e	0.22731611
38	0xbe8a1d3a	-0.26975423
39	0x3e6cb087	0.23114215
40	0x3db64418	0.088997066
41	0x3e847a12	0.25874382
42	0x3f509785	0.814812
43	0x3fc06321	1.5030252
44	0xbd5c31a8	-0.053758293
45	0xbf5672cf	-0.83768934
46	0x3f06498d	0.5245598
47	0xbf7ae1ad	-0.98000604
48	0x3f04b695	0.518411
49	0xbf295dfb	-0.6615903
50	0x3dd61747	0.104536586
51	0x3d9d1e72	0.076718226
52	0xbdbc327e	-0.09189318
53	0x3e8e5936	0.27802438
54	0xbeb2a1a3	-0.34888944
55	0x3e40610a	0.18787017
56	0x3e042281	0.12903787
57	0xbee8f8d0	-0.4550233
58	0xbeaae3c5	-0.333769
59	0xbdad8ff8	-0.084747255
60	0xbf0483ba	-0.517635
61	0xbcebb154	-0.02877108
62	0xbe34c818	-0.17654455
63	0x3eac0e89	0.3360484
64	0xbf574ddd	-0.84103185
65	0x3e034378	0.12818706
66	0xbe81b971	-0.25336793
67	0xbef77bc3	-0.4833661
68	0xbf3e297e	-0.7428206
69	0xbe32b8fe	-0.17453381
70	0xbeb97773	-0.36223945
71	0xbeeb497e	-0.45954508
72	0x3f176657	0.59140533
73	0xbd3c9d8b	-0.046048682
74	0x3e8f4118	0.2797935
75	0xbf149d7c	-0.580528
76	0x3f30141e	0.68780696
77	0xbeccbe87	-0.3998911
78	0xbd9dd9b8	-0.07707542
79	0xbf32e859	-0.69885784
80	0xbf24392d	-0.64149743
81	0xbd1334ea	-0.035939135
82	0xbf1fc824	-0.62414765
83	0xbf1cb679	-0.6121593
84	0x3ec3f6c0	0.38274193
85	0x3f20b69d	0.62778646
86	0x3ebe1b67	0.3713028
87	0xbf816f83	-1.0112156
88	0x3e9ae8a9	0.3025563
89	0xbf47a89e	-0.77991664
90	0x3d8fd83d	0.07023666
91	0xbed4452f	-0.41459033
92	0x3ef0fe95	0.4706923
93	0x3f34fcca	0.70698225
94	0xbf02d5ab	-0.5110728
95	0x3f189653	0.59604377
96	0x3e897658	0.26848102
97	0xbd93cf8d	-0.072173215
98	0x3e72e675	0.23720725
99	0x3f1239b5	0.57119304
100	0xbf368f6f	-0.7131261
101	0x3f4df889	0.8045736
102	0xbef8bb98	-0.48580623
103	0x3f276dbf	0.65401834
104	0xbee123bd	-0.4397258
105	0x3f5ad0df	0.8547496
106	0xbd8b1481	-0.0679102
107	0xbf22e95c	-0.6363733
108	0x3ef8e2f9	0.48610666
109	0x3f1db3f5	0.6160272
110	0xbe82d511	-0.25553182
111	0xbda0993f	-0.078417294
112	0x3f26476a	0.6495272
113	0x3f8b3d52	1.0878088
114	0xbe76acc1	-0.24089338
115	0x3eaf0c3a	0.34189016
116	0xbeaf4127	-0.34229395
117	0x3f58e3b5	0.84722453
118	0xbf6309ee	-0.88687027
119	0x3f4a9b7f	0.7914352
120	0xbefd96d7	-0.49529144
121	0x3f0f15e0	0.55892754
122	0x3f273090	0.65308475
123	0x3e91254e	0.28348774
124	0x3d285dc5	0.04110505
125	0x3dd2ccb8	0.10292953
126	0xbf16d924	-0.5892508
127	0xbe240929	-0.1601912
128	0x3e3e1953	0.18564348
129	0x3dee3054	0.116303116
130	0xbf3bfe83	-0.7343523
131	0xbe3f9833	-0.18710403
132	0xbd8eb399	-0.06967849
133	0x3ebc45b4	0.3677193
134	0x3d777662	0.060415633
135	0x3b454e90	0.0030106641
136	0x3ed1b0e5	0.40955272
137	0xbdf9d75c	-0.1219928
138	0x3f580a2c	0.8439052
139	0xbd88dc04	-0.0668259
140	0x3d835399	0.06412429
141	0x3e455339	0.19270028
142	0x3e828a6e	0.25496238
143	0x3ef4d099	0.47815397
144	0xbf4b0b11	-0.7931376
145	0x3f47bf60	0.7802639
146	0xbf3664fe	-0.7124785
147	0x3ef8a7f1	0.4856563
148	0xbecd68a6	-0.40118903
149	0x3ea98cb8	0.33115172
150	0xbef0393f	-0.46918675
151	0xbebbdf61	-0.36693862
152	0xbd92a331	-0.071600325
153	0x3c5f162b	0.013616125
154	0x3d65ca39	0.056101058
155	0x3f53ca42	0.82730496
156	0x3e26b68c	0.16280574
157	0x3f10e374	0.56597066
158	0xbf464515	-0.7744916
159	0x3f334c97	0.7003874
160	0xbf509db0	-0.8149061
161	0x3e387b75	0.18015845
162	0xbf0dd8e1	-0.55409056
163	0x3e78f006	0.24310312
164	0x3e2791aa	0.1636416
165	0x3e164290	0.14673829
166	0xbe07df8f	-0.13268875
167	0xbe8e3898	-0.27777553
168	0xbf031d70	-0.51216793
169	0x3ee17f77	0.4404256
170	0xbda7792e	-0.0817741
171	0x3f3d8a66	0.74039304
172	0xbef5e84c	-0.4802879
173	0x3f12c3ec	0.57330203
174	0xbf5a55df	-0.8528728
175	0x3cac97fd	0.021068567
176	0xbe2c582f	-0.16830514
177	0x3e575d91	0.21031787
178	0x3e5d0f49	0.21587862
179	0xbee9f2f7	-0.4569318
180	0xbf0ec7b8	-0.55773497
181	0xbde9e3b1	-0.11420382
182	0x3e7b9dd6	0.24571928
183	0x3e8d5cc7	0.27609846
184	0xbde71872	-0.112839594
185	0xbe571aaa	-0.21006265
186	0x3f1b86e6	0.60752714
187	0xbe0b7d5c	-0.1362204
188	0x3d15ef15	0.03660496
189	0xbf083bb5	-0.53216106
190	0x3f19d3d6	0.6008886
191	0x3e23a855	0.15982182
192	0xbeeb2612	-0.45927483
193	0xbeb7ca6e	-0.3589663
194	0xbebeb8b0	-0.3725028
195	0x3eb211c3	0.34779176
196	0xbcd21294	-0.025643624
197	0x3f561c50	0.8363695
198	0x3f0fadb0	0.561244
199	0xbe0c620e	-0.1370928
200	0x3c265eec	0.010154467
201	0xbf2ca776	-0.67443025
202	0x3dde35a1	0.10850073
203	0xbf2c640c	-0.6734016
204	0xbe8889f9	-0.26667765
205	0xbcbdad5e	-0.023153957
206	0xbdb25af6	-0.08708756
207	0xbe93446c	-0.2876314
208	0x3e129068	0.14312899
209	0x3a6596d0	0.00087581296
210	0x3f27c379	0.6553264
211	0x3f2fe086	0.6870197
212	0x3e052af5	0.13004668
213	0xbe6bbe83	-0.23021893
214	0x3f5171d4	0.8181431
215	0xbf48502c	-0.7824733
216	0x3dacd6fe	0.08439444
217	0xbed7068a	-0.41997176
218	0x3f55e50f	0.8355264
219	0x3ed82b25	0.42220417
220	0x3e1f71e9	0.15570797
221	0x3da89aed	0.08232675
222	0xbf872027	-1.0556687
223	0x3e614f3d	0.22002883

gat1.lin_edge.weight f4 [16, 2]
0	0xbf1f078a	-0.6212088
1	0x3e19724b	0.14985006
2	0xbf9b7d5e	-1.2147634
3	0x3e772792	0.24136189
4	0x3f3f9efe	0.7485198
5	0x3f09d15c	0.5383508
6	0x3f9f1dec	1.2431006
7	0xbe9b3ac3	-0.3031827
8	0xbf63f49b	-0.89045113
9	0xbecd72a5	-0.4012653
10	0xbfa17b91	-1.2615834
11	0x3e3aaaa1	0.18229152
12	0xbe3b9a20	-0.18320513
13	0xbe1d85d6	-0.15383086
14	0x3f688d30	0.90840435
15	0x3edc1b4b	0.42989573
16	0x3f931aac	1.1492515
17	0x3e99e713	0.30059108
18	0xbf77541f	-0.96612734
19	0x3dbfb66a	0.093609646
20	0xbea4960a	-0.3214572
21	0xbedd5939	-0.43232134
22	0x3f5c1c65	0.85980827
23	0xbf0239a3	-0.50869197
24	0xbf87201f	-1.0556678
25	0x3f0a9270	0.54129696
26	0xbf532156	-0.8247274
27	0x3dadde94	0.08489719
28	0x3f6941b9	0.9111591
29	0xbef55979	-0.47919825
30	0x3f7657dd	0.9622782
31	0xbea8e0ff	-0.32984158

gat2.att_src f4 [1, 1, 16]
0	0xbe83f282	-0.25770956
1	0xbed6b769	-0.41936806
2	0xbebea2c3	-0.37233552
3	0x3eae998c	0.34101522
4	0xbe218421	-0.1577306
5	0x3ea0e01c	0.31420982
6	0x3ea52a0d	0.32258645
7	0x3e8e7fcf	0.27831885
8	0x3e5861da	0.21131077
9	0x3e767466	0.2406784
10	0xbedbbc28	-0.4291699
11	0xbe9af6b3	-0.30266342
12	0x3ddca615	0.10773865
13	0x3e79dc1d	0.24400373
14	0xbdb6d06c	-0.08926472
15	0xbe42dd12	-0.19029644

gat2.att_dst f4 [1, 1, 16]
0	0x3d884491	0.06653703
1	0x3f17ff5d	0.5937403
2	0x3e871ecd	0.26390687
3	0xbeb80889	-0.35944012
4	0xbf0f0a8b	-0.5587546
5	0xbe903e82	-0.2817269
6	0x3dfb770a	0.12278564
7	0xbef6c9e6	-0.4820091
8	0xbe03bc9c	-0.12864918
9	0xbd60fbbd	-0.054927576
10	0x3f113922	0.567278
11	0x3e460d4f	0.19341014
12	0xbebbc9cd	-0.366774
13	0xbf0cddfd	-0.5502623
14	0x3db64665	0.089001454
15	0xbf176904	-0.59144616

gat2.att_edge f4 [1, 1, 16]
0	0xbedbb772	-0.42913395
1	0x3bde8df0	0.0067918226
2	0x3f2da4dd	0.67829686
3	0x3f21efe8	0.6325669
4	0x3ee2f803	0.44329843
5	0xbec8c9f9	-0.39216593
6	0x3d3f0619	0.046636675
7	0xbd89a357	-0.06720608
8	0xbe4afd82	-0.19823268
9	0x3f10a255	0.564977
10	0x3f34d574	0.70638204
11	0x3eb736cb	0.3578399
12	0xbbd40b55	-0.0064710774
13	0x3f53b5a1	0.8269902
14	0x3e30892e	0.1723983
15	0x3f0a0be8	0.5392442

gat2.bias f4 [16]
0	0xbd42860f	-0.04749113
1	0xbdbc0584	-0.091807395
2	0x3e0b6ba6	0.13615283
3	0x3dfe4b63	0.124167226
4	0x3e8a47ce	0.27007908
5	0x3d8c77a3	0.068587564
6	0x3cfd6b19	0.030934857
7	0x3ed209a3	0.41022977
8	0x3ecdd557	0.40201828
9	0xbc8caa41	-0.017171027
10	0x3eb8f9b1	0.36128
11	0x3efab36c	0.48965013
12	0x3ee3da73	0.445026
13	0xbd9065e2	-0.070506826
14	0x3ea4f02b	0.32214484
15	0xbd72ce12	-0.059278555

gat2.lin.weight f4 [16, 16]
0	0xbe42f5da	-0.19039097
1	0x3cc97ec1	0.024596574
2	0xbe37b000	-0.17938232
3	0x3eb82eba	0.3597315
4	0xbe28773e	-0.16451737
5	0x3e6f7c9d	0.2338738
6	0xbe586f66	-0.21136245
7	0xbee438ce	-0.4457459
8	0x3b1af1fd	0.0023642771
9	0xbea94b06	-0.3306505
10	0xbe89e541	-0.2693272
11	0xbdf531c4	-0.11972383
12	0xbeb179b1	-0.34663156
13	0x3e4feffd	0.20306392
14	0x3f1cfa2d	0.6131924
15	0x3de8652a	0.113474205
16	0x3c0991c0	0.008396566
17	0x3bdacd66	0.0066773174
18	0x3dd557d5	0.10417143
19	0x3e46fa12	0.19431332
20	0x3e18d3fa	0.14924613
21	0xbda08e08	-0.0783959
22	0x3ee50eab	0.44737753
23	0xbe7fdd59	-0.24986781
24	0xbec78c3e	-0.38974184
25	0xbf08f7eb	-0.5350329
26	0x3e954674	0.29155314
27	0xbdd0c046	-0.10192923
28	0xbf096c61	-0.53681
29	0xbd3d3e4e	-0.046201997
30	0x3eb1907e	0.3468055
31	0x3da4dc1c	0.08049795
32	0xbd9bc79f	-0.07606434
33	0xbd4ebbee	-0.050472192
34	0x3eced623	0.40397748
35	0x3cf60d7d	0.030035729
36	0xbdf3c989	-0.11903674
37	0xbf262b8e	-0.6491021
38	0xbe0a8581	-0.1352749
39	0x3ed71a69	0.42012337
40	0x3f1c7500	0.6111603
41	0xbd988b4a	-0.07448442
42	0x3f10fb63	0.56633586
43	0x3f2f2a49	0.684239
44	0x3f06a25e	0.525915
45	0xbde9c53b	-0.11414572
46	0x3ddd71b0	0.108127
47	0xbf31fa55	-0.695226
48	0xbed0f82c	-0.4081434
49	0x3b5c937b	0.003365724
50	0xbd8373d2	-0.06418575
51	0xbe831aea	-0.2560647
52	0x3f07e427	0.5308251
53	0x3edde043	0.4333516
54	0x3e0f0568	0.13966906
55	0xbe0ade55	-0.13561375
56	0x3e2823fd	0.16419978
57	0x3e164230	0.14673686
58	0xbec7796b	-0.38959822
59	0xbe0b5d4a	-0.13609806
60	0xbf0187a0	-0.5059757
61	0x3ebd2d5e	0.36948675
62	0xbe8f9d01	-0.28049472
63	0x3eec80e7	0.46192095
64	0x3eda519a	0.42640382
65	0x3d3e4640	0.046453714
66	0x3d98b8b2	0.07457103
67	0xbf13340b	-0.57501286
68	0xbb42ac08	-0.002970459
69	0x3f043ea4	0.5165808
70	0x3db0d59d	0.086344935
71	0x3f092d8b	0.5358512
72	0xbe20d596	-0.15706477
73	0x3e98694c	0.29767835
74	0x3f214c4c	0.63007045
75	0xbe2f38e5	-0.17111547
76	0x3f0d1432	0.5510894
77	0x3eed0210	0.46290636
78	0xbe763cf8	-0.24046695
79	0x3d9ef808	0.07762152
80	0xbe2dd21b	-0.1697468
81	0x3e35d58b	0.17757241
82	0x3d691fda	0.05691514
83	0x3d7dfb3e	0.06200718
84	0xbc805173	-0.015663838
85	0xbed69376	-0.4190938
86	0xbe8cfb31	-0.27535394
87	0xbe903e64	-0.281726
88	0x3e6cfe25	0.23143823
89	0xbd8c0149	-0.068361826
90	0xbe84a5af	-0.25907657
91	0x3e468732	0.1938751
92	0xbe639189	-0.22223486
93	0xbec81d3f	-0.39084813
94	0xbf1c1f74	-0.60985494
95	0xbe04593e	-0.12924668
96	0xbeae3fac	-0.34032953
97	0xbd58d155	-0.05293401
98	0x3f18c61c	0.5967729
99	0xbe151578	-0.14558971
100	0xbe15f4c9	-0.1464416
101	0x3dbf3a77	0.09337323
102	0x3eb6ac9f	0.35678574
103	0xbd4fc277	-0.050722566
104	0x3e83ed3a	0.25766927
105	0x3e8da1ea	0.27662593
106	0xbe21c070	-0.15796065
107	0x3ea05c3d	0.31320372
108	0x3f021c23	0.50824183
109	0xbde49c48	-0.11162621
110	0x3e9a20a0	0.30103016
111	0xbf0d3908	-0.5516515
112	0x3eb4d99b	0.3532227
113	0x3eaf0db5	0.34190145
114	0x3f409b26	0.7523674
115	0xbeb4e04b	-0.35327372
116	0x3f013813	0.5047619
117	0x3e67baae	0.22629806
118	0x3d784a57	0.06061777
119	0x3f0c014d	0.54689485
120	0x3ee7e494	0.4529158
121	0x3e8d3045	0.2757589
122	0x3ea11daf	0.3146796
123	0x3f3c3d04	0.735306
124	0x3f464fc2	0.7746545
125	0xbec63ce4	-0.3871833
126	0x3ca56da5	0.020193884
127	0x3e7a4a77	0.24442469
128	0x3e453e26	0.19261989
129	0xbc366198	-0.011131667
130	0x3ef3bbe6	0.47604293
131	0xbec789a5	-0.38972202
132	0x3ee932b6	0.45546502
133	0xbe3166c1	-0.17324354
134	0x3ec5c2b3	0.38625106
135	0x3f6dee15	0.9294141
136	0x3e9c2571	0.30497316
137	0x3e9897a3	0.2980319
138	0x3ea4d272	0.32191807
139	0x3f04ec3c	0.51922965
140	0x3f2f7594	0.68538785
141	0x3ecc98d5	0.39960352
142	0x3dd6e19c	0.1049225
143	0xbe82b978	-0.25532126
144	0xbe21619b	-0.1575989
145	0x3e3703d3	0.17872553
146	0x3f18176c	0.5941074
147	0xbf0b76ee	-0.5447835
148	0xbda639b0	-0.08116472
149	0xbc8ea09c	-0.017410569
150	0xbed75a25	-0.42060962
151	0x3c6c27f0	0.014413819
152	0x3e72a097	0.23694073
153	0xbe120363	-0.14259104
154	0x3e320070	0.1738298
155	0x3d923946	0.0713983
156	0x3eb80439	0.35940722
157	0xbe91251f	-0.28348634
158	0xbee72690	-0.45146608
159	0xbea8b5d1	-0.32951215
160	0xbe23dd3c	-0.16002363
161	0x3f5a4308	0.8525853
162	0xbdb2a316	-0.087225124
163	0xbeb4ac7f	-0.35287854
164	0xbd3e0f98	-0.04640159
165	0x3ece53ff	0.4029846
166	0x3d8b7911	0.06810201
167	0x3f3bd9b6	0.73379076
168	0x3f510a88	0.81656694
169	0x3ec8d3b2	0.3922401
170	0x3ede1963	0.43378744
171	0x3f167ff4	0.5878899
172	0x3e6f3ab3	0.23362236
173	0x3e92f6cd	0.2870392
174	0x3e1292f7	0.14313875
175	0xbe893c1d	-0.26803675
176	0x3f067565	0.5252288
177	0x3ebe6b53	0.37191257
178	0x3d5f6ad2	0.05454523
179	0xbe939492	-0.28824288
180	0x3eee5449	0.4654868
181	0x3ecac3d0	0.39602518
182	0xbe1a7109	-0.15082182
183	0x3ddff3e8	0.10935193
184	0x3f0150f1	0.5051413
185	0x3f00419b	0.50100106
186	0x3e92efca	0.2869857
187	0x3e4f4087	0.20239459
188	0x3f3e62dd	0.74369603
189	0xbde4c515	-0.11170403
190	0x3dc34fd4	0.095367104
191	0x3da0149d	0.07816432
192	0xbf88f0f1	-1.069853
193	0xbe1e3a52	-0.15451935
194	0x3dc5faf8	0.09667009
195	0x3f3a66b6	0.72812974
196	0x3efadb06	0.48995227
197	0x3e9ba5a2	0.30399805
198	0x3f3538db	0.7078988
199	0xbe64ce0e	-0.22344229
200	0xbec3229d	-0.38112345
201	0x3f920b9c	1.1409793
202	0x3da267ba	0.079299405
203	0x3de06990	0.109576344
204	0xbd93ec1f	-0.07222771
205	0x3f583f9d	0.84472066
206	0x3eaf9356	0.34292096
207	0x3f590fdc	0.84789824
208	0x3b123ba2	0.0022313376
209	0xbebf1674	-0.37321818
210	0x3e5527a0	0.20815897
211	0x3e122b41	0.14274313
212	0xbe00e364	-0.12586743
213	0xbec82d37	-0.39096996
214	0x3e64d495	0.22346719
215	0x3d686ca6	0.05674424
216	0xbc791a8f	-0.015204086
217	0xbdb46045	-0.088074245
218	0x3e8b01c5	0.27149788
219	0xbe60bd7d	-0.21947284
220	0xbea8a678	-0.32939506
221	0xbe8f5e99	-0.2800186
222	0x3da8502a	0.08218415
223	0x3e3b4e02	0.18291476
224	0xbf90611c	-1.1279635
225	0x3ed8330a	0.4222644
226	0x3dd665b7	0.10468619
227	0x3f7ad855	0.97986346
228	0x3e90aa11	0.2825475
229	0x3f472fd3	0.7780735
230	0x3eef18bf	0.46698567
231	0xbd33175a	-0.04372344
232	0xbc5d2527	-0.013497627
233	0xbee131c6	-0.43983287
234	0xbec697f0	-0.38787794
235	0x3dab17ac	0.083541244
236	0xbd530aab	-0.051523846
237	0x3f12298a	0.57094634
238	0x3f8b53aa	1.0884907
239	0x3f54bd9a	0.8310181
240	0x3e1afa71	0.15134598
241	0xbed843ce	-0.4223923
242	0xbee9787f	-0.45599744
243	0x3d19a103	0.03750707
244	0x3e674cc1	0.22587873
245	0x3e1f4130	0.15552211
246	0x3edb1f56	0.42797345
247	0x3deadf36	0.11468355
248	0x3e5250bd	0.20538612
249	0x3eb292d1	0.34877637
250	0xbeb190db	-0.34680828
251	0x3eb5c2ff	0.35500333
252	0xbe8f8f3d	-0.2803897
253	0xbe853cfc	-0.2602309
254	0x3d23f302	0.040026672
255	0xbe9e6dc3	-0.30943117

gat2.lin_edge.weight f4 [16, 2]
0	0xbf025b5c	-0.50920653
1	0xbed7ec07	-0.42172262
2	0x3bc9d60b	0.006159549
3	0xbb44a81d	-0.003000743
4	0x3e8f3975	0.27973524
5	0xbe0dc8e6	-0.13846168
6	0x3e5f3ed5	0.21801312
7	0x3ec582bb	0.38576302
8	0x3e17ebed	0.14836092
9	0x3f0dd15a	0.5539757
10	0xbef05b6f	-0.46944758
11	0xbe908484	-0.282261
12	0x3e0ef463	0.13960414
13	0xbed5d127	-0.41761133
14	0xbd804456	-0.06263034
15	0xbdc7c977	-0.09755223
16	0xbdc57274	-0.09640971
17	0xbf0224df	-0.5083751
18	0x3f1bc377	0.6084513
19	0x3d8be023	0.0682986
20	0x3f26796f	0.6502904
21	0x3e7fa308	0.24964535
22	0x3f2df77d	0.6795576
23	0xbe777b0f	-0.24168037
24	0xbc467509	-0.012112864
25	0xbe0c9918	-0.13730276
26	0x3f14cb6e	0.5812291
27	0x3d64d69d	0.055868734
28	0x3e28c7c2	0.16482452
29	0x3f024a95	0.50895053
30	0x3ea5d312	0.32387596
31	0x3f2ad0d9	0.66724926

mlp.0.weight f4 [16, 32]
0	0x3d63494c	0.055489823
1	0x3ead9d33	0.33908996
2	0xbe6ea4fb	-0.23305123
3	0x3e2e06b1	0.1699474
4	0xbe1b915c	-0.15192169
5	0xbe56b2fc	-0.20966715
6	0xbe90e556	-0.2829997
7	0xbed932b4	-0.42421496
8	0xbe6318e2	-0.22177461
9	0xbebaf1a1	-0.36512473
10	0xbea190b7	-0.3155572
11	0xbdf779d5	-0.120837845
12	0x3eae71f8	0.34071326
13	0x3b60cbcd	0.0034301162
14	0x3ea822cc	0.32839048
15	0xbce7f868	-0.028316692
16	0xbe5aee0c	-0.2137987
17	0xbe96078e	-0.2930264
18	0x3ee7977b	0.45232758
19	0xbe84360c	-0.25822484
20	0x3e31e7bb	0.17373554
21	0x3dad6323	0.084661745
22	0x3e2a4c49	0.16630663
23	0x3d957d76	0.072993204
24	0x3ec879d3	0.39155445
25	0x3e54dac7	0.20786582
26	0x3ebc3a01	0.36763003
27	0x3e45265a	0.19252911
28	0xbee780d3	-0.45215473
29	0xbd41ecaf	-0.04734486
30	0xbe3754e0	-0.17903471
31	0x3e8c6341	0.27419475
32	0x3ee07822	0.43841654
33	0xbe11a3af	-0.14222597
34	0x3e888bb4	0.26669085
35	0x3d066b13	0.032816958
36	0x3e94664e	0.28984302
37	0xbe1469c5	-0.14493473
38	0x3e60a679	0.21938504
39	0x3eb5fa04	0.3554231
40	0x3e1822b6	0.14856991
41	0xbe526d9b	-0.20549624
42	0x3e84a4d8	0.25907016
43	0x3ec0ba2a	0.37642032
44	0xbdbed4a8	-0.09317905
45	0xbbd3c18f	-0.006462283
46	0xbcbe72c6	-0.023248088
47	0x3e85f9b7	0.2616708
48	0x3df205d4	0.11817518
49	0x3eb54305	0.35402694
50	0x3dc0bb19	0.09410686
51	0xbdc5c8d6	-0.09657447
52	0x3d112c8a	0.035442866
53	0xbc2c1b85	-0.010504608
54	0x3cb3ad88	0.021933332
55	0x3e52b540	0.20576954
56	0x3ea79e0b	0.32737765
57	0xbeafc340	-0.3432865
58	0x3ebe08ca	0.3711608
59	0x3e9362f5	0.28786436
60	0xbe12b778	-0.143278
61	0xbd04c181	-0.032411102
62	0xbeb90f44	-0.3614446
63	0xbe1a2dab	-0.15056483
64	0xbe332e94	-0.17498237
65	0xbd366f21	-0.044539575
66	0xbe95be8f	-0.29246947
67	0x3e069a4e	0.131448
68	0x3e17f97c	0.14841264
69	0xbe14664a	-0.14492145
70	0x3e8294ce	0.25504154
71	0x3dda6a6a	0.10664828
72	0x3e40e41f	0.18837021
73	0xbe3fa9a0	-0.1871705
74	0xbe00822c	-0.12549657
75	0x3e707b5b	0.23484556
76	0x3cd0bcbf	0.025480626
77	0xbe604ebf	-0.21905039
78	0x3e25862f	0.16164468
79	0x3e500530	0.20314479
80	0xbdc9c5cb	-0.09852179
81	0xbe7c1252	-0.24616364
82	0xbe861702	-0.2618943
83	0xbd5945b9	-0.05304501
84	0x3c32eac5	0.010920231
85	0xbdcafee7	-0.099119
86	0x3dda999e	0.106738314
87	0x3dbc5e81	0.09197713
88	0x3da221ab	0.07916578
89	0xbdf54a4b	-0.11977061
90	0xbdc65f1f	-0.09686112
91	0x3bcd97d2	0.006274202
92	0x3e0046dc	0.1252703
93	0xbd979a72	-0.07402505
94	0x3e476be7	0.19474755
95	0xbe3d92b1	-0.1851299
96	0xbeb75596	-0.35807484
97	0xbe83a019	-0.25708082
98	0x3ea473d4	0.3211962
99	0xbd0be16f	-0.034150537
100	0x3e593fab	0.21215694
101	0x3e526a12	0.20548275
102	0x3ebcb2f6	0.36855286
103	0x3df4eb75	0.11958972
104	0x3f0f2de1	0.5592938
105	0x3e70249a	0.23451462
106	0x3e797ba8	0.24363577
107	0x3ec4557f	0.38346478
108	0xbdea42b1	-0.114385016
109	0xbdb778b2	-0.08958568
110	0xbde6d2d7	-0.11270683
111	0xbe702e05	-0.23455055
112	0x3eaac8a3	0.333562
113	0x3e36445e	0.17799518
114	0xbe79cb34	-0.24393922
115	0x3d2ae907	0.04172614
116	0xbe5f3b31	-0.21799923
117	0xbd94ce37	-0.07265895
118	0xbed00682	-0.40629965
119	0xbeab4afd	-0.3345565
120	0xbf056bb8	-0.5211749
121	0xbe66326f	-0.22480176
122	0xbe338f71	-0.17535187
123	0xbe79e201	-0.2440262
124	0x3daa04b2	0.08301677
125	0x3ecfebe7	0.40609667
126	0x3e1f2a46	0.1554347
127	0xbe57d440	-0.2107706
128	0xbe146bcc	-0.14494246
129	0xbea80eb8	-0.3282373
130	0x3e923b95	0.28561082
131	0xbc4e33df	-0.012585609
132	0x3e876f79	0.26452234
133	0x3b6dd521	0.0036290365
134	0x3d020f69	0.031752978
135	0x3eae3480	0.3402443
136	0x3e3c0794	0.18362266
137	0x3eb936ee	0.3617472
138	0x3e80ea61	0.25178817
139	0x3e8fe515	0.28104463
140	0xbe935aaa	-0.2878011
141	0x3e000860	0.12503195
142	0xbea2d22c	-0.31800973
143	0xbf292bc1	-0.6608239
144	0x3e6777f8	0.22604358
145	0x3e4dc230	0.20093608
146	0xbe074835	-0.13211139
147	0xbbde3e62	-0.006782339
148	0xbe78052d	-0.24220724
149	0xbaa2ae05	-0.0012411481
150	0xbc519835	-0.012792637
151	0xbea8e409	-0.32986477
152	0xbf024613	-0.50888175
153	0xbea6d4e1	-0.3258429
154	0xbe98d762	-0.29851824
155	0xbdc14d3d	-0.0943856
156	0x3e92fb69	0.28707436
157	0x3eabedd8	0.33579898
158	0x3ea0c98f	0.31403777
159	0xbe92267f	-0.28544995
160	0xbe04aa59	-0.12955607
161	0x3cd1480b	0.025547048
162	0xbdb34cdd	-0.08754895
163	0x3e134379	0.14381208
164	0x3a8c7cd6	0.0010718356
165	0xbdbc9a1b	-0.09209081
166	0xbdab15a7	-0.08353739
167	0xbdaf1d07	-0.085504584
168	0xbc5c08e9	-0.013429859
169	0xbced270e	-0.028949287
170	0x3e908472	0.28226048
171	0xbd981258	-0.07425374
172	0xba8bf092	-0.0010676554
173	0x3ce12436	0.027483087
174	0xbe56ca36	-0.20975575
175	0xbd616981	-0.055032257
176	0xbe120f78	-0.14263713
177	0xbdb34238	-0.087528646
178	0xbd1b6f93	-0.037948202
179	0x3e2019a2	0.15634778
180	0xbbfea68f	-0.00777132
181	0xbdc67868	-0.096909344
182	0xbccb0cf9	-0.02478646
183	0x3c6152d7	0.013752661
184	0x3d04e23f	0.032442328
185	0xbd145497	-0.036213484
186	0xbe0d8d07	-0.13823329
187	0x3de4d60b	0.11173638
188	0x3e2dc66b	0.16970222
189	0xbd24b5ab	-0.040212315
190	0x3e016c8f	0.12639068
191	0xbd9cea22	-0.07661845
192	0xbe98b44a	-0.2982505
193	0xbe56faba	-0.20994082
194	0xbedcca82	-0.4312325
195	0xbe02559c	-0.1272797
196	0x3d1efc68	0.038814932
197	0xbe2fc3ae	-0.1716449
198	0x3eb7ad9e	0.35874647
199	0x3dcd0ed0	0.10012591
200	0x3e620896	0.22073588
201	0xbec4466f	-0.38334987
202	0x3e10ae3d	0.14128967
203	0x3dc13569	0.09434015
204	0xbd983b3a	-0.074331716
205	0xbe8aad92	-0.2708555
206	0x3d25b71a	0.040457822
207	0x3e9923f3	0.2991024
208	0x3c4dc1f2	0.012558447
209	0xbe102b37	-0.14078985
210	0xbe8b7d24	-0.27243912
211	0x3d34aa95	0.044107992
212	0x3e382bee	0.17985508
213	0xbe90bda4	-0.28269684
214	0xbd80e603	-0.06293871
215	0x3e2b8950	0.167516
216	0x3dfa2a87	0.12215143
217	0xbe0bc563	-0.13649516
218	0xba36685e	-0.0006958301
219	0x3d92f506	0.07175641
220	0x3e73d410	0.23811364
221	0xbdb35883	-0.08757117
222	0x3e5c01db	0.21485083
223	0xbe01ffaa	-0.12695184
224	0xbea2505e	-0.3170194
225	0xbe81063a	-0.25200063
226	0x3ef9421c	0.4868325
227	0xbdd40c4d	-0.10353909
228	0x3e7ef600	0.24898529
229	0x3e860474	0.26175272
230	0x3eaef047	0.34167692
231	0x3f061182	0.52370465
232	0x3e82f57c	0.25577915
233	0x3e5b0f71	0.21392609
234	0x3e803199	0.2503784
235	0x3ea6d67f	0.32585523
236	0xbeca5ce0	-0.39523983
237	0xbe000b74	-0.12504369
238	0xbe9da8e5	-0.3079292
239	0xbdaf3ec6	-0.08556895
240	0x3e45e1c3	0.19324403
241	0x3e9d6d5c	0.30747497
242	0xbed69d76	-0.41917008
243	0x3dc50d1c	0.09621641
244	0xbe5ce9f0	-0.21573615
245	0xbda233ab	-0.07920011
246	0xbe7f5d0c	-0.24937838
247	0xbedfe1d8	-0.43726993
248	0xbedcdae5	-0.43135753
249	0xbd8ab314	-0.06772438
250	0xbebff59e	-0.3749208
251	0xbe8f5897	-0.27997276
252	0x3eaef370	0.34170103
253	0x3e88f74e	0.26751179
254	0x3ebb6908	0.3660357
255	0x3dd93ebf	0.10607671

mlp.0.bias f4 [16]
0	0x3de642c1	0.11243201
1	0x3ea061b3	0.3132454
2	0x3cfdca80	0.030980349
3	0xbd3a99df	-0.0455569
4	0x3e9f08f4	0.31061518
5	0x3d1ca965	0.038247485
6	0x3da5a91a	0.08088894
7	0x3e8aca04	0.2710725
8	0x3e5cd274	0.21564656
9	0x3e11ef5d	0.14251466
10	0xbd3dc634	-0.0463316
11	0xbd207bb0	-0.039180458
12	0x3e2aafb3	0.16668586
13	0x3dc67ad3	0.096913956
14	0xbe1d812d	-0.15381308
15	0xbde1da8a	-0.11028011

mlp.2.weight f4 [1, 16]
0	0xbf4f31ef	-0.8093557
1	0x3e65c7b4	0.22439462
2	0x3d1f8d5f	0.03895318
3	0xbf73a0fb	-0.9516751
4	0xbf66fd77	-0.90230507
5	0xbb0b4ebf	-0.0021256653
6	0x3e6e909f	0.23297356
7	0xbf796c6b	-0.9743106
8	0x3e665ee5	0.22497137
9	0xbe14ad34	-0.14519197
10	0xbe89e562	-0.26932818
11	0xbf30a903	-0.6900789
12	0xbf3c24fa	-0.7349392
13	0xbf824c43	-1.0179523
14	0xbd75582e	-0.059898548
15	0x3e977e09	0.29588345
