data/CTC/Fluo-N2DH-SIM+/02_RES_GAT/20250714_182241/top2_model_fold4.pth (torch, 11177 bytes, 15 tensors)

gat1.att_src f4 [1, 1, 16]
000000 83 a2 33 bd 0e 7d 7e 3e a0 eb e2 be b6 81 b5 bc
       -0.043856155 0.24852392 -0.44320393 -0.022156578
000010 3f b6 a6 3e ba 69 36 be d2 6c ee 3d f3 a0 0f bf
       0.32560918 -0.17813769 0.116418496 -0.56104964
000020 6d 15 b7 be 69 1f 86 3e 7c 8e d1 bd ed 09 9a bd
       -0.35758534 0.2619584 -0.10232255 -0.075214244
000030 54 c8 4d be 9e 94 6b be be e9 8a be 0d b3 0f bf
       -0.2009595 -0.23005912 -0.27131456 -0.56132585

gat1.att_dst f4 [1, 1, 16]
000000 10 a6 08 3f dc f1 14 3e 09 b9 2f bf 6f b6 fe 3d
       0.5337839 0.14545387 -0.68641716 0.1243714
000010 46 05 3a 3f a7 78 2c 3e 23 b0 b7 be a5 23 04 be
       0.72664297 0.168429 -0.3587657 -0.12904222
000020 da 21 1b 3f 22 92 dc be 14 e9 5f bf ef af b1 3f
       0.6059853 -0.4308024 -0.87465024 1.3881816
000030 9e bf 48 bf 1d 25 60 3e 03 05 9c 3e 86 41 04 bf
       -0.78417385 0.21889158 0.30472574 -0.5166248

gat1.att_edge f4 [1, 1, 16]
000000 70 00 8d bf 3f 23 8e be 70 50 bb bf 6a b0 b0 bf
       -1.1015759 -0.27761266 -1.4633923 -1.3803837
000010 49 cf 9d be 69 99 82 bf 51 a1 9c 3f b3 55 7b 3f
       -0.3082221 -1.0203067 1.223673 0.9817764
000020 2c ed b2 3f 54 75 97 3f 88 32 7b 3f c6 91 95 bf
       1.3978629 1.1832681 0.9812398 -1.1685112
000030 b5 14 67 3f 09 85 a3 3f 79 66 c5 bf 54 7f 46 3f
       0.9026597 1.2774974 -1.5421897 0.7753804

gat1.bias f4 [16]
000000 d8 f4 2f 3f bf 64 f9 3e 2d eb 30 3e 24 da 1a 3f
       0.68732977 0.48709676 0.17277212 0.60489106
000010 70 87 98 3e 44 b4 1d 3f 11 31 e6 3d 56 e7 34 3f
       0.2979083 0.6160319 0.112398274 0.7066549
000020 96 03 00 3f e0 c7 01 3f 9a 4c 74 3e c0 f7 48 3f
       0.5000547 0.5069561 0.23857346 0.78503036
000030 58 da bf 3e 09 0c 9d 3e b0 57 f8 3e a5 03 93 be
       0.3747127 0.30673245 0.485044 -0.28713718

gat1.lin.weight f4 [16, 14]
000000 96 f8 d5 be 13 b4 3f 3e d9 8a 94 3e 52 b8 9a bf
       -0.4179122 0.18721037 0.29012182 -1.20875
000010 16 c3 7d 3e 68 17 80 bf 88 58 7e 3a a9 e8 e7 be
       0.2478145 -1.0007143 0.0009702523 -0.45294693
000020 7c 89 32 3f 81 5c 65 3e 3e 10 8a 3e 1a 09 bb 3e
       0.69741035 0.22398569 0.26965517 0.3653038
000030 31 9e c9 3e 9c 44 23 3d 03 9a fa be a1 2e b5 3c
       0.39378503 0.039860353 -0.48945627 0.022116961
000040 74 0f 7c be 35 4f 80 bf 77 d1 71 3f b8 6d 0d bf
       -0.2461527 -1.0024172 0.94460243 -0.5524554
000050 c4 0d 68 3f b2 9b a8 be 84 6a 9a 3e 42 5c c9 3d
       0.90646005 -0.32931286 0.3015939 0.0983205
000060 fd d1 11 bd 94 1c a1 3e da 9f 65 3d cb 94 9c be
       -0.03560065 0.31467116 0.05606065 -0.3058227
000070 8c 3e 9a 3e 93 e1 58 bd 5d 35 f3 3e d9 be 32 3f
       0.30125844 -0.0529495 0.4750165 0.6982246
000080 e6 66 09 bf 50 97 47 3f d7 93 70 bf 3c 6d 61 3f
       -0.53672636 0.7796526 -0.93975586 0.88057303
000090 f3 eb de bd fa d2 a2 3b e1 f2 91 3c 42 de c9 3e
       -0.108848475 0.004968998 0.017816009 0.39427382
0000a0 bb 98 9c 3e c0 1a 8c 3e 92 c9 97 3d c1 84 02 bf
       0.30585274 0.2736416 0.07411493 -0.50983816
0000b0 ef c3 d3 3c 59 0d 22 bf f5 db 46 3f b8 4b 5d bf
       0.025850264 -0.63301617 0.7767938 -0.8644366
0000c0 e2 00 70 3f bd 4e b2 be 56 17 b7 3e 6c e0 a1 3d
       0.9375135 -0.34825698 0.3575999 0.07904133
0000d0 e4 ab 08 3f ee 56 73 be 3e 5c 59 3c 23 a0 84 bd
       0.53387284 -0.2376363 0.013266621 -0.06475856
0000e0 ec a6 23 bf c0 12 f2 be b6 1a 88 3c a1 c3 05 bf
       -0.6392658 -0.4727993 0.0166143 -0.5225163
0000f0 9e 8b 0b 3e 42 40 ce be fc 76 f3 bd 91 d6 11 bf
       0.13627478 -0.402834 -0.11887929 -0.5696803
000100 aa f6 a5 3e 17 07 28 bd 71 58 f2 be a8 f8 a9 bd
       0.32414752 -0.041022386 -0.473331 -0.082993805
000110 27 67 3b be db 7f 46 3d 40 74 f1 3c 40 b4 ea 3d
       -0.18301068 0.048461776 0.029474378 0.11460161
000120 aa 29 36 be f9 f4 42 bf 91 de 89 3f 48 aa 50 bf
       -0.17789331 -0.7615505 1.0771047 -0.8150983
000130 82 fe 40 3f 29 bd 50 bf 53 a5 72 3f ee 93 91 3e
       0.7538835 -0.81538635 0.94783515 0.28433174
000140 71 8c 03 3e b6 c4 4b 3e c1 2f 1e bd 20 ad 87 3e
       0.12846543 0.19899258 -0.03861976 0.2649927
000150 40 44 2a bf 05 e9 da be 61 40 7f be e8 c7 2f 3f
       -0.6651039 -0.42755905 -0.24926902 0.6866441
000160 ee 7f 21 be ba 14 3d 3f c3 9b 30 3d 64 fd 75 3e
       -0.15771458 0.7385975 0.043117296 0.24022442
000170 d6 d9 b1 be 09 69 18 3e d3 17 f9 3e 3f d7 20 be
       -0.34736508 0.14883818 0.4865099 -0.1570711
000180 3d 66 6f be fe 03 90 3e 08 94 61 bb 19 b8 0b 3f
       -0.23378845 0.28128046 -0.003442051 0.54577786
000190 09 e4 75 3d 2c 98 74 3f a8 db 28 bf d3 88 0f 3f
       0.060031924 0.95544696 -0.6596017 0.5606815
0001a0 d3 4a 58 bf c4 ab 80 3f 58 8f fa be fd c8 3b be
       -0.8448917 1.0052419 -0.48937488 -0.1833839
0001b0 42 3a 16 3e 2b 27 83 3c 59 d5 9d 3e 51 cb 03 be
       0.14670661 0.016009888 0.30826834 -0.12870528
0001c0 ab 49 ab 3e 0d 59 b5 3d c3 41 c8 be 8a 19 c5 be
       0.33454642 0.08854876 -0.39112672 -0.38496047
0001d0 71 62 79 3f 6b 55 2c bf 86 f2 25 3f 13 bd 4f bf
       0.97415835 -0.6731784 0.64823186 -0.8114788
0001e0 cc 6c 76 3f e6 6a 97 bb 25 82 48 bd ac c8 53 be
       0.9625976 -0.0046208976 -0.04895224 -0.20682019
0001f0 9f 67 16 bf 5b fe 56 3e d4 55 8c be 4e 4e 99 bd
       -0.58751863 0.20995466 -0.27409232 -0.074856386
000200 b7 34 34 3e 5f 8a 80 3f 54 7b 99 bf 25 68 3f 3f
       0.17598234 1.0042228 -1.1990762 0.74768287
000210 ca b7 99 bf 09 aa 68 3f 45 98 11 bf 75 18 73 bc
       -1.2009213 0.90884453 -0.5687297 -0.014837374
000220 6c 41 1a 3d 91 4e 02 3e e3 f6 e0 3e 15 74 81 bc
       0.037660047 0.12725283 0.4393836 -0.015802423
000230 01 a5 b4 3e 74 ea 85 3e 3e 02 49 be ad 39 61 3f
       0.35282138 0.26155436 -0.19629762 0.8797863
000240 73 39 92 bf c0 3f 79 3f 56 9c a7 bf ad a5 96 3f
       -1.1423782 0.973629 -1.3094585 1.176931
000250 37 91 70 bf 5f 40 61 3e 93 98 c4 bd 0f be 84 bd
       -0.9397158 0.21997212 -0.09599414 -0.06481563
000260 3b 44 a2 bd 3c 65 be bd e6 39 3b 3c 00 fd 4f be
       -0.0792317 -0.09296653 0.011427378 -0.20311356
000270 89 ad 00 bd 84 e6 94 bf 7a 1e 90 3f b9 c0 a1 bf
       -0.031415496 -1.1632848 1.1259301 -1.2636939
000280 e1 ad 1d 3f a7 35 7b bf b1 44 b2 3f 42 cc 53 bd
       0.61593443 -0.9812874 1.3927213 -0.051708467
000290 5d 59 a0 3e d7 88 6a bd 78 4f db be f7 24 0b be
       0.3131818 -0.057259407 -0.42834067 -0.1358832
0002a0 cc e1 db bd cc 73 b2 be d2 e1 ad be 24 0b 93 3f
       -0.10736427 -0.3485397 -0.3396135 1.1487775
0002b0 9d 94 7e bf 1d 60 8f 3f 29 b1 96 bf e7 69 80 3f
       -0.99445516 1.1201206 -1.1772815 1.0032319
0002c0 58 1b cd bf aa 74 46 3d fb 46 7c be c1 7a 6b be
       -1.602397 0.048451103 -0.24636452 -0.22996046
0002d0 75 12 15 3e f9 49 bc bd b7 2a b6 3e f4 72 4c 3e
       0.14557822 -0.09193797 0.35579464 0.19965726
0002e0 8d d5 e4 be 1d 58 41 bf f5 38 59 3f 97 e6 84 bf
       -0.44694176 -0.75525075 0.84852535 -1.038287
0002f0 7c 9c 67 3f f3 0f 4e bf 6f dd 41 3e 4a 8b 99 3d
       0.9047315 -0.80493087 0.18932126 0.074972704
000300 40 76 6e bd cc 76 20 3e 90 1e 42 3d ff c3 1a 3e
       -0.05821824 0.15670317 0.047392428 0.15113829
000310 79 83 c9 3e 4c 04 b3 3e 8b 7d d4 3c b5 14 79 bf
       0.39358118 0.34964216 0.02593877 -0.9729722
000320 c9 15 32 3e 72 44 0f bf e1 6c 03 be e2 c2 8d bf
       0.17391123 -0.55963814 -0.12834503 -1.1075099
000330 4b 32 12 3f a8 03 0c 3e 22 ba 1d bf 6f 8a de bd
       0.5710799 0.1367327 -0.6161214 -0.10866248
000340 62 48 5d 3e 58 61 37 bd 54 cc d3 3e 3d 69 8e 3d
       0.21609643 -0.04477057 0.41366827 0.06953666
000350 28 be 39 be 0b 38 fb bd 1d b2 0c be d9 1a 9d 3e
       -0.18138945 -0.12266549 -0.1373982 0.30684546
000360 ef f0 a3 bc f7 fb 93 3e 01 fd 62 3e e5 bd 18 be
       -0.020012347 0.2890317 0.22166826 -0.14916189
000370 90 c1 9f be be 88 f7 3d ef 41 6c 3e 55 52 18 be
       -0.31202364 0.120866284 0.23072027 -0.14875157

gat1.lin_edge.weight f4 [16, 2]
000000 a5 d7 c1 3f 26 9c 1b 3e 3f 54 95 3e 04 aa f0 3e
       1.5143934 0.15196285 0.29165837 0.47004712
000010 40 62 9d 3f 5f df 1b bf a5 55 bb 3f 30 17 a8 bd
       1.2295609 -0.6088771 1.4635512 -0.08207548
000020 c2 d8 92 3e f1 eb de 3e 35 b0 82 3f 58 54 fc 3e
       0.28680998 0.43539384 1.0210024 0.492831
000030 e6 03 b5 bf 57 33 c0 3e e6 d6 b2 bf a5 3a bc be
       -1.4141815 0.3753917 -1.3971832 -0.36763492
000040 5d 33 69 bf f0 34 b6 be c9 4b 3d bf 3e be 8c be
       -0.91094 -0.35587263 -0.73943764 -0.27488893
000050 db 27 ac bf 93 b9 fc be 59 6d ba 3f 83 32 db be
       -1.3449663 -0.49360332 1.456462 -0.42811975
000060 af d1 8f bf 62 58 57 3e 57 1d 7f bf 6d 04 da 3d
       -1.1235865 0.21029809 -0.99654144 0.106453754
000070 55 9d 9e 3f d7 9a 04 bf ee 9d a2 bf 04 17 c6 3e
       1.2391764 -0.51798767 -1.2704446 0.38689435

gat2.att_src f4 [1, 1, 16]
000000 6d c4 5d be 5c 73 8d be c0 35 cd 3c e8 f6 08 3f
       -0.21656962 -0.27627075 0.025050044 0.5350175
000010 a5 b4 ea be b2 55 cd 3d 92 44 98 be 07 09 62 be
       -0.45840946 0.10026111 -0.29739815 -0.22073756
000020 8d 13 4f be 29 dc 1c 3f 68 cb f8 3e 19 41 5a 3d
       -0.20222302 0.6127344 0.48592687 0.05328474
000030 a4 cc a5 3e 26 15 01 bf 9b f8 83 3e 10 c5 93 3e
       0.3238269 -0.50422895 0.25775608 0.28861284

gat2.att_dst f4 [1, 1, 16]
000000 b9 6a 35 be d7 4f 29 bf 88 a1 4c 3d 9c 99 2d 3f
       -0.17716493 -0.6613745 0.049958736 0.67812514
000010 76 97 de 3d f8 b0 a2 3e 66 67 46 be 63 a7 28 3f
       0.10868733 0.3177564 -0.19375381 0.6588041
000020 8b 67 3a 3f 44 3d 33 be fa d5 e6 be 94 ae f0 3e
       0.72814244 -0.1750384 -0.45085126 0.47008193
000030 97 17 b1 be cd 9e 5c 3e 15 af ec be 05 93 8b be
       -0.3458831 0.21544953 -0.46227327 -0.27260605

gat2.att_edge f4 [1, 1, 16]
000000 73 59 57 3f 31 7f b4 be 8c ef a7 3f ba d3 1e bf
       0.84120864 -0.3525329 1.3119979 -0.6204182
000010 4f 79 84 3f 19 fd a2 bf ea b1 72 bf f7 72 96 bf
       1.034952 -1.2733489 -0.94802725 -1.1753834
000020 35 d0 ca bf 5a e0 27 3f 0a 11 19 bf 98 64 e2 3e
       -1.584479 0.6557671 -0.59791625 0.44217372
000030 92 c9 a0 bf 47 6a 2a 3f c0 89 a0 bf 33 73 0b bf
       -1.2561514 0.66568416 -1.2542038 -0.54472655

gat2.bias f4 [16]
000000 02 b7 f5 3d a1 d6 81 3e aa 3a e4 3a 1e 7d 94 bb
       0.119977966 0.2535906 0.0017412503 -0.0045315167
000010 2d b6 41 be 31 a0 3d 3e 6e 2a 4b 3e 86 e8 d7 bd
       -0.18917151 0.1851814 0.19840404 -0.10542397
000020 07 2b ac 3e b9 8c 80 3e d6 b0 8e 3e 7a 49 b2 3c
       0.33626577 0.25107363 0.2786929 0.021763552
000030 90 ed a7 3e b6 5b 60 3f 70 49 5d be 55 0f 03 3f
       0.32798433 0.8763994 -0.21610045 0.5119527

gat2.lin.weight f4 [16, 16]
000000 63 56 d2 3e 59 dd 0f 3f f1 85 16 bf 14 86 f8 3e
       0.41081533 0.56197125 -0.5879813 0.48539793
000010 48 df 7f 3e ec 1a 1d 3f 43 3d 19 3d 72 cf 3f bf
       0.24987519 0.61369205 0.03741194 -0.7492591
000020 3e 0d 23 3f d3 a8 0c be bd ba e0 bd 93 a9 60 3f
       0.6369208 -0.13736276 -0.109731175 0.8775875
000030 eb b8 eb be 20 23 ff 3e 02 39 48 3f 32 2f 8f be
       -0.4603952 0.49831486 0.78211987 -0.27965695
000040 84 eb 4d 3f 94 5e e3 3e 45 e5 dd be d7 79 59 3f
       0.80437493 0.44408095 -0.4333898 0.8495154
000050 09 2e 16 3f c4 f0 74 3f 54 b7 8f 3e 8a 11 c2 be
       0.58663994 0.9567988 0.28069556 -0.37904006
000060 09 93 4c 3f c0 e1 55 3e 30 5a 16 bf 27 59 85 3f
       0.7991186 0.20886898 -0.58731365 1.0417832
000070 61 b1 0a be a4 8a 73 3f d6 b3 05 3f 04 67 9e bc
       -0.13544227 0.95133424 0.5222753 -0.019336231
000080 52 2d b1 bd 2d 0a ef be b7 aa 40 bf d0 4d 80 3e
       -0.08651222 -0.4668745 -0.7526049 0.25059366
000090 92 c4 d2 be 3b 78 49 3e dc 48 2f 3c 4d 93 69 bd
       -0.41165596 0.1967477 0.010698523 -0.057025243
0000a0 0f db 9a be d2 86 b4 be 6a 55 77 3d 33 aa 91 be
       -0.30245253 -0.3525911 0.06038419 -0.28450164
0000b0 3f 6d 3b bd 2c e8 6f 3b d4 b9 d5 3e 93 7d 82 bd
       -0.045758482 0.003660689 0.41743338 -0.06371608
0000c0 8e 39 1b bf 83 43 e4 be 8d 84 cf 3e b6 dd ad be
       -0.60634696 -0.44582757 0.40530816 -0.33958215
0000d0 6b e5 19 bf 96 fc 5a bd 69 0d 72 3e a0 ad 91 3d
       -0.6011569 -0.05346354 0.23637928 0.071131945
0000e0 f0 94 31 3d 7c 68 aa bd 80 c8 09 3f aa ca b1 bd
       0.04335493 -0.0832071 0.53821564 -0.08681233
0000f0 d1 48 f1 3e 30 8f 71 3a 5a 6d 64 3d e6 0f 8e 3d
       0.47125867 0.0009214757 0.05576835 0.06936626
000100 1c c4 43 be 80 7d b5 be 5b ec 12 bf af 7e b5 bd
       -0.19117779 -0.3544731 -0.573919 -0.088620536
000110 88 91 27 bc 22 78 a4 be 51 a7 21 3e cf 26 99 3e
       -0.010227568 -0.32122904 0.15786482 0.2991242
000120 27 72 9c 3d 32 bf d8 be 80 87 15 bf 2e 13 15 be
       0.0763896 -0.4233337 -0.5840988 -0.14558098
000130 68 62 0f 3f 00 98 bd bc ce 59 25 3e 0b fd 04 bf
       0.5600953 -0.023143768 0.16147539 -0.5194861
000140 3f c4 0e 3f 43 ce 1f 3c d8 90 79 be 81 8f 33 3f
       0.557682 0.0097537665 -0.2437166 0.70140845
000150 80 37 f8 bc c7 9c 42 3d c2 32 81 be f8 b3 00 bf
       -0.030299902 0.047512796 -0.25234038 -0.5027461
000160 53 ae c5 3e db 83 06 bf c7 d0 f8 be 54 b8 43 3f
       0.3860956 -0.52544945 -0.48596784 0.7645314
000170 62 36 b7 be 22 22 24 3f 12 4d d1 3e c1 e2 64 be
       -0.35783678 0.6411458 0.40879112 -0.22352125
000180 c6 2d ed 3e 5c c2 67 be c7 d9 3f 3e b7 9a 7b 3e
       0.46323985 -0.22632736 0.18735419 0.24570738
000190 33 ed c9 3e 36 b6 c3 be 8f 2a a3 3e c6 f2 d1 be
       0.3943878 -0.38224953 0.31868407 -0.41005534
0001a0 bd 68 a6 bd 47 76 b6 be 0a 4f 2a 3e 8e ac 7c be
       -0.08125446 -0.35637113 0.16631714 -0.246752
0001b0 a3 49 64 3c a0 fc b0 bd 91 fc 18 3f 13 59 89 be
       0.013933572 -0.086419344 0.59760386 -0.2682577
0001c0 58 b2 71 3e 95 b4 90 3e 49 a8 b6 3d ed a3 21 be
       0.23603189 0.28262773 0.089188166 -0.15785189
0001d0 75 cd 10 3d e2 45 b8 be 55 4f fc be a0 22 24 bf
       0.03535219 -0.35990816 -0.49279276 -0.64115334
0001e0 06 b5 d2 be 38 89 87 be aa 3f dd 3d 85 70 a1 be
       -0.41153735 -0.26471877 0.108031586 -0.31531158
0001f0 9e e3 c6 be 4d 6f 85 be 8c dc b8 bd 81 ca 8f be
       -0.38845533 -0.26061478 -0.09026441 -0.28084186
000200 86 d3 2a be b9 bb 32 be d8 65 4d 3f ab f5 d6 3e
       -0.16682252 -0.17454423 0.80233526 0.41984305
000210 f8 7a 16 3e b8 e0 9c be 6b 07 81 3f 0c 1d 14 3f
       0.14695346 -0.30640197 1.0080389 0.5785682
000220 27 21 db 3e a2 1b 2f 3f 55 94 76 3f f2 ee 8b 3e
       0.4279873 0.6840154 0.96320087 0.27330738
000230 ef bd 2b 3f 38 15 1d bf 21 9b b7 be c2 0b a6 be
       0.6708669 -0.613605 -0.3586054 -0.32430845
000240 76 45 17 3f bd 1e a8 3e f3 c6 56 3e f7 6a 06 3f
       0.59090364 0.3283595 0.2097433 0.52506965
000250 7b 72 cb 3e bb dc d7 3e 4e d5 23 bc 94 10 2e bd
       0.3973578 0.4216059 -0.009999586 -0.04249628
000260 00 41 10 be d2 43 2b 3c db c2 1a be bc 6b 17 3f
       -0.14087296 0.010453181 -0.15113394 0.59148765
000270 3c fe 80 bf 07 be 15 3e ab c4 9d be 1c f8 a6 3e
       -1.0077586 0.14623271 -0.30814108 0.32611167
000280 99 59 27 3f ff 92 d1 bd ef d1 83 be ea 40 e4 3e
       0.6537109 -0.102331154 -0.25746104 0.44580775
000290 7a 7e 06 3e f6 9e 3e 3e 91 4e bf 3d 18 c4 dd 3e
       0.13134184 0.18615326 0.09341157 0.4331367
0002a0 03 e7 17 3f 95 ac 8d 3e a6 23 cb be 1f b9 35 3d
       0.5933687 0.27670732 -0.39675635 0.044366
0002b0 c2 a5 ae bd 6d 12 f0 3d f0 a0 c3 3d 5c f7 95 be
       -0.085277095 0.117222644 0.09552181 -0.29290283
0002c0 68 bd cc 3e e7 3b 0a 3f 51 62 ed 3d 69 33 f1 3d
       0.39988256 0.53997654 0.11591018 0.11777384
0002d0 34 07 e6 bd d2 1e 0c 3e 3f 12 77 be 5e 14 f4 be
       -0.11231843 0.13683632 -0.24128054 -0.4767179
0002e0 78 ed 32 3e 9e a1 03 bf 12 c2 86 be 91 a3 f9 3d
       0.174734 -0.51418483 -0.2631994 0.12189401
0002f0 00 b9 9d 3d 24 a2 9c 3e 80 be 79 3e 97 65 cf be
       0.077013016 0.30592453 0.24389076 -0.40507194
000300 86 5f 00 3f 8f fc 48 3f 61 31 4c 3e da c4 84 3e
       0.5014576 0.78510374 0.19940712 0.25931436
000310 a2 c2 9f 3e 79 fd c4 3e 00 5e 8c 3d 8e 8b ba be
       0.3120318 0.38474634 0.068538666 -0.36434597
000320 f6 75 8b 3e 86 16 25 be 17 56 83 be 6d ef 16 3f
       0.27238435 -0.16121873 -0.2565162 0.58959085
000330 73 81 18 be 74 05 de 3e 28 d6 8d 3c ac a0 0c be
       -0.14893131 0.43363535 0.017314032 -0.13733166
000340 0e 6a 37 3f 2a f6 b5 be 39 4e 36 bf 8b 25 b4 be
       0.716462 -0.3553937 -0.7121311 -0.35184893
000350 91 6d b3 bd 06 e0 a0 be 78 df 09 3e e0 e8 49 be
       -0.087611325 -0.31420916 0.13464153 -0.19717741
000360 9f b8 06 bd d7 5e 69 be d0 84 aa be d3 2e 0b bf
       -0.032890912 -0.22790085 -0.33304453 -0.54368323
000370 61 34 2f 3f da f9 f2 be 39 df 6c 3e 3f 1e cd be
       0.684393 -0.47456247 0.23132028 -0.40062138
000380 0d 4b 8e bd 33 53 a0 3e a6 6c 86 3e b9 ca 69 bf
       -0.069479086 0.31313476 0.26254767 -0.91324955
000390 23 e0 48 bf d6 5c 4e bf 4c 28 27 3e 4d c4 bf 3e
       -0.78467005 -0.80610406 0.16323966 0.37454453
0003a0 a8 95 f4 be 42 1b 4e 3f eb 7b 96 3f 56 d7 e9 be
       -0.4777043 0.8051034 1.1756567 -0.456721
0003b0 d5 2c 45 3f f9 ac 94 be 5c 1b 32 bf 5f a4 d8 be
       0.77021533 -0.29038218 -0.69573 -0.42312905
0003c0 ac d4 80 3f f7 c5 9d 3f 3a e7 8f be 22 88 67 3f
       1.0064902 1.2326039 -0.281061 0.904421
0003d0 f4 21 51 3f bf f1 6a 3f 5f 3c 34 3d 07 44 35 bf
       0.81692433 0.91775125 0.044002887 -0.70806926
0003e0 eb 11 80 3f 3f 1f 20 be 43 e4 b7 be 4c 19 8a 3f
       1.0005468 -0.1563692 -0.35916337 1.078897
0003f0 ef 19 21 be 98 8c 3d 3f 53 bd 56 3f a4 73 a4 be
       -0.15732549 0.74042654 0.83882636 -0.32119477

gat2.lin_edge.weight f4 [16, 2]
000000 52 f9 41 bf 3f 7f 81 bd f1 23 aa 3e d0 53 77 3f
       -0.7577106 -0.063230984 0.33230546 0.9661226
000010 1e 59 48 bf a9 31 49 bf a3 ae 3e 3f 7f 32 20 3e
       -0.7826098 -0.785914 0.74485224 0.15644263
000020 b8 5a ae bf 07 16 06 bf 90 41 62 3f 96 72 fc 3e
       -1.3621435 -0.5237736 0.8838129 0.49306172
000030 d8 46 b8 3f b0 13 61 3f fe c2 a7 3f 0b 0d 8c 3f
       1.439662 0.87920666 1.3106382 1.094148
000040 1a 54 5e 3f de 2b 20 3f 74 0e 08 bf de 02 ca be
       0.8684708 0.62566936 -0.53147054 -0.39455312
000050 28 16 2a 3f 23 ed 17 3f ba d8 2f bf 46 28 3e 3e
       0.6644006 0.59346217 -0.68690073 0.1857005
000060 52 54 b4 3f 86 f1 f3 3e e0 b2 28 bf 19 c8 8f bf
       1.4088233 0.47645205 -0.6589794 -1.123294
000070 87 16 b3 3f e1 f4 86 3e 10 98 40 3f 6f 13 05 3f
       1.399125 0.26358703 0.7523203 0.5198278

mlp.0.weight f4 [16, 32]
000000 58 06 3e 3e 39 31 27 3e 18 63 97 3d ba fa 0d 3c
       0.18557107 0.1632737 0.073919475 0.008665735
000010 82 b6 e9 3d 1a 95 d0 3d 61 b2 0e 3e 55 f0 44 3e
       0.11411764 0.10184689 0.13935234 0.19232304
000020 8a e1 90 be 1a ee f4 bc 81 bd 4e 3e b0 8d 33 3d
       -0.28297073 -0.029898692 0.20189478 0.043836296
000030 7f f6 1e 3e 74 fd b0 3f 53 d4 17 bf a7 39 a1 3d
       0.15523718 1.3827348 -0.59308356 0.078723244
000040 59 6a 15 bd 43 a6 97 bd 39 42 35 3e 7a 18 5e bd
       -0.036478374 -0.07404759 0.17701043 -0.05422256
000050 6b a0 92 3d 57 fa d6 bd f6 d4 81 3b c3 51 1c 3e
       0.071595035 -0.10496967 0.0039621545 0.15265565
000060 63 6e 04 3d 4b 01 17 3e 5d c6 17 3e 33 38 75 be
       0.032331835 0.14746587 0.14821763 -0.2394722
000070 10 d3 03 3c 6a 21 f3 3d 71 97 d7 be 13 24 0b 3e
       0.008045927 0.118716076 -0.42107728 0.1358798
000080 29 d4 4c 3e db d7 96 3c 71 df 60 3e 89 52 81 3e
       0.20002808 0.018413475 0.21960236 0.25258282
000090 14 5a 84 be ef 05 13 3e a3 0e 94 bd 3b 46 b0 bc
       -0.25849974 0.14357732 -0.07229354 -0.021517863
0000a0 03 a1 93 3d 50 ba 7b be 3c 00 1b bd 48 d8 d4 bd
       0.07208445 -0.24582791 -0.03784202 -0.10392815
0000b0 b3 d5 ad bd f3 b5 0c 3f f1 d9 0c 3f cf 33 b6 bc
       -0.084880255 0.5496513 0.5502005 -0.022241501
0000c0 88 88 44 be 57 5b f8 3c bf d6 ff bb 4b cd 78 bd
       -0.19192708 0.030316992 -0.007807582 -0.060742658
0000d0 b8 29 52 bd 57 2b 2c 3d 66 74 4c bc af 76 0f be
       -0.051309317 0.04203352 -0.012478923 -0.14010118
0000e0 61 3e 09 bf f5 b1 be be b1 37 64 be 86 70 ab bc
       -0.5361081 -0.37245145 -0.2228687 -0.020927679
0000f0 22 2f e9 bd d3 06 d2 bd 0c 29 b7 bd f6 ea e4 bd
       -0.11385943 -0.10255208 -0.08943376 -0.11177628
000100 75 57 87 be 2c 96 97 bd bd bb 77 3e 2c 6e 14 3e
       -0.26433912 -0.0740169 0.2419271 0.14495152
000110 13 95 70 3d 3e fa 53 be f3 cc 6c be a6 98 92 bb
       0.05873592 -0.20700929 -0.23125057 -0.0044737635
000120 1f 54 a5 3e e6 e8 48 be 8e d7 6c bd 6d c7 4c be
       0.32290742 -0.19620094 -0.057822756 -0.1999795
000130 da 36 03 3d a9 68 7c bf 36 30 5b 3f 0f 5c 4f be
       0.032034732 -0.985972 0.8562044 -0.20249961
000140 37 a1 9e 3e 8a f8 93 3e e3 47 53 3e 10 ad 8c be
       0.30982372 0.28900558 0.20632891 -0.27475786
000150 cb 3a ef ba 1c f1 90 3e 60 ba 69 bd 2c c0 43 bd
       -0.0018251775 0.28308952 -0.057062507 -0.04779069
000160 c9 46 17 bf d8 2b d0 3d 4d de d0 bc 37 7d 25 3c
       -0.59092385 0.101646125 -0.025496626 0.010100654
000170 ea 5d ba 3d 77 3d e7 3e 4b 10 fd be 5f 2c a5 3e
       0.09099944 0.4516408 -0.49426493 0.32260415
000180 d6 06 6b 3e 99 0e 69 bd dc 65 49 be f9 1a ee be
       0.22951826 -0.056898687 -0.19667763 -0.46504954
000190 4c 74 5a 3d 29 a2 2f 3e 49 cf 92 bd 3c 8f 24 be
       0.053333566 0.17151703 -0.07168443 -0.16070265
0001a0 49 18 93 be 76 b6 07 bd 2d a9 d3 3d 74 f2 1a bd
       -0.28729466 -0.033132993 0.10335002 -0.037828878
0001b0 43 98 13 bc f9 0a db be fe 65 18 be 93 13 83 bd
       -0.00900847 -0.4278181 -0.14882657 -0.06400218
0001c0 e6 49 05 bd 54 a9 8a bd 29 d9 a6 bc c4 30 c0 3e
       -0.03254118 -0.06770578 -0.020367222 0.37537205
0001d0 ca de a5 bd ce 43 44 3d 72 8d 2a be 07 29 23 be
       -0.08099134 0.047916226 -0.1665552 -0.1593362
0001e0 5a c4 a7 3e b6 c3 83 bd 98 0a 28 be 5a 38 81 bc
       0.32766992 -0.06433813 -0.16410291 -0.01577394
0001f0 47 bd 8e 3c 3d 7b 15 bf bc 2a 1f 3e fa 96 22 bc
       0.017424239 -0.5839117 0.15543646 -0.009923691
000200 91 c1 2b be 5b 75 8e 3d 86 15 61 3e bc ab b5 3e
       -0.16773058 0.069559775 0.21980867 0.35482585
000210 d9 7e fb bd b5 a1 02 3d de 35 0a be 02 41 1b be
       -0.12280054 0.031892497 -0.13497111 -0.15161517
000220 df 13 30 3e e4 36 b2 3c 5f da 85 bc d9 ee 08 be
       0.1719508 0.02175469 -0.016339479 -0.13372363
000230 45 31 46 3d 8e 0b c9 bf 23 3e 42 3f 7a 5f 0a be
       0.04838683 -1.5706651 0.75876063 -0.13512984
000240 09 e5 a1 3e 81 e3 08 3e 6f cf 8e bd 84 3f b6 bd
       0.31620052 0.13368036 -0.069731586 -0.088988334
000250 5c 39 66 3d 16 b2 f6 3d 27 92 12 bd 27 29 4e 3d
       0.056207046 0.12045686 -0.035783913 0.050332215
000260 93 e0 b8 be a9 70 81 3d 4d 32 00 3d d7 54 38 3e
       -0.36108837 0.06320316 0.03129797 0.18001114
000270 5c ac 81 3e 1e a6 14 bf 3a 6a 0b 3d 9d 0f c7 3d
       0.25326812 -0.58065975 0.034036852 0.09719775
000280 1d e9 7e 3d 51 1c 75 3e 9a b3 ac bb 16 51 95 be
       0.062234033 0.23936583 -0.0052704336 -0.29163426
000290 8f 08 c8 3d 2f 5d 43 3e 91 d1 fe 3d 49 79 e2 3d
       0.097672574 0.19078515 0.12442315 0.110582896
0002a0 98 60 58 3d c2 77 0b bd 47 69 c2 bd 03 97 cd bd
       0.052826494 -0.034049757 -0.09492736 -0.10038569
0002b0 e0 cc 81 3e 52 56 9a 3f 48 6b 30 3d 4e 2e 84 3e
       0.2535162 1.2057593 0.04307106 0.25816578
0002c0 2f 4b 27 3d 31 cc 07 3b e3 6b 5c 3c e1 d3 75 be
       0.040843185 0.0020721073 0.013453457 -0.24006607
0002d0 f9 11 4d be f7 59 6c be fa 75 8b 3e ba ec 27 3e
       -0.20026387 -0.23081194 0.27238446 0.16398898
0002e0 3d 8d 77 3e 1f ba d8 bd e4 e9 9a 3d db 07 26 bc
       0.24174972 -0.10582375 0.07564142 -0.010133709
0002f0 c7 02 88 3d c8 78 25 bf 1e 8d ab be ad 3c f5 bd
       0.06641155 -0.6463742 -0.335061 -0.119744636
000300 60 b1 97 3c f7 4d c3 3d a1 4d 3e 3e c9 80 96 3e
       0.018517196 0.09536355 0.185843 0.2939513
000310 61 ba 10 be 05 18 ca bd 8a 43 72 be e6 af ec 3d
       -0.14133598 -0.098678626 -0.23658577 0.115569875
000320 83 46 f2 3c 33 ed 2f be b9 65 80 3c 9a 3f b2 be
       0.029574638 -0.17180328 0.015673505 -0.3481415
000330 f0 fb 4d bd 89 2c ab bf 76 60 ef 3e 74 01 2b be
       -0.050289094 -1.3372966 0.4675328 -0.16699773
000340 ea c0 c7 3d 16 9f 97 3e 26 fe 5c bb 67 4f b2 bd
       0.09753592 0.2961356 -0.003372082 -0.08706551
000350 97 f3 09 3e f7 c0 09 3e d5 ec c1 bc 20 5a e5 bd
       0.13471828 0.13452516 -0.0236725 -0.111988306
000360 a9 33 13 be 72 b6 ef 3d e9 f1 1b 3e 5c 9b 24 3e
       -0.14375176 0.117047206 0.15229 0.1607489
000370 e6 fc 71 3e 8e 9b d9 be 32 b6 bc bd 7f 27 61 3e
       0.2363163 -0.4250149 -0.092144385 0.21987723
000380 38 6e 56 3e 3d b9 2b 3d f9 1a e9 bb 42 4a 3e be
       0.20940483 0.041924704 -0.007113811 -0.18583015
000390 62 05 80 bd 45 f4 aa 3b 9d 55 e1 3e d5 22 97 bc
       -0.06251027 0.0052171075 0.4401063 -0.018449226
0003a0 d0 d5 06 3e 27 e9 d6 3d 3e 07 a8 3e 58 5c 21 3e
       0.131675 0.10493689 0.32818025 0.15757883
0003b0 ae 5a 89 3e 35 8a 9d 3f 0d 10 10 bf 46 a5 86 3e
       0.26826996 1.2307802 -0.5627449 0.2629797
0003c0 e9 61 f7 bd 52 9b 40 3e 51 b0 32 be 83 31 23 be
       -0.12079222 0.1880925 -0.17450072 -0.15936856
0003d0 e6 60 46 3e fc ac 66 be 07 be 69 3e b0 07 b1 3d
       0.19372901 -0.22526926 0.22826396 0.086440444
0003e0 bd a9 86 3e 25 a9 44 3e 26 2f 5d 3e 8d 0f 47 be
       0.26301375 0.19205149 0.21600017 -0.19439526
0003f0 f4 69 f5 3d 83 7d 2f bf 30 48 62 be 22 36 27 3e
       0.119830996 -0.6855089 -0.2209785 0.16329244

mlp.0.bias f4 [16]
000000 ee b3 fa ba db 6b 23 3e df 4c ae 3d 4e db 78 be
       -0.001912711 0.15959112 0.08510756 -0.24302408
000010 71 d5 49 3c 75 22 52 3d db b3 52 bd 75 2c d1 3c
       0.012318955 0.051302392 -0.051441055 0.025533894
000020 4a 91 5d 3c 00 99 7d 3d 59 a5 b8 bc d6 91 49 3e
       0.013523409 0.06191349 -0.022539781 0.19684538
000030 ac 73 1b 3e 3c 96 38 3e 1b 44 5d 3d 06 90 98 3e
       0.15180844 0.1802606 0.05402003 0.2979738

mlp.2.weight f4 [1, 16]
000000 b6 71 ab 3d ef d9 93 be 18 4b de be a5 6c 48 be
       0.08371298 -0.28877208 -0.43416667 -0.19572695
000010 26 7a 08 be 6e 80 cf 3d 77 0c 27 be 57 b5 99 3e
       -0.13327846 0.10131918 -0.16313349 0.30021164
000020 6a e0 90 bc cc 85 7a be 61 c9 a2 bf 65 64 f2 3d
       -0.017685134 -0.24465102 -1.2717706 0.11835555
000030 21 3b 80 3e d0 27 7d be 4e 43 17 3e 31 06 ae 3e
       0.25045112 -0.24722219 0.14771768 0.339891
