data/CTC/Fluo-N2DH-SIM+/02_RES_GAT/20250714_232839/manual_fold_1_best_model.pth (torch, 11177 bytes, 15 tensors)

gat1.att_src f4 [1, 1, 16]
000000 5c ed a1 3d a0 16 f3 3e 0f 46 14 be 44 00 5e 3e
       0.07906601 0.474782 -0.1447985 0.21679789
000010 37 26 82 be 9b 06 d2 3d cc 4c 96 3c b3 92 06 bf
       -0.2541978 0.10255166 0.018347166 -0.52567595
000020 9c 49 4c bd 06 cc 49 be 82 92 e3 be 1c cd 73 be
       -0.049874887 -0.19706735 -0.44447714 -0.23808712
000030 fc 80 24 be 48 e2 80 3e 87 2e 12 3f 86 70 eb 3a
       -0.16064829 0.2517264 0.57102245 0.0017962612

gat1.att_dst f4 [1, 1, 16]
000000 7a 5a eb 3e a2 32 3b 3e 53 78 04 3e 1d 99 a6 3e
       0.45967466 0.18281034 0.12936525 0.3253869
000010 bc bf c5 be f4 12 97 be 4d 25 91 3d 22 ba b7 be
       -0.38622844 -0.29506648 0.07087193 -0.35884196
000020 cd 65 b3 3d 8a 72 80 3e d9 0a 3b 3e 2b ad 85 bc
       0.08759651 0.25087386 0.18265857 -0.016317924
000030 cc 82 00 3e 31 56 de be 13 bf a3 3e 79 a9 fb be
       0.12549895 -0.43425134 0.31981716 -0.49152735

gat1.att_edge f4 [1, 1, 16]
000000 d7 bb 45 3f a9 34 4f 3f b0 99 2b 3f 38 3f 2b 3f
       0.77239746 0.8093973 0.67031384 0.6689334
000010 76 f9 2b 3f 64 a0 2b 3f a1 d4 c8 3d c9 2e fb be
       0.6717752 0.6704161 0.09806181 -0.49059132
000020 51 0d 23 3e 5f dd 4d 3f b6 43 3e bf 7a 35 82 3f
       0.15923049 0.8041591 -0.7432207 1.017257
000030 4d 07 49 3f 37 80 07 3e 68 66 10 bf 3b f5 c2 bd
       0.78526765 0.13232504 -0.5640626 -0.0951943

gat1.bias f4 [16]
000000 a2 9a 7e be 59 2b 09 3f 5a 2c f1 3e 79 00 45 3e
       -0.24863675 0.5358177 0.4710415 0.19238462
000010 38 ac e1 3e 31 b6 22 3f f0 71 2f 3e 39 06 0b 3e
       0.44076705 0.6355925 0.17133307 0.13576593
000020 27 ad f0 3e 9f 11 eb 3e a5 f3 45 3e b4 08 a8 3e
       0.47007105 0.4591188 0.19331224 0.3281914
000030 0a c1 1c 3f 3c 9a ef 3e 9e 13 11 3f 64 b0 ce 3d
       0.61232054 0.4679736 0.5667056 0.100922376

gat1.lin.weight f4 [16, 14]
000000 69 d4 a4 3e a6 75 92 bd 41 77 9c be 15 5c ab bd
       0.32193306 -0.07151346 -0.30559734 -0.08367173
000010 e5 73 83 be 5e af df bc c9 f3 f6 bd 71 67 15 3e
       -0.25674358 -0.027305301 -0.12058217 0.14590241
000020 f4 cf d4 3d 0b 17 bf bd 4a 9c 43 be 52 3c ea bc
       0.103912264 -0.09330567 -0.19102588 -0.028593216
000030 c0 b9 1c 3e dd 66 35 3d a6 31 79 be fa 4a 17 bf
       0.15305233 0.04428755 -0.24335346 -0.5909878
000040 9a af 30 bd f1 74 26 bf d6 d1 af 3d 2d cc 1d 3e
       -0.043136217 -0.6502219 0.08584945 0.15409918
000050 9a 35 03 3f b4 7e e5 bc ee 7b ed 3e a7 b6 40 be
       0.51253664 -0.028014518 0.46383613 -0.18819676
000060 4e 8e 35 3f 36 c4 ca 3d 21 be b7 3d 6c c6 99 3e
       0.70920265 0.099007055 0.08971811 0.30034196
000070 b1 2b 89 be b0 a6 56 bb 7a 0e 8e be 90 5f 63 3e
       -0.26791146 -0.0032753162 -0.2774542 0.22204423
000080 67 12 29 bf 0c 87 b6 3e 7e 14 2b be 74 0f 24 3f
       -0.66043705 0.35649908 -0.16707036 0.6408608
000090 02 c4 07 bf 84 9f 15 3e 5b 81 d0 3d 1d 27 98 bd
       -0.5303346 0.14611632 0.101809226 -0.07429335
0000a0 fc 12 30 bf 0a 7d 12 3e 60 fa 77 3e 2b ab b5 3e
       -0.6877897 0.14305511 0.24216604 0.35482153
0000b0 ef 32 5b be 10 99 9c be a6 50 11 bd 78 ca 8e 3c
       -0.21406148 -0.30585527 -0.035477303 0.017430529
0000c0 87 3a 1f bf de 75 9f 3d d8 98 bb be 99 db 2f 3d
       -0.6219868 0.07786153 -0.36640048 0.042934034
0000d0 ca fd e7 3c 70 56 08 bc 4a e6 09 bd 72 17 02 bd
       0.028319258 -0.00832139 -0.033666886 -0.03176064
0000e0 83 35 fc 3e 91 16 22 3f f4 9a 7c bd 82 98 54 be
       0.49259576 0.63315684 -0.061671212 -0.20761302
0000f0 54 b0 2e 3f 51 15 75 be fd b9 4e 3f 55 d7 6b be
       0.68237805 -0.23933913 0.80752546 -0.23031361
000100 04 95 b4 3e cd af 7d 3e 4f 8e ba be 38 a5 9c be
       0.3526994 0.24774094 -0.36436698 -0.30594802
000110 56 49 10 bf e9 09 87 be aa 39 88 bc d8 72 08 3d
       -0.563619 -0.26374748 -0.016629059 0.03331265
000120 af 40 4c be 78 5d 07 3f f2 19 17 bf 53 13 0c 3f
       -0.1994655 0.52876997 -0.59023964 0.54716986
000130 64 25 15 bf e3 86 03 3f 75 2b aa be e2 44 38 3f
       -0.5826018 0.51377696 -0.3323628 0.71980107
000140 fd 73 27 be 7c dd e9 bc 2e 16 24 bf 52 c2 c3 bd
       -0.1635284 -0.028547995 -0.64096344 -0.09558548
000150 8a 1d ea 3d 9a 7a 76 be 00 ce 49 bc 85 33 f7 3e
       0.114314154 -0.24070206 -0.012317181 0.48281494
000160 23 93 17 3e 54 2f 2d be 6f d8 39 be 39 7f 04 3f
       0.14802222 -0.16912585 -0.18148969 0.51756626
000170 5d d6 7e be 42 b3 c0 be f3 6f 18 3e 84 43 ca be
       -0.2488646 -0.37636763 0.14886455 -0.39504635
000180 ea 00 63 be 42 33 8b bd 86 df 30 be fb 43 9a 3e
       -0.22168317 -0.06796886 -0.17272767 0.3012999
000190 ea 04 78 3e 6a ec 6c 3e 17 a3 ff 3e d9 89 03 bf
       0.24220625 0.2313706 0.49929115 -0.51382214
0001a0 2f 30 fe bc 17 cd 07 3d 4f 69 b6 3e 78 a1 73 be
       -0.031028835 0.033154573 0.3562722 -0.23792064
0001b0 d7 5d 11 bf e3 9d 26 3e 36 f7 8d be 61 8b ae bd
       -0.56783813 0.16271167 -0.2772767 -0.08522678
0001c0 dc 0c d4 be 9e 6d 17 3f 82 c1 c5 bd c9 be a7 3d
       -0.4141606 0.5915164 -0.09656049 0.08190686
0001d0 95 f3 04 bf 76 a4 53 3f d1 d6 2e bf 0e 5d 5d 3e
       -0.51934177 0.8267282 -0.68296534 0.21617529
0001e0 7a 79 43 bf 5e ea 95 bd 2a dd 23 bf 21 0f 21 3e
       -0.76357234 -0.073200926 -0.64009345 0.15728427
0001f0 cd e8 02 bf 77 7e 88 be ad cd 08 be e8 06 cd 3d
       -0.51136476 -0.26658985 -0.13359709 0.10011083
000200 8a 82 0f bf 83 87 08 3f 4c b7 fd be fa 77 83 3e
       -0.5605856 0.53331774 -0.49553907 0.25677472
000210 df 38 57 bf e1 77 23 3f 22 36 f2 be 43 bc 21 3e
       -0.84071153 0.63854796 -0.47306925 0.15794472
000220 d0 6e 37 3d 59 bf 07 3d 7c dc 9f be 38 a6 db bd
       0.044783413 0.033141468 -0.31222904 -0.10725063
000230 01 0b 54 3e 35 bb 5b 3f 73 ec 88 3e a5 8a fc bc
       0.20707323 0.8583253 0.26742896 -0.03082783
000240 ef 56 f1 be 9a 32 af 3e 81 12 ca 3d b6 74 1c 3e
       -0.47136638 0.34218293 0.098668106 0.15278897
000250 cc 94 a7 bd 2e 7a 97 be f2 af 2b be 74 28 8d bd
       -0.081826776 -0.29585403 -0.16766337 -0.068924814
000260 a2 a1 d4 3e da 23 0c 3e f1 63 11 be cd eb 83 3e
       0.41529566 0.13685551 -0.14198281 0.2576584
000270 00 49 ad be 83 5d b4 be 48 22 a3 3e c0 c5 c9 be
       -0.33844757 -0.35227594 0.31862092 -0.39408684
000280 b0 52 ee bd 9a 55 15 3d d3 80 0c 3f 86 a0 a0 3e
       -0.11636865 0.03645859 0.5488407 0.3137247
000290 47 5d b0 bc 50 ca 12 3e 0e 08 1a 3e ae 9d 28 3d
       -0.021528853 0.14334989 0.15042135 0.041166
0002a0 e0 42 45 3e c8 fa 14 3f e0 77 70 3e 23 05 26 bf
       0.19263792 0.5819516 0.23483229 -0.6485159
0002b0 f8 80 53 3f 84 de 3c bf 67 47 6b 3f 2c cd 86 bf
       0.82618666 -0.7377703 0.91905826 -1.0531363
0002c0 c8 58 11 3f cf ac 9b bd 27 aa 80 be d1 03 10 be
       0.56776094 -0.0760132 -0.25129816 -0.14063956
0002d0 df 26 f5 be f2 3b 17 3d f0 67 bf 3e ba 25 9f 3e
       -0.4788122 0.036922403 0.37383986 0.3108347
0002e0 79 9c 79 3e 46 28 eb 3e 83 f9 a8 be 3d b5 b2 3e
       0.24376096 0.45929164 -0.33002862 0.349039
0002f0 30 4a 0e bf 4f 96 fe 3e f5 2f 9c be 47 56 0e be
       -0.5558195 0.4972405 -0.30505338 -0.139001
000300 c1 15 87 3d e8 5e 71 bc 69 a4 2d bf c8 86 40 be
       0.06595946 -0.0147321 -0.67828995 -0.18801415
000310 75 4c 04 3e d0 68 f6 be f0 5e 11 be ec 85 35 bf
       0.12919791 -0.4812684 -0.14196372 -0.70907474
000320 93 5b 51 3f 23 13 83 be 28 49 96 3e 3f 25 64 bf
       0.81780356 -0.25600538 0.2935269 -0.89119333
000330 d2 67 ca 3d 3f a6 07 3e 6d 06 d2 be 19 be 03 bf
       0.098830834 0.13247012 -0.41020527 -0.5146194
000340 3d 8e 28 bf b0 db 36 be d5 29 fc be d8 f9 5c bf
       -0.6584204 -0.17857242 -0.49250665 -0.8631873
000350 ef 08 da 3e 5e 14 8c 3d a9 6e d4 be 6b d1 3e be
       0.4258494 0.06839822 -0.41490677 -0.18634574
000360 d5 17 1f 3e 22 35 aa bc e0 88 94 3e 7b 75 a2 be
       0.15536435 -0.020777289 0.29010677 -0.31730255
000370 61 bc 1c be 40 4e 81 3c 28 82 57 3f 8a 14 0d bb
       -0.15306236 0.015784383 0.8418298 -0.0021527135

gat1.lin_edge.weight f4 [16, 2]
000000 42 a0 5a 3f a1 d2 0a 3f 38 ed 2a 3f 43 02 26 3f
       0.85400784 0.54227644 0.6676822 0.648472
000010 2d db 28 3f 7c ed 27 bd 29 9a 4a 3f ec 9f 0f 3f
       0.65959436 -0.040997967 0.7914148 0.56103396
000020 9e 46 dd 3e 75 e9 25 3f cf f7 61 3f 16 89 ee 3e
       0.4321794 0.6480935 0.8826875 0.46588963
000030 e4 95 e4 3d 11 d9 a8 be 9c f4 23 bf b4 41 45 bd
       0.11161402 -0.3297811 -0.6404512 -0.048158363
000040 3f d7 26 3e bc 16 96 3e 5a 9f 8e 3f b1 1d 93 bd
       0.16293047 0.2931422 1.114238 -0.071833976
000050 8b 63 84 bf 9d a5 06 bf 83 d3 83 3f 58 bc 2d 3f
       -1.0342878 -0.52596456 1.0298923 0.67865515
000060 10 40 5a 3f 97 c2 a8 3e 45 f6 5b 3d ad 84 12 bf
       0.85254 0.3296096 0.053701658 -0.572337
000070 1e d9 e2 be af b3 2f bf 5e a7 de bb 93 ed 46 3e
       -0.44306272 -0.6863355 -0.006794854 0.19426565

gat2.att_src f4 [1, 1, 16]
000000 3c de 81 3e 93 9f c7 bd 0f ee a5 3e 12 55 b4 3e
       0.25364864 -0.09747233 0.32408187 0.35221153
000010 a0 20 ac bd c9 53 4e 3d 77 34 14 3e 12 df 11 3e
       -0.0840466 0.050372873 0.14473139 0.14245251
000020 f4 7b db 3e 9e 88 82 be 24 13 04 bd ae 33 9d be
       0.42868006 -0.25494856 -0.032244816 -0.3070349
000030 f5 d6 25 3e 41 c7 f9 3d d9 dd c0 3e 1c b5 07 bf
       0.16195281 0.12196208 0.37669256 -0.53010726

gat2.att_dst f4 [1, 1, 16]
000000 a3 97 8a 3d f4 9d 05 3f a5 8b 1a 3d 67 ee bb 3e
       0.06767204 0.5219414 0.03773083 0.36705324
000010 35 bb fa 3e bf b2 5e be a0 67 0e be 18 28 c2 be
       0.48970953 -0.21747874 -0.13906717 -0.37921214
000020 97 e4 c4 3e cb 03 8e 3e 39 85 a6 3b e2 61 ef 3e
       0.3845565 0.2773727 0.0050817993 0.46754366
000030 39 ac 7c be cf 74 92 3d c6 20 87 3e 0f 63 b3 be
       -0.24675073 0.07151186 0.26392192 -0.35036513

gat2.att_edge f4 [1, 1, 16]
000000 ad 98 3a bf 18 fa a6 be 88 9b 08 bf e8 c9 72 3d
       -0.72889215 -0.3261268 -0.5336232 0.059274584
000010 05 fc 5f bc 3b a4 4d be 40 6c 9b 3d 6e cd ad bd
       -0.013670926 -0.2008218 0.075890064 -0.08486448
000020 f7 9e dd be 24 9f 2e 3f 2b c2 3a bf 8c d3 45 3e
       -0.43285343 0.6821158 -0.72952527 0.1931898
000030 88 7d 11 be 2b 0e 08 bf 59 86 df 3e 11 b8 54 be
       -0.14208043 -0.5314662 0.43657187 -0.20773341

gat2.bias f4 [16]
000000 54 09 34 3e 3a b4 9e 3d 15 da 98 3e 92 12 34 3e
       0.17581683 0.07749219 0.29853883 0.17585209
000010 fa 02 82 bd 36 1a 45 3e 9c 74 b9 bd f8 0d 27 3e
       -0.06348224 0.1924828 -0.090554446 0.16313922
000020 52 8c cc 3c e3 f9 05 be 41 ec 11 be 80 7a b4 3d
       0.024969254 -0.13083605 -0.1425028 0.088124275
000030 7f 51 ab 3e d7 27 9b 3d 9e 63 a3 3d 3a ad ba bc
       0.33460614 0.07575958 0.07977985 -0.022787679

gat2.lin.weight f4 [16, 16]
000000 87 02 8c 3e 9b 64 6f be 49 8a f4 be 91 21 e3 3c
       0.27345678 -0.23378222 -0.47761753 0.027725967
000010 e5 5a c5 3e 75 ea 3f be df 6f c9 3e d0 79 83 3e
       0.3854591 -0.18741782 0.39343163 0.25678873
000020 be 0d 97 3e 92 1e 22 be d5 71 7b 3e ae b0 92 3e
       0.29502672 -0.15831974 0.24555142 0.2865042
000030 1a 33 2d 3f 06 7d 66 3e f2 1a a7 be b0 b0 5d bd
       0.676561 0.2250863 -0.32637745 -0.05412358
000040 2a b6 8d 3d 55 b6 bb bd 29 9d 89 be 98 fc ee be
       0.06919511 -0.091656365 -0.26877716 -0.4667709
000050 39 c6 81 3f ad 67 80 be c6 e4 9f be 14 24 9d be
       1.0138618 -0.25079098 -0.31229228 -0.30691588
000060 0b 6b 03 bf f3 5f 25 bf 1c 66 50 bd 9e c4 90 3e
       -0.5133521 -0.6459953 -0.05087863 0.28275007
000070 4a 40 31 3f df 23 09 bf 8f 74 88 3d f9 bc ea be
       0.6923872 -0.5357036 0.06662857 -0.458473
000080 85 5f a9 be d0 7a 23 3f ab f5 ba be 1d 9f 03 bf
       -0.33080688 0.6385927 -0.36515555 -0.5141466
000090 b0 b4 b3 3e 7d e7 96 be 14 a0 f4 bc 3b 00 47 3e
       0.3509879 -0.29473487 -0.029861487 0.19433682
0000a0 ba 02 ec be e4 0d 31 3e 5d 78 0a be fc 23 bf 3e
       -0.4609583 0.17290455 -0.13522477 0.3733214
0000b0 5d 42 73 3d a6 61 27 bd 50 88 10 3e 29 3b 78 3e
       0.05938946 -0.04086461 0.14114499 0.24241318
0000c0 89 05 8b 3e 99 58 db 3e e6 d2 19 3f bf 94 5d 3e
       0.2715266 0.42841032 0.6008743 0.21638773
0000d0 db f7 f4 be 46 b2 0d 3f 57 fe 3c be 4d 0d ab be
       -0.4784535 0.5535015 -0.18456398 -0.33408585
0000e0 44 de 03 3e 1e 81 29 3f b2 eb 33 3e 89 c0 8a bc
       0.12877756 0.6621264 0.1757038 -0.016937511
0000f0 1e e3 91 be 53 f4 f4 bc e9 ef c8 bd 01 60 84 be
       -0.2849359 -0.02990166 -0.09811384 -0.25854495
000100 35 25 7b bb 68 ec ef bd 50 69 5a be ea be ef be
       -0.0038321738 -0.11715013 -0.21329236 -0.46825343
000110 2b ca 2d 3e 7b a7 37 bd 5c 28 c5 be 17 a4 ed be
       0.16971652 -0.044837456 -0.38507354 -0.46414253
000120 8c a1 02 bf 6f 82 ad 3e 92 88 8a bc 97 aa e9 3d
       -0.5102775 0.33888575 -0.016910825 0.114094906
000130 bc eb e4 bd 07 99 a0 3e d2 09 ce be 9b 4a 0b 3f
       -0.11177775 0.3136675 -0.40241867 0.54410714
000140 28 d5 b7 be aa 18 9e 3d 2d 45 c5 3e 4b f4 c8 bd
       -0.35904813 0.07719548 0.3852934 -0.0981222
000150 16 20 4f be f7 5d dd 3e a4 39 a8 be dd 03 77 bb
       -0.20227084 0.43235752 -0.32856476 -0.0037691512
000160 63 89 02 be 60 5f a3 3d 83 50 a1 3e 26 2e 18 3d
       -0.12747721 0.07977176 0.31506738 0.037153386
000170 03 90 d0 be 78 3d 60 be 7a 48 f0 3e 59 3a 08 3f
       -0.40734872 -0.21898448 0.46930295 0.5321403
000180 38 2d 9a bc ea 5c 65 bd f0 03 ee 3e 75 72 d0 be
       -0.01882039 -0.055996813 0.4648738 -0.40712324
000190 49 e9 5c 3e e5 58 48 be 2e e4 b0 be 2c 2d a7 3e
       0.21573366 -0.1956516 -0.34549087 0.3265165
0001a0 72 ee 42 be 42 b4 60 be 85 7d 09 bf be 6b c1 be
       -0.19036272 -0.21943763 -0.5370715 -0.37777513
0001b0 2f 18 1a 3d 72 0a 87 3d 68 2e e2 be 26 7b a7 be
       0.03762072 0.06593789 -0.4417603 -0.32711142
0001c0 db a9 96 be 86 b5 da 3e f4 f3 7a be b4 ce 91 be
       -0.29426464 0.42716616 -0.24507123 -0.28478014
0001d0 e3 09 79 3e 77 27 ad be 5a 99 3f be a7 d2 0a 3f
       0.24320178 -0.33819172 -0.18710843 0.5422768
0001e0 a4 25 27 be ea 26 2d bf 06 83 c6 be de 32 b2 3e
       -0.16322953 -0.67637503 -0.38771838 0.34804434
0001f0 e5 57 71 3c 17 82 14 bf 64 85 c9 3e 2f a5 01 3e
       0.014730428 -0.58011 0.3935958 0.12660669
000200 23 0f bd 3d 6b f2 a9 be c7 32 0d 3e 03 e0 d1 be
       0.09231403 -0.33192763 0.13788901 -0.4099122
000210 0f 54 bc be 24 08 ad bc 4b 89 2d 3f ca bd 0a 3e
       -0.36782882 -0.021122046 0.6778762 0.13548961
000220 a7 36 f4 3e 9a 63 fa 3e 32 76 4c 3e b9 0c 03 be
       0.47697946 0.48904115 0.19966963 -0.12797822
000230 ba 10 f3 be 80 fc 82 3e 34 5d 67 be 2d 11 80 bd
       -0.474737 0.25583267 -0.22594148 -0.06253276
000240 e1 20 8c 3e 05 f8 83 3e 26 ad cf be ef db 19 be
       0.27368835 0.2577516 -0.4056179 -0.15025304
000250 24 f5 a0 be bc 39 da bc a7 5e 80 3e c8 d5 ca bd
       -0.31437027 -0.026638858 0.25072214 -0.09904057
000260 e3 0e ff bd 50 8f a9 3e 9e ea ad bc 8c e0 3a be
       -0.12454011 0.3311715 -0.021230038 -0.1824972
000270 d9 b6 86 be bc d9 9e be a7 2b 85 be cc 77 ba 3e
       -0.26311377 -0.31025493 -0.26009867 0.36419523
000280 26 bf 03 3e 61 f6 de bc ba 24 3b be e6 31 91 be
       0.12865886 -0.027217092 -0.18275729 -0.28358382
000290 51 81 dd bd 22 b9 95 be a1 b4 09 bc 34 d1 e4 be
       -0.10815681 -0.29242808 -0.008404882 -0.4469086
0002a0 d4 e2 c3 bb d8 7a 52 3d d0 ea dc 3e 83 4f 72 3d
       -0.0059779678 0.051386684 0.43147898 0.05915786
0002b0 1c 05 bc 3d 07 5a 0d bf 0e 21 8f be cc c1 15 3f
       0.09180662 -0.55215496 -0.27954906 0.58498836
0002c0 bf 04 6d 3c e6 3f b3 3e 7b 4a 02 3e 7d 52 a1 3e
       0.014466464 0.35009688 0.12723725 0.31508246
0002d0 84 b2 36 3e 1e ec 5d ba 36 bf ba be d0 8b e1 3e
       0.17841536 -0.0008465665 -0.36474007 0.4405198
0002e0 a2 1a 39 be c9 7c be be e5 d3 9e be fe 7c 46 be
       -0.18076566 -0.3720458 -0.31021038 -0.19383618
0002f0 1e 9d d4 3e 64 0c d4 3d 7f 4b 29 3f f7 ea 19 3f
       0.4152612 0.10353926 0.6613082 0.6012415
000300 02 80 fc bd aa d2 e2 3e 84 1b 51 bf 25 3d 8e be
       -0.12329103 0.4430135 -0.8168261 -0.27781025
000310 57 df ac 3e 20 c1 01 bf 2f 18 b3 be 46 28 eb 3e
       0.33764145 -0.5068531 -0.34979388 0.45929164
000320 75 ca 48 bf 81 8c 4f bf b6 86 e6 be c2 11 05 3f
       -0.78433925 -0.81073767 -0.4502465 0.5198022
000330 a6 73 43 3f 84 e5 d2 be 70 a0 1d 3f bc d9 44 3f
       0.7634834 -0.41190732 0.61572933 0.76894736
000340 f3 3a 56 be f8 0c e2 3d 1f b5 b8 be fe 32 3b 3e
       -0.20920925 0.1103763 -0.36075684 0.1828117
000350 7e c9 18 3f c5 3e 27 bd 78 d1 70 bd 20 14 a0 be
       0.5968245 -0.040831346 -0.058793515 -0.31265354
000360 d1 2e db be d3 90 09 bf ab ae 9b bd 6e be 01 3f
       -0.42809156 -0.5373661 -0.07601675 0.506812
000370 38 4c 48 3e 4d 8c 66 be 68 ff 98 3e af 45 05 3f
       0.19560325 -0.22514458 0.2988236 0.52059454
000380 49 64 02 3e ce e7 2c bf 20 79 81 3e a7 d8 0c 3f
       0.12733568 -0.67541206 0.25287724 0.55018085
000390 13 ee 0a bf 03 f5 dc 3e 8f ba aa 3d 06 98 ab be
       -0.5426952 0.4315568 0.083363645 -0.33514422
0003a0 d2 e3 1a 3e 8d f1 07 3f 69 18 06 3f e7 62 10 bf
       0.15125969 0.5310295 0.52380997 -0.56400913
0003b0 c2 7e 16 bf 0a bc 18 3f b4 ed 62 bf 04 3e 01 be
       -0.5878717 0.59661925 -0.88643956 -0.12621313
0003c0 cf ad 90 be 67 c3 95 be 20 aa 06 3f e6 c5 9c 3e
       -0.28257605 -0.29250643 0.5260334 0.30619735
0003d0 f5 a2 2c bf 03 a1 62 3e a7 82 04 3f e1 0d 4b 3e
       -0.6743615 0.22131734 0.5176186 0.19829513
0003e0 83 37 0d 3f e4 eb 3a 3f 3a 23 ed 3e ae 80 1c bb
       0.5516283 0.7301619 0.46315938 -0.002388041
0003f0 9c fb 76 be fd 1c a1 3e 1a e0 22 bf 4e 56 91 be
       -0.24119419 0.3146743 -0.636232 -0.28386158

gat2.lin_edge.weight f4 [16, 2]
000000 bc 4d ea be 22 d9 bc 3e 86 69 39 be 9d 16 db 3e
       -0.45762432 0.3688441 -0.1810666 0.4279069
000010 d8 81 32 bf b6 a7 85 be fb 20 90 3e ea 95 80 be
       -0.69729376 -0.26104516 0.28150162 -0.25114375
000020 cd ee 79 3d 14 96 c2 be f4 53 f4 bd 14 5a 0f bd
       0.061018754 -0.38005126 -0.11930075 -0.034998015
000030 e1 9d 9c 3d 53 f0 b1 3e 70 9c b9 bd 1d e4 ec 3e
       0.076473005 0.34753665 -0.09063041 0.46267787
000040 d2 76 04 bf 79 db 98 3e 4b 19 17 3f 6d bf 10 3f
       -0.51743805 0.29854944 0.5902297 0.5654209
000050 f8 0e 1e bf 53 2f 1c be f3 c6 5d 3e b0 af c5 3e
       -0.6174159 -0.15252428 0.21657924 0.386106
000060 2d 8b f8 bd fe 7a 35 3e 45 90 cd be cc fc 8f 3d
       -0.12135921 0.17722699 -0.4014913 0.07030639
000070 1e 9b ef 3e 5d 81 a0 3e 1a fb 20 bf aa 2a 5a 3e
       0.46798033 0.31348696 -0.6288315 0.21305338

mlp.0.weight f4 [16, 32]
000000 b3 c1 81 3d cd 56 24 3e 54 3c 9f b9 3a 17 99 3e
       0.06335773 0.16048737 -0.0003037179 0.29900533
000010 a7 96 8c be 19 0f d3 bb e7 08 05 3e c7 9b ce 3d
       -0.2745869 -0.0064410088 0.12991677 0.10088306
000020 1e 51 32 3e 4e 02 a7 39 15 0a 49 be 14 c8 04 bc
       0.17413756 0.0003185444 -0.19632752 -0.008104343
000030 5b 43 26 3e 55 c1 21 3e 28 1b 9e 3e 73 d6 9f 3e
       0.16236632 0.15796407 0.30880094 0.312183
000040 b3 a5 5a 3e b2 4f 95 3e 3a a5 03 3e c6 96 86 bd
       0.21352272 0.29162365 0.12855998 -0.065717265
000050 11 a4 11 bf ee e2 f5 bd bd c0 85 bd cc be 34 3e
       -0.5689097 -0.12006174 -0.065309025 0.17650908
000060 30 3b e0 bd 55 66 29 be 75 a9 c8 3c 2d e8 22 3e
       -0.10948789 -0.16542943 0.024494866 0.1590888
000070 f3 dc bc 3d a7 e4 e2 3e f8 56 70 bd 59 99 4f 3c
       0.0922183 0.44315073 -0.05867669 0.012670838
000080 2e d5 8b 3d 70 0a 53 bf 9e 25 63 be 30 b5 56 3e
       0.0682777 -0.824378 -0.22182319 0.20967555
000090 65 14 86 bd be 6e 20 3e 05 3c 00 bd 5f ea 1b bf
       -0.06546859 0.15667245 -0.03130724 -0.60904497
0000a0 0b 7e e0 bc 27 77 05 3e dd 66 35 bf 56 f6 d1 3e
       -0.027403852 0.13033734 -0.7086008 0.41008252
0000b0 b1 14 4e bf e8 e6 22 be 8b 5f e7 3d fe 3a 6a 3e
       -0.8050032 -0.15908396 0.1129752 0.22874066
0000c0 a0 99 16 3e 6e 91 53 bf ba 79 d5 bd c2 ca a6 3e
       0.14707041 -0.82643783 -0.10423608 0.32576567
0000d0 00 e9 03 bc 6a 72 03 be 2e 40 d9 bd 8f 1d 0f bf
       -0.008051157 -0.12836614 -0.106079444 -0.5590448
0000e0 b3 01 46 3e d6 05 1d 3e 93 fb 33 bf 08 95 0c bf
       0.19336586 0.15334257 -0.70305747 -0.54914904
0000f0 6e 12 47 bf f7 74 cc be 38 c9 8e 3e 0a 3b cf 3e
       -0.77762496 -0.39932987 0.27887893 0.4047473
000100 cf 2d a6 3d 84 6b 5b 3e fe 7d a7 3e 9d 36 e6 be
       0.08114206 0.21427733 0.32713312 -0.44963542
000110 a9 17 da 3d 2c db 5f 3e 03 e6 24 be 66 80 97 3b
       0.10649044 0.21860951 -0.16103368 0.0046234606
000120 6b ed a1 be 4e 16 f3 bd 16 74 b4 3e f3 0f dc 3e
       -0.31626448 -0.11869489 0.35244817 0.42980918
000130 3d 38 9f 3e c3 05 7c 3e 1a 55 cf be b1 63 01 bf
       0.31097594 0.24611573 -0.40494615 -0.5054274
000140 62 4e 14 3e 6e 24 f0 3d 39 49 0b bd 3f ef 87 3d
       0.14483026 0.117256984 -0.034005377 0.066374294
000150 48 7d df 3e ef 3d ee 3e 98 95 b2 ba 9a 45 f8 bd
       0.4365027 0.46531627 -0.0013624905 -0.121226504
000160 b5 94 cc be 74 e1 50 3d b2 bd 9c 3e 59 2f ca 3c
       -0.39957204 0.05099626 0.30613476 0.02468078
000170 fd 30 f6 3d 2c 35 4e 3d 63 d6 1a bf 52 bc b3 be
       0.120210625 0.050343677 -0.6048338 -0.35104614
000180 d2 29 0d 3e 27 62 48 bf f9 34 ff bd ec 22 a0 3d
       0.13785484 -0.7827477 -0.124612756 0.07819161
000190 c5 b0 65 be 97 12 82 3e 69 42 32 3b 11 5f 6a be
       -0.22430713 0.25404808 0.0027200228 -0.22887827
0001a0 64 3c 85 3d b9 c1 a7 3d 4e ce 5c be 16 36 37 3e
       0.06505659 0.081912465 -0.21563074 0.17891726
0001b0 56 e3 f0 be 24 ed df be 32 0d d4 bd 10 7a 24 3d
       -0.47048444 -0.4373561 -0.10354079 0.04015547
0001c0 ff d6 4c bd ba ae 55 bf c6 7a 11 be cd 30 6b 3e
       -0.050009724 -0.83469737 -0.1420699 0.22967835
0001d0 85 93 be bd 2d 45 13 bc 2e 76 14 be c2 91 08 bf
       -0.09305481 -0.008988661 -0.14498207 -0.5334741
0001e0 b6 df 21 3d b8 6c f1 3d 31 13 17 be f4 7e 61 be
       0.039519988 0.117883146 -0.14753415 -0.22021085
0001f0 96 40 fb be 80 f9 18 bf f4 59 ac 3d 58 be 9c 3e
       -0.49072713 -0.59755707 0.08415595 0.3061397
000200 00 fa fe 3d 45 0d 62 bd 35 3b 34 bb 08 a3 59 3e
       0.124500275 -0.055188436 -0.002750111 0.21253598
000210 68 d8 78 3e 57 e2 d9 3d fa f0 28 3c 30 2b 77 ba
       0.24301302 0.10638874 0.01031136 -0.00094287377
000220 00 ca a2 3d 3a b2 b5 bd d5 fc 8d bd ee da a9 bd
       0.07948685 -0.08871885 -0.069329895 -0.08293711
000230 7d 31 4e 3e 6f 26 35 3d 03 b4 9c 3e a0 b1 3b 3e
       0.20136066 0.044226106 0.30606088 0.18329477
000240 8c 63 06 3e ef 3c c9 3e 1f 2b cc 3d 74 10 83 bb
       0.13123912 0.393043 0.09969162 -0.003999764
000250 f5 83 bb be ee 77 80 bd e3 6d 09 3d 59 10 c1 3e
       -0.36624113 -0.06272875 0.03355206 0.37707785
000260 78 e1 c1 bd a8 49 91 bb 4e 68 bd bd 49 f1 3b 3e
       -0.09466833 -0.0044338293 -0.0924841 0.18353762
000270 f6 fe b6 3e c9 64 8a 3e c2 c2 7e 3e 80 82 49 bd
       0.35741395 0.27030018 0.24878982 -0.04919672
000280 c6 36 82 3d 3f 2d a8 be c8 d4 0d 3d b0 e1 cc 3d
       0.063581035 -0.3284702 0.034626752 0.10003984
000290 2c 72 e9 bc 38 5e a5 bd c7 eb 8e 3c 5d 2d 5f be
       -0.028496824 -0.080746114 0.017446412 -0.21794648
0002a0 19 b7 06 3e ae 2f 2d 3e b1 d7 ca 3d de 52 d9 3d
       0.13155784 0.1691272 0.09904421 0.10611509
0002b0 bd 8e db be 73 25 34 bf 51 53 21 be e5 20 5c 3d
       -0.42882338 -0.7036964 -0.15754439 0.05374231
0002c0 cf 5b 63 be 0e e0 03 bf 25 eb e5 bd 20 59 9d 3e
       -0.22202991 -0.51513755 -0.11226491 0.3073206
0002d0 08 7f 3a bb 9e 03 b2 3d 23 bd d8 38 1a b3 23 bf
       -0.0028457064 0.08692096 0.00010334912 -0.6394516
0002e0 3b 50 a8 3e f3 d4 ef 3d 48 3a 56 be e0 fd c5 bd
       0.3287371 0.11710539 -0.2092067 -0.096675634
0002f0 c3 e0 ae be 88 d1 42 bf 22 74 25 3d 50 e2 18 3e
       -0.34155855 -0.7610097 0.040393956 0.14930081
000300 b5 ea 01 be cb 66 ce 3d 5a 0e 25 be ab 06 82 3e
       -0.1268719 0.100782 -0.16118756 0.25395712
000310 d5 d4 32 be fe 6e 18 3e 31 67 1e 3e c2 33 71 3d
       -0.17464001 0.1488609 0.15469052 0.05888725
000320 87 af 39 3e 98 49 a3 3d 6c 8f 75 be 95 c5 19 be
       0.18133365 0.07973021 -0.23980492 -0.15016778
000330 a5 d0 32 3e 12 d7 5a 3e 79 2e ac 3e ac d1 51 3e
       0.17462404 0.21371105 0.33629206 0.2049014
000340 74 cc 48 3d 88 8f 40 3e 3f 4e 76 3e 88 b4 3c bc
       0.049023107 0.18804753 0.24053286 -0.011517651
000350 5e 79 1a bf 20 55 bb 3d 6a 18 5e be 98 7f 92 3e
       -0.6034144 0.09147096 -0.21689 0.2861297
000360 74 c8 ed 3c af ef 60 be 3d a1 f8 bb 0a 9b b6 ba
       0.029026248 -0.21966432 -0.0075875805 -0.0013931703
000370 04 5f 99 3e 36 06 cd 3e 98 6f fc 3c f1 34 13 bd
       0.29955304 0.400438 0.03081493 -0.03593916
000380 6c 85 8c 3c a3 de b7 bd 6a ee 51 bc f8 64 df bd
       0.017153464 -0.089780115 -0.01281319 -0.1090793
000390 18 64 b2 bd d0 0b 61 3d 46 d2 19 be d3 1c ca bd
       -0.087104976 0.054942906 -0.15021619 -0.09868779
0003a0 44 8d 0f be ce b9 50 bc 9e 62 87 bc 65 e3 0d be
       -0.14018732 -0.012739612 -0.016526517 -0.13856275
0003b0 ab e5 91 bc 19 2c 3f bd 0d 17 85 bd 4d 13 71 bd
       -0.01780971 -0.046672914 -0.06498537 -0.058856297
0003c0 6b f6 92 bd 9f 3e e2 bd c9 82 2c be 49 e5 86 bd
       -0.07175907 -0.110471 -0.16846766 -0.065867014
0003d0 d3 90 0b 3d a3 7f 30 bd 9a e3 fe 3d 08 e3 94 bd
       0.034073662 -0.043090474 0.12445755 -0.07269865
0003e0 2c df 67 be b9 92 c3 3c 49 9c 21 bc b7 8b b1 bc
       -0.22643727 0.023873674 -0.009863921 -0.021673067
0003f0 b7 78 97 bc 03 c9 be 3d fe f3 18 be d1 5b 30 3b
       -0.018490179 0.09315684 -0.14936826 0.0026910196

mlp.0.bias f4 [16]
000000 f1 dd ee 3d 23 8d b5 3e ac 11 83 3c 19 15 8d 3e
       0.11663426 0.3545924 0.015999638 0.2755516
000010 63 b1 b2 3d b6 7f f3 3d 30 1a d0 3c 56 b9 05 be
       0.0872524 0.11889593 0.025403112 -0.13058981
000020 54 12 57 bd 89 c7 55 3e c0 b0 9e bc ab 15 58 be
       -0.052507713 0.20876898 -0.01937139 -0.21102016
000030 70 c0 72 3d 62 1e b1 3d 3b c2 83 3d 62 8d d1 bd
       0.059265554 0.08648373 0.06433531 -0.10232045

mlp.2.weight f4 [1, 16]
000000 bb 20 28 be 57 c4 ab 3e 29 d3 c6 3e 45 8d 61 3e
       -0.16418736 0.33548233 0.38832977 0.22026546
000010 9d 10 b5 be 2b fd b7 3e bd ad 16 be 81 10 ac bd
       -0.35364237 0.3593534 -0.14714713 -0.08401585
000020 e8 4f 3a be d2 01 b3 3e 1e fb e6 bf e8 89 03 3e
       -0.18194544 0.34962326 -1.8045385 0.12845576
000030 c8 78 22 be 30 c9 0b be 8b 3d 66 be b8 43 f4 3e
       -0.15866387 -0.13650966 -0.22484414 0.47707915
