data/CTC/Fluo-N2DH-SIM+/02_RES_GAT/20250714_232839/manual_fold_5_best_model.pth (torch, 11177 bytes, 15 tensors)

gat1.att_src f4 [1, 1, 16]
000000 04 9a 12 bd d9 2e f8 3d 48 98 dc 3e 97 93 90 be
       -0.035791412 0.121183105 0.4308493 -0.28237602
000010 5e 8a ae 3e ba e3 06 3f f4 54 81 be 32 fd 87 bc
       0.3408994 0.52691233 -0.25260127 -0.016600225
000020 fd 7c 72 3d be 6b da bd c3 d1 1c 3f 34 09 94 3e
       0.05920123 -0.106650814 0.6125757 0.2891327
000030 5f d6 25 3f 95 b3 ab 3d 16 3a 07 3f 6e 34 a0 be
       0.6478023 0.08383862 0.5282301 -0.3129

gat1.att_dst f4 [1, 1, 16]
000000 04 12 3b 3d b1 2f 32 3f 4d 24 64 3e 75 e0 57 3f
       0.045671478 0.6960402 0.22279473 0.8432687
000010 a4 c7 02 bf 03 b6 07 bf 36 40 14 3e 85 1b 32 3e
       -0.5108588 -0.530121 0.1447762 0.1739331
000020 0f 23 c1 3e a3 b3 b1 3e 33 f0 6c bf fe 3e b7 3e
       0.3772206 0.34707364 -0.92554015 0.35790247
000030 13 96 8e bf 18 26 cf 3e b1 1e 7d bf 5c c0 1c be
       -1.1139549 0.4045875 -0.98874956 -0.15307754

gat1.att_edge f4 [1, 1, 16]
000000 76 b2 72 3d 19 b7 49 bf ef 23 66 3f 09 c9 e4 be
       0.059252225 -0.7879501 0.8989858 -0.44684628
000010 ec 0d 33 3f 43 bd cd 3e ce 58 80 3f db 19 18 3f
       0.6994312 0.40183458 1.0027101 0.5941445
000020 60 9c c3 3d 81 7a 78 3f c8 cc 60 bd a3 4d 50 bd
       0.095513105 0.97061926 -0.054882795 -0.05085529
000030 b4 1a d6 bd ff af 57 3f be 5f 02 3f d4 70 45 3e
       -0.10454312 0.84252924 0.5092734 0.19281322

gat1.bias f4 [16]
000000 e8 65 7f bc f3 14 8b 3f ef 0d a8 3e bf e3 69 3f
       -0.015588261 1.0865768 0.3282313 0.9136314
000010 ef 8c 45 3e 8b 00 ef 3d bd 84 aa 3e ab cf 8b 3f
       0.19292043 0.116700254 0.33304396 1.092275
000020 1e ed ab 3f 5a 74 a4 bd c4 cc 65 be f9 87 28 3f
       1.3431737 -0.08030005 -0.22441393 0.6583248
000030 34 09 72 bd f5 0f 72 3f 00 74 26 3f d8 84 db 3e
       -0.059090808 0.945556 0.6502075 0.4287479

gat1.lin.weight f4 [16, 14]
000000 9e ef 70 be cd 2a 38 be 96 b8 01 3e 7a f9 95 3e
       -0.23528907 -0.17985077 0.1266807 0.29291898
000010 fe 47 14 bd a5 13 1e be 32 3a 72 be 4d 4d 78 3d
       -0.03620147 -0.15437181 -0.23655012 0.060620595
000020 34 03 18 bf cb 0b 66 3e 81 f2 39 bf f5 ba e1 3d
       -0.5937989 0.22465436 -0.72635657 0.11021987
000030 d0 6f c2 be 91 26 94 bd d4 f2 35 be aa b3 6c 3e
       -0.3797593 -0.072339185 -0.17768413 0.23115411
000040 01 5c 1d 3e 70 3d 94 bf 5a d1 98 3f e7 1d 3d bf
       0.15367128 -1.1581249 1.1938889 -0.7387375
000050 28 7f ee 3e d7 9a a4 bf 94 8c 85 3f c9 96 42 3e
       0.46581388 -1.2859753 1.0433526 0.19002832
000060 02 52 1d be 35 c8 4c 3e 97 94 7a 3e 95 e9 12 3e
       -0.15363315 0.19998248 0.24470745 0.14346917
000070 f5 e1 94 be a9 9d 5e be bb 96 09 3f b7 54 d3 3e
       -0.29078642 -0.2173983 0.5374562 0.4127557
000080 15 3e 08 3e a2 f7 c6 3e e5 c3 10 be f7 de 04 3f
       0.13304932 0.38860804 -0.14137228 0.5190272
000090 80 da 58 be 9f e5 2f be fb 5d 5d 3d 7f a8 46 be
       -0.21177101 -0.17177437 0.054044705 -0.19400214
0000a0 55 a4 0b be 97 f3 3f 3d 59 07 c1 be c9 d8 21 3f
       -0.13636906 0.046863165 -0.37700918 0.6322141
0000b0 b3 1e 7f be c3 5a f7 be 2b 35 d9 3e f7 e1 2b bf
       -0.24914055 -0.48311433 0.42423376 -0.6714167
0000c0 80 dd 0c 3f ee 84 16 bf 44 b4 24 bd 31 e5 2f bd
       0.5502548 -0.58796585 -0.040210977 -0.042943183
0000d0 ec 28 2d 3d 5d 8d 6a 3e 14 71 12 be 13 8b 5a bd
       0.042275354 0.22905488 -0.14300948 -0.053355288
0000e0 48 0c 2e bf 50 a0 aa be c8 98 28 bf 8f 9c 72 3e
       -0.6798749 -0.33325434 -0.65858126 0.23692535
0000f0 51 58 9b 3e fd e8 58 3e a0 c8 05 3f 53 34 a8 3d
       0.30340818 0.21182628 0.52259254 0.08213105
000100 81 5c 0a 3f 10 4a f2 3d be 25 99 be 7a 66 15 3e
       0.540474 0.118305326 -0.29911608 0.14589873
000110 c8 78 b8 be 9b 5f ad bd a8 c7 e6 3d 64 d0 d8 3e
       -0.3602965 -0.08465501 0.1126855 0.4234649
000120 b7 90 f5 3d 6c e2 d1 3e 62 21 07 3f a7 8d 55 3e
       0.11990493 0.4099306 0.52785313 0.20854817
000130 bd d4 d6 3e 81 92 aa be 29 26 83 3f aa ce 4a be
       0.4195918 -0.333149 1.024602 -0.19805399
000140 56 12 26 3f 16 ad 0e 3e 7c 25 4a be ea e3 b4 3e
       0.6487173 0.13933215 -0.19740862 0.35330135
000150 a3 7d 84 3c 24 49 45 3e c4 32 9f 3e 52 d2 a2 3e
       0.01617319 0.19266182 0.3109342 0.31801087
000160 70 d2 b3 be eb 4e 84 3e e2 52 45 bf 08 90 51 be
       -0.3512149 0.2584146 -0.77079594 -0.204651
000170 7c e8 1a bf 52 64 5d be 0b 60 e9 be d8 b8 b3 be
       -0.60510993 -0.216203 -0.45581087 -0.35101962
000180 69 bd 83 3d c3 66 64 be 2a 89 ab 3c ae aa 8b be
       0.064326115 -0.22304825 0.020939428 -0.27278656
000190 1f 51 61 3e df 32 4b bf 20 df 80 3f 0c cc 23 bf
       0.22003601 -0.793745 1.0068092 -0.63983226
0001a0 fb fa 3c 3f e7 df 4e bf 46 2e 18 3f 15 a1 83 3e
       0.73820466 -0.808104 0.5944561 0.25708833
0001b0 81 3c 5f be 9e d3 94 bd 2a b1 93 be 0c 63 e4 3d
       -0.21800424 -0.07266925 -0.28846103 0.11151704
0001c0 51 2b e8 bd e0 aa cd 3e 59 d4 4c be 1d d9 70 bf
       -0.11336387 0.4016943 -0.20002879 -0.9408129
0001d0 3d 39 fb 3e f1 cf 32 bf d9 c3 47 3f 26 d5 ca bd
       0.49067107 -0.69848543 0.78033215 -0.09903936
0001e0 f3 66 71 3f 3a c5 49 be 0c 4f 2a bf 52 6c 9b be
       0.94297713 -0.19704142 -0.66526866 -0.3035608
0001f0 64 d2 9d be 3c c0 cf 3b fe 7f 4f 3d 77 e1 3c 3d
       -0.30824578 0.006340055 0.050659172 0.046113458
000200 0e 11 1e bf a4 e5 4a 3d 4c a1 71 bf f3 eb 5a 3e
       -0.61744773 0.04953541 -0.94386744 0.2137907
000210 e4 c4 28 bf e5 6b bd be 03 95 90 be fb a0 a3 bc
       -0.6592543 -0.3699638 -0.28238687 -0.019974222
000220 6f 27 05 be 46 ed b8 3e 13 5f 67 be e7 b3 7e bd
       -0.13003324 0.36118525 -0.22594862 -0.062183287
000230 19 21 6c be 72 25 27 bf 03 9d 84 be 0a 3c 61 3f
       -0.23059501 -0.6529151 -0.2590104 0.8798224
000240 c2 6f ab 3d 56 6c fe 3e 9b 47 b4 bd 4b b3 60 3f
       0.083709255 0.4969203 -0.0880272 0.8777358
000250 99 91 18 3f a6 64 cf 3d 8c b1 35 3c 41 bb 8c be
       0.59597164 0.10126619 0.011089694 -0.27486613
000260 16 3f 46 3e a4 39 f4 3d 80 46 0f be 0b d7 58 be
       0.19360003 0.119250566 -0.13991737 -0.21175782
000270 e6 b5 ec bc 1f cc f6 be c9 0c 2d 3e cf 11 47 bf
       -0.02889533 -0.48202607 0.16899408 -0.7776155
000280 0b f6 86 3e 63 0a 54 bf c3 4c c0 3e 01 17 a1 3e
       0.2635959 -0.8282835 0.37558565 0.31462863
000290 c6 23 ca 3e 2a 70 78 3d 40 b3 f3 3e e2 42 8a 3d
       0.39480418 0.060653843 0.47597694 0.06751038
0002a0 32 e9 02 3e 05 62 f9 3e 0b 59 0d 3d 23 7a 12 3f
       0.1278427 0.48707595 0.034508746 0.57217616
0002b0 66 a0 70 3e b6 64 43 3f d5 91 e7 be c2 36 83 3e
       0.23498687 0.7632555 -0.4522845 0.25627714
0002c0 c4 75 8b 3e 10 e1 aa 3d bf 15 c0 bc 92 4a 8d 3e
       0.27238286 0.083437085 -0.02344787 0.27595955
0002d0 ca 60 5c 3d a3 44 97 be a5 82 1b bf ed 2d 87 3d
       0.053803243 -0.29544553 -0.6074622 0.066005565
0002e0 42 49 da be 73 3f 3e bf 32 ca 45 3f 3f 36 9d bf
       -0.42634016 -0.74315566 0.7726165 -1.228218
0002f0 0a 7f ad 3e 1a c3 e7 be c4 63 0b 3f a0 8d 14 3e
       0.33885986 -0.45266038 0.54449105 0.1450715
000300 11 d0 c5 3d 9c 94 93 bd d8 3c bf bc fe f0 5c be
       0.09658826 -0.07206079 -0.023344442 -0.21576306
000310 f9 77 5f 3e 9a 57 ea 3e 68 58 96 be 2e 51 07 bf
       0.2182311 0.4576996 -0.29364324 -0.52858245
000320 59 01 74 3f c9 b7 a2 be d8 9e 28 3f 6b 2a 0b be
       0.95314556 -0.31780842 0.65867376 -0.135904
000330 89 6a 70 3f 48 71 46 bd c4 4d 4f 3e bb 3a 3e be
       0.9391256 -0.048447877 0.20244509 -0.18577091
000340 b8 64 47 3e 49 ad 90 be 4b 0b 88 be 10 54 ef 3e
       0.19472015 -0.28257206 -0.26571116 0.46743822
000350 83 45 26 be bf cd b5 3e af 63 cb be 80 bb fd 3d
       -0.16237454 0.35508534 -0.3972449 0.123892784
000360 70 5c 8f bd b5 d7 bc 3d 5f 04 43 be 74 83 41 be
       -0.07000053 0.0922083 -0.19044636 -0.18897802
000370 11 99 15 3e 2d e0 ee 3b c4 24 b3 3e f2 ce db 3b
       0.14609171 0.0072899074 0.34988987 0.0067080194

gat1.lin_edge.weight f4 [16, 2]
000000 f6 7d 2c be 9d d8 31 3e 67 33 39 3f 91 b4 e7 bc
       -0.16844925 0.17367788 0.7234406 -0.028284343
000010 77 57 83 bf df 4b 9c be d2 d8 7f 3e 78 5d 78 3e
       -1.0261067 -0.30526635 0.24985054 0.24254405
000020 da 3b 6b bf 5c 5f e3 3d 10 8d e5 be 0d 5f 09 bf
       -0.918882 0.11102173 -0.44834185 -0.5366066
000030 7e ef 16 bf ba 79 3a 3e 9a a2 11 bf 46 7f 1b be
       -0.58959186 0.18210497 -0.56888735 -0.1518527
000040 a1 53 b7 3d 96 4d 22 bf ed 71 1f bf c9 69 1d 3e
       0.08951498 -0.63399637 -0.6228321 0.15372385
000050 45 ac 8a 3d cc a6 d8 3c 6b 0a 0b 3e 56 33 ca be
       0.06771139 0.026446722 0.13578193 -0.3949229
000060 e0 fe a0 ba 70 bb cc 3e 22 97 84 bf 97 e5 46 bf
       -0.001228299 0.39986753 -1.0358622 -0.77694076
000070 fa 9b 5e bf 4f 2e fe be 91 ca 07 bd ab 1c d8 be
       -0.8695675 -0.49644706 -0.033152167 -0.42209372

gat2.att_src f4 [1, 1, 16]
000000 6c 81 f0 3d 85 80 11 3e 4a a7 aa be b2 6b ad 3d
       0.11743435 0.14209183 -0.33330756 0.08467807
000010 28 f6 26 3d 8e 88 ed bd a9 de 39 bd 0b de ec be
       0.040762097 -0.11598311 -0.04537836 -0.46263155
000020 90 c8 fe 3d 74 ca b5 be 67 c8 e1 be d3 23 cd 3e
       0.12440598 -0.35506022 -0.44098207 0.40066394
000030 4a c2 48 be e3 2c b5 3e 16 3e 50 3e c9 3a 83 be
       -0.19605365 0.35385808 0.20336184 -0.25630787

gat2.att_dst f4 [1, 1, 16]
000000 21 79 34 3e 08 8c 05 3f cb a6 2f bf 37 ad 84 be
       0.17624332 0.52166796 -0.6861388 -0.25913402
000010 43 68 8d 3f 01 05 03 3f da 49 18 bf f6 d3 6b bf
       1.1047443 0.5117951 -0.5948769 -0.921203
000020 87 87 26 3f d6 9c 10 3f 72 0b 90 be f5 f9 53 3e
       0.6505055 0.5648931 -0.28133732 0.2070082
000030 b5 01 7d bf 24 03 32 bf 66 40 5c 3e 15 8c 81 bf
       -0.9883073 -0.6953604 0.21508941 -1.0120875

gat2.att_edge f4 [1, 1, 16]
000000 63 d7 7b 3e 39 b6 55 bf c7 8f 2c 3f 6b 6e d5 be
       0.24593882 -0.83481175 0.67406887 -0.41685805
000010 d4 ba 0a bf bc f0 0b bf 4f fe 50 3e 61 91 98 3e
       -0.5419133 -0.54664207 0.20409511 0.29798415
000020 81 f5 f1 3e 0a ce 59 3f ab 42 41 3f 13 8b 4e bf
       0.47257617 0.85080016 0.7549235 -0.8068096
000030 4f 4d c3 be ca a6 9f bd d1 31 f1 be 9a 02 48 3e
       -0.3814492 -0.07795484 -0.4710832 0.19532242

gat2.bias f4 [16]
000000 41 76 c8 3e 5a d8 e1 3e a3 f8 c4 3e 9d 98 0e be
       0.3915272 0.44110376 0.38470945 -0.13925405
000010 d5 48 c4 3e a2 cd 8b 3e d0 f0 05 be 87 42 95 be
       0.38336816 0.27305323 -0.13080144 -0.2915232
000020 1b 0c e8 3e 88 f0 9d 3e 10 6c 0a bf b9 0a 78 3d
       0.45321736 0.30847573 -0.5407114 0.0605571
000030 80 d8 d6 bd 31 a7 36 3d 04 84 38 3d 63 98 25 be
       -0.10490513 0.04459304 0.045047775 -0.16171412

gat2.lin.weight f4 [16, 16]
000000 0c 6b 31 bf d4 53 55 3f 25 95 2d be 1a 51 72 3f
       -0.69303966 0.83331037 -0.16951425 0.94655
000010 dd f4 e6 3e ab 12 fd 3e d2 9e 3a bf c4 b8 6b 3f
       0.4510869 0.49428305 -0.7289859 0.92078805
000020 90 2d 65 3f 5d 2b c7 be a8 36 cb 3e 1a 55 bf 3e
       0.8952265 -0.3890027 0.39690137 0.37369615
000030 61 3c 67 bd ac ec 43 3f 6b e6 7d 3f 5e 8a 30 bf
       -0.056454066 0.7653301 0.99179715 -0.6896113
000040 6d 56 92 3d b8 b9 7d 3f 1c a5 18 bd db a2 f7 3e
       0.07145391 0.9911151 -0.037266836 0.48366436
000050 80 1b 08 3f bb 38 7d 3e 90 34 d3 bd 9e b4 58 3f
       0.5316696 0.24728672 -0.1031276 0.846506
000060 ef 06 29 3f f7 1f 2f bf 21 37 8e 3e cb 6e 39 3f
       0.66026205 -0.6840815 0.27776435 0.7243468
000070 57 7b a0 3c 15 a4 6f 3e f6 e7 c9 3e 29 2d 1c bf
       0.019590063 0.23402436 0.39434785 -0.6100641
000080 92 f6 88 be d4 f5 30 3f 7c fc 59 bb a8 aa 87 3e
       -0.26750618 0.69125104 -0.0033262065 0.26497388
000090 02 3e 1f 3f e9 c9 7d bd 93 fa 8e be b4 c8 73 3f
       0.6220399 -0.061960135 -0.27925548 0.95228124
0000a0 08 3d ac 3d 91 eb 1e bf 63 3b a1 3e f1 d8 bf 3e
       0.08410078 -0.62078196 0.3149062 0.374702
0000b0 f5 1f a7 bd 0a 3b 58 3f 39 e9 01 3f aa 21 90 3d
       -0.08160392 0.84465086 0.50746495 0.07037671
0000c0 1d 4d 93 3e 0b 7d 85 3e 1b 57 65 be 80 bf b8 be
       0.2876977 0.26071963 -0.2239651 -0.36083603
0000d0 f9 01 14 3e ca 92 93 3e 9b 6f 14 be 3e 21 a8 bd
       0.14453878 0.2882293 -0.14495699 -0.082094654
0000e0 96 8e 22 be 14 49 f3 bd 1e 20 0d bf 2c 76 dc bc
       -0.15874705 -0.11879173 -0.5512713 -0.026911817
0000f0 6d e6 94 3c 1d 85 b6 bd 85 4a 8e be 00 b9 28 be
       0.018176282 -0.08912108 -0.2779123 -0.16476822
000100 0d 02 e0 3c a4 3c 5f 3f e7 b3 8c 3e 56 2d 8b 3f
       0.027344728 0.87201905 0.27481005 1.087321
000110 68 ec af 3e f8 61 a5 3e 48 44 7b bf 01 4c 30 3f
       0.3436005 0.32301307 -0.98151064 0.6886597
000120 b8 1f 00 3f 0a f7 a0 be 04 e9 0f 3d cb 9d 43 3f
       0.500484 -0.31438476 0.03513433 0.7641265
000130 a2 35 81 3e 04 8a 30 3f d8 37 ff 3e e0 a0 6b be
       0.2523623 0.68960595 0.49847293 -0.23010588
000140 13 a9 25 be 29 26 d1 be fd 40 dc 3e e8 ea 5c 3e
       -0.16177778 -0.40849426 0.43018332 0.21573985
000150 4a 24 16 be b5 94 8a 3e 76 99 dd 3e 84 ed 91 3d
       -0.1466228 0.2706658 0.43281144 0.07125381
000160 ce f5 f9 3d e6 66 bb be 5e 5a 6a 3e 58 b4 f7 3e
       0.12205087 -0.36601943 0.22886035 0.4837978
000170 75 15 e7 3e 4d 80 82 be 75 a0 22 be 12 d2 b0 3e
       0.45133558 -0.2548851 -0.15881522 0.3453527
000180 f0 12 87 3e 50 2b 66 3f 48 dc df be 2a 07 c5 3d
       0.26381636 0.8990984 -0.4372275 0.09620507
000190 9a 61 9d 3d 72 5e 0b 3f 38 49 21 bf ce ae e9 3e
       0.07684632 0.5444099 -0.6300235 0.45641178
0001a0 bd a0 3c 3f 5c 4f 01 bf 9f b4 7e 3e 31 74 b1 3e
       0.7368277 -0.5051172 0.24873589 0.3465896
0001b0 d2 99 d8 be 52 69 25 3e e9 ac 37 3f 17 70 1b bf
       -0.42304856 0.16153458 0.71748215 -0.6071791
0001c0 07 4a 1c bf ff 70 2d 3e c6 ed 84 bd 0a a7 0e bf
       -0.61050457 0.16937636 -0.06490664 -0.5572363
0001d0 7d 29 de be 96 31 1c 3e 47 5f af 3e 17 3c 9f 3c
       -0.43391028 0.1525329 0.34252378 0.019437833
0001e0 85 46 7a be 9b 96 ae be 56 ab b1 3e 86 cb aa be
       -0.24440964 -0.34099278 0.3470103 -0.333584
0001f0 99 9f c1 be 4b 92 96 3d 6a 57 cc 3c 87 2a 3f 3d
       -0.37817076 0.07352122 0.024944026 0.046671417
000200 50 e8 08 3f e0 19 8f be dd e7 f0 3d b5 46 2e 3e
       0.5347948 -0.2794943 0.117629744 0.1701916
000210 1d d1 1b 3d 6a d6 99 be 91 03 2d 3e 20 82 5b 3e
       0.038041223 -0.30046397 0.16895892 0.21436357
000220 62 cf 6d 3e bc 31 6e 3e 3f 8b e4 3e a6 d8 be 3d
       0.23223642 0.2326116 0.44637486 0.09318666
000230 2f c0 f5 be 99 dd 84 be cb 01 6e be 59 05 17 3f
       -0.47998187 -0.25950316 -0.23242871 0.58992535
000240 bd a4 24 bf df e0 81 3f d8 47 3d be 35 de 11 3f
       -0.6431387 1.014675 -0.18484437 0.56979686
000250 87 20 27 3f 11 18 a6 3e 85 59 f5 be 31 56 9c 3f
       0.6528401 0.32440236 -0.4791986 1.2213804
000260 82 d7 41 3f 72 9e 8b be 32 12 ab 3e 11 c7 0e 3f
       0.75719464 -0.27269322 0.3341232 0.557725
000270 7a 98 40 be 5b d5 6c 3f 1d c1 48 3f f4 6c fd bd
       -0.18808165 0.92513055 0.7841967 -0.12374297
000280 44 ee 8f be 7f 48 af be cc a3 66 3d db 49 b9 bc
       -0.2811147 -0.34234998 0.056308553 -0.022618225
000290 26 84 13 3e dd d1 50 3e 3e e1 f8 3e 4e c9 f7 3d
       0.1440588 0.20392556 0.48609346 0.12098943
0002a0 22 5f 3e be f2 f0 42 be b0 7b 74 bd aa d3 c7 be
       -0.18590978 -0.19037226 -0.05968827 -0.39028674
0002b0 4c 20 6e 3e b1 11 74 3e b6 be 77 3e 39 3d 76 be
       0.23254508 0.23834874 0.24193844 -0.24046792
0002c0 0f 8a c2 bd e5 11 30 3f b4 dd 52 3e 01 45 4e 3f
       -0.09498989 0.68777305 0.20592386 0.8057404
0002d0 11 40 17 3f 73 2e 91 3e 5b b8 48 bf c6 b9 eb 3e
       0.5908213 0.2835575 -0.78406304 0.4604017
0002e0 80 e7 3d 3f 68 87 a8 be 1c 1e 6f bd 44 d3 7b 3f
       0.74181366 -0.32915807 -0.058378324 0.9836924
0002f0 06 ea df 3d 9f 44 56 3f 1a ef 2d 3f ea d8 be be
       0.10933308 0.8369846 0.67942965 -0.37274867
000300 6e dd c7 be 50 2b be bd cf 9d 2d bf 44 b3 37 be
       -0.39036125 -0.09285605 -0.6781892 -0.17939478
000310 49 31 8c be 3b ae 3e be b3 fa a8 bd 2f d3 e1 be
       -0.27381352 -0.18621151 -0.08250942 -0.44106433
000320 18 d8 11 be 36 ff e3 3e 81 14 c5 bd 6b 88 8b bd
       -0.1424259 0.44530648 -0.096230514 -0.06813129
000330 60 b7 96 bc 31 ca df bd c5 c6 99 3e 9d e9 5f be
       -0.018397987 -0.10927237 0.30034462 -0.2186646
000340 2f b3 0c 3e 78 8d 3f 3c db 00 8e 3e 43 13 3f 3e
       0.13740228 0.011691444 0.27735028 0.18659692
000350 09 9c a5 be 92 19 07 bf 30 03 72 bf 46 ca ab bd
       -0.32345608 -0.5277339 -0.94536114 -0.0838819
000360 04 bc c6 be 87 b6 03 bd 5d 12 1e bf ff d1 ae 3e
       -0.3881532 -0.032156494 -0.6174677 0.3414459
000370 34 24 2b bf c0 7e ed 3e 33 cc 4f bc f8 3c 9c be
       -0.66852117 0.46385765 -0.012682962 -0.30515265
000380 20 f4 42 3d f6 07 42 be fa e7 1d 3f 99 61 3b 3c
       0.047596097 -0.1894835 0.61682093 0.011436843
000390 e8 08 3b 3c cd d2 b2 3e 41 b6 01 3f dc 77 dd be
       0.011415698 0.34926453 0.5066872 -0.43255508
0003a0 bc 11 a7 be 16 1a 64 be 16 d1 c7 be d9 47 11 3d
       -0.32630718 -0.22275576 -0.39026707 0.03546891
0003b0 27 a2 67 3e d6 f1 dd 3d 02 c8 9e 3d 61 2c 4c 3d
       0.2262045 0.10837142 0.07752992 0.04984701
0003c0 aa 23 fe be 70 64 91 3e c4 a0 3c bf 78 48 2d bf
       -0.49636585 0.2839694 -0.7368281 -0.67688704
0003d0 fc db 49 3e 69 f1 f4 be b2 a6 0f 3f d1 04 a6 be
       0.19712824 -0.4784043 0.5611373 -0.3242555
0003e0 55 7c 2d 3d 22 82 02 bc 92 75 0e bf ac 7d c0 3e
       0.0423549 -0.007965596 -0.5564815 0.3759588
0003f0 ce 97 a7 bb 71 97 53 3e 0e 3f 0d bf 7e 01 02 bf
       -0.005114532 0.20663239 -0.5517434 -0.50783527

gat2.lin_edge.weight f4 [16, 2]
000000 40 e0 32 be a8 13 46 3f 80 ec 1d 3f 9d 06 04 bf
       -0.17468357 0.77373743 0.61688995 -0.5157259
000010 72 3c 58 bf c5 7d a0 3f 52 02 2b 3f f5 99 77 bf
       -0.8446723 1.2538382 0.66800416 -0.96719295
000020 5b 93 5c 3f 4c 6e 51 bf 12 c2 0c 3f 9a e4 a7 bf
       0.86162347 -0.81808925 0.5498363 -1.3116639
000030 33 f9 3a 3e 3b ed 33 3f ec 1f 2b 3e ff 3b 81 3f
       0.18259124 0.7028386 0.16711396 1.0096434
000040 d8 bb c1 be a6 76 55 3f 7c 60 34 bf 47 1a e4 3d
       -0.37838626 0.8338417 -0.70459723 0.111378245
000050 bf af 59 bd 9a fd 8f 3f 6c f2 1f 3f 2e 4a 9b bf
       -0.05314612 1.1249268 0.6247928 -1.2132013
000060 e4 a6 27 3e c7 3d 3f bf 7c 21 83 bd 44 c1 fd bc
       0.16372257 -0.7470364 -0.06402871 -0.030975945
000070 40 4f ba 3e a1 4d 9b bf c8 cc ff bd 06 60 3c 3f
       0.36388588 -1.2133065 -0.12490231 0.7358402

mlp.0.weight f4 [16, 32]
000000 42 28 52 3d 4a 0b f0 3c cd 75 ef 3b 12 ef 0c 3e
       0.051307924 0.029302258 0.007307744 0.13763073
000010 1b 6b 6b 3e 1d 4d 3b 3f 12 28 7d be 14 3c ce 3e
       0.22990076 0.7316454 -0.24722317 0.4028021
000020 f8 73 9e 3e 79 45 a5 3d 6c 98 bc 3d 7b 66 75 be
       0.30947852 0.080698915 0.0920876 -0.23964874
000030 1c 38 b1 be eb f6 64 3e f6 73 56 3d 03 da 5f 3d
       -0.3461312 0.22359817 0.052356683 0.05465127
000040 8a 2a 19 be 5e 19 2d 3e c4 55 9e 3e 93 32 3b 3c
       -0.14957634 0.16904208 0.3092481 0.011425632
000050 da 55 34 3e 48 6e eb 3e 8c 18 a2 be eb b2 0f be
       0.17610875 0.45982575 -0.31659353 -0.14033096
000060 fb 0c fb 3e 86 ac cf 3d bd 57 6e 3d 79 16 c0 bd
       0.4903334 0.10140328 0.058189142 -0.09379286
000070 c2 31 f8 bc f0 82 23 3e bd 29 22 3e f5 a3 95 3e
       -0.030297164 0.15967917 0.15836234 0.29226652
000080 5d bc 2b 3e 18 cf f5 3d ff 47 1e be 9e d5 e3 3d
       0.16771074 0.120023906 -0.15457152 0.111247286
000090 5f c9 15 bc 8f 35 8a bd 6d a7 6b 3d e0 a2 1f be
       -0.009142249 -0.06748497 0.057532717 -0.15589476
0000a0 5e c1 91 3c fe e9 60 3e 4e e3 02 bd 4c 9c 26 3e
       0.0177924 0.21964261 -0.031955056 0.1627056
0000b0 2f 6e b9 3b ba 53 20 3e 61 b1 a8 bd 48 5c f8 bb
       0.005658887 0.15656939 -0.08236957 -0.00757936
0000c0 be af 37 be 71 35 dc be ea b8 51 be f2 c6 c3 3d
       -0.17938134 -0.43009523 -0.20480695 0.0955943
0000d0 7d eb 95 be 53 f9 78 bb 40 c2 8e be 8f 99 42 3e
       -0.29281226 -0.0037990406 -0.27882576 0.1900389
0000e0 da c4 c6 3d e2 16 89 be 42 ae 79 bd b1 50 23 be
       0.09705515 -0.2677527 -0.0609572 -0.1594875
0000f0 83 8b 56 3e e9 ec 8b be 38 8b 61 3e b1 f4 10 3d
       0.20951657 -0.27329186 0.22025764 0.035389606
000100 35 93 e1 3e e7 32 da 3e 3e 14 bc 3e 6b 9c c7 bc
       0.44057623 0.4261696 0.36734194 -0.024366578
000110 81 f0 89 3e b7 b9 2a 3e 45 e5 2a 3f 50 24 57 be
       0.26941302 0.16672407 0.6675609 -0.21009946
000120 6e 8d d1 be b9 44 f8 3e 9a b3 d2 3d 8a 8d da 3e
       -0.40928215 0.4848993 0.102881625 0.4268611
000130 5a 3f 80 be 30 51 e3 3d 7f 77 50 bf c6 fe a9 3e
       -0.25048333 0.1109947 -0.81432337 0.3320219
000140 a8 7c 12 bf 95 c3 0e bf bd 63 90 be 4f 00 e8 3c
       -0.5722146 -0.55767184 -0.28201094 0.02832046
000150 ed fe c1 be 00 b4 7c 3e 9d 10 f3 be 9d dc a5 3f
       -0.37889805 0.2467804 -0.47473612 1.2957951
000160 26 3c be 3e b4 2e ef be 59 5a ff bd 3a 3c 29 bf
       0.37155265 -0.4671532 -0.12468404 -0.66107523
000170 d8 99 36 3e 69 cf 08 be 84 fd fd 3e 6e 76 6c 3e
       0.17832124 -0.1336037 0.4960748 0.23092052
000180 67 d7 90 be 26 a0 11 bf cc a2 9e be 3e f7 1e 3d
       -0.2828934 -0.5688499 -0.3098358 0.038810007
000190 95 cb e2 be 60 40 9b 3d fc 22 bc be 59 c8 03 bf
       -0.44295946 0.07580638 -0.3674544 -0.5147758
0001a0 16 88 23 bb b4 5c 95 be 0b 31 62 be c8 42 89 be
       -0.002495294 -0.2917229 -0.22089021 -0.26808763
0001b0 68 98 26 bc b5 91 42 be 47 83 43 3e b8 82 fc be
       -0.010168172 -0.19000895 0.19093047 -0.4931848
0001c0 11 84 f3 3d f2 01 ee 3d 5f 02 72 3e 04 37 cc 3c
       0.11890424 0.11621465 0.23633717 0.024928577
0001d0 ec ab 79 3e b7 a6 5f bd ff 30 86 3e 3e 2f 8b 3d
       0.24381989 -0.05460235 0.26209256 0.0679612
0001e0 3b 27 54 3e 78 7a 9a 3e 95 5f fb 3d d0 dd ab 3e
       0.2071809 0.3017156 0.1227409 0.33567667
0001f0 c8 d6 76 3d b2 67 79 bc 0e 9a 91 bd 54 2a 81 bf
       0.060263425 -0.015222477 -0.07109462 -1.0091043
000200 10 3c c2 bd e6 a2 99 bd 99 65 dc bd 8e c0 07 3e
       -0.09484112 -0.075017735 -0.10761566 0.13257048
000210 33 3f 87 be 5c 7e b1 bd 2e 07 a6 be 9e 04 78 be
       -0.26415405 -0.08666679 -0.32427353 -0.24220511
000220 da 0e ac be 3a c8 d5 bd a2 e6 ed 3c 86 e3 92 3d
       -0.3360508 -0.10438581 0.029040638 0.07172303
000230 ef f9 4c 3e 94 5f cd bb d9 b6 8c bd c7 ac d1 bd
       0.20017217 -0.0062674973 -0.06870813 -0.10238033
000240 a3 6f 73 be 7e 36 7e be d0 3f a3 3d 5f 1d e2 3d
       -0.23773055 -0.24825475 0.07971156 0.11040758
000250 2c b6 b4 3d 28 e4 7e be 43 94 a7 bd 9e 63 b6 3c
       0.08823809 -0.24891722 -0.081825756 0.022264298
000260 30 2f 0f be bc 8c 9a 3d fa db 8f bb 12 76 9d bd
       -0.13982844 0.07546374 -0.004390237 -0.07688536
000270 2a 88 34 3d af 8b 50 be 52 c2 8b 3c d2 9e 32 3c
       0.04407517 -0.20365785 0.017060433 0.0109021235
000280 44 06 16 bd 19 b2 e5 bd cc ea cf bd 35 dc cc bd
       -0.03662707 -0.1121561 -0.10152206 -0.10002939
000290 bf 35 9c be 50 4e c1 bd 5e 71 b0 3c 7a 97 6e 3d
       -0.30509755 -0.09438765 0.021538433 0.058249928
0002a0 11 8b 54 bd b0 f5 8e be 4b 04 34 be 04 74 fc 3d
       -0.051890437 -0.2792182 -0.17579763 0.12326816
0002b0 55 ba 8c 3e 1e d2 54 bd de 08 6a 3c e6 08 4a 3c
       0.2748591 -0.051958196 0.014284341 0.012331223
0002c0 98 d1 79 be d5 c6 3c bd f3 e5 59 bc 3b e0 3a be
       -0.2439636 -0.04608806 -0.013299453 -0.182496
0002d0 c7 9f 23 3d 6e 3e dc 3b 87 56 3e be 64 b8 b3 3d
       0.039947297 0.0067213094 -0.18587695 0.08775404
0002e0 fd 11 11 be 04 3a 81 3c b3 b4 e9 3c 95 4f 30 be
       -0.14167018 0.015774734 0.028528547 -0.17217858
0002f0 ed 41 53 3e 24 41 58 3d 4f 8b c7 3d 1b a0 e6 bd
       0.20630617 0.052796498 0.09743368 -0.112610064
000300 4f e5 ad be 60 bb ed bd 88 90 ab bd 18 4f f9 3b
       -0.3396401 -0.116080046 -0.083771765 0.0076083057
000310 06 65 b0 bd 3a 55 90 3d 6b 24 c5 be 08 1e 3b 3e
       -0.08613019 0.07047506 -0.38504347 0.18273175
000320 c3 ba 47 3e 19 ac ae be b8 c9 d1 bb 70 c0 0b bd
       0.19504838 -0.34115675 -0.0064022206 -0.03411907
000330 4e a5 10 be 7f 0b 55 3e 67 31 35 3e f1 71 3e 3e
       -0.14125559 0.20805167 0.17694627 0.18598153
000340 08 c7 a5 be e4 20 9f 3c 99 91 1f 3e f5 b1 10 bc
       -0.3237841 0.019424863 0.15582885 -0.008831491
000350 61 08 cf 3b cf 08 63 3e 30 f9 20 bf aa bf 32 3e
       0.0063181375 0.22171329 -0.6288023 0.17455927
000360 d3 01 d0 3d 11 cf dd be b6 ae dc bd 73 f7 57 be
       0.10156598 -0.43322042 -0.10775511 -0.21090488
000370 c4 45 8f be a7 e2 a2 bd 9d be f7 3c 99 bc 34 3d
       -0.27982914 -0.07953387 0.030242259 0.044125173
000380 36 8a ab be f7 b1 05 bf 02 6c 78 be 1c 0b b5 3c
       -0.33503884 -0.5222468 -0.24259952 0.022100024
000390 cc 31 0b bf ef c5 17 bd 28 b0 d0 be 7a 02 7f bf
       -0.5437286 -0.037054 -0.40759397 -0.99613154
0003a0 41 47 5e 3e 69 d4 10 bf 58 19 13 bf 8f 49 f8 be
       0.21706869 -0.5657411 -0.57460546 -0.4849362
0003b0 80 c6 07 3e be 98 3d bf d2 18 50 3f b3 dd b1 bf
       0.13259315 -0.7406119 0.8128787 -1.3895782
0003c0 ba 53 8f 3e fa 46 16 3f aa 04 ef 3e 08 b7 a6 be
       0.27993566 0.5870205 0.46683246 -0.32561517
0003d0 fe 2a 17 3f 01 8f 10 3e 20 6c ef 3e 8d 82 6a 3e
       0.59049976 0.14117052 0.4676218 0.22901364
0003e0 86 d1 e2 bd 36 71 bc 3e 4c 6c 26 3f b4 98 ec 3e
       -0.1107512 0.36805123 0.65009 0.46210253
0003f0 d5 a5 98 3c 52 d3 ae 3e fd 9b 43 bf 77 cc 4c bf
       0.018633762 0.341456 -0.76409894 -0.7999949

mlp.0.bias f4 [16]
000000 60 89 53 3e 3d 30 30 bc 90 9a 2f be ce a9 ef bd
       0.20657873 -0.010753688 -0.17148805 -0.117023095
000010 e1 b1 0c 3e c7 7f 94 3d 80 7a 0f 3d 5b af 0a be
       0.1373973 0.07250934 0.035028934 -0.13543455
000020 8a 39 1c 3e fa be 9f 3e 7a a5 a8 3e b7 8d 92 bc
       0.15256324 0.3120039 0.3293875 -0.01788984
000030 5e 16 b6 bd af 42 97 3e 61 aa 35 be 6b cd 50 3d
       -0.08890985 0.29543063 -0.17740776 0.05097715

mlp.2.weight f4 [1, 16]
000000 22 2f 49 3e c2 9e 48 bf e9 0b 9f bf 13 99 62 bf
       0.19646886 -0.78367245 -1.242551 -0.8851482
000010 db 05 67 be 4c 93 13 be e6 6a 4a 3e 49 76 95 bf
       -0.22560827 -0.14411658 0.19767341 -1.1676723
000020 2c 56 09 3d d6 a1 24 3e 20 51 c0 3d f7 44 a4 bd
       0.033529446 0.1607736 0.09390473 -0.080209665
000030 00 76 2d be 61 28 93 3e 20 ce 12 bd ff db 63 3e
       -0.16939545 0.28741744 -0.035841107 0.2225189
