data/CTC/Fluo-N2DH-SIM+/02_RES_GAT/20250714_232839/top3_model_fold3.pth (torch, 11177 bytes, 15 tensors)

gat1.att_src f4 [1, 1, 16]
0.17143154 -0.07399687 -0.31060013 0.1952883 0.046975415 0.17109655 0.51680213 0.3521495
-0.44604772 -0.3199846 0.025312448 -0.26011458 0.23157315 0.030620335 -0.12841098 -0.2347246
00000000: c08b 2f3e ac8b 97bd fb06 9fbe a8f9 473e
00000010: 4b69 403d ef33 2f3e 254d 043f f04c b43e
00000020: 5e60 e4be 06d5 a3be 0d5c cf3c bd2d 85be
00000030: 8321 6d3e 7fd7 fa3c 2b7e 03be a55b 70be

gat1.att_dst f4 [1, 1, 16]
0.42274532 0.061603375 0.9206893 1.2060999 -0.3104742 -0.16558671 -0.49623847 0.094306886
0.50255275 0.9045988 -0.1975516 0.7910441 -0.1858486 0.22941603 -0.3417873 -0.38076946
00000000: 1372 d83e d253 7c3d 4bb2 6b3f 7b61 9a3f
00000010: 79f6 9ebe 908f 29be f812 febe f823 c13d
00000020: 4ca7 003f c993 673f f74a 4abe de81 4a3f
00000030: 184f 3ebe 09ec 6a3e bffe aebe 37f4 c2be

gat1.att_edge f4 [1, 1, 16]
1.007098 1.4882756 0.053336 0.36747915 -0.6153675 -0.74687845 -1.3713626 -0.27652118
0.59870154 1.4634026 1.2686344 -0.62939787 1.2180301 0.12565804 -1.0068828 0.8018418
00000000: 96e8 803f d17f be3f d976 5a3d 3a26 bc3e
00000010: b988 1dbf 6d33 3fbf cf88 afbf 2f94 8dbe
00000020: 8144 193f c750 bb3f 9d62 a23f 3820 21bf
00000030: 69e8 9b3f 80ac 003e 89e1 80bf 8145 4d3f

gat1.bias f4 [16]
-0.0076226746 0.2961142 -0.002169023 0.030699419 0.5845731 0.2473403 0.45870522 -0.16676682
0.31914863 -0.1457197 0.3187147 -0.32580158 -0.29242963 0.39068273 -0.24288484 0.42802638
00000000: a1c7 f9bb 489c 973e 2b26 0ebb 597d fb3c
00000010: 95a6 153f c746 7d3e 69db ea3e ecc4 2abe
00000020: 7367 a33e 8c37 15be 932e a33e 77cf a6be
00000030: 56b9 95be 9107 c83e ceb6 78be 4626 db3e

gat1.lin.weight f4 [16, 14]
0.19846058 0.2153284 0.045552954 -0.5209272 0.58716303 -0.41110823 0.4516113 -0.6144227
0.46827424 -0.24470623 -0.29901034 0.19053155 -0.29489675 0.042954184 0.30683702 0.5537636
-0.14809969 0.05702602 -0.3818852 -0.037648074 -0.61469245 -0.020353975 -0.36323962 0.08688987
0.35424396 -0.00815843 -0.28121316 0.056188393 0.5273719 0.7289992 -0.64512676 -1.1313049
0.715965 -0.5752535 0.15569796 -0.9433 0.6423461 0.38415235 -0.3525612 0.2639608
-0.63859695 0.089018546 0.13403407 0.26994684 -0.04940857 -0.70872694 0.7002185 -0.5348534
0.030949315 -0.79321194 0.14567894 0.069563895 -0.26763898 -0.023159314 -0.7112176 0.08350588
1.1123425 0.9484317 -0.097469635 1.0012102 -0.8305384 0.42356578 -0.91997313 0.4622368
-0.40099818 0.34639746 0.012584198 -0.08054692 0.14584836 0.31092647 0.33405548 0.41162544
-0.056556556 -0.5468973 0.72444934 -0.18709898 0.3067336 -0.7219675 0.54777056 0.36210206
-0.032753825 0.0042322287 -0.22753248 -0.05546361 -0.33937585 0.8046749 0.1833253 0.18072
-1.1119361 0.63515013 -0.48942944 0.95430267 -1.1758033 0.0685506 0.24334311 0.30436164
-0.39938706 -0.07931602 -0.39528796 -0.12430739 0.14586596 -0.2711989 0.23358761 0.28292978
0.1438843 0.3725651 0.28086704 0.1561041 0.28193945 -0.32015756 0.057814665 -0.62725496
-0.400427 -0.3791855 0.00022143731 -0.0101003125 0.026239283 -0.09910968 0.23140742 -0.16470203
0.15616278 -0.1948171 0.078177884 0.22855383 -0.002590986 -0.09547287 -0.16245255 0.09912805
-0.30351722 -0.68239146 0.29488194 -0.6725876 0.34872228 0.08655828 0.05147475 -0.12275772
-0.30197296 -0.100186944 0.17315815 -0.1897615 0.19830762 0.8062923 0.48560143 0.49489743
-1.2535176 0.51694554 -0.56592774 0.5530714 -0.5797747 0.16414389 -0.042409085 0.023701673
0.069088705 -0.38937846 -0.28217247 0.21947095 0.045721978 -0.41141462 0.05586351 -0.021180864
0.394546 -0.32970402 -0.2579937 -0.17946947 -0.19467181 -0.13081725 0.20893762 0.0011556252
-0.28897673 -1.0829264 0.45539325 -0.16293009 0.08290694 0.07236014 -0.42681977 -0.14363228
0.069574684 0.18386744 0.23357198 -0.5016075 0.9277288 -0.29597783 -0.080464646 0.6608477
-0.08077928 -0.76603425 0.20430699 -0.40235353 0.8089976 -0.9050278 0.77601874 0.3589576
-0.12035059 -0.20933256 -0.32837713 0.25898695 -0.32309678 -0.26578608 0.14646494 0.46170703
0.3520748 0.15520541 -0.3770544 -0.0343936 -0.44978896 -0.08072227 -0.49128252 -0.066919185
-0.19490531 0.06560362 0.42598364 0.8823489 -0.2552233 0.08891938 0.67744505 -0.69448113
0.27116898 -0.13434191 0.6964298 0.22881424 -0.01833585 -0.18083566 -0.25477958 0.039359223
00000000: 4039 4b3e 0c7f 5c3e bc95 3a3d 7c5b 05bf
00000010: 5150 163f c77c d2be 9939 e73e ce4a 1dbf
00000020: a4c1 ef3e 4594 7abe e217 99be b41a 433e
00000030: b5fc 96be baf0 2f3d be19 9d3e 74c3 0d3f
00000040: 72a7 17be 1e94 693d 7586 c3be de34 1abd
00000050: 7c5c 1dbf 61bd a6bc 8bfa b9be 51f3 b13d
00000060: 775f b53e f0aa 05bc 2cfb 8fbe cd25 663d
00000070: d801 073f b19f 3a3f 0727 25bf 99ce 90bf
00000080: 7b49 373f d043 13bf 496f 1f3e 1c7c 71bf
00000090: cb70 243f 9eaf c43e e782 b4be df25 873e
000000a0: 177b 23bf 5b4f b63d 3a40 093e 7936 8a3e
000000b0: a460 4abd 216f 35bf 8541 333f 27ec 08bf
000000c0: 6b89 fd3c f00f 4bbf dc2c 153e 8477 8e3d
000000d0: fa07 89be 9ab8 bdbc 5b12 36bf 2105 ab3d
000000e0: 3d61 8e3f 6bcc 723f 299e c7bd a827 803f
000000f0: 2a9e 54bf 9ddd d83e 5c83 6bbf 4daa ec3e
00000100: a24f cdbe 025b b13e f42d 4e3c c9f5 a4bd
00000110: 4659 153e c131 9f3e 5209 ab3e 92c0 d23e
00000120: d9a7 67bd 7601 0cbf 8375 393f e096 3fbe
00000130: 300c 9d3e ddd2 38bf b13a 0c3f 7165 b93e
00000140: e028 06bd 82ae 8a3b 46fe 68be cf2d 63bd
00000150: acc2 adbe 2dff 4d3f a1b9 3b3e aa0e 393e
00000160: ec53 8ebf 3399 223f 7f96 fabe 2e4d 743f
00000170: b980 96bf 4264 8c3d f02e 793e 4ad5 9b3e
00000180: 767c ccbe 7070 a2bd 2f63 cabe df94 febd
00000190: e35d 153e 95da 8abe 9731 6f3e 2cdc 903e
000001a0: 6856 133e dac0 be3e cecd 8f3e c1d9 1f3e
000001b0: 5e5a 903e b1eb a3be 12cf 6c3d c893 20bf
000001c0: c504 cdbe 9a24 c2be a031 6839 c87b 25bc
000001d0: c4f3 d63c 04fa cabd 11f6 6c3e a6a7 28be
000001e0: 23e9 1f3e 227e 47be ba1b a03d 040a 6a3e
000001f0: 88cd 29bb 4887 c3bd f659 26be a603 cb3d
00000200: 9c66 9bbe 35b1 2ebf c4fa 963e b32e 2cbf
00000210: ba8b b23e 7845 b13d 30d7 523d 6668 fbbd
00000220: 339c 9abe d02e cdbd 5f50 313e d750 42be
00000230: 2711 4b3e 2c69 4e3f c0a0 f83e 3263 fd3e
00000240: 4473 a0bf 8b56 043f a4e0 10bf 1696 0d3f
00000250: 1d6c 14bf 5615 283e 26b5 2dbd 032a c23c
00000260: 617e 8d3d 9d5c c7be e978 90be febc 603e
00000270: f846 3b3d f0a4 d2be 23d1 643d 7e83 adbc
00000280: ef01 ca3e f7ce a8be c017 84be d8c6 37be
00000290: 0c58 47be f5f4 05be bef3 553e 5978 973a
000002a0: c2f4 93be 559d 8abf 4e29 e93e 25d7 26be
000002b0: 1dcb a93d 8e31 943d 1f88 dabe 5714 13be
000002c0: 2c7d 8e3d bf47 3c3e 7e2d 6f3e 5969 00bf
000002d0: a27f 6d3f 688a 97be a6ca a4bd 512d 293f
000002e0: 9b6f a5bd d21a 44bf da35 513e 4801 cebe
000002f0: 771a 4f3f e7af 67bf 2aa9 463f 4ac9 b73e
00000300: 5f7a f6bd 465b 56be 0c21 a8be f099 843e
00000310: f16c a5be 1d15 88be e8fa 153e dd64 ec3e
00000320: 2643 b43e 2bee 1e3e 460d c1be 4ee0 0cbd
00000330: bd4a e6be b851 a5bd 6289 fbbe ed0c 89bd
00000340: 4295 47be 315b 863d 871a da3e 9ee1 613f
00000350: a1ac 82be 5d1b b63d 0a6d 2d3f 84c9 31bf
00000360: a9d6 8a3e ed90 09be 3949 323f 484e 6a3e
00000370: 1135 96bc fc2c 39be 7872 82be 2337 213d

gat1.lin_edge.weight f4 [16, 2]
-1.3970561 -0.42755648 -1.4274634 -0.11164469 -0.046469584 0.0046744007 -0.37313008 0.013913571
0.94514906 0.15258262 0.8058521 -0.1379778 1.1413746 0.033999644 0.39707395 -0.14798588
-0.77640295 0.13247055 -1.2237568 -0.53064144 -0.9339807 -0.072177306 0.716692 0.56357956
-1.0811479 -0.31163028 -0.07209319 -0.07790279 1.4459563 -0.2029234 -1.1134669 0.13550702
00000000: bcd2 b2bf afe8 dabe 1fb7 b6bf f9a5 e4bd
00000010: e456 3ebd b72b 993b e80a bfbe bff5 633c
00000020: 4af5 713f 9e3e 1c3e 534c 4e3f 0d4a 0dbe
00000030: 9018 923f 3643 0b3d 474d cb3e 9c89 17be
00000040: 58c2 46bf 5ca6 073e 10a4 9cbf 1ed8 07bf
00000050: 5c19 6fbf b2d1 93bd 2079 373f c046 103f
00000060: 0e63 8abf 018e 9fbe 98a5 93bd 7f8b 9fbd
00000070: 1915 b93f 27cb 4fbe 1586 8ebf 5ac2 0a3e

gat2.att_src f4 [1, 1, 16]
-0.38483337 0.031365108 -0.11865763 0.25804538 0.23150295 0.43988836 -0.13923335 -0.51800174
0.2212812 0.522202 -0.10522516 -0.6068662 0.053615306 -0.014149965 0.19663759 -0.07596653
00000000: e108 c5be b378 003d c602 f3bd 861e 843e
00000010: 1c0f 6d3e 0c39 e13e 3093 0ebe c39b 04bf
00000020: 8a97 623e 08af 053f 4a80 d7bd 955b 1bbf
00000030: b99b 5b3d 41d5 67bc 5d5b 493e 5794 9bbd

gat2.att_dst f4 [1, 1, 16]
-0.23453555 0.09302313 0.33412084 -0.09873952 -0.19501592 0.65979284 -0.32325703 -0.3643064
0.15339148 -0.13480078 -0.12243616 0.50226766 0.1465848 0.45825124 -0.12588872 0.2290723
00000000: 162a 70be e982 be3d e311 ab3e f237 cabd
00000010: 41b2 47be 2fe8 283f f281 a5be 5e86 babe
00000020: a812 1d3e 3709 0abe cfbf fabd 9d94 003f
00000030: 531a 163e e89f ea3e f9e8 00be ee91 6a3e

gat2.att_edge f4 [1, 1, 16]
0.9096172 0.69499475 -0.5525278 -0.5663781 -0.23897469 0.1195884 -0.3916319 -0.105512425
0.40129274 -0.74481964 -0.38484672 -0.35226613 -0.7770216 0.5551029 0.34125045 -0.223951
00000000: acdc 683f 2deb 313f 7672 0dbf 28fe 10bf
00000010: c8b5 74be c3ea f43d fa83 c8be e616 d8bd
00000020: 3e76 cd3e 80ac 3ebf a10a c5be 3a5c b4be
00000030: e3ea 46bf 391b 0e3f 61b8 ae3e 6953 65be

gat2.bias f4 [16]
-0.12657462 -0.022299657 -0.09675969 0.65659773 0.6315698 0.23726395 0.5922918 -0.061711986
0.21230721 0.0132878125 -0.15729254 0.14546557 -0.116272874 0.18557192 -0.13027698 0.2812973
00000000: c79c 01be c5ad b6bc f229 c6bd ca16 283f
00000010: 8fae 213f 52f5 723e 6fa0 173f b5c5 7cbd
00000020: 1067 593e 20b5 593c 4c11 21be edf4 143e
00000030: 7920 eebd 9106 3e3e 5467 05be 3306 903e

gat2.lin.weight f4 [16, 16]
0.32655028 -0.17885941 -0.032677468 0.06639016 -0.12970468 0.1608246 -0.15540065 -0.39484775
0.18607284 -0.18735865 -0.33462113 0.17592743 -0.58332795 0.03540495 0.18607295 0.1175085
0.22722743 -0.053500686 0.9003648 0.68642664 0.28380093 0.7550215 -0.607019 0.053014655
0.3146403 0.17489144 -0.40801945 -0.2259952 -1.5481681 0.65206254 -0.14555693 0.5541993
-0.53986084 0.57177573 0.16283013 -0.17292532 0.4375877 -0.3700729 0.6482188 -0.3280341
-0.46286932 -0.18456392 0.6419352 -0.26711217 -0.7275781 -0.27374542 -0.1709601 -0.6074485
-0.67093843 0.3726113 -0.008756491 -0.19891521 0.64434814 0.27052063 0.85642594 0.28615436
0.11904898 -0.2432679 0.5214387 -0.0019555222 -0.49775875 -0.41841316 -0.21310508 0.1361988
-0.77776206 0.45661783 -0.19407256 -0.4875013 0.81450903 -0.44949237 1.1672897 -0.4135922
0.09296053 -0.16934356 0.49065068 -0.37637013 -0.7837671 -0.6398939 -0.11328251 0.3407889
0.25442448 -0.3855104 0.39395955 0.4512703 -0.112750635 0.33116832 0.27860576 -0.121316895
0.10270526 0.55220777 -0.046865154 0.40190527 -0.51662046 0.44056663 0.1814775 0.67342573
0.02974062 1.1662083 -0.179162 -0.10989059 0.32889286 0.27000302 0.8302966 -0.0067803906
0.17054783 -0.062976696 0.23793797 -0.113259085 -0.18546857 -0.013729354 0.96516186 -0.12767191
0.58691645 -0.36363906 0.28929096 0.37762648 -0.21149977 0.5688557 0.20909756 0.13803966
-0.4310882 0.44211128 0.20877963 0.14012298 -0.55790955 0.09657921 -0.0737886 0.486004
-0.41118655 0.07846093 -0.22642694 -0.422032 0.7357569 -0.50827307 0.03702975 0.22810043
-0.040684555 -0.47653556 0.70049816 -0.5797373 -0.37381625 -0.6795392 0.14681196 0.24541709
-0.25010222 0.38787422 -0.003494606 0.19592917 -0.610209 -0.13276733 -0.51346356 -0.33590364
0.2583891 0.2613067 0.21060352 -0.073322296 0.09918178 -0.11762358 -0.046494994 -0.4101981
-0.2142317 -0.3909895 -0.029961964 0.20226546 0.253443 -0.26029715 -0.16444503 0.072851226
-0.29218373 -0.16540858 0.35065943 0.35051015 -0.24664076 0.048008263 -0.12678018 0.0699158
-0.2520747 -0.07085961 -0.037163217 -0.071980156 0.29597154 -0.2274811 0.59314746 0.048820715
0.38274956 0.2266455 0.52636397 0.5441532 -0.014954893 0.07086678 -0.14600807 0.16468817
0.40693748 0.24623415 0.23453538 -0.1425929 -0.25019506 0.5061434 0.3899003 -0.33114037
-0.414216 0.2594914 -0.068787895 0.25417894 -0.49685144 0.1250482 -0.599365 0.14333232
0.17860168 0.058290992 -0.2440113 0.3729219 -0.25246376 0.09033262 -0.08754597 0.48117787
0.33940625 0.37709022 0.2692068 0.20973146 0.83073604 0.20480141 0.20455149 -0.13967592
0.3678281 -0.4396256 0.76026374 0.6790258 -0.21649653 0.2117964 -0.30812854 0.13262565
0.38737044 0.04228775 0.16889088 0.0016295151 0.62670225 0.66501224 -0.4852296 0.45939726
-0.2600906 0.22005345 -0.11378726 -0.097281374 -0.058189854 0.36542436 -0.17868705 0.36479416
0.35207123 0.04201561 0.47113597 -0.2684886 0.26236123 -0.06748699 0.48333067 0.11434486
00000000: 9931 a73e ec26 37be cfd8 05bd 90f7 873d
00000010: 4ed1 04be 34af 243e 5921 1fbe 7c29 cabe
00000020: e189 3e3e f2da 3fbe 7653 abbe 5226 343e
00000030: fb54 15bf c804 113d e889 3e3e 4ca8 f03d
00000040: 4fae 683e 8923 5bbd 4f7e 663f a8b9 2f3f
00000050: 5b4e 913e 1749 413f 9965 1bbf e525 593d
00000060: 8918 a13e be16 333e ede7 d0be 496b 67be
00000070: 5f2a c6bf 92ed 263f e00c 15be 01e0 0d3f
00000080: 5234 0abf e55f 123f f1bc 263e 5613 31be
00000090: 7f0b e03e 327a bdbe abf1 253f 16f4 a7be
000000a0: 35fd ecbe 53fe 3cbe de55 243f edc2 88be
000000b0: 8f42 3abf 5c28 8cbe 2a10 2fbe bf81 1bbf
000000c0: 9fc2 2bbf e9c6 be3e 6377 0fbc 6eb0 4bbe
000000d0: 00f4 243f ae81 8a3e bb3e 5b3f d382 923e
000000e0: f4cf f33d 381b 79be 027d 053f 3828 00bb
000000f0: 3cda febe 403a d6be 3838 5abe b377 0b3e
00000100: 6a1b 47bf d0c9 e93e f5ba 46be c599 f9be
00000110: aa83 503f dd23 e6be c069 953f 5bc2 d3be
00000120: 1762 be3d 6668 2dbe 9136 fb3e 96b3 c0be
00000130: f6a4 48bf 16d0 23bf a900 e8bd e27b ae3e
00000140: ed43 823e 9f61 c5be 11b5 c93e e70c e73e
00000150: cee9 e6bd e58e a93e 6aa5 8e3e fe74 f8bd
00000160: 2357 d23d 7d5d 0d3f adf5 3fbd 87c6 cd3e
00000170: 3d41 04bf f391 e13e 3dd5 393e a165 2c3f
00000180: 9aa2 f33c 5046 953f 3e76 37be 510e e1bd
00000190: a564 a83e d63d 8a3e 518e 543f 0a2e debb
000001a0: 17a4 2e3e edf9 80bd 03a6 733e 61f4 e7bd
000001b0: 79eb 3dbe 16f1 60bc d914 773f 6dbc 02be
000001c0: 2840 163f e62e babe f21d 943e 4258 c13e
000001d0: 6593 58be 87a0 113f ac1d 563e 455a 0d3e
000001e0: 98b7 dcbe 695c e23e 54ca 553e 667c 0f3e
000001f0: 29d3 0ebf 52cb c53d 7a1e 97bd 84d5 f83e
00000200: 0b87 d2be 20b0 a03d 77dc 67be 9414 d8be
00000210: 905a 3c3f 2f1e 02bf 82ac 173d 2993 693e
00000220: d9a4 26bd 78fc f3be d953 333f aa69 14bf
00000230: d864 bfbe 48f6 2dbf e055 163e 9e4e 7b3e
00000240: 660d 80be 7397 c63e c205 65bb a8a1 483e
00000250: a836 1cbf 29f4 07be 5972 03bf 90fb abbe
00000260: 934b 843e fec9 853e 73a8 573e 002a 96bd
00000270: d11f cb3d a2e4 f0bd 8971 3ebd 7c05 d2be
00000280: 8e5f 5bbe c72f c8be cb72 f5bc ad1e 4f3e
00000290: 48c3 813e ab45 85be 4764 28be 0633 953d
000002a0: 1b99 95be de60 29be a289 b33e 1176 b33e
000002b0: 658f 7cbe 50a4 443d aad2 01be 0430 8f3d
000002c0: ef0f 81be d81e 91bd 7538 18bd 556a 93bd
000002d0: 9589 973e cef0 68be 83d8 173f 3bf8 473d
000002e0: c0f7 c33e c215 683e cabf 063f a04d 0b3f
000002f0: 5e05 75bc 9a22 913d 2483 15be 04a4 283e
00000300: 1c5a d03e ce24 7c3e 0b2a 703e e003 12be
00000310: 9119 80be 9d92 013f 03a1 c73e 3b8b a9be
00000320: 1f14 d4be 0fdc 843e abe0 8cbd be23 823e
00000330: 5063 febe a30c 003e fc6f 19bf b5c5 123e
00000340: 5ce3 363e 89c2 6e3d 19de 79be 9fef be3e
00000350: ee42 81be 4f00 b93d 4d4b b3bd f25c f63e
00000360: a8c6 ad3e f811 c13e 79d5 893e d8c3 563e
00000370: 1eab 543f 76b7 513e f275 513e 3407 0fbe
00000380: f753 bc3e 9b16 e1be a5a0 423f a3d4 2d3f
00000390: 44b1 5dbe 28e1 583e 06c3 9dbe 05cf 073e
000003a0: 6b55 c63e eb35 2d3d bbf1 2c3e 7495 d53a
000003b0: 8f6f 203f 3e3e 2a3f 0470 f8be 1e36 eb3e
000003c0: 982a 85be b155 613e 4c09 e9bd 753b c7bd
000003d0: 7c58 6ebd e718 bb3e bdf9 36be 4dc6 ba3e
000003e0: ae42 b43e 8f18 2c3d bc38 f13e 5677 89be
000003f0: 3654 863e 9e36 8abd 1e77 f73e a32d ea3d

gat2.lin_edge.weight f4 [16, 2]
0.6668529 -0.24608822 0.32569218 -0.042666063 -0.6194622 -0.23591213 -0.44918883 -0.021127306
0.32661128 -0.27580205 0.2574578 -0.10939456 -0.43449655 0.16327581 -0.10303059 -0.17721891
0.22451837 0.62363327 -0.5399841 -0.31907496 -0.7730745 -0.046270188 -0.8052305 0.24895689
-0.7001986 -0.40727404 0.3503031 0.35102955 0.5094307 -0.32242292 -0.44649333 -0.34623483
00000000: dfb6 2a3f 8dfe 7bbe 20c1 a63e 9cc2 2ebd
00000010: 1395 1ebf f392 71be 14fc e5be 2c13 adbc
00000020: 9839 a73e ed35 8dbe 82d1 833e 410a e0bd
00000030: 5576 debe c631 273e b401 d3bd e078 35be
00000040: 25e8 653e 6ea6 1f3f 663c 0abf cb5d a3be
00000050: 36e8 45bf cf85 3dbd 9623 4ebf 8eee 7e3e
00000060: 3740 33bf 3986 d0be ee5a b33e 25ba b33e
00000070: 0d6a 023f 9e14 a5be c69a e4be b145 b1be

mlp.0.weight f4 [16, 32]
-0.013162907 -0.24558777 -0.27316126 -0.23050407 0.10225753 -0.22501524 -0.14217898 -0.0746797
0.058289815 -0.0363086 0.021536881 -0.1580415 0.1008349 -0.055372067 0.04376461 -0.004264591
-0.2526324 -0.0859542 -0.026705636 -0.22442213 0.17465384 0.04761809 0.042025343 0.13151017
0.05142486 -0.19623542 0.06600519 -0.0384422 0.03678303 -0.008469185 -0.014094089 -0.12884071
-0.13533989 0.040642448 -0.17419083 0.002153753 0.091671124 0.07896637 -0.036231402 -0.09972759
0.056754857 0.05489013 0.081077844 -0.1691483 -0.019134827 0.043520078 -0.10771384 0.030797536
-0.1767835 0.006415165 -0.15175645 0.0746338 -0.23826401 -0.19027954 -0.21405797 -0.016943578
-0.16643871 -0.16705237 -0.20122856 -0.15499122 -0.07371871 -0.15002301 -0.09460911 -0.094840065
-0.045009013 0.2267909 -0.19503537 -0.4377689 -0.2571553 0.42057183 0.014301958 0.28385904
-0.317881 0.2112578 0.05175417 -0.14713708 0.12488452 0.16574061 0.089429796 -0.009124574
-0.2097303 0.037553 -0.06637489 0.14348172 -0.39848676 -0.032145787 0.24699496 0.099489324
-0.18535247 -0.014654627 0.085051455 0.13441174 -0.16420668 -0.1499687 0.06243482 0.17614053
-0.02325523 -0.22949497 0.19622952 0.2592418 0.46804142 -0.4223153 0.48913416 -0.25881577
0.5031691 -0.5179611 0.4524124 0.4332946 -0.1547699 -0.3723291 -0.45003873 0.13047555
0.4475224 0.39187545 -0.34353408 -0.56527346 -0.3484687 0.20312317 -0.34962547 0.25881723
-0.51912576 0.5779867 -0.36517447 -0.15351073 0.12266745 0.34292126 0.41026554 -0.091224685
0.28978434 0.5483049 -0.38867664 -0.7386312 -0.7324192 0.34411377 -0.6824453 0.4699317
-0.2931852 0.35109445 -0.1678451 -0.4990775 0.20859148 0.29838735 0.33801672 -0.1928157
-0.015674997 -0.5078866 0.18720235 0.678293 1.0614201 -0.6006129 0.6514375 -0.27910888
0.14344655 -0.10476324 0.27976075 0.40004838 -0.21155444 -0.28458634 -0.33543354 0.27726504
0.053751238 -0.052859288 -0.27523908 0.33934262 0.64083225 -0.02400179 0.105846375 -0.20981671
0.14045134 0.16579682 0.088463664 0.07531238 -0.2654785 0.05470927 0.16231106 -0.040379304
-0.1825161 -0.21048012 -0.029724376 0.643124 0.8975779 -0.19815278 0.2651382 -0.14231773
0.18634942 0.07992553 0.13272446 0.16623999 -0.05299693 0.06735426 -0.020591613 0.2173087
-0.0892342 -0.26222205 -0.074397646 -0.055139128 -0.15603633 -0.16047655 0.027438505 -0.14383969
-0.016119722 0.085211284 -0.038138263 0.19053736 -0.011475388 -0.14956146 -0.10058513 -0.077900976
0.01670029 -0.017458811 0.015534555 -0.37078017 -0.09585161 0.061650947 0.09508531 -0.06980729
-0.21332006 0.018215206 0.042618673 -0.0041145463 -0.18007497 -0.014690981 -0.16924305 -0.17827247
-0.1331993 -0.005114236 0.19049971 0.17917186 0.3439585 -0.45524818 0.38983932 0.03951493
0.40003553 -0.082047805 -0.010846438 0.19730353 -0.021016767 -0.04983533 -0.22609302 -0.32201165
-0.03897114 0.23740907 0.006167962 0.4416543 0.26090786 -0.06964685 0.016266262 -0.0030663342
0.22118367 -0.13027729 -0.015530643 0.100632146 -0.03848453 -0.08121832 -0.132358 0.059564926
00000000: 3ca9 57bc 5c7b 7bbe cbdb 8bbe 4209 6cbe
00000010: 656c d13d 656a 66be 5e97 11be acf1 98bd
00000020: 4dc1 6e3d 54b8 14bd 1d6e b03c a2d5 21be
00000030: 8782 ce3d d2cd 62bd 8542 333d fbbd 8bbb
00000040: 0959 81be c108 b0bd c7c5 dabc eace 65be
00000050: 75d8 323e 300b 433d c422 2c3d 9aaa 063e
00000060: e0a2 523d f0f1 48be bb2d 873d 9175 1dbd
00000070: cda9 163d 56c2 0abc e5ea 66bc d2ee 03be
00000080: 8a96 0abe b278 263d 155f 32be fb25 0d3b
00000090: 12be bb3d 1fb9 a13d 6167 14bd fb3d ccbd
000000a0: c877 683d 79d4 603d 240c a63d 3635 2dbe
000000b0: a4c0 9cbc 1c42 323d 1399 dcbd 1d4b fc3c
000000c0: bc06 35be 4e36 d23b 0b66 1bbe 9bd9 983d
000000d0: 7bfb 73be a4d8 42be 0332 5bbe 42cd 8abc
000000e0: e96e 2abe c70f 2bbe dc0e 4ebe 05b6 1ebe
000000f0: d6f9 96bd a29f 19be 6cc2 c1bd 823b c2bd
00000100: 5f5b 38bd e03b 683e 5ab7 47be 3f23 e0be
00000110: dca9 83be 3155 d73e c252 6a3c f955 913e
00000120: 4cc1 a2be f753 583e 2efc 533d 1aab 16be
00000130: 75c3 ff3d e8b7 293e f826 b73d 3d7f 15bc
00000140: 8ac3 56be 2dd1 193d 8fef 87bd dfec 123e
00000150: 7506 ccbe 4dab 03bd 3fec 7c3e 0fc1 cb3d
00000160: 0acd 3dbe f619 70bc 752f ae3d 3ba3 093e
00000170: cc25 28be 6591 19be a7bb 7f3d 2f5e 343e
00000180: c181 bebc bb00 6bbe 64f0 483e 57bb 843e
00000190: 20a3 ef3e b639 d8be cb6f fa3e 8083 84be
000001a0: b1cf 003f 1999 04bf 99a2 e73e cad8 dd3e
000001b0: 007c 1ebe eba1 bebe 7a6b e6be 629b 053e
000001c0: a821 e53e e6a3 c83e b3e3 afbe c3b5 10bf
000001d0: 7d6a b2be 85ff 4f3e 1c02 b3be b183 843e
000001e0: 6de5 04bf f0f6 133f 26f8 babe eb31 1dbe
000001f0: 1239 fb3d 6093 af3e 530e d23e 02d4 babd
00000200: 9d5e 943e b65d 0c3f a000 c7be ef16 3dbf
00000210: d37f 3bbf ae2f b03e bcb4 2ebf e39a f03e
00000220: 5f1c 96be a7c2 b33e 96df 2bbe 1687 ffbe
00000230: 0199 553e 3ac6 983e 8710 ad3e 7b71 45be
00000240: da68 80bc db04 02bf f9b1 3f3e 9ca4 2d3f
00000250: 9ddc 873f c4c1 19bf 9cc4 263f 5ce7 8ebe
00000260: a7e3 123e 1c8e d6bd cd3c 8f3e 24d3 cc3e
00000270: baa1 58be 4db5 91be f2bd abbe aff5 8d3e
00000280: 422a 5c3d fb82 58bd 23ec 8cbe 51be ad3e
00000290: 950d 243f 679f c4bc fcc5 d83d 31da 56be
000002a0: 7ad2 0f3e a4c6 293e 702c b53d 613d 9a3d
000002b0: ccec 87be d416 603d df34 263e c564 25bd
000002c0: 80e5 3abe 1a88 57be 8980 f3bc c6a3 243f
000002d0: aac7 653f 90e8 4abe 32c0 873e bdbb 11be
000002e0: 62d2 3e3e ffaf a33d ece8 073e d13a 2a3e
000002f0: 4f13 59bd 08f1 893d beaf a8bc 2c86 5e3e
00000300: 6cc0 b6bd f841 86be cb5d 98bd 91d9 61bd
00000310: fdc7 1fbe f753 24be b7c6 e03c b64a 13be
00000320: 820d 84bc 4183 ae3d de36 1cbd 3a1c 433e
00000330: 4403 3cbc a426 19be 94ff cdbd 8c8a 9fbd
00000340: 0ccf 883c c805 8fbc a584 7e3c e6d6 bdbe
00000350: d94d c4bd b485 7c3d 16bc c23d 20f7 8ebd
00000360: 9370 5abe 0e38 953c eb90 2e3d 51d3 86bb
00000370: 9365 38be 71b2 70bc 0d4e 2dbe 0f8d 36be
00000380: 6665 08be 5295 a7bb 5b12 433e d478 373e
00000390: 541b b03e 4a16 e9be 0599 c73e 68da 213d
000003a0: 75d1 cc3e ae08 a8bd 42b5 31bc f009 4a3e
000003b0: 5b2b acbc 2220 4cbd ee84 67be b6de a4be
000003c0: 34a0 1fbd 5d1b 733e 9e1c ca3b 8320 e23e
000003d0: b795 853e 02a3 8ebd d340 853c 8df4 48bb
000003e0: f97d 623e 6967 05be 3d74 7ebc 3a18 ce3d
000003f0: f4a1 1dbd ca55 a6bd db88 07be 5afa 733d

mlp.0.bias f4 [16]
-0.1081765 0.06472337 0.04058155 -0.1421033 -0.018966608 0.108805105 -0.03163761 0.13853478
0.0052524596 -0.17341754 0.29852504 0.07055173 -0.12195935 0.2776133 0.11428459 0.14686747
00000000: a48b ddbd b08d 843d d738 263d 8783 11be
00000010: dc5f 9bbc 36d5 de3d 7096 01bd 10dc 0d3e
00000020: d31c ac3b 5e94 31be 46d8 983e 6d7d 903d
00000030: d3c5 f9bd 5523 8e3e 0a0e ea3d 6d64 163e

mlp.2.weight f4 [1, 16]
-0.100516215 -0.018472778 0.082081884 -1.0863844 -1.0774369 0.4209003 -0.19928627 -0.34878924
-0.36943874 -0.10758457 0.17008016 -0.0025301636 0.120475665 0.200905 -0.33859766 0.22702976
00000000: 72db cdbd 3954 97bc 8c1a a83d a50e 8bbf
00000010: 74e9 89bf 3e80 d73e b311 4cbe 8194 b2be
00000020: 1327 bdbe 4d55 dcbd 7e29 2e3e 1ad1 25bb
00000030: f2bb f63d 0aba 4d3e ac5c adbe 7d7a 683e
