data/CTC/Fluo-N2DH-SIM+/02_RES_GAT/20250715_010516/manual_fold_4_best_model.pth (torch, 11177 bytes, 15 tensors)

gat1.att_src f4 [1, 1, 16]
000000 88 db fa be a4 ee e4 3e c3 2b ba 3e b3 06 09 bf
       -0.48995614 0.44713318 0.36361513 -0.5352585
000010 57 a7 f6 bd d4 e9 cf 3e d8 a9 ac 3d 61 f8 4a 3e
       -0.12043636 0.40608084 0.084308326 0.19821312
000020 b3 ba c7 be 2a 70 b3 3e 1d 43 e5 be 25 0b 96 be
       -0.39009628 0.35046512 -0.44777766 -0.29305378
000030 48 54 91 be 93 a5 c5 3e 86 43 68 3e 41 1a 66 be
       -0.28384614 0.38602886 0.22682008 -0.22470953

gat1.att_dst f4 [1, 1, 16]
000000 c4 c9 f9 3e 9f 75 c6 be dc d0 82 be 4e 6b af be
       0.48786747 -0.38761613 -0.25549972 -0.34261554
000010 49 72 0a bf e1 ae b5 be 20 97 8e be 02 2d f0 3e
       -0.54080635 -0.35484985 -0.27849674 0.46909338
000020 24 18 a7 bd ac bf 27 bd 14 a9 d3 3e 8a be 16 bf
       -0.08158901 -0.040954277 0.41339934 -0.5888449
000030 d4 d9 30 3e fc ca 94 be 93 e2 cb bc 5a f5 0c bf
       0.17270595 -0.29061115 -0.024888312 -0.55061877

gat1.att_edge f4 [1, 1, 16]
000000 c7 f7 9b 3e 66 99 72 bc 30 b7 08 be d0 61 03 be
       0.30462477 -0.014807081 -0.1335113 -0.12830281
000010 5d 4e 07 bf 4c be cb be d6 bb be 3e 05 81 b6 3e
       -0.5285395 -0.39793622 0.37252682 0.3564531
000020 57 a5 00 bf 38 80 36 bd 61 98 a0 3e 6e 89 4f 3d
       -0.5025229 -0.044555873 0.31366256 0.050668173
000030 39 a0 fd be 46 f9 74 3a f7 61 5b 3e 7c cd c2 3d
       -0.49536303 0.0009345006 0.2142409 0.09511849

gat1.bias f4 [16]
000000 ce 9d 78 bd b2 0d a9 3d 99 11 17 be 5b ec 1b be
       -0.06069737 0.08254565 -0.14752807 -0.15226881
000010 2e 2e d5 3b 0f 8a bd bc 32 ec 6b 3c 02 59 91 3e
       0.006505749 -0.02313712 0.014399575 0.2838822
000020 f9 38 0f be 8d 44 ba bc 4b 91 5f bb 93 05 06 bc
       -0.13986577 -0.022737766 -0.00341137 -0.00818004
000030 db ef 3c be 60 3d b1 3c c0 90 be 3e cd d0 12 bd
       -0.18450873 0.021635711 0.3721981 -0.03584366

gat1.lin.weight f4 [16, 14]
000000 3e 9e 96 be 97 b2 01 3e b8 0b de 3e b3 c9 a7 be
       -0.29417604 0.12665783 0.43368316 -0.32771072
000010 5e d3 07 bd 89 35 f0 3e 9b 5c 00 3e 9d c3 bc be
       -0.03316056 0.46915844 0.12535326 -0.3686799
000020 4d d7 3a be 58 be d0 bd ad cd f8 bc 57 3b 8d 3e
       -0.18246193 -0.10192555 -0.030371511 0.27584335
000030 d3 6b f8 3e 55 5e af 3e 90 89 10 bf 76 e2 34 be
       0.48519763 0.34251657 -0.56459904 -0.17664513
000040 d9 7d 89 3e b4 68 89 3e 8e 18 db 3c ce d7 b6 3e
       0.26853827 0.26837695 0.026745107 0.3571152
000050 33 c0 7c be 12 dc 49 3d 0a 01 95 3e 97 16 95 be
       -0.24682693 0.04928214 0.29102355 -0.29118797
000060 3f 4e 9f be c1 bf 01 be de 27 af 3e d4 6f f3 be
       -0.31114385 -0.12670805 0.34210104 -0.47546256
000070 ed fc b4 3e 3c 8b 36 3e 5b 45 62 3e d2 5f ab be
       0.35349217 0.17826551 0.2209677 -0.33471543
000080 7b c3 c7 be bd 28 7b be c6 cd 66 be 89 c7 85 3d
       -0.39016327 -0.24527259 -0.22539434 0.06532199
000090 c7 51 77 3e 22 79 80 3e 1e 6c c2 be 91 1d 06 bf
       0.2415229 0.25092417 -0.37973112 -0.52388865
0000a0 7d d4 78 be f9 24 60 bd 23 65 b9 be e7 80 29 be
       -0.24299808 -0.05472276 -0.36209974 -0.16553079
0000b0 0d fa 14 3f 85 69 99 3e 6f 05 1f bc a0 1b a0 3e
       0.5819405 0.29963318 -0.009705885 0.31271076
0000c0 ba 54 d4 be bb 6c c8 3e d2 aa 91 be 5a 4a aa be
       -0.4147089 0.39145455 -0.28450638 -0.3325985
0000d0 96 1f b0 bd 77 8d 8f 3d 36 51 af bd 3b 31 32 bd
       -0.085997745 0.07009404 -0.08560412 -0.04350398
0000e0 d7 96 1b 3f c8 20 12 3d b3 a9 6d 3e ca b6 ca 3e
       0.6077704 0.035675794 0.23209266 0.39592582
0000f0 d1 07 5b 3d 1b a1 3e 3e 1e c4 cf 3d 62 68 03 3f
       0.05347425 0.18616144 0.10144828 0.5133115
000100 1d 98 22 3e d1 25 a4 3e 3b 31 1b 3e 2f ac 2b bc
       0.15878339 0.32060102 0.15155499 -0.0104780635
000110 cd b4 c0 3d 8d 9b 19 3e 3e cf 9d 3e 51 ca 9e be
       0.09409485 0.15000744 0.30822176 -0.3101373
000120 ba 0c 0d 3e a0 d7 c4 bd dd 24 c3 3e 87 2e 8c 3e
       0.13774386 -0.0961144 0.38114062 0.27379248
000130 92 7e d2 bc 4d f8 93 3e 58 d6 83 3e 6f 4c c2 3d
       -0.025695119 0.28900376 0.2574947 0.09487235
000140 d9 df e2 be 0f 8f 0a 3e 6b 64 2b bf 22 69 dd be
       -0.44311407 0.13531135 -0.669501 -0.43244272
000150 a0 7d 27 3e 3f 53 48 be 67 a1 33 bd 3b dc 02 3f
       0.16356516 -0.19563006 -0.043855097 0.51117295
000160 25 4b a6 be bd 69 f2 bd db 77 40 be 46 04 cf 3e
       -0.32479206 -0.11836574 -0.18795721 0.40432948
000170 21 f0 a6 be 99 36 4e be 57 c9 11 3f 98 3c 26 3f
       -0.3260508 -0.20138015 0.56947845 0.6493621
000180 a2 0d ea 3d 70 52 34 3f 1e 5b 10 3f b3 ad fe 3e
       0.114283815 0.7043829 0.56389034 0.49741897
000190 8d cb 22 be 93 25 83 3d 52 c6 3a 3e f2 f3 cc 3e
       -0.15897961 0.06403651 0.18239716 0.40029866
0001a0 2a f6 ec 3e 53 ca 19 3d ad e7 75 bd 45 24 b7 bd
       0.46281558 0.037546467 -0.060035396 -0.08942465
0001b0 05 36 77 be 4d 65 c4 3e 39 52 a1 be cd 06 2a be
       -0.241417 0.38358536 -0.31508043 -0.16604157
0001c0 a7 5b a9 be 47 66 a8 be ae 58 2d be b4 b4 85 3e
       -0.33077738 -0.3289053 -0.1692836 0.26114428
0001d0 03 db 48 3e 82 98 a5 3e f8 a5 00 bf e7 80 3c be
       0.19614796 0.32342917 -0.5025325 -0.18408547
0001e0 10 3f 28 3c 3b 35 81 3e e9 1f 4a bd cb 21 31 3d
       0.0102689415 0.25235924 -0.04934684 0.043245118
0001f0 2d 80 f3 3e 21 88 05 3e 99 aa d4 3e 69 37 82 be
       0.47558728 0.1304021 0.41536406 -0.254329
000200 9d c7 b8 3e 73 2d 32 3d fc f2 9b be 8f 8c 63 3c
       0.36089793 0.043500375 -0.3045882 0.013888492
000210 0e c5 8d be b9 14 85 3e 93 db 14 be f5 0b cf 3e
       -0.27689403 0.25992373 -0.14536886 0.4043881
000220 e1 94 a9 3e 11 4d 48 3c 40 19 a3 3c 3a 19 da bc
       0.33121398 0.012225405 0.019909501 -0.026623357
000230 f8 fb 73 be e5 4c 27 3e 08 fd 5b be 4e 1e c0 be
       -0.23826587 0.16337927 -0.21483243 -0.3752312
000240 a9 b8 02 3e 24 d7 48 3e 50 04 a9 bd db d1 db be
       0.12765755 0.1961332 -0.08252776 -0.42933545
000250 a9 40 ba be 8b 46 d6 be 26 be d1 3d 86 03 f5 3e
       -0.36377457 -0.41850695 0.10241346 0.4785425
000260 e2 cb 8a 3e 10 cd 84 bd 6b 76 72 3e 59 dd 5a 3d
       0.27108675 -0.06484425 0.23677985 0.05343375
000270 a4 ce a8 3e 67 a3 bc be 61 ac 82 be 06 c4 79 be
       0.32970154 -0.36843416 -0.2552214 -0.24391183
000280 d0 93 8a 3e b3 9f e8 be 18 1a 40 be 33 6d ce 3e
       0.27065897 -0.4543434 -0.18759954 0.40317687
000290 a2 0e d5 3e e6 56 dc bd 33 26 4d 3d bb 80 3e be
       0.41612726 -0.10758762 0.050085258 -0.18603794
0002a0 f0 32 19 be 5b 90 41 3e 8e f3 42 be ae 40 88 be
       -0.14960837 0.18902723 -0.19038221 -0.26611847
0002b0 e4 bb 85 3e 68 eb c9 be 4b a3 ca be 6a ab da 3d
       0.26119912 -0.39437413 -0.39577708 0.10677226
0002c0 1d 6d af be 0e cd 83 be 12 76 05 3f c2 b2 97 3e
       -0.34262934 -0.25742382 0.52133286 0.2962857
0002d0 e1 fc 11 be 0d bc a1 3e c8 76 c1 3e 4d 7f 82 3e
       -0.14256622 0.31588784 0.37785935 0.25487748
0002e0 b0 e9 0e 3e f6 1b ce 3a f4 0e 4b 3d ed ea c9 bb
       0.13956332 0.0015724886 0.049574807 -0.0061620385
0002f0 c1 26 34 3e c9 aa 01 bd 3a 81 bd 3e 7c 08 6a 3e
       0.17592908 -0.031657014 0.37012655 0.22854799
000300 a5 01 2b bf 1e e8 cc bd 08 eb 9e be 66 13 a2 3e
       -0.66799384 -0.1000521 -0.3103869 0.31655425
000310 4e e6 60 be af 23 04 3f 82 66 b2 be 30 0a 9c 3d
       -0.21962854 0.5161695 -0.34843832 0.076191306
000320 13 2c d9 3e 09 88 ab bd e3 c2 bd be d3 86 47 be
       0.42416438 -0.08375556 -0.3706275 -0.19485025
000330 22 e1 c0 bc 0e 1d 11 3f 6c 62 06 bf 35 58 14 3e
       -0.023544852 0.5668496 -0.5249393 0.14486773
000340 52 e1 b7 3e 0a 0a 96 bc 28 0f e9 be ae 60 9c be
       0.35914093 -0.018315334 -0.45519376 -0.3054251
000350 ac dd 15 bc 64 1d 9e 3e a7 91 2c bd 27 ef 36 3e
       -0.009147089 0.30881798 -0.042131092 0.17864667
000360 bf 66 82 bd 9a cf 08 be cb 49 99 3e c7 68 09 3e
       -0.063672535 -0.13360444 0.29939112 0.13418876
000370 d6 0f 96 3e 72 ed 16 3f ec 3b 03 3f 5d db 25 3f
       0.29308957 0.5895606 0.5126331 0.64787847

gat1.lin_edge.weight f4 [16, 2]
000000 9a c7 94 be 11 ca 33 3e eb 02 a4 3c 65 9c ac bc
       -0.29058534 0.17557551 0.020020923 -0.021070668
000010 ed 6e c1 bd 2b c3 a0 3e 83 ca 96 3e 1f 8d cc be
       -0.094449855 0.313989 0.2945138 -0.39951417
000020 b8 56 b3 3e 7b b8 94 3e fb 15 88 bc 73 92 99 3d
       0.350271 0.29046997 -0.016612044 0.07498636
000030 33 09 5a 3e f0 cf 1b 3b 8b 5c 41 3e 85 c2 c3 bd
       0.21292572 0.0023775063 0.18882959 -0.09558586
000040 d0 ef 73 3e e6 52 fc be a8 4b 16 3c ff 9b 11 3e
       0.2382195 -0.49281996 0.009173311 0.14219664
000050 1d aa b5 3e c2 37 07 bf 3d 3e bd bd 20 75 f6 3e
       0.3548135 -0.52819455 -0.09240387 0.48136234
000060 24 47 8f bd 4d ec 82 be 42 72 2a be cf a1 26 3e
       -0.06995991 -0.25570908 -0.16645148 0.16272663
000070 52 66 1d 3e 55 71 01 3f 26 12 fa 3b 4f 51 5b 3c
       0.15371063 0.50563556 0.007631558 0.013386085

gat2.att_src f4 [1, 1, 16]
000000 81 2d d8 3e fd 5b 99 3e 35 43 23 bf dc 05 cb be
       0.42222217 0.29952994 -0.63774425 -0.39652908
000010 4c 3e 95 be 25 c6 1f bf 4e 25 4f 3e bc ac ae 3e
       -0.2914909 -0.6241172 0.20229074 0.3411616
000020 12 31 37 bf 02 32 ec 3e 35 15 29 3e 31 6b 85 bd
       -0.7155925 0.46131903 0.16511996 -0.06514586
000030 20 99 ee 3e ef 3b 72 be 31 3d 37 bf 1e 3c 85 3e
       0.466012 -0.23655675 -0.71577746 0.26022428

gat2.att_dst f4 [1, 1, 16]
000000 4b eb fb 3e 4d e0 18 3f bc 12 01 3e 0f c6 11 bf
       0.49202952 0.59717256 0.12604803 -0.5694284
000010 12 b8 48 bf 3b 57 f7 be 29 29 51 3e 19 43 35 be
       -0.7840587 -0.4830874 0.20425858 -0.17701377
000020 e8 59 0a 3e 42 dd 31 bf 97 b2 c7 3e 56 2c 14 bf
       0.13510859 -0.6947824 0.3900344 -0.5788015
000030 89 0f e1 be 46 eb 5d 3e 37 c7 1b bf fc ab 6c be
       -0.43957165 0.21671781 -0.6085085 -0.23112482

gat2.att_edge f4 [1, 1, 16]
000000 19 77 4f bf f0 a3 03 bf 82 63 9e bd e2 a9 2d 3f
       -0.81041104 -0.51422024 -0.07733823 0.67837346
000010 08 01 0c 3f 9f 51 ea 3d d4 ca 87 3e 31 7e a9 3e
       0.54689074 0.11441349 0.26521933 0.3310409
000020 fe 98 dd 3a f4 61 01 3f 71 73 11 3f e9 57 06 3f
       0.0016906557 0.5054009 0.56816775 0.5247789
000030 51 cb 16 3f 29 b1 ae be f5 0e c1 bd 33 7e 18 3e
       0.58903986 -0.34119537 -0.09426681 0.14891891

gat2.bias f4 [16]
000000 e0 7e 52 be e1 f0 99 3c 76 a0 3d 3d ab f2 a5 bc
       -0.20556211 0.018791618 0.046295606 -0.020257315
000010 e0 77 06 be de 26 87 bd 73 63 78 3d b3 2b 91 3d
       -0.13131666 -0.0659921 0.060641717 0.07088413
000020 4b a8 8f 3b d6 1b cb 3c b3 02 35 bd a7 a9 02 be
       0.0043840758 0.024793547 -0.044192027 -0.1276003
000030 d5 55 1a bd 1b 30 ac bc 50 d6 0f be f9 f7 5c 3d
       -0.037679512 -0.021019032 -0.14046597 0.053947423

gat2.lin.weight f4 [16, 16]
000000 f4 d5 95 be 74 b5 2a 3c 5c 8d d4 bc 13 e4 54 3e
       -0.29264796 0.010419238 -0.025946312 0.20790128
000010 9b e4 b5 3e 64 35 65 3d ce fc c7 3e 18 28 38 be
       0.35525975 0.05595912 0.39060062 -0.17984045
000020 bd a0 87 be b3 20 c3 be a9 f3 2c 3e 26 ca 1b bc
       -0.2648982 -0.38110885 0.16889824 -0.009508645
000030 4a 18 0a be ff a1 a1 3c 92 ea c9 3d 40 3b 07 be
       -0.13485828 0.019730566 0.09859194 -0.13206196
000040 2f 70 b9 be 1b 9a e0 be fa 9a ff bd 4d 99 83 3e
       -0.36218402 -0.43867573 -0.12480731 0.25702897
000050 12 4b ac 3e 8a 06 31 3d 90 48 0b 3f 49 4d 88 3e
       0.33651024 0.043219127 0.54407597 0.26621464
000060 7e ab b8 3e 62 9a e6 3e 89 e5 be be 3e 4e 27 3e
       0.36068338 0.4503966 -0.37284496 0.16338441
000070 b3 fd 91 bd 70 bc d0 3e 98 3c 05 3e 25 98 d7 3d
       -0.071284674 0.40768766 0.13011396 0.10527066
000080 9a c3 f8 3e 36 c3 3f 3e ef 4c a3 3e 71 18 99 bd
       0.48586732 0.18726811 0.31894633 -0.07475365
000090 d5 ae c3 be 48 93 c2 be 4e a1 3f 3e 8e 8f c3 be
       -0.38219324 -0.38002992 0.18713877 -0.3819546
0000a0 af 79 10 3e c1 d8 a2 3e a1 22 19 3f 86 59 ad 3e
       0.14108919 0.31805995 0.59818465 0.33857363
0000b0 0b 49 16 be f8 1d 25 3e 01 93 c2 be 8d 2a f6 3e
       -0.14676301 0.16124713 -0.3800278 0.4807934
0000c0 3a 27 c6 be 82 a0 b2 3d fb e0 91 3e e8 35 6a be
       -0.38701802 0.08722021 0.2849196 -0.22872126
0000d0 79 fc 04 3f f0 f7 3d 3e f8 86 0a 3f 10 80 a1 3e
       0.5194774 0.18551612 0.54112196 0.31543016
0000e0 d0 a6 08 bf 00 c5 39 be 8c 8c 57 3f 8e 12 d6 3d
       -0.53379536 -0.18141556 0.8419883 0.10452758
0000f0 b6 46 eb 3d 97 21 a8 3e 65 56 e3 3d 5d e1 92 3e
       0.114880964 0.32838127 0.11100463 0.28687564
000100 fd 88 4b 3f d0 47 14 be 45 6c 12 be 89 d1 3c 3f
       0.795059 -0.1448052 -0.14299114 0.73757225
000110 d1 91 28 be 7a 49 1b bf 7e 59 85 3f 80 cc 34 bf
       -0.16461875 -0.6065899 1.0417936 -0.7062454
000120 8a 1a c7 3d 00 20 f7 3a 8e c5 aa 3f dd 2f 6f 3e
       0.09721859 0.0018854141 1.3341539 0.23358102
000130 4d 27 fc 3d cc b5 02 bf c7 ae 0e 3e d9 8e b2 bd
       0.123121835 -0.5105865 0.1393386 -0.08718652
000140 e3 5b 71 3e 8a 8d c0 be 2a e3 81 be 06 05 17 bf
       0.23570208 -0.37607986 -0.25368625 -0.5899204
000150 cb 8a 2a 3e bc 99 63 bc c9 e9 4f 3f b6 29 63 bf
       0.16654508 -0.013891634 0.812161 -0.8873552
000160 5d af 8b 3e 88 04 1b 3e 07 3d 96 3e a9 ac 5c 3e
       0.2728223 0.15138447 0.29343435 0.2155024
000170 c7 14 d9 3e 17 55 eb be 02 3a 39 be 6a af d1 bd
       0.42398664 -0.45963356 -0.18088534 -0.10238536
000180 a7 34 0f 3e 72 a4 e3 3e 65 b9 7a be 28 73 99 3d
       0.13984929 0.444614 -0.24484785 0.074926674
000190 e7 54 23 be 80 46 de 3d 15 98 30 3f 8c 4e 2a bf
       -0.15950356 0.108532906 0.6898206 -0.66526103
0001a0 6b 3f 3f 3e fd 23 be 3e b3 1c af bd db 1a 8d 3e
       0.18676536 0.37136832 -0.08550396 0.27559552
0001b0 29 31 81 be 61 4a c0 be 21 36 ba be 95 fb d7 3e
       -0.2523282 -0.37556747 -0.36369422 0.4218413
0001c0 e0 fe 26 3d fb 0b 5b 3e 59 5e bf 3e 13 b4 40 be
       0.04077041 0.21391289 0.3737667 -0.18818693
0001d0 cf c9 f4 3e 4f 30 5b 3e b7 27 96 3e a8 4a 1a bf
       0.47810218 0.21405147 0.29327175 -0.60270166
0001e0 22 74 18 be 13 69 65 3e 1b 1c ec 3e c9 ba c9 be
       -0.14888051 0.22403364 0.46115193 -0.39400318
0001f0 44 1b 00 bd 1d de bf 3e ce de f0 be c6 05 8c 3e
       -0.031276003 0.37474146 -0.47044986 0.27348155
000200 24 d2 b4 3e 7f 04 59 be 4d 60 b2 3e f5 23 dc 3e
       0.35316575 -0.21193121 0.34839097 0.42996183
000210 19 60 d5 be 6a 3b 53 3e 17 d2 ad 3e 90 6f 71 bd
       -0.4167488 0.20628133 0.33949348 -0.058944285
000220 31 3c ab be 82 f8 1f 3e 00 c5 25 bb 60 a0 37 3e
       -0.3344436 0.15622142 -0.0025294423 0.17932272
000230 a3 30 10 be 44 4b 19 bd 8d 43 ef bd 0a be db 3e
       -0.14081053 -0.037425295 -0.11682806 0.42918426
000240 2f 69 08 3f 32 36 95 3d da a7 de be 39 0c de bc
       0.532855 0.072857276 -0.43487436 -0.027105438
000250 d6 d1 75 be 02 bf 72 3e a6 88 26 3d b8 33 ab bd
       -0.24005827 0.23705676 0.04065766 -0.08359474
000260 a3 81 00 3f 16 9b 6c 3e 55 03 c0 3e 3b 9a 30 bd
       0.5019781 0.23106036 0.37502542 -0.043115836
000270 71 2b 8b be a6 af db be 73 56 82 be f3 40 a6 3e
       -0.2718158 -0.42907447 -0.2545658 0.32471427
000280 3e 28 01 be 0f 97 8d be 6d d1 7a 3e 46 e5 05 3c
       -0.12613007 -0.2765431 0.24493952 0.008172339
000290 77 8b a6 be 2a 1d 95 be a3 22 b4 bd e5 37 2d 3e
       -0.32528278 -0.29123813 -0.08795669 0.16915853
0002a0 54 68 8c bd 1b d7 76 3e 78 b3 0e bf 5e 81 5b 3e
       -0.068558365 0.24105494 -0.557426 0.21436068
0002b0 53 a0 87 3e 80 e0 16 3e 52 3f a1 be 8b 1a b7 bd
       0.26489505 0.14734077 -0.31493622 -0.089406095
0002c0 de 74 69 bd 48 2c 96 3e 18 c6 d4 be ac a4 b0 3e
       -0.05699622 0.2933066 -0.41557384 0.34500635
0002d0 94 32 55 be 05 b7 a8 be f5 0f a4 3e e0 d9 28 3d
       -0.20820075 -0.32952133 0.32043424 0.041223407
0002e0 3e d0 88 be b7 6c 29 bd 32 25 01 3f 68 c9 a9 3e
       -0.26721376 -0.041363444 0.5044738 0.33161473
0002f0 c7 6c a8 3e 6b aa b8 be e1 e0 5e be f8 96 22 3e
       0.3289549 -0.3606752 -0.21765472 0.15877903
000300 ee 24 6d 3e e9 ad 1d 3e bf ca 8a 3e 25 8d 88 3e
       0.23158619 0.15398373 0.27107808 0.26670185
000310 48 0d bb be 67 3a ca be 89 5f 00 3f 8a 07 dd be
       -0.3653357 -0.39497682 0.50145775 -0.43169814
000320 62 df 83 3e 9f 27 4c 3e 4c 5e 73 bd c7 bf 64 be
       0.25756365 0.19936989 -0.0594161 -0.22338782
000330 86 09 52 be 54 c0 8b bd 66 a3 cd 3c 96 e8 f9 3e
       -0.20511445 -0.06823793 0.025102329 0.4881026
000340 e1 59 be 3d 7b 18 ea be 13 29 80 3e ad b2 1a 3e
       0.09294487 -0.45721802 0.25031337 0.15107222
000350 1e 5e 22 be e7 8b 2f 3d 70 33 bb 3e 3b 99 3b 3e
       -0.15856215 0.04285803 0.3656268 0.18320172
000360 8d 70 69 3e 0c 23 e9 3e f6 84 04 bf 6a 47 c3 3e
       0.22796841 0.4553455 -0.5176538 0.38140422
000370 ed f6 f9 bd 30 20 16 3e c7 00 09 3e 05 d7 13 be
       -0.122053005 0.14660716 0.13379203 -0.14437492
000380 0b 94 6f be a2 25 ad be 4e 64 a4 3d 4c 57 12 3e
       -0.23396318 -0.33817774 0.08026944 0.14291114
000390 6f 5e 4b be eb e5 11 bf 0a cf ef 3e 2c 1a 65 be
       -0.19860242 -0.5699145 0.46837646 -0.22373265
0003a0 0c c3 90 3e f0 b0 9b 3e 4c 34 26 ba 56 ce fe 3e
       0.2827381 0.3040843 -0.00063401903 0.49766797
0003b0 e3 f6 a1 3e 16 66 32 3e 47 de 82 be 8c a8 85 3e
       0.31633672 0.17421755 -0.2556021 0.26105154
0003c0 cf 1f 74 be ce 5c 5f bd a4 9d 18 3e 81 bb 81 3e
       -0.23840259 -0.054531865 0.14903885 0.25338367
0003d0 15 97 08 3f fe 72 3b be 78 fc 3f bc 28 d6 f7 3e
       0.5335553 -0.18305585 -0.011717908 0.48405576
0003e0 4b bf 6d be 96 73 41 3e 59 5c 13 3f e1 c5 ed 3d
       -0.23217504 0.18891749 0.57562786 0.11610008
0003f0 39 92 83 be 1a d5 ac 3e 2d 17 8e 3e 67 30 09 3e
       -0.25697497 0.33756334 0.27752057 0.1339737

gat2.lin_edge.weight f4 [16, 2]
000000 e8 32 cf be 8b 79 14 3e 40 df b1 be ba 67 21 3f
       -0.40468526 0.1449949 -0.3474064 0.630489
000010 74 2a 09 3e 89 79 98 be 10 2f 31 3f e4 aa 14 bf
       0.13395101 -0.29780224 0.69212437 -0.5807326
000020 87 4c 18 3f fa 27 e8 be 03 b2 e1 3d 86 77 55 be
       0.5949177 -0.45343 0.11020281 -0.20846376
000030 ef 16 14 3f 7e 3a 20 3e 53 df 06 3f 27 8a 8a 3e
       0.57847494 0.15647313 0.52684516 0.27058527
000040 80 e2 de be 1d 20 79 be ee 9e 7c 3e 76 fc f5 3b
       -0.4353218 -0.24328656 0.24670002 0.0075069023
000050 a5 a0 39 3f e3 fe e1 3d 64 39 19 3f ce d7 1e be
       0.7251075 0.11034944 0.59853196 -0.1551201
000060 f7 c6 3b 3f ae 44 1d 3e a1 65 a2 bd dd 6c a2 3e
       0.7335047 0.1535823 -0.079295404 0.3172368
000070 d4 b4 62 3e e0 f1 37 3e d8 34 ce be 43 db 23 bf
       0.22139293 0.17963362 -0.40274692 -0.6400644

mlp.0.weight f4 [16, 32]
000000 c3 20 00 3e 3e e8 16 3e 01 a0 7c be 14 cc 26 3e
       0.12512498 0.14737031 -0.24670412 0.16288787
000010 1f 1b cc 3c fc 7c 8b 3c d1 d3 3e be 76 aa b5 be
       0.024915276 0.01702737 -0.18635489 -0.35481614
000020 de a4 91 be 89 ad 6e bc b8 c3 1e 3e cb 67 e1 3d
       -0.28446096 -0.014567741 0.15504348 0.11006125
000030 78 5e 59 bd 07 32 83 3e bf b2 23 be 34 c4 79 3e
       -0.053068608 0.25624105 -0.15986155 0.24391252
000040 f3 ea ec bc 09 03 e0 bc 7b 72 a3 be da 5f 04 3e
       -0.028920626 -0.027345197 -0.3192328 0.1292719
000050 65 6f 22 3c d6 e1 44 bd 13 cc a4 be 30 0d ef be
       0.009914254 -0.048066936 -0.32186946 -0.4668975
000060 04 6b 56 be 0a 40 99 be d6 bb 05 3e ac 72 d3 bd
       -0.2093926 -0.2993167 0.13059935 -0.10324606
000070 63 d9 7d bc 43 2d 70 bd 68 16 89 be c5 10 4e 3e
       -0.015493724 -0.058636915 -0.26774907 0.20123585
000080 75 01 d1 bc 16 69 49 3e d5 a4 e3 3c 25 d4 d8 3c
       -0.02551339 0.19668993 0.027788559 0.026468346
000090 80 b2 00 3e 53 b2 89 3f 41 61 8b 3e ce 3b c0 3e
       0.12568092 1.0757545 0.27222636 0.37545627
0000a0 3e 87 58 3e 5b 7c 29 3d aa e5 55 be c6 03 04 3d
       0.21145341 0.04137836 -0.20888391 0.03223016
0000b0 f9 71 21 3e 66 b3 38 bd 60 2c 51 3e 05 33 3b 3d
       0.15766133 -0.045092963 0.20427084 0.045702953
0000c0 24 d5 67 3e ed dc 59 3e b1 bd 4a 3e 11 e1 4a 3d
       0.226399 0.21275683 0.19798924 0.049531046
0000d0 44 13 9e 3f 3f 81 f5 3f 3a 8d 29 3e 39 d5 99 3e
       1.2349629 1.9180068 0.1655778 0.30045488
0000e0 60 af 71 3e d7 34 e9 3d d9 e6 41 3e 43 c3 89 bb
       0.23602057 0.113870315 0.18935718 -0.004204185
0000f0 ef aa a5 3e 4c 36 de 3d 88 47 a2 3d 0e 0d ef bd
       0.32356974 0.108502 0.079238 -0.11672412
000100 1c 1d 39 be de 03 02 be c0 ce a0 3d 75 6f 2a be
       -0.1807751 -0.12696788 0.078519344 -0.1664408
000110 61 1e cd 3d f6 d5 30 3d 6d 29 c9 3d 84 6f ad bd
       0.1001556 0.0431728 0.098223545 -0.084685355
000120 ff ad 70 3d dc a7 8e 3c ec 94 d6 3d 21 6b 9f bd
       0.058759686 0.017414026 0.10477623 -0.07784105
000130 3f f6 57 be 83 44 01 bd 4f ab d1 3d b8 5f db bd
       -0.21090029 -0.03155948 0.10237753 -0.10711616
000140 ea fa 2b be 33 68 75 be 40 35 0a be a6 30 02 be
       -0.16794935 -0.2396553 -0.13496876 -0.1271387
000150 b2 08 0e be 9c 95 10 be 93 a8 c2 3d 04 f5 e3 3d
       -0.13870504 -0.14119571 0.09504809 0.111307174
000160 a1 db 50 be 31 72 38 bd 64 9a c4 bb 24 ed ae 3d
       -0.20396282 -0.045030776 -0.00599985 0.08541325
000170 76 7a 1a be d5 76 3f be e2 20 a8 bd 82 05 1d be
       -0.15085778 -0.18697675 -0.08209397 -0.15334132
000180 8a e3 a5 bd 3c 9e 5d bd 61 ac 78 bd df bc 2f bd
       -0.0810004 -0.054105982 -0.06071127 -0.04290473
000190 74 74 ca 3d 7e ce 28 3e 8f c0 12 3d 1a 05 30 be
       0.09885493 0.1648502 0.03582817 -0.17189446
0001a0 9e a5 db bc cf 0d 6c bd 55 58 75 3b 77 7b 92 3b
       -0.02681237 -0.057630356 0.0037436683 0.0044702846
0001b0 fd 92 a0 bd e2 0d 1e be 33 62 2f 3e 75 18 5a be
       -0.07840536 -0.15434983 0.17127304 -0.21298392
0001c0 0c 16 80 bb f1 db 3b be 49 d4 f2 bd e5 9d 13 3d
       -0.003908878 -0.1834562 -0.118568964 0.03603925
0001d0 92 d4 83 bc 13 cb 02 3d 8a 07 34 be 64 36 d9 bd
       -0.016092572 0.031931948 -0.17581001 -0.10606077
0001e0 8b cc 3f 3d b6 67 89 3d b3 d6 f4 3d e2 7a e5 bd
       0.046825927 0.067092344 0.11955013 -0.11205079
0001f0 95 c2 20 be 16 92 a5 bd bf 62 02 be be d5 13 bd
       -0.15699227 -0.08084504 -0.12732981 -0.036092512
000200 a8 7d a2 bd 3a 31 25 be 20 ba c1 bd cc 43 9b 3c
       -0.07934123 -0.1613206 -0.09459329 0.018953227
000210 7c 11 fb 3c b2 63 4a be 54 75 18 bd f6 12 3c bd
       0.030647986 -0.19764593 -0.037221268 -0.04591652
000220 1b df 73 be 9d d6 0c be 4d da c1 3c bf b8 31 3d
       -0.23815577 -0.13753743 0.023663664 0.04338908
000230 45 36 e8 bd fb 27 51 3d 5c 15 00 be 46 33 1b be
       -0.11338476 0.05106352 -0.12508148 -0.15156278
000240 0f 9a 7a bd e2 db d5 ba e6 c9 55 bd 66 02 df bd
       -0.061182078 -0.001631614 -0.0521945 -0.10889129
000250 26 a9 e2 3d ec e3 44 bd 30 76 f1 3b 76 29 7a bd
       0.11067419 -0.048068926 0.0073688254 -0.061074696
000260 c8 01 b0 bc 40 77 32 be 02 18 b3 bc 3a 31 56 bd
       -0.021485224 -0.17428303 -0.021862034 -0.05229304
000270 03 30 00 3d ba 69 0d 3d 85 9c 92 3c 62 29 c0 3d
       0.031295788 0.034524657 0.0178969 0.09382893
000280 29 ab 11 be 8d 8c da 3d b1 3f 70 bd a8 dd 1d 3e
       -0.14225449 0.10671339 -0.05865449 0.15416586
000290 cf ba 59 bd c0 51 a6 bd f6 5d 33 be cc d2 c1 be
       -0.05315667 -0.08121061 -0.17516312 -0.37856138
0002a0 2e f7 db bb 0f d4 0f be 01 45 3f 3e 61 5b 23 be
       -0.0067128157 -0.14045738 0.18678667 -0.15952827
0002b0 5a 42 5c be 6a 44 77 3e 3b 98 15 bd 6c 8e 06 3e
       -0.21509686 0.24147192 -0.03652213 0.13140267
0002c0 bd 84 a3 bc df 1d 67 3c cb 2c b0 bd 64 e2 e9 3d
       -0.019960755 0.014106243 -0.086022936 0.11420134
0002d0 1d 8c e5 3d 3f c6 e0 bd ae 62 8a be ca 78 a2 be
       0.11208365 -0.109753124 -0.27028412 -0.3173278
0002e0 b5 a9 9a bc b5 b2 98 be 45 7f 39 3e b9 22 19 be
       -0.01887975 -0.29823843 0.18114956 -0.14954652
0002f0 2c ca 69 be 66 85 8d bd a7 ee 03 bd c4 41 67 3e
       -0.22831029 -0.06910209 -0.03221002 0.22583681
000300 c0 ae 1b 3e 29 13 ca 3d 0b 07 2d bc b1 84 e7 3d
       0.1520338 0.09866936 -0.010560761 0.11304606
000310 46 6d 41 3d 1f e7 d9 bd b4 39 9b 3e 89 12 8b 3e
       0.047223352 -0.10639786 0.30317461 0.2716258
000320 dc 0e 52 3e db 8c 96 3e 4a 0a 7c be 85 7e 48 3e
       0.20513481 0.2940434 -0.246133 0.19579513
000330 67 39 b7 3d 31 24 ff 3b 32 1a 92 3e d0 7c 55 3d
       0.089464955 0.007786297 0.2853561 0.052120984
000340 fe 51 d6 bc 30 bf 0d 3d de d4 91 3e b4 9f 9f 3d
       -0.026162144 0.03460616 0.28482717 0.07794133
000350 09 71 92 3f 98 f3 ca 3e 08 f8 31 3e f3 6f 8a 3e
       1.1440746 0.39638972 0.17379773 0.27038535
000360 09 91 ae 3e c9 0b 9d 3e 48 ca a5 3d 70 15 f2 3d
       0.34095028 0.30673054 0.08095223 0.11820495
000370 f5 f0 a2 3e 9c db 7e 3d e7 61 00 3e f8 00 19 be
       0.3182446 0.062221155 0.12537347 -0.14941776
000380 fc 49 39 be dd 89 53 be aa 07 8c 3e e2 b7 24 be
       -0.18094629 -0.2065806 0.27349597 -0.1608577
000390 2b d8 92 bd cb a0 f0 3d 9c c1 bf bc 85 b8 04 bd
       -0.07170137 0.11749419 -0.02340775 -0.032402534
0003a0 67 b4 89 bc f0 4a 3c 3e ab e3 85 be b3 bf 08 3d
       -0.016809655 0.18387961 -0.2615026 0.033385944
0003b0 06 7a 69 3e 12 3b e0 3c 74 15 92 3e 2a 73 92 bd
       0.22800454 0.027371917 0.28531992 -0.07150872
0003c0 7b 41 31 3d e6 9a 13 bb d8 16 4a 3e 10 4b 5a bd
       0.043275338 -0.0022522747 0.19735277 -0.05329424
0003d0 95 ce a0 3f c0 f8 6f 3d 40 1f 1c 3e 0b 44 a1 bd
       1.2563044 0.058586836 0.15246296 -0.07874306
0003e0 5c a8 56 3e 6c 9e 84 3d 4c 09 cd bc 72 ce c4 bb
       0.20962662 0.06475529 -0.025028847 -0.0060060555
0003f0 9d 88 62 3d ef f7 67 bd b2 28 a1 3e d9 b1 ad bc
       0.055306066 -0.056632932 0.3147636 -0.021202968

mlp.0.bias f4 [16]
000000 22 e6 3f 3e 26 c1 17 3e b5 fc 0c be a0 27 26 be
       0.18740132 0.14819774 -0.13768275 -0.16226053
000010 63 a9 57 be b8 5a 70 3d 82 0b 67 bd 81 2d 34 be
       -0.2106071 0.058680266 -0.05640746 -0.17595483
000020 5c 4d 98 3c e2 a5 4b be a2 0f 9d 3b 6f ca 99 bc
       0.018591575 -0.19887498 0.0047931233 -0.018773286
000030 08 c3 62 bd 68 95 7b 3e 53 43 a1 be 59 fb 2d bd
       -0.055361778 0.24568713 -0.31496677 -0.042476032

mlp.2.weight f4 [1, 16]
000000 4d 13 1f be 22 60 21 3e 12 64 13 3d 52 18 f9 bc
       -0.15534706 0.15759328 0.035984106 -0.030407105
000010 b2 53 1e 3c 35 49 4e be 98 3b 79 3e a1 0f 25 3e
       0.009663509 -0.20145114 0.2433914 0.16119243
000020 5c 67 2d be 98 5e f2 3c b0 8c f2 bd 35 bd 19 3e
       -0.1693396 0.029586121 -0.1184324 0.15013583
000030 c1 e0 a9 3d 43 0c 7e be e2 5d 2a bf a0 34 39 3e
       0.082948215 -0.24809365 -0.66549504 0.18086481
