data/CTC/Fluo-N2DH-SIM+/02_RES_GAT/20250715_010516/manual_fold_2_best_model.pth (torch, 11177 bytes, 15 tensors)

gat1.att_src f4 [1, 1, 16]
000000 f3 0d 01 bf aa 6d 20 bf 32 ce 8f be 34 17 25 bf
       -0.5041191 -0.62667334 -0.28087002 -0.6448853
000010 94 f7 77 3e 16 e0 0c 3e 92 50 ae be 9d 41 85 be
       0.24215537 0.13757357 -0.34045845 -0.2602662
000020 a4 d6 9a be 5e 4a ba 3c 5c 50 ad 3e 3d 4a 0a be
       -0.30241883 0.02274054 0.33850372 -0.13504882
000030 c4 35 52 be a2 83 11 3f 3b 48 c7 be d9 88 e6 be
       -0.20528322 0.5684148 -0.38922295 -0.4502628

gat1.att_dst f4 [1, 1, 16]
000000 a8 ac 8d be 28 72 2d bf 65 16 ea be 0f 0e 2b bf
       -0.2767079 -0.67752314 -0.4572021 -0.66818327
000010 f1 4e 83 3e 7b 50 a1 be b9 cf 04 3f e6 a1 df 3e
       0.25646165 -0.31506714 0.5187946 0.43678206
000020 f8 90 16 3f 17 48 1f bf f9 9a 08 bf cf 51 de be
       0.58814955 -0.62219375 -0.5336147 -0.4342179
000030 77 1f 5a 3e 60 b8 ab 3c 38 2d c7 3d 41 a1 30 bf
       0.21301065 0.02096194 0.09725422 -0.68996054

gat1.att_edge f4 [1, 1, 16]
000000 c4 4e 65 3f cb dd 56 3f 52 f0 5a bf 1f 1a 07 bf
       0.8957331 0.8393218 -0.8552295 -0.5277423
000010 f3 f2 ac 3e ea a0 fb 3c fa 9e 28 3f 5e d3 82 bf
       0.33779106 0.030716378 0.6586758 -1.0220754
000020 6a 09 9c bf 09 c0 a0 3f 60 41 dc 3e 7b 0e 3f be
       -1.2190373 1.2558604 0.43018627 -0.18657868
000030 69 f5 49 bf ba fe 8d 3f e2 b6 92 be 23 f1 55 bf
       -0.7889009 1.1093361 -0.28655154 -0.8357107

gat1.bias f4 [16]
000000 2a 16 44 3a fd 48 2a 3e 04 19 91 3e a9 4e 96 bd
       0.00074801093 0.16629405 0.28339398 -0.07339222
000010 f4 c6 1b 3e 3b ab b1 be ee 70 4c be 39 17 22 3f
       0.15212613 -0.3470095 -0.19964954 0.63316685
000020 f3 55 0a 3f 36 ed b5 bb 60 fb 47 3f 70 80 3d bd
       0.540374 -0.0055519594 0.7811794 -0.046265066
000030 d0 eb 6f 3f 50 90 8e 3e 0e 5f 81 3e 6f 22 91 3e
       0.93719196 0.27844477 0.25267833 0.28346583

gat1.lin.weight f4 [16, 14]
000000 fa 0f 82 3e b3 b2 78 3e 9f a1 95 bd 08 fb fc 3d
       0.25402814 0.24286918 -0.073062174 0.12352568
000010 30 c3 89 3e 41 07 24 3e 38 c1 fb 3e 6b bd 90 3e
       0.2690673 0.16018392 0.49170852 0.28269514
000020 6a 7b ca bd a6 55 81 3e 72 5b 56 3e 0c 64 0b be
       -0.098868206 0.25260657 0.20933321 -0.13612384
000030 cc c2 cf ba 55 3d b0 be a5 56 fa bd f3 fe 5b 3e
       -0.0015850901 -0.34421793 -0.122235574 0.21483974
000040 eb e5 89 3e 69 be 73 bf 93 f8 55 3f 34 ab 17 bf
       0.26933226 -0.9521242 0.8358242 -0.5924561
000050 a1 a6 39 3f 69 a4 8b be c0 65 a2 3f 20 31 a5 be
       0.7251988 -0.27273872 1.2687302 -0.32264042
000060 34 40 2f be 44 36 b2 bc 6b d2 d3 3e a4 07 3b 3d
       -0.17114335 -0.021754391 0.41371474 0.045661584
000070 1b 93 f8 3e 8c 5b 89 3e b5 aa c5 be b0 70 48 bf
       0.48549733 0.26827657 -0.38606802 -0.7829695
000080 bf b3 b4 3e f9 b4 8a bf f2 83 7e 3e 5e 2d 9c be
       0.35293385 -1.0836478 0.2485502 -0.30503362
000090 22 71 e4 3e d3 03 84 3e 99 3f 12 be 90 3a bd be
       0.44617563 0.25784168 -0.14282073 -0.36958742
0000a0 ba 96 81 3d f1 d7 68 bb 27 8f fb be 93 dc 5c be
       0.06327577 -0.0035529102 -0.49132654 -0.21568517
0000b0 2f 70 e5 3e e9 6b d5 3d 0c b8 12 3f 5e 1b 82 be
       0.44812152 0.10420973 0.57312083 -0.25411505
0000c0 40 4c 45 3e 05 4c f9 3d 56 d6 24 3f 8f e4 f3 bd
       0.19267368 0.12172703 0.6438955 -0.119088285
0000d0 c5 08 aa 3d 2e d8 ee 3e 10 3f 94 3e b1 d2 05 3e
       0.08302454 0.46649307 0.28954363 0.13068654
0000e0 61 7b 04 3f ef 7b a3 3e 4a 8b 0c bf 62 6d 0c 3f
       0.5175076 0.3193049 -0.5490004 0.54854405
0000f0 cc 7e 41 bf 50 d3 e1 3e 96 0a 05 bf 33 2b 82 3e
       -0.755841 0.4410653 -0.5196928 0.25423583
000100 6b 6d 44 bf 96 71 44 be 3c b9 b4 3c 55 13 f7 3e
       -0.7672946 -0.19183955 0.022060983 0.48256937
000110 02 78 e6 be a2 1f c0 3d ca 87 f7 3d c0 4b 38 bf
       -0.45013434 0.093810335 0.120864466 -0.71990585
000120 0a f2 e8 3e 93 80 d6 bd f7 6d 96 3d 0c 54 66 3e
       0.4549716 -0.10473742 0.07345193 0.22492999
000130 00 08 95 be be 62 b6 be 82 4c 26 3c 63 f2 00 bf
       -0.29107666 -0.3562221 0.010150077 -0.5036985
000140 6e f5 32 3f 7c 70 00 3e 5f 87 00 3f ff 3d b8 3d
       0.69905746 0.1254291 0.5020656 0.089962
000150 5e 08 25 bf e6 05 08 bf e2 46 fb be a0 29 73 be
       -0.6446589 -0.53134 -0.49077517 -0.23746347
000160 93 8f 73 be 13 75 42 3e 15 4f 3d 3e ac ad af 3e
       -0.23785238 0.18989973 0.18487199 0.3431219
000170 c5 5a bf bc f4 69 83 be 5f a4 18 bc f9 0c 68 3d
       -0.023358712 -0.25666773 -0.009316533 0.056652997
000180 cb 73 e0 3e b2 e7 50 3e c2 2c b0 be 02 7c 73 3e
       0.43838343 0.20400885 -0.34409148 0.23777774
000190 bf 0f af be 86 52 63 3f c3 4c dc bd 3b 16 a8 3e
       -0.341917 0.88797796 -0.10756829 0.3282946
0001a0 3f f0 66 bf 1b 51 89 3f f6 00 e4 be 53 c0 b2 3e
       -0.90210336 1.0727876 -0.44531983 0.34912357
0001b0 ec 9a 5b 3d 2b 9d 38 3e 5a e5 d5 be 7b 51 da 3d
       0.053614542 0.18028705 -0.41776544 0.106600724
0001c0 8d 70 3c bd c5 f5 c8 3e 1b c8 24 3f c9 3a 17 3f
       -0.046005774 0.39250007 0.64367837 0.59074074
0001d0 96 4b 4b bf d9 94 17 3f 52 04 0f bf 1b 03 9d 3d
       -0.7941221 0.592115 -0.5586597 0.07666608
0001e0 55 f4 91 be c0 9b ad 3d 19 f8 87 3e d3 a5 0a be
       -0.28506723 0.084769726 0.2655647 -0.1353982
0001f0 90 1c 14 bf 0c c1 8e 3d aa b8 23 bf d4 27 70 be
       -0.5785608 0.069704145 -0.6395365 -0.23452693
000200 c0 31 07 3f 87 c7 cc bd 75 f0 21 be 70 ed 14 bf
       0.5281029 -0.09998994 -0.15814383 -0.581748
000210 4f 11 e3 3e b5 ff 2a bf c6 66 d7 3e e6 b3 69 be
       0.44349143 -0.6679643 0.42070597 -0.22822532
000220 f4 44 f9 3d bc 29 30 3d cd 07 46 bc 45 5a f8 bd
       0.12171355 0.04300855 -0.012086821 -0.121265925
000230 01 f3 12 bf 1e 85 fb 3e fd e0 4c be fd dc 23 bf
       -0.57402045 0.49124998 -0.20007701 -0.64009076
000240 4a 2f b7 be a8 9e 52 bf 8c 0d 92 bf ae 1c 87 bf
       -0.35778266 -0.8227334 -1.1410384 -1.0555627
000250 6b 17 a8 be 00 7d 5e 3e 81 48 e3 be d1 f1 fe bc
       -0.32830366 0.21727371 -0.44391254 -0.031121166
000260 dd 7c 2c 3d 39 47 6a bc 00 67 df be 53 fa af 3e
       0.042111266 -0.014299207 -0.4363327 0.3437067
000270 e2 85 ef 3e 8f 52 ac be 8e 46 16 bb 40 4c 43 be
       0.46781832 -0.33656737 -0.0022930237 -0.19072056
000280 2f bc 84 be f1 b2 b9 3e 5b 96 41 3d bf fe 6b 3e
       -0.25924823 0.36269334 0.04726253 0.23046397
000290 60 cb 42 be 14 65 9f 3e 72 90 1c 3f 34 b6 42 3e
       -0.19022894 0.31131804 0.61157906 0.19014817
0002a0 b0 56 ce 39 a8 38 e5 3e 38 35 ac be 83 1a 5a 3f
       0.0003935597 0.44769788 -0.33634353 0.85196704
0002b0 18 71 99 bf 99 1b 7c 3e 0a 11 aa bf 5e a3 04 3f
       -1.1987638 0.24619903 -1.328645 0.5181178
0002c0 ea 76 d1 bf 70 1c 05 be 01 29 04 bf 4c e0 c0 3c
       -1.6364415 -0.1299913 -0.51625067 0.023544453
0002d0 10 f1 37 be 0c 51 3e be a1 b3 d8 be 89 68 34 3f
       -0.17963052 -0.18585604 -0.42324546 0.7047201
0002e0 17 52 d4 3d 7f 81 09 3e 22 3b 2f bf 58 ae 96 3e
       0.1036722 0.13428305 -0.68449605 0.2942989
0002f0 d3 2e 1b bf fb e1 84 3e d7 c7 38 bf 5b 03 8c 3e
       -0.60618323 0.2595366 -0.7217993 0.2734631
000300 79 6c b8 bd 0f b8 3a be 34 f9 e0 be 1e b2 d6 bd
       -0.090050645 -0.18234275 -0.43940127 -0.10483192
000310 56 7e 20 3f 85 0f fb 3d d0 70 60 3c 96 5e 42 bf
       0.62692773 0.122588195 0.013698772 -0.75925577
000320 8c 0d 61 3e 44 d5 aa be c4 f7 12 3e 42 42 f7 be
       0.21977824 -0.33365834 0.14352328 -0.48292738
000330 cc 40 b1 be 31 bd 92 be 2b bb b6 3e 6e c5 3f bf
       -0.3461975 -0.28659967 0.35689673 -0.7491063
000340 c0 ce 27 bf 0c 25 37 be 61 98 0a bf b1 df 8b be
       -0.6554985 -0.17885226 -0.5413876 -0.273191
000350 12 29 62 be 11 c4 1b 3d 00 97 5e 3f 23 81 d0 3e
       -0.2208598 0.03802878 0.8694916 0.40723523
000360 a2 c1 80 3f cb 23 b7 3e d8 4d 27 3f 65 48 8e 3c
       1.0059092 0.35769495 0.65353155 0.017368505
000370 b1 27 30 bf c0 82 84 3e fa 47 aa bc 56 58 17 3e
       -0.68810564 0.25881004 -0.020786274 0.14779791

gat1.lin_edge.weight f4 [16, 2]
000000 61 7f 8c bf 80 f7 85 3f 85 dd 39 bf be 1d d0 3e
       -1.0976373 1.0466156 -0.72603637 0.4064769
000010 56 39 48 3f 98 40 7c bf 50 a6 53 3f 0e 33 1e be
       0.7821249 -0.9853606 0.8267565 -0.15449163
000020 10 d9 ee 3d b3 c1 23 3f 02 0e bf 3d c2 e4 e2 3d
       0.11662495 0.63967437 0.09328844 0.11078788
000030 33 9e 55 bf 49 0b 5e 3f 55 2a 9d 3f bb 57 84 bf
       -0.8344452 0.8673597 1.2278544 -1.0339273
000040 19 3b 67 3f d6 7c 4c bf a6 9d 8e bf 4d e8 68 3f
       0.9032455 -0.79877985 -1.114186 0.9097946
000050 a4 5b 38 bf 3b fd e5 3c d9 9c b6 3e bf a8 38 be
       -0.7201483 0.028074851 0.3566654 -0.18033122
000060 96 99 bc 3e bf 50 15 bf fd 47 94 bf c1 b7 b8 3e
       0.36835927 -0.58326334 -1.1584469 0.36077693
000070 a5 14 07 3f 53 b0 99 be 3a 73 82 3f 46 cc 3c bf
       0.52765876 -0.30017337 1.0191414 -0.73749197

gat2.att_src f4 [1, 1, 16]
000000 db 07 13 3f a1 99 d8 3e 53 84 3b 3f d5 bb c5 3e
       0.5743386 0.4230471 0.73248786 0.38619867
000010 98 e7 12 bf 3e bf c8 3e f3 04 ac be 4e af af bc
       -0.57384634 0.39208406 -0.33597526 -0.021445896
000020 08 a3 12 be 66 d7 3d 3e 07 c6 4e be f3 a6 64 bf
       -0.14320004 0.18539199 -0.20192729 -0.89317244
000030 6b 4a 49 be 8c 15 82 3e 33 12 cb be e2 71 9f 3b
       -0.19657294 0.25407064 -0.39662322 0.004865871

gat2.att_dst f4 [1, 1, 16]
000000 d1 17 ce be 42 34 09 bf 06 be a5 be 38 6a 4c bf
       -0.40252545 -0.53595364 -0.3237154 -0.79849577
000010 a3 b3 e4 be 92 c1 16 be 82 8a ff 3e 3a f0 7f 3f
       -0.44668302 -0.14722279 0.4991036 0.9997593
000020 5d c2 1c be 83 a3 05 bf ec 7c 7b 3b 1b 48 01 3f
       -0.15308519 -0.52202624 0.003837402 0.5050065
000030 b3 c2 d8 be 9c 8a 09 be 4a d3 d4 be 7b d4 18 bf
       -0.42336044 -0.13431782 -0.4156745 -0.5969922

gat2.att_edge f4 [1, 1, 16]
000000 68 b1 b5 3f 55 2b 8c 3f 42 0a ac 3f 25 05 8a 3f
       1.4194765 1.0950724 1.344063 1.078282
000010 9a f9 95 bf e0 f1 4a bf 3d fe 88 bf 73 fe c2 3f
       -1.1716797 -0.7927532 -1.0702587 1.5233902
000020 5c 14 5a bf 7d ff cf bf 4c 41 35 bf c0 de 55 3f
       -0.85187316 -1.6249844 -0.7080276 0.83543015
000030 c0 28 90 bf 23 9f b7 3f ca c4 b1 3f f8 ad 4a 3f
       -1.1262436 1.434544 1.388818 0.79171705

gat2.bias f4 [16]
000000 1a a8 c8 3d c5 7f a6 3d 39 d5 b3 3d 8d 55 c7 3d
       0.09797688 0.08129839 0.08780903 0.097331144
000010 be 80 1a be 9e a4 05 3e f6 06 a8 3e 03 ca f5 3d
       -0.15088174 0.13051078 0.3281781 0.12001421
000020 6b 6c ab 3d 98 d0 60 be f0 ee 2b bd 22 50 31 3e
       0.083702885 -0.21954572 -0.041975915 0.17315724
000030 1d 62 21 3e 33 f2 c7 3e 37 3a e4 3e 0a d8 2a 3e
       0.15760083 0.3905197 0.44575664 0.16683975

gat2.lin.weight f4 [16, 16]
000000 4e dc e9 be 9b 28 82 bf bc bb 20 3d df ee 96 be
       -0.45675892 -1.0168642 0.039241537 -0.2947912
000010 d4 a2 1b 3f 73 54 0c 3e 44 b9 cb 3e c0 d0 18 3e
       0.6079533 0.1370409 0.39789784 0.14923382
000020 b5 0d 08 3f 0f b3 82 bd ec 8d ba 3e 26 34 37 3f
       0.53145915 -0.06381809 0.36436403 0.7156395
000030 33 e7 2b 3f 0b a8 9b 3e 70 a6 b8 3e 53 50 e1 be
       0.67149657 0.30401644 0.36064482 -0.44006595
000040 af 90 8a 3e 05 65 43 bf 4f dd f6 be 6f 5d f9 3d
       0.2706351 -0.7632602 -0.4821572 0.12176024
000050 12 28 2a 3e db 68 20 3d a8 f5 2c 3d 94 1a 2e 3f
       0.16616848 0.039162498 0.042226464 0.68009305
000060 c2 7a b0 3e d1 a2 75 3e 27 1c 9e 3e 92 39 81 3e
       0.34468657 0.23987891 0.30880854 0.25239235
000070 77 5d e8 3e 47 a3 ea 3e 0b e8 2c be ed 75 84 bf
       0.45383808 0.45827696 -0.16885392 -1.0348488
000080 e8 18 b2 3e c9 5b 55 be 8e c2 5b bf d3 4a 9b 3e
       0.34784627 -0.20835795 -0.8584374 0.30330524
000090 25 d9 0f 3f f8 9e 2e bf 3d 5e 48 3f c7 0a 88 3f
       0.5619071 -0.6821132 0.78268796 1.0628289
0000a0 09 0a 6f 3f 61 fc 0a bf f2 d5 c7 bf 77 83 33 3e
       0.9337469 -0.5429135 -1.5612166 0.17530619
0000b0 3d 11 d1 3e 47 85 0f 3f 2c c3 48 bf 9e ed e2 3e
       0.40833464 0.5606274 -0.7842281 0.44321913
0000c0 bc 0f ef 3e ee 4b 46 3f fa f9 dc bd 1f 2d 84 3e
       0.46691692 0.7745961 -0.10789867 0.25815675
0000d0 7e b2 69 3e f9 fb 86 3e 10 24 6d 3d 07 7c 01 be
       0.22821996 0.26364115 0.05789572 -0.12644969
0000e0 a4 6c 3e 3d 3e ae ee 3e 76 57 c4 3e 99 e5 a9 3d
       0.046490327 0.4661731 0.38347977 0.082957454
0000f0 e2 29 82 3d 8c 72 b1 3d 01 29 0b 3e 46 9d 16 be
       0.06355645 0.08664426 0.1358986 -0.14708433
000100 84 1a 0c be a2 2c ef 3c fb 21 42 bf 9c f0 95 3d
       -0.1368199 0.029196087 -0.758331 0.07321283
000110 6a 3a 93 3d 1c b4 c6 be 61 0f a4 3e c1 49 0a 3f
       0.07188876 -0.38809288 0.32042983 0.5401879
000120 35 62 22 bd a8 2f 0f bf 93 3d e0 be e8 ca 00 bf
       -0.03964444 -0.5593209 -0.43796977 -0.5030961
000130 a9 4c 07 3f 73 4b 8e 3e 48 10 48 bf b3 51 47 3f
       0.5285135 0.27791938 -0.78149843 0.7785904
000140 17 2f 54 be 74 3e f7 bd 98 0c c8 3e e8 02 19 3f
       -0.20721088 -0.12072459 0.39072108 0.5977006
000150 c8 04 0c 3f 51 1c 6e bf 2d 53 81 bd 6d 4d 28 3f
       0.54694796 -0.9301196 -0.06314693 0.6574314
000160 49 9a 5f 3d dc 58 db be 31 90 33 3e e2 8c b8 3d
       0.054590497 -0.42841232 0.17535473 0.09011246
000170 0a 06 45 3f f3 35 8c 3e 39 6a b0 be 8e 7f ee 3e
       0.7696234 0.2738491 -0.3445604 0.46581692
000180 87 e0 86 bd fb 25 d6 3e 62 c6 08 3f d5 8b 08 3f
       -0.06585794 0.41825852 0.5342771 0.53338367
000190 19 d8 a5 be f6 7f 99 be ad 80 53 bf 7b 9f 1c bf
       -0.32391432 -0.2998044 -0.8261822 -0.6118085
0001a0 74 8b 99 3b a9 85 00 3e 9a 28 ee bc c8 9e f7 3d
       0.0046858136 0.12550987 -0.029072095 0.12090832
0001b0 6c 97 1e bf b1 f4 47 be 99 19 5c 3f 66 dc 30 3e
       -0.619498 -0.19526936 0.8597656 0.17271575
0001c0 af 05 0b bd 8d a3 18 3f 56 4c 43 bf ce 1d b8 bd
       -0.033940967 0.5962456 -0.76288354 -0.0899006
0001d0 f5 09 84 be cd f8 05 bf e7 93 30 bf cf ce 88 bd
       -0.25788847 -0.52332765 -0.6897568 -0.066800706
0001e0 c5 a7 9e 3f 17 c3 2a 3e 30 9c 20 bf 30 4c b6 be
       1.2394949 0.16675983 -0.62738323 -0.35605
0001f0 46 70 a8 3d ee a9 1e 3e ec 0d a3 be 1e 5e 45 bf
       0.082245395 0.1549451 -0.3184656 -0.77096736
000200 a0 f7 2d 3c 24 02 b1 bf 17 9b 01 be d5 59 52 bf
       0.01061812 -1.3828778 -0.12656818 -0.8216832
000210 ad f9 23 3f 7e e3 3c 3e e1 95 0b bf e2 d1 f0 bd
       0.6405285 0.18446156 -0.5452557 -0.11758782
000220 88 8b e0 3d a8 51 e1 bd 26 cd bf 3e 47 5d 0b be
       0.109641135 -0.11001903 0.37461203 -0.13609801
000230 ec 64 8d 3e a7 d5 86 3d 63 ad 5c 3e 86 87 23 3e
       0.2761606 0.0658372 0.21550517 0.15969667
000240 5e 8a ac bd 54 69 b5 3f 7a 4b 6d 3f 5e c7 33 3f
       -0.08424829 1.4172769 0.92693293 0.70226085
000250 71 e2 e4 be 5e 48 68 3f 89 e1 9e 3d 03 b2 4b bf
       -0.4470401 0.90735424 0.07757861 -0.795685
000260 b7 99 36 bf 37 ef 35 3f 52 ae c3 3c f3 6a c1 be
       -0.713283 0.7106814 0.023886833 -0.37776908
000270 0e d4 2f bf 35 85 11 bf ee 44 8f 3d 42 12 67 3f
       -0.68682945 -0.5684388 0.06995569 0.90262234
000280 00 93 31 38 d8 72 80 be 91 b0 a6 be e9 7d fb 3e
       4.2336993e-05 -0.2508762 -0.32556584 0.491195
000290 94 af 5e be 13 a7 2d 3f ac 08 60 3f 5b 6d a7 be
       -0.21746665 0.6783306 0.8751323 -0.3270062
0002a0 43 19 d4 be d8 f3 8d 3e 40 4d ab be a8 8e 84 be
       -0.41425523 0.277251 -0.33457375 -0.25890088
0002b0 d5 b0 86 bf 39 0f 68 bd 41 a8 d1 bd a7 ab 1e be
       -1.0522715 -0.056655142 -0.1023717 -0.15495168
0002c0 f1 24 f6 3e 26 e1 8e be b2 55 dd bd 6e 92 83 3d
       0.4807506 -0.2790615 -0.10807361 0.064244136
0002d0 0b 8b 62 be 9f c7 34 bf 5c 12 da 3e 5f dc 18 3f
       -0.22123353 -0.706171 0.42592132 0.5971126
0002e0 9c 4e ab 3e dd d3 a9 bf 39 c7 ee be e1 af 26 3e
       0.33458412 -1.326778 -0.4663637 0.1627803
0002f0 d7 ac 74 be ad 6a df 3d af 09 a6 3d ae e0 ad 3f
       -0.23894058 0.10909019 0.08107316 1.3584192
000300 42 5f 87 bd 57 1e ab bf 73 b2 4b 3d 77 ef 41 3e
       -0.06609966 -1.3368634 0.04973073 0.18939005
000310 08 57 82 be cc 2a 1f 3e 86 f1 a8 be 7b 91 ca be
       -0.25457025 0.1554367 -0.32996768 -0.39564118
000320 90 b2 0e 3e 12 e1 14 be 49 d5 10 3f 78 f3 ff 3e
       0.13935304 -0.14538983 0.5657545 0.4999044
000330 06 0d be 3c 30 67 71 3e b2 df a1 3e f6 7c 24 be
       0.02319957 0.23574519 0.31615978 -0.16063294
000340 a1 a9 22 bf 35 0f 27 be 66 7c 39 3f b4 e0 71 bc
       -0.63540083 -0.16314395 0.7245544 -0.014763046
000350 50 f1 13 bf 52 b6 69 bf 96 ed 67 bf 46 e5 14 be
       -0.5779009 -0.91293824 -0.905969 -0.14540586
000360 a7 b2 53 bf c4 e0 8a 3e c1 d4 c5 3e d5 6a 31 3f
       -0.82694477 0.27124608 0.3863888 0.6930364
000370 f6 01 4f bf 10 db 09 bf ef ee 55 3f e3 c7 56 bf
       -0.8086237 -0.5384989 0.8356771 -0.8389875
000380 81 72 dd 3d e5 5b a8 bf a7 13 b9 bd df b6 49 be
       0.108128555 -1.3153044 -0.090369515 -0.19698666
000390 a6 c5 3b be 12 dc c5 be d4 ba aa 3e 6c 69 63 be
       -0.18337116 -0.38644463 0.33345664 -0.22208184
0003a0 cd ed 87 be 22 f9 12 3e 24 2c 86 3f 94 c7 54 3f
       -0.26548615 0.14352849 1.0482221 0.8311703
0003b0 91 e1 59 be 6b a1 6b bd 45 42 c9 3e 93 28 06 bf
       -0.21277453 -0.057526987 0.39308372 -0.5240566
0003c0 e0 0a 93 3e 9a 8d 97 3e a6 03 2a be 19 37 da 3c
       0.28719234 0.2960022 -0.16602954 0.0266376
0003d0 e1 60 16 3d 69 63 14 3f 63 29 51 3d 8c a3 96 3e
       0.036713485 0.5796419 0.05106486 0.2942165
0003e0 8e 96 97 3e ab 06 70 bc da 37 84 3e 90 a5 2d bd
       0.29607052 -0.014650027 0.2582386 -0.04239422
0003f0 63 8e 3d 3f 5b db cb 3e e2 b3 bc bd 51 a4 d2 3d
       0.7404539 0.39815792 -0.092139974 0.10285247

gat2.lin_edge.weight f4 [16, 2]
000000 a3 41 b9 bf 9b 70 8b 3e 34 47 94 bf 76 ce 4e be
       -1.4473156 0.2723435 -1.158423 -0.20195946
000010 f8 e5 ae bf 96 fe 24 bf df 99 a2 bf e1 48 20 be
       -1.3663931 -0.6445097 -1.2703208 -0.15652801
000020 20 01 98 3f 79 4a a2 be a0 45 6d 3f 45 4f 41 bd
       1.1875343 -0.31697443 0.92684364 -0.047194738
000030 1d 03 71 3f 11 05 c7 3e 89 9c ab bf 3c cf 39 3d
       0.94145375 0.38871053 -1.3407146 0.04536365
000040 a9 02 76 3f 33 cd cb be c1 1f a9 3f 86 50 ef 3e
       0.9609781 -0.39804992 1.3212816 0.46741122
000050 62 86 3c 3f 8a a1 1d be a6 3a 3a bf fa ef 3f bf
       0.7364255 -0.15393654 -0.7274574 -0.7497555
000060 b3 46 8b 3f 9a d6 2b 3f 57 23 70 bf 47 45 20 bf
       1.0880951 0.6712433 -0.93803924 -0.6260571
000070 62 2e 7f bf 53 3f b6 be e6 ce 54 bf 67 a6 10 be
       -0.9968015 -0.35595188 -0.831282 -0.14125977

mlp.0.weight f4 [16, 32]
000000 a3 7b ff 3e cb e8 24 3f 9f 0d 80 bd c0 59 fe 3e
       0.49899015 0.64417714 -0.06252598 0.4967785
000010 ac fa a6 3b 3a b3 99 3e 1b 3d 64 be 24 cf c2 be
       0.0050958004 0.30019552 -0.22288935 -0.3804866
000020 90 b1 19 3f 7c 6d 0d be 21 0d 8a 3e 01 5c 92 bf
       0.60036564 -0.13811296 0.26963142 -1.1434327
000030 64 fb c9 3d b3 0f 2c be 01 d2 44 bd 3a af 1c 3f
       0.09862402 -0.16802864 -0.048051838 0.61204875
000040 5b 2e ae be cc e8 36 ba 15 65 9e bf f5 40 8a 3e
       -0.3401974 -0.00069774385 -1.2374598 0.27002683
000050 de b4 51 bf 91 4d 16 bf 71 9d 96 3e 6e 49 9b bf
       -0.81916606 -0.58712107 0.29416993 -1.2131784
000060 88 c4 70 be 3e 04 74 be 17 33 78 bd 09 f9 55 bf
       -0.2351247 -0.23829743 -0.060595598 -0.8358312
000070 20 cd b5 bc 51 1e 3f 3f e0 6a bd 3e 64 ef 58 bd
       -0.022192538 0.74655634 0.36995602 -0.052962676
000080 c5 b5 de 3d b4 4d fa 3d 25 57 c8 3e 06 cd 4f 3e
       0.108745135 0.12221852 0.39128986 0.20293054
000090 4d 64 d8 3d a8 4c 33 3b 57 f4 91 be df bd cd bd
       0.10566006 0.0027358923 -0.2850673 -0.10045981
0000a0 cd e7 f9 3d 3c 99 85 3f 7d b0 48 3f 85 25 2e bf
       0.122024156 1.0437388 0.783943 -0.68026
0000b0 31 42 48 bf 99 d5 83 be 84 3e 9d bf 0e 0f db 3e
       -0.78226 -0.257489 -1.2284703 0.42784923
0000c0 a2 f5 5b bd 24 bd 64 3e b6 cb 5a 3e eb da f6 3c
       -0.05370105 0.22337776 0.21366772 0.030133685
0000d0 14 48 e7 3d 84 4a 51 bd 2e cb 01 be 8a cb 72 be
       0.11293045 -0.051096454 -0.12675163 -0.23710456
0000e0 e8 29 ff bd 77 e2 05 3f e4 ee fa 3e 67 9d fc be
       -0.12459165 0.5229868 0.49010384 -0.49338838
0000f0 f3 ce 2d bf 53 a6 91 be de 7a 96 bf 56 20 bf 3e
       -0.67893904 -0.28447208 -1.1756246 0.37329358
000100 9e 12 96 3d e5 42 ad 3e 40 a3 84 3e e1 28 22 3e
       0.0732777 0.338401 0.259058 0.15835907
000110 6e d6 57 3e ac 05 48 3e 56 07 05 bf ad 1a 06 3e
       0.21077892 0.19533414 -0.5196432 0.13096114
000120 66 90 07 3d 61 78 03 3f 80 10 f6 3e 30 f1 a2 3d
       0.033096693 0.5135556 0.48059464 0.07956159
000130 fb 12 0f bf 31 81 92 bf 48 7e 50 bf ad a7 87 3e
       -0.55888337 -1.1445676 -0.8144269 0.26495114
000140 59 4c dd be dc b0 31 bd 78 3a ab 3d 38 05 77 bc
       -0.4322231 -0.043381557 0.083607614 -0.015076928
000150 5b 7d b9 bc b2 5a 96 be c8 bd 68 3e e8 36 4c be
       -0.022642782 -0.2936607 0.22728646 -0.1994282
000160 47 3f bf be bb b4 13 3e 83 ec e4 3e a1 b8 90 3e
       -0.37352964 0.14424412 0.44711694 0.2826586
000170 9c 20 f7 be c7 73 19 be 24 c2 30 bf f9 93 8e 3d
       -0.48267066 -0.14985572 -0.69046235 0.06961817
000180 1e 65 af 3e 97 9f f3 3e 23 68 a7 3e f6 87 59 3d
       0.34256834 0.47582695 0.32696638 0.053108178
000190 97 98 c2 3e 7e cf 11 3f f7 b3 26 bf c5 ba 91 3e
       0.38007042 0.5695723 -0.65118355 0.28462806
0001a0 63 0a a2 3e c6 66 48 bf 83 d7 7b be 07 77 20 be
       0.3164855 -0.7828182 -0.2459393 -0.15670405
0001b0 84 76 01 3f 44 0d 41 bf af c5 3d be 2d 67 ce 3e
       0.50571465 -0.75410867 -0.18532442 0.40313092
0001c0 22 97 d1 be 36 a3 e8 be 63 2e c7 be 5d fe 2e 3e
       -0.40935618 -0.4543702 -0.38902578 0.1708922
0001d0 77 05 aa be 26 49 fd be bd c4 66 3f 6b 07 6c be
       -0.33207294 -0.4946987 0.9014395 -0.23049705
0001e0 39 f5 bb be 35 3d 1f 3f ca ce 0c bd 1c 21 fe 3d
       -0.36710528 0.6220277 -0.034376897 0.12408659
0001f0 fc 9f a0 be c6 e4 0f 3f d3 03 89 3d af d5 df be
       -0.31372058 0.56208456 0.066901825 -0.43717715
000200 40 01 d7 3d f5 42 7e bd 54 10 ab 3e e0 f2 08 3e
       0.10498285 -0.062075574 0.33410895 0.133739
000210 1a fc 90 3e 68 c7 57 3e 00 66 ff 3e 81 f9 00 3e
       0.28317338 0.21072161 0.49882507 0.12595178
000220 ca 74 dc 3d 35 94 98 3e 70 c4 5a be 84 2b 3d bd
       0.10764463 0.29800573 -0.21363997 -0.046184078
000230 46 d1 a7 bd 17 b3 dc 3e 76 52 99 3d 48 6c 4d 3c
       -0.081942126 0.43105385 0.07486431 0.012538023
000240 9e a8 59 3e 8b 56 b6 3d ca ae 75 3e 20 30 a1 be
       0.21255729 0.089032255 0.23992458 -0.3148203
000250 24 c3 a3 3d d7 ac 96 3e 32 64 ac be a9 9f dd 3e
       0.079962045 0.2942874 -0.33670193 0.43285874
000260 1f c6 26 3e cc be a9 be 79 69 4d be bf f9 a2 3e
       0.16286515 -0.3315338 -0.20059766 0.31831166
000270 b1 e6 2d 3e 35 37 06 bf 19 b9 03 be fd de 46 3d
       0.16982533 -0.5242799 -0.12863578 0.048552502
000280 47 82 82 3d c6 c9 9d bd 22 2c 3b be ee 08 f2 bc
       0.06372505 -0.07704501 -0.18278554 -0.029545274
000290 41 33 95 3d 40 71 88 bd 9a 7f 79 be 29 60 5c 3c
       0.072851665 -0.06662226 -0.24365082 0.013450661
0002a0 60 8c e8 ba 04 a9 d6 3d ca 56 76 bd 7f 15 61 be
       -0.001774203 0.10481456 -0.060141362 -0.21980856
0002b0 26 70 be 3b 5a 56 a6 3d cb ce 89 be cf 3b ba bd
       0.005811709 0.08121939 -0.26915583 -0.09093439
0002c0 2d ad 4a 3d 84 46 22 bd dd 26 57 be a9 52 80 be
       0.04948156 -0.03961803 -0.21010919 -0.25063065
0002d0 91 b1 bb bd 57 be 70 be a9 89 c3 bd 20 ec 34 3e
       -0.091647275 -0.23510109 -0.09547741 0.176682
0002e0 3f 3d 08 be 5a 56 fd bc c9 98 02 be 90 c0 b2 bb
       -0.13304614 -0.030924965 -0.12753595 -0.005455084
0002f0 c9 4f f2 bd d1 e2 d9 bc a9 3b 3c 3c a9 fc b4 3d
       -0.11831624 -0.026597412 0.011488833 0.088372536
000300 56 9e 5b bc 45 b9 10 bd 67 32 db 3d 21 e1 26 3d
       -0.013404449 -0.035332937 0.10702973 0.040742043
000310 8e 35 06 3e 69 8f 99 3e 81 e0 0a 3f 79 2d 0b 3e
       0.13106367 0.29992226 0.54248816 0.13591565
000320 b1 5a 8d 3e b6 ce 72 be 9a ee 95 be 57 37 fb bd
       0.27608255 -0.23711666 -0.292836 -0.122664146
000330 7d 2b 21 3d 74 df 11 3f f3 7f ec 3e cd ff 6f be
       0.039348114 0.5698159 0.46191368 -0.23437424
000340 1a f6 00 bd d5 25 c5 3c b5 68 a7 3e 54 c8 29 39
       -0.0314847 0.024065891 0.32697073 0.00016191724
000350 1c 13 83 3e 38 d8 85 3e 4e 27 c8 be 93 8c b5 3e
       0.25600517 0.26141524 -0.39092487 0.35458812
000360 23 80 d6 bd f7 c6 da 3e 61 5d b7 bd ed 81 ed 3e
       -0.10473659 0.42729923 -0.089533575 0.46388188
000370 02 68 10 3d 8d c7 4a bf d8 f7 1e bf b3 a6 e4 bd
       0.03525544 -0.7921074 -0.6209693 -0.11164608
000380 a1 ef ea 3d 53 b8 ac 3e 24 c6 ed 3e bd 17 de 3d
       0.11471487 0.33734378 0.46440232 0.108443715
000390 44 53 60 3e 63 f4 e5 3c 97 be 4f bf dd 09 c8 3d
       0.21906763 0.028070634 -0.8115019 0.09767506
0003a0 55 4f b6 3d 26 8b 2d bc b4 f8 aa 3e 00 b1 5d b7
       0.0890185 -0.010592258 0.3339287 -1.32138375e-05
0003b0 06 c1 e7 be 9f e2 67 bf 65 ea 84 bf 9b a6 c1 3e
       -0.45264453 -0.9058017 -1.0384032 0.37822422
0003c0 35 23 03 bf 3d 51 56 bd 6e 0f a5 3b 84 4e 39 3e
       -0.51225597 -0.05232357 0.0050372398 0.18096358
0003d0 3c 95 8a be f6 e6 b5 be 64 7a 0c 3c e4 f7 1a be
       -0.27066982 -0.35527772 0.008574102 -0.15133625
0003e0 6f 34 e8 be 60 46 07 3f 50 e8 d2 3e 50 8e 0f 3f
       -0.45352504 0.5284176 0.41192865 0.56076527
0003f0 3b 14 c4 be 9e 67 16 bc 50 39 04 bf dd 92 75 3e
       -0.38296685 -0.009179978 -0.5164995 0.23981805

mlp.0.bias f4 [16]
000000 2f f3 63 3e af 8b e0 bd 03 ec db 3d 19 32 a6 bb
       0.22260736 -0.109641425 0.10738375 -0.00507189
000010 97 1a 1d 3e 8b 45 14 bd bc 51 88 bd 91 2c 6a 3e
       0.15342174 -0.036199134 -0.066562146 0.22868563
000020 08 1c 33 be c1 d4 98 3e 46 a7 9e 3d c3 24 3f 3e
       -0.17491162 0.29849818 0.077467486 0.18666367
000030 02 fc 2a 3e da ec ba 3c 42 62 e7 bd 08 0d 1c 3d
       0.16697696 0.022818018 -0.11298038 0.038098365

mlp.2.weight f4 [1, 16]
000000 fc 19 59 3f 57 ab cb 3e 61 db 28 3f d6 7e 50 bf
       0.84805274 0.3977916 0.65959746 -0.81443536
000010 ce 8d 98 be ae a9 77 3d 63 11 26 be ff dd 31 3f
       -0.29795688 0.060464554 -0.1621757 0.69479364
000020 35 0d 55 bd b4 cc 12 bf 24 2f b5 3d e2 b1 02 bf
       -0.05201455 -0.573436 0.08846882 -0.5105268
000030 3f 5b 51 be cf 82 ee bc 4a 17 3f bd 69 63 e1 bd
       -0.20444964 -0.029115109 -0.04665307 -0.11005289
