data/CTC/Fluo-N2DH-SIM+/02_RES_GAT/20250715_010516/top3_model_fold3.pth (torch, 11177 bytes, 15 tensors)

gat1.att_src f4 [1, 1, 16]
0.1449689 -0.25619364 0.24813671 0.055803444 0.264984 -0.29123256 0.2570292 -0.13835582
0.5136155 0.23343286 0.011361134 0.1904433 -0.12642284 -0.23447019 0.5839814 -0.2598864
00000000: ba72 143e d02b 83be 8d17 7e3e 2792 643d
00000010: fcab 873e 6f1c 95be 5599 833e 26ad 0dbe
00000020: 4e7c 033f 0609 6f3e 0d24 3a3c 9203 433e
00000030: fd74 01be f418 70be ce7f 153f d50f 85be

gat1.att_dst f4 [1, 1, 16]
-0.2009905 -0.23022795 -0.051288977 -0.8967475 -1.3930582 0.030032901 0.57031983 -0.35902876
-0.41428965 -0.18266267 -1.2497487 -0.9783242 0.99487525 -0.4522936 0.43004552 1.1368399
00000000: 74d0 4dbe e0c0 6bbe 6414 52bd 3f91 65bf
00000010: bb4f b2bf 8f07 f63c 7b00 123f 9ed2 b7be
00000020: c61d d4be ec0b 3bbe c4f7 9fbf 7473 7abf
00000030: 25b0 7e3f 0793 e7be ed2e dc3e f883 913f

gat1.att_edge f4 [1, 1, 16]
-0.7280135 1.0224944 -0.20238817 -0.37975335 -0.4168767 0.24008179 -0.3451336 -0.2094911
-0.5275503 -0.1661786 0.04428847 -0.8950489 -0.2698646 0.53182876 -0.51913595 -0.46166158
00000000: 185f 3abf 19e1 823f d83e 4fbe 086f c2be
00000010: dd70 d5be 00d8 753e 5ab5 b0be d684 56be
00000020: 890d 07bf b92a 2abe d467 353d ed21 65bf
00000030: b12b 8abe ee25 083f 18e6 04bf e85e ecbe

gat1.bias f4 [16]
-0.10633421 0.20799296 -0.079686694 -0.22545698 0.05803626 -0.107440256 -0.123621605 -0.1528087
0.2786387 -0.4631378 0.2178975 0.19767535 0.19579816 0.3355767 0.47774783 0.46583468
00000000: c0c5 d9bd 1bfc 543e c732 a3bd 32de 66be
00000010: 6eb7 6d3d a309 dcbd 532d fdbd e279 1cbe
00000020: bba9 8e3e 6620 edbe 8620 5f3e 686b 4a3e
00000030: 507f 483e b6d0 ab3e 5d9b f43e e281 ee3e

gat1.lin.weight f4 [16, 14]
-0.47352594 -0.5005405 0.4598669 -0.0348527 0.2465554 -0.32090408 0.06027205 -0.30661303
0.04638711 0.022803383 0.10829859 0.20908739 0.02038096 0.17913838 0.2311238 -0.011592193
0.03062809 -0.5620112 0.5480638 -0.20628056 0.5913898 -0.52077466 0.20863412 -0.3066152
-0.31206957 0.42718676 0.036329407 0.12143441 0.5852454 0.58451605 -0.10512688 0.49686557
-0.79357487 0.4930108 -0.56599486 0.2977524 -1.016888 -0.005023197 -0.33304143 0.4406498
-0.06444473 -0.30049875 0.050585985 0.019969508 0.02990628 -0.72616374 -0.21154313 -0.86321366
0.16912688 -1.0329665 -0.3752391 -0.22843854 -0.39177987 0.20791654 0.978684 -0.5127709
-0.5625025 -0.10407613 -0.52544457 -0.949837 0.12547188 -0.23475075 -0.27558702 -0.45592007
-0.41095716 0.13235909 -0.29835054 0.14891121 -0.38498965 0.12477611 -0.38414764 -0.106399916
-0.19120434 0.20824872 0.32839084 -0.34389982 0.35268945 0.0062802285 -0.12480964 0.10655655
0.16627134 -0.18168917 -0.14450079 0.6392117 -0.48359722 -0.2832925 0.013571063 -0.17337227
0.034446627 0.43053854 0.2699807 0.46618727 -0.08657385 -0.019286254 -0.0484143 0.37068525
0.46708667 0.45472002 0.47548607 0.4283956 0.30599436 0.38717514 -0.5648803 -0.31617087
-0.122260064 0.17165466 -0.28751534 0.84813774 0.28412607 0.03122505 -0.60981715 0.086846344
-0.5053087 0.7681655 -0.5196281 0.61224115 -0.75834125 0.16571973 -0.70192397 0.59848976
-0.7215982 0.07976931 -0.13575263 0.19277956 0.009188978 -0.116206214 0.051903427 -0.097328775
0.16746002 -0.2246349 0.052181523 -0.4532688 -0.1334229 0.32745653 0.29539487 0.23144826
0.21976845 -0.24336796 -0.056889612 -0.02425196 -0.52204365 0.49724817 -0.57505435 -0.53764045
-0.4738961 -0.37408945 0.3048713 -0.75190437 0.080140546 -0.27713534 -0.6098069 -0.49260896
-0.09721622 -0.38391447 -0.40115774 -0.37910968 0.3703146 -0.38969097 -0.3022144 -0.6777442
-0.23407373 -0.009815686 -0.104070246 0.05558987 0.50171113 0.06182841 0.23502895 0.16904262
-0.031386167 0.10388784 0.19085437 0.11346024 -0.5742928 0.8928265 0.08359968 0.7580237
-0.4491185 -0.06687962 -0.019563293 0.038743176 -0.189885 0.08175565 -0.38569263 -0.11551395
0.36861378 -0.67718196 0.8963856 -0.117730536 0.5285484 -0.19589537 1.0558898 -0.2784671
0.016432822 0.42693028 1.0585436 0.4490652 0.21858728 0.54423535 0.015226459 0.72074264
-0.6932199 0.19803074 -0.69198126 0.80373406 -0.5777868 0.14197592 0.6491991 -0.3602863
-0.0067774896 0.38562554 0.058679566 0.1480219 0.12834339 0.8231491 -0.48034495 0.8316212
-0.6886549 0.5776695 -0.2117947 -0.10258285 0.31445447 -0.34807488 -0.16087255 -0.2536305
00000000: fe71 f2be 6c23 00bf ad73 eb3e b4c1 0ebd
00000010: 0579 7c3e 8a4d a4be d3df 763d 62fc 9cbe
00000020: 6900 3e3d 29ce ba3c a7cb dd3d 011b 563e
00000030: f9f5 a63c 0d70 373e b8ab 6c3e 2eed 3dbc
00000040: c3e7 fa3c f7df 0fbf e94d 0c3f 363b 53be
00000050: 5265 173f 7d51 05bf 2fa4 553e abfc 9cbe
00000060: 95c7 9fbe 39b8 da3e 25ce 143d 9bb2 f83d
00000070: a4d2 153f d8a2 153f c34c d7bd 2a65 fe3e
00000080: b927 4bbf e96b fc3e 0ae5 10bf 0173 983e
00000090: 6329 82bf a199 a4bb 6884 aabe da9c e13e
000000a0: 99fb 83bd f9da 99be 4033 4f3d 1897 a33c
000000b0: 04fe f43c dee5 39bf c39e 58be 92fb 5cbf
000000c0: 992f 2d3e 3f38 84bf 571f c0be cbeb 69be
000000d0: 5f97 c8be 13e8 543e 098b 7a3f f444 03bf
000000e0: 2a00 10bf de25 d5bd 8983 06bf 8528 73bf
000000f0: b37b 003e 8062 70be be19 8dbe 5b6e e9be
00000100: fa68 d2be 2489 073e 67c1 98be 2e7c 183e
00000110: 5d1d c5be 9e8a ff3d 00af c4be 33e8 d9bd
00000120: 12cb 43be 273f 553e d822 a83e a313 b0be
00000130: b693 b43e 60ca cd3b 329c ffbd 523a da3d
00000140: 0943 2a3e ba0c 3abe 04f8 13be 61a3 233f
00000150: 0e9a f7be b70b 91be 2a59 5e3c 8088 31be
00000160: e817 0d3d 8c6f dc3e e93a 8a3e 19b0 ee3e
00000170: a14d b1bd 35fe 9dbc 134e 46bd 75ca bd3e
00000180: fc25 ef3e 10d1 e83e e972 f33e ab56 db3e
00000190: 4bab 9c3e d23b c63e ff9b 10bf 26e1 a1be
000001a0: 7c63 fabd 3dc6 2f3e 3635 93be 8e1f 593f
000001b0: f978 913e adcb ff3c fa1c 1cbf 7fdc b13d
000001c0: e95b 01bf 7fa6 443f 5906 05bf d6bb 1c3f
000001d0: a722 42bf 6fb2 293e 4ab1 33bf a036 193f
000001e0: a9ba 38bf 185e a33d bd02 0bbe 0168 453e
000001f0: 5e8d 163c 86fd edbd b098 543d 4f54 c7bd
00000200: a47a 2b3e b106 66be 4bbc 553d d912 e8be
00000210: 03a0 08be 62a8 a73e ff3d 973e c600 6d3e
00000220: fb0a 613e 7335 79be 1505 69bd 0cac c6bc
00000230: a7a4 05bf 5097 fe3e c336 13bf cea2 09bf
00000240: 82a2 f2be a788 bfbe 1718 9c3e ce7c 40bf
00000250: ba20 a43d afe4 8dbe 4e1c 1cbf 3e37 fcbe
00000260: 4c19 c7bd 7090 c4be 8c64 cdbe aa1a c2be
00000270: e099 bd3e 9385 c7be d9bb 9abe a580 2dbf
00000280: 06b1 6fbe f9d1 20bc c822 d5bd 34b2 633d
00000290: 2470 003f c93f 7d3d 6eab 703e 8219 2d3e
000002a0: c88e 00bd 26c3 d43d 546f 433e d85d e83d
000002b0: da04 13bf 4790 643f 4f36 ab3d d70d 423f
000002c0: dcf2 e5be 2ff8 88bd 3343 a0bc 2ab1 1e3d
000002d0: 3771 42be 826f a73d 8179 c5be 9492 ecbd
000002e0: f2ba bc3e cc5b 2dbf 8779 653f b51c f1bd
000002f0: f34e 073f cc98 48be 6627 873f 3d93 8ebe
00000300: 209e 863c 9b96 da3e 5b7e 873f e0eb e53e
00000310: 58d5 5f3e 0253 0b3f 6678 793c 9782 383f
00000320: dc76 31bf 92c8 4a3e af25 31bf 84c1 4d3f
00000330: d6e9 13bf 2362 113e ea31 263f 7277 b8be
00000340: b415 debb b670 c53e fc59 703d 0e93 173e
00000350: 736c 033e e6b9 523f c6ef f5be 21e5 543f
00000360: b04b 30bf 26e2 133f b6e0 58be f516 d2bd
00000370: 2d00 a13e df36 b2be c6bb 24be dbdb 81be

gat1.lin_edge.weight f4 [16, 2]
0.48581222 -0.6088014 -0.5548555 0.5859141 0.04916658 -0.47681972 0.9307625 -0.38350502
0.7325909 -0.6251011 -0.18702002 0.33971485 0.41603342 -0.06568886 0.15540278 -0.6204367
0.18249714 -0.42242265 0.13362122 -0.41157952 -0.0056966287 -0.03951901 0.68293774 -0.06774418
-0.009040617 -0.7130617 -0.92090845 -0.24017215 0.2252372 -0.66881716 0.9281798 -0.6659254
00000000: 61bc f83e 69da 1bbf 030b 0ebf 77fe 153f
00000010: e562 493d b721 f4be 7446 6e3f c55a c4be
00000020: 148b 3b3f a006 20bf 2d82 3fbe 1bef ad3e
00000030: 5502 d53e e287 86bd e821 1f3e f1d4 1ebf
00000040: 88e0 3a3e c847 d8be 00d4 083e 8dba d2be
00000050: c9aa babb afde 21bd 02d5 2e3f 76bd 8abd
00000060: 191f 14bc 368b 36bf a8c0 6bbf b0ef 75be
00000070: 95a4 663e 9a37 2bbf 319d 6d3f 167a 2abf

gat2.att_src f4 [1, 1, 16]
-0.6886786 -0.41744995 -0.56900984 -0.58507323 -0.7205389 0.45736647 0.9583095 0.01727964
-0.83566874 -0.14419292 0.60561615 -0.11827363 -0.020625312 -0.47587177 1.5907707 0.31639698
00000000: 3e4d 30bf 00bc d5be a1aa 11bf 5cc7 15bf
00000010: 3d75 38bf f02b ea3e c553 753f 088e 8d3c
00000020: 63ee 55bf 4fa7 13be a909 1b3f 7239 f2bd
00000030: 6af6 a8bc 77a5 f3be 609e cb3f c9fe a13e

gat2.att_dst f4 [1, 1, 16]
-0.41365334 -0.17461595 0.04417539 0.030154614 0.24897549 -0.39394438 -0.5407308 0.79426414
-0.44506118 -0.2021907 0.460428 0.092543 0.08570382 -0.3425676 -0.34772655 0.13444181
00000000: 5fca d3be 86ce 32be 41f1 343d cf06 f73c
00000010: 6ef3 7e3e 14b3 c9be 556d 0abf e554 4b3f
00000020: 0fdf e3be 140b 4fbe 38bd eb3e 2f87 bd3d
00000030: 7c85 af3d 0565 afbe 3709 b2be 1dab 093e

gat2.att_edge f4 [1, 1, 16]
1.3137383 1.3314412 -0.052638594 -0.14906937 1.4826562 -0.9370807 1.5821592 -0.015882257
1.5397508 -1.4125937 -1.039031 0.68830174 1.486104 -1.1583498 0.55344063 -1.0584732
00000000: 9428 a83f aa6c aa3f 919b 57bd a4a5 18be
00000010: aec7 bd3f 85e4 6fbf 3184 ca3f 821b 82bc
00000020: 8e16 c53f dfcf b4bf f8fe 84bf 8b34 303f
00000030: a838 be3f ce44 94bf 49ae 0d3f 0d7c 87bf

gat2.bias f4 [16]
-0.18756366 -0.014829064 -0.1396756 -0.14737613 0.2177368 -0.08734085 0.0735365 -0.094634235
-0.019431317 -0.03718937 0.08466893 -0.15161176 -0.02562474 0.16943763 -0.13838182 0.5460347
00000000: b010 40be 9af5 72bc 1f07 0fbe c5e9 16be
00000010: 65f6 5e3e c2df b2bd 4e9a 963d 98cf c1bd
00000020: 6d2e 9fbc e153 18bd e766 ad3d 1d40 1bbe
00000030: faea d1bc 0f81 2d3e f7b3 0dbe eec8 0b3f

gat2.lin.weight f4 [16, 16]
-0.72757965 0.14819439 0.14805615 -0.37312162 -0.44704995 0.04758354 0.17060871 0.3208344
-0.06949152 0.14076705 0.1187265 -0.587527 0.40512735 0.20204298 0.2350418 -0.3863353
0.3271204 1.1144733 -0.30690503 0.27042407 -0.6266032 -0.13821329 0.25272843 -0.15086181
-0.020800225 -0.45414227 0.5121707 -0.33814156 -0.13311656 0.46730193 0.15669642 0.057677902
0.22682217 0.12662415 0.44648767 0.24538203 0.19019713 -0.41494521 -0.36861846 -0.27029976
-0.09658428 0.14663994 -0.09496735 0.12818779 -0.56215024 -0.07363963 -0.10990804 -0.4357619
0.2130703 0.16850413 -0.4664165 0.6035725 -0.33050632 -0.14155088 0.24261291 -0.39032444
-0.040225502 0.15466529 0.25558153 0.23525274 -0.046713177 0.6051398 -0.69300264 0.22010897
0.28074104 0.63429254 -0.16972737 0.44846418 0.14522779 0.09534651 -0.026733436 0.5001927
0.6735282 -0.3665393 0.016652344 0.1330558 0.22919418 0.6233637 0.3255828 0.63132703
0.11571517 0.21636318 0.10837303 -0.041069493 -0.40975264 -0.2143986 -0.20612709 0.087478295
-0.26632985 -0.13431108 -0.012911958 -0.16888191 0.29422846 -0.41724604 -0.11893219 -0.7538295
0.24230324 -0.745669 0.7368145 0.16884787 -0.52618134 -0.034105286 0.18067166 0.9871862
0.6317116 -0.21418391 -0.73063964 0.045079313 0.46571708 -0.30904332 0.68962306 0.61662996
0.34252512 -0.18057157 0.22568426 0.98541725 -0.66285104 0.27607396 0.15856637 0.040356133
0.69923025 -0.26043552 -0.38754708 -0.017084304 0.35281292 0.06364431 0.23575893 0.6394495
0.20817783 0.3340636 0.369247 0.7207647 0.28287867 0.06751084 0.44883707 0.27944046
0.27843237 0.074060366 -0.3232614 0.04064901 0.5258458 0.36987925 0.41082487 0.5671729
-0.16872963 0.6541018 -0.033655904 0.3335715 -0.5501947 0.22908045 0.19310075 0.03152976
-0.19301878 -0.19058572 0.23927012 0.2492049 -0.16206126 0.79298174 0.45853594 -0.2598049
0.4502155 0.6859425 -0.5787283 0.79795045 -0.20351647 -0.14263405 0.8436759 -0.8381671
-0.112744264 -0.4102931 -0.22199386 0.33014005 0.33060354 0.6778719 -0.73899144 -0.6470526
0.03468846 -0.27392897 -0.043147378 0.024341729 0.17452937 -0.21882822 -0.31559238 -0.36244214
-0.051254414 0.27381414 0.16646741 -0.96091133 -0.093703054 -0.033562355 -0.5079137 0.10538425
0.26895946 0.82078916 -0.34694046 0.5023163 -0.2920835 0.45396215 1.0128218 0.27903444
-0.04723337 -0.39910212 -0.12589513 0.28768423 -0.18458577 0.3409531 -0.7394053 -0.102961615
0.29736263 0.39754647 -0.060963705 0.06492336 0.07591817 -0.115926035 0.20019142 0.018790936
0.45031238 -0.08190467 0.32454067 0.30065957 0.5014529 0.48138535 0.23544143 0.47044253
-0.255217 -0.29613242 0.053180758 -0.70035213 -1.0669024 -0.040201604 0.32428825 -0.58284736
-0.21969019 0.0635674 -0.73587143 -0.06166222 0.33574158 -1.6464163 -0.033035893 -0.21015877
-0.33707857 -0.9110837 0.7832448 1.14136 -0.43503764 0.19023766 0.2061332 0.61816186
0.86436087 0.11354689 -1.138531 0.4013311 0.3077658 0.35552892 1.0453509 0.7038708
00000000: a942 3abf 45c0 173e 089c 173e cc09 bfbe
00000010: bbe3 e4be f5e6 423d 0db4 2e3e 6844 a43e
00000020: 9251 8ebd 3d25 103e e126 f33d 2b68 16bf
00000030: da6c cf3e 5be4 4e3e ccae 703e becd c5be
00000040: 537c a73e 10a7 8e3f a822 9dbe 0675 8a3e
00000050: 1169 20bf c987 0dbe 9f65 813e 857b 1abe
00000060: 3c65 aabc 5685 e8be 9e1d 033f e420 adbe
00000070: b54f 08be 3342 ef3e 0775 203e aa3f 6c3d
00000080: 1244 683e c3a9 013e 089a e43e 6d45 7b3e
00000090: 09c3 423e b373 d4be 8fbb bcbe bb64 8abe
000000a0: fbcd c5bd c828 163e 3e7e c2bd a943 033e
000000b0: 14e9 0fbf 60d0 96bd 7717 e1bd 2f1c dfbe
000000c0: 1a2f 5a3e 598c 2c3e 25ce eebe ba83 1a3f
000000d0: 2038 a9be b7f2 10be 856f 783e 9bd8 c7be
000000e0: 7fc3 24bd 9460 1e3e 95db 823e 18e6 703e
000000f0: 5156 3fbd 71ea 1a3f 9f68 31bf 3f64 613e
00000100: 4abd 8f3e ff60 223f 03cd 2dbe 199d e53e
00000110: 98b6 143e 0845 c33d 1400 dbbc a10c 003f
00000120: 586c 2c3f 0aab bbbe 7f6a 883c c83f 083e
00000130: e1b1 6a3e c394 1f3f cab2 a63e a69e 213f
00000140: 13fc ec3d 4f8e 5d3e aef2 dd3d 7c38 28bd
00000150: 19cb d1be 4e8b 5bbe fb12 53be d227 b33d
00000160: 635c 88be d888 09be ad8c 53bc 61ef 2cbe
00000170: 1da5 963e 46a1 d5be b892 f3bd f8fa 40bf
00000180: 571e 783e 2ae4 3ebf e09f 3c3f 75e6 2c3e
00000190: d2b3 06bf fcb1 0bbd fe01 393e 3cb8 7c3f
000001a0: dab7 213f 0753 5bbe 330b 3bbf 16a5 383d
000001b0: 7872 ee3e ed3a 9ebe 238b 303f 76db 1d3f
000001c0: 745f af3e c1e7 38be c619 673e 4e44 7c3f
000001d0: 9bb0 29bf 9159 8d3e 395f 223e 794c 253d
000001e0: c100 333f ce57 85be 926c c6be 62f4 8bbc
000001f0: e5a3 b43e f357 823d ca6a 713e f6b2 233f
00000200: 922c 553e 620a ab3e f10d bd3e 0984 383f
00000210: 79d5 903e 2043 8a3d f9cd e53e d212 8f3e
00000220: b08e 8e3e f6ac 973d 8582 a5be 947f 263d
00000230: d59d 063f d060 bd3e a357 d23e 3e32 113f
00000240: 76c7 2cbe 3773 273f c6da 09bd e2c9 aa3e
00000250: 8fd9 0cbf 1194 6a3e 34bc 453e 5a25 013d
00000260: b7a6 45be e728 43be 3a03 753e 922f 7f3e
00000270: 63f3 25be da00 4b3f 39c5 ea3e 2605 85be
00000280: a582 e63e ed99 2f3f 8a27 14bf 7b46 4c3f
00000290: 9f66 50be a90e 12be 25fb 573f 1e92 56bf
000002a0: 77e6 e6bd f011 d2be 5c52 63be 1e08 a93e
000002b0: de44 a93e 0389 2d3f 8b2e 3dbf 3da5 25bf
000002c0: 7d15 0e3d 6b40 8cbe 4ebb 30bd 4e68 c73c
000002d0: d4b7 323e 8114 60be 5395 a1be 0492 b9be
000002e0: 26f0 51bd 5e31 8c3e 6f76 2a3e 49fe 75bf
000002f0: 63e7 bfbd ae78 09bd a206 02bf b3d3 d73d
00000300: 0eb5 893e 3d1f 523f 2ea2 b1be cd97 003f
00000310: f88b 95be ba6d e83e 25a4 813f 9add 8e3e
00000320: c777 41bd 1d57 ccbe a7ea 00be 594b 933e
00000330: 0d04 3dbe 6891 ae3e aa49 3dbf 8add d2bd
00000340: ea3f 983e 368b cb3e 14b5 79bd 8af6 843d
00000350: fc7a 9b3d a16a edbd fbfe 4c3e 73ef 993c
00000360: 588f e63e a3bd a7bd 322a a63e 0df0 993e
00000370: 385f 003f 2478 f63e 8f17 713e d8dd f03e
00000380: cdab 82be ab9e 97be 11d4 593d 474a 33bf
00000390: 4290 88bf 70aa 24bd 1c09 a63e 7c35 15bf
000003a0: 77f6 60be a02f 823d 1262 3cbf 8691 7cbd
000003b0: 52e6 ab3e c5bd d2bf a550 07bd dc33 57be
000003c0: 9095 acbe c83c 69bf bb82 483f 1618 923f
000003d0: 41bd debe a9cd 423e 9514 533e db3f 1e3f
000003e0: c146 5d3f 468b e83d 62bb 91bf 457b cd3e
000003f0: 7b93 9d3e e307 b63e 0fce 853f e030 343f

gat2.lin_edge.weight f4 [16, 2]
-1.0510681 -0.6640372 -1.2762002 -0.34376281 0.16049987 -0.36178932 0.10019106 -0.030009642
-1.1424977 -0.30378047 1.6817896 0.004558678 -1.1895376 0.081328444 0.10319943 -0.2062062
-0.90071887 -0.64941716 0.6770711 0.43374187 1.9001902 0.10827714 -0.6567945 0.2916112
-1.2169285 -0.106492914 1.5166852 0.24586704 -0.864613 -0.06819051 1.5672723 0.46855462
00000000: 6689 86bf 58fe 29bf 875a a3bf ae01 b0be
00000010: 145a 243e 733c b9be f830 cd3d c8d6 f5bc
00000020: 5d3d 92bf 1d89 9bbe e244 d73f f660 953b
00000030: c542 98bf 878f a63d 395a d33d b827 53be
00000040: 8395 66bf 3440 26bf 8854 2d3f 6a13 de3e
00000050: 6f39 f33f 68c0 dd3d af23 28bf 104e 953e
00000060: 50c4 9bbf f518 dabd be22 c23f 92c4 7b3e
00000070: 4757 5dbf 77a7 8bbd 619c c83f 64e6 ef3e

mlp.0.weight f4 [16, 32]
-0.0829745 -0.013581586 -0.18729237 -0.029332232 0.109920934 0.1784342 0.0868868 -0.14151026
-0.13936752 -0.113067694 -0.115638174 0.051465955 -0.24316096 -0.099888176 0.17854375 -0.24338377
0.17907692 0.043407004 0.12677899 0.05992375 -0.21124892 0.01514934 -0.04979005 -0.16829014
0.09353177 -0.18255578 -0.14085679 0.10664356 -0.084921725 -0.1688911 0.11209765 0.05411883
-0.06481133 -0.30606058 -0.07589359 -0.37266126 -0.3323542 -0.18652867 -0.58014065 -0.3729815
-0.10296308 -0.45364892 -0.6290505 -0.093797624 -0.29582125 -0.37566298 0.16389336 -0.8697914
0.13047972 0.3912492 0.2864425 0.100918144 0.43067756 0.025943853 0.2552505 0.40010446
0.38473585 0.15090115 0.53413534 0.012685907 0.9535307 0.12118951 0.14060238 1.0224929
-0.17612968 -0.16432571 0.23317444 -0.09719493 0.05908316 -0.03235843 0.26854607 0.31622732
0.19643398 -0.19605477 0.38791102 0.2633481 0.3946769 0.020606946 0.061084125 0.43407345
-0.13236533 -0.20258112 0.010157956 -0.092697985 0.10103179 0.044255003 0.1238263 0.1584483
0.17961097 -0.2044034 -0.28968173 0.0322168 0.05090728 -0.043741986 -0.0086912755 -0.022981187
-0.31906992 0.22205983 -0.006406275 0.18595676 -0.082058616 -0.26178175 -0.28252965 -0.07376205
-0.09021725 0.17450532 0.029706217 -0.101897314 0.139353 -0.019943792 -0.053512808 -0.061974324
-0.23927875 0.17318763 -0.009644401 0.12689921 0.22612464 -0.10563269 0.021405801 0.045046523
0.3236067 -0.0020353468 -0.12378559 0.04650498 0.017064333 0.3113288 -0.1707303 0.15010968
-0.25462037 0.14920513 -0.06979128 0.11860587 0.049125474 -0.19011568 -0.20073843 -0.3934435
-0.20363817 0.20761111 -0.14694901 -0.07892795 -0.058971435 -0.06321978 -0.010329723 -0.22300537
-0.27521002 0.16395329 -0.007943273 0.165645 0.25905845 -0.024326036 0.30548424 0.0894294
0.32084832 0.14449313 -0.34651065 -0.07549974 -0.30469054 0.39365533 -0.18823174 0.29164106
-0.11128638 0.36935928 0.1536705 0.29586324 0.15957904 -0.023995113 -0.13200046 -0.1555588
-0.049433563 0.056067932 -0.2498881 -0.22277543 -0.08926739 0.22619022 0.033878442 0.07097548
-0.059929006 0.37745443 0.10945061 0.18596736 0.1327964 -0.19303906 0.05054355 -0.08041473
0.22874688 0.44215086 0.3760801 0.039130095 0.03488678 0.34366992 -0.12504946 -0.111172475
0.099948995 -0.01763637 -0.16772865 -0.16646683 -0.079304144 -0.16608469 -0.13151361 0.104462735
0.010523689 -0.13236618 0.14252084 0.07203685 -0.01539911 -0.07410449 -0.085972026 -0.08592817
-0.12145128 -0.1658673 0.14215581 -0.15446575 -0.11012092 0.007223485 -0.12828153 0.11542094
-0.0017412337 -0.15199831 -0.05736205 0.15200612 -0.13768956 -0.14344841 0.038179986 -0.0029684235
-0.06715915 0.3135062 -0.3554314 0.031292453 0.011215032 -0.09453841 -0.22852337 -0.102075614
-0.19410582 0.28764558 0.27746618 -0.12911926 0.20130238 -0.018148348 0.08902334 -0.33794424
-0.24651206 -0.51780224 -0.010522423 -0.31973487 -0.113824174 -0.09635876 -0.20876782 -0.10712375
0.05447527 -0.5083931 -0.20006058 -0.0939488 -0.28671402 0.035889495 0.58989865 -0.13320874
00000000: 89ee a9bd 4d85 5ebc 92c9 3fbe 264a f0bc
00000010: 3a1e e13d 74b7 363e b5f1 b13d 11e8 10be
00000020: 5cb6 0ebe 0990 e7bd b5d3 ecbd f7cd 523d
00000030: 30ff 78be 2c92 ccbd 2cd4 363e 9839 79be
00000040: f15f 373e 8bcb 313d 5ad2 013e 9b72 753d
00000050: a351 58be f034 783c a7f0 4bbd 4054 2cbe
00000060: 968d bf3d e7ef 3abe c33c 10be f067 da3d
00000070: 71eb adbd caf1 2cbe 7493 e53d b5ab 5d3d
00000080: cdbb 84bd f9b3 9cbe 196e 9bbd 75cd bebe
00000090: 542a aabe 5f01 3fbe 1984 14bf 6ef7 bebe
000000a0: 4fde d2bd ac44 e8be 7409 21bf f818 c0bd
000000b0: e275 97be e656 c0be a9d3 273e a6aa 5ebf
000000c0: 7a9c 053e d151 c83e 97a8 923e 2cae ce3d
000000d0: c581 dc3e 3488 d43c 32b0 823e 7eda cc3e
000000e0: 19fc c43e d585 1a3e 18bd 083f 8dd8 4f3c
000000f0: 971a 743f 3532 f83d 12fa 0f3e 0ce1 823f
00000100: 575b 34be 0045 28be 48c5 6e3e 230e c7bd
00000110: 2f01 723d 468a 04bd df7e 893e 8ce8 a13e
00000120: fd25 493e 95c2 48be 469c c63e 90d5 863e
00000130: 1713 ca3e e6cf a83c 5933 7a3d e03e de3e
00000140: c78a 07be 6d71 4fbe 8e6d 263c 71d8 bdbd
00000150: c1e9 ce3d bc44 353d a598 fd3d 4540 223e
00000160: f0eb 373e 204f 51be 2a51 94be c3f5 033d
00000170: 2784 503d cc2a 33bd da65 0ebc 0b43 bcbc
00000180: 225d a3be a763 633e bbeb d1bb 736b 3e3e
00000190: 590e a8bd 4208 86be baa7 90be 8f10 97bd
000001a0: d2c3 b8bd 86b1 323e 745a f33c 8aaf d0bd
000001b0: 8eb2 0e3e 2a61 a3bc 3f30 5bbd cad8 7dbd
000001c0: 7d05 75be 1958 313e 8d03 1ebc def1 013e
000001d0: 388d 673e f455 d8bd 385b af3c b482 383d
000001e0: c7af a53e 7463 05bb 4d83 fdbd 027c 3e3d
000001f0: 80ca 8b3c 7d66 9f3e ecd3 2ebe 5ab6 193e
00000200: 9a5d 82be 3bc9 183e bbee 8ebd a2e7 f23d
00000210: cb37 493d afad 42be 608e 4dbe 6d71 c9be
00000220: 8686 50be 0298 543e cd79 16be faa4 a1bd
00000230: 088c 71bd 5f79 81bd 003e 29bc 855b 64be
00000240: 54e8 8cbe 5fe3 273e 8024 02bc d89e 293e
00000250: 4fa3 843e 6547 c7bc 6e68 9c3e c326 b73d
00000260: 3b46 a43e 02f6 133e d869 b1be 9c9f 9abd
00000270: 6600 9cbe 318d c93e d2bf 40be fa51 953e
00000280: 1dea e3bd a91c bd3e cd5b 1d3e 637b 973e
00000290: b068 233e 6691 c4bc 212b 07be ce4a 1fbe
000002a0: d97a 4abd 7da7 653d abe2 7fbe 3e1f 64be
000002b0: d2d1 b6bd 699e 673e 1fc4 0a3d 985b 913d
000002c0: 1e78 75bd b541 c13e a427 e03d 3a6e 3e3e
000002d0: c8fb 073e 08ac 45be c106 4f3d 7ab0 a4bd
000002e0: 9f3c 6a3e 9961 e23e 928d c03e e146 203d
000002f0: 71e5 0e3d 81f5 af3e f70c 00be 65ae e3bd
00000300: 0fb2 cc3d 267a 90bc 0fc1 2bbe 4876 2abe
00000310: 366a a2bd 1b12 2abe 81ab 06be 8ff0 d53d
00000320: 8d6b 2c3c 008b 07be fcf0 113e 0e88 933d
00000330: 8c4c 7cbc 18c4 97bd 1a12 b0bd 1cfb afbd
00000340: 73bb f8bd 1ed9 29be 4b91 113e 452c 1ebe
00000350: 1487 e1bd fcb2 ec3b 3c5c 03be d061 ec3d
00000360: 1c3a e4ba 72a5 1bbe 78f4 6abd 7ea7 1b3e
00000370: 7efe 0cbe 24e4 12be 9e62 1c3d e289 42bb
00000380: bd8a 89bd e283 a03e 1bfb b5be 842c 003d
00000390: 41bf 373c 5b9d c1bd 0802 6abe 050d d1bd
000003a0: adc3 46be 4846 933e 0c10 8e3e d737 04be
000003b0: 3622 4e3e d8ab 94bc de51 b63d 0707 adbe
000003c0: a86d 7cbe b08e 04bf 3e66 2cbc 4ab4 a3be
000003d0: a61c e9bd be57 c5bd 3bc7 55be b263 dbbd
000003e0: 7621 5f3d 0d26 02bf aedc 4cbe 3a68 c0bd
000003f0: 2ecc 92be dd00 133d 9903 173f df67 08be

mlp.0.bias f4 [16]
-0.15580949 -0.12903464 0.00813403 0.32187742 -0.084297165 -0.019512136 -0.06250356 -0.07921536
-0.0012949498 -0.163522 -0.18675351 0.16189973 -0.18173306 0.024743794 -0.17762353 0.2853145
00000000: 868c 1fbe a821 04be 9844 053c 1ecd a43e
00000010: fea3 acbd ead7 9fbc de01 80bd aa3b a2bd
00000020: 4ebb a9ba 5072 27be 503c 3fbe 0bc9 253e
00000030: 3b18 3abe 7fb3 ca3c f1e2 35be be14 923e

mlp.2.weight f4 [1, 16]
0.02928766 -0.7478336 -0.12974405 0.32395604 0.49666682 0.3304988 -0.0128419995 -0.11578509
-0.18125066 0.068588376 0.013625509 -0.48171577 0.03000172 -0.24486446 -0.07085724 0.2601728
00000000: adec ef3c 0672 3fbf a0db 04be 91dd a53e
00000010: 1d4b fe3e 2437 a93e 4067 52bc bc20 edbd
00000020: c699 39be 1078 8c3d 873d 5f3c 73a3 f6be
00000030: 2bc6 f53c c0bd 7abe 9a1d 91bd 5f35 853e
