data/CTC/Fluo-N2DH-SIM+/02_RES_GAT/20250714_233413/manual_fold_3_best_model.pth (torch, 11177 bytes, 15 tensors)

gat1.att_src f4 [1, 1, 16]
000000 c2 14 fd ba 06 6a 05 be 95 6c ac 3e 6e 89 f9 be
       -0.0019308554 -0.13028726 0.33676592 -0.48737663
000010 fc e6 80 3e 71 70 06 3f 13 2a 72 3e c2 c9 28 3e
       0.25176227 0.5251532 0.23648863 0.16483214
000020 4c 47 0b 3e 3c d6 1e bf 2e dc 82 be 07 c7 74 be
       0.13601416 -0.62045646 -0.2555861 -0.23904048
000030 bb 70 3b be 77 b9 86 3d bf 2b 70 3e c0 9e 08 3e
       -0.18304722 0.06578343 0.23454188 0.13341808

gat1.att_dst f4 [1, 1, 16]
000000 fa ab 44 3f 66 a8 d4 be d2 37 53 bf bb 55 7d bf
       0.76824915 -0.41534728 -0.8250705 -0.9895894
000010 0e ed 87 be e0 99 37 3f 5a 30 04 3f e3 22 ab be
       -0.26548046 0.7171917 0.5163628 -0.33425054
000020 b8 09 e5 3d 03 0f 88 bf 7e a2 29 bf 67 78 0c bf
       0.11183494 -1.0629581 -0.6626357 -0.5487122
000030 74 f7 fd 3d 72 40 58 3f a4 69 7b 3e ca e2 3f 3d
       0.124007136 0.84473336 0.24552017 0.046847142

gat1.att_edge f4 [1, 1, 16]
000000 22 f2 00 3f 89 96 0e 3f 80 64 c9 3d d8 97 b7 bd
       0.50369465 0.5569845 0.09833622 -0.08964509
000010 08 81 b7 3c 45 88 34 bf 41 b8 89 3f ff 25 87 be
       0.022400394 -0.7052043 1.0759355 -0.26396176
000020 fd 7a 50 bf 1a 30 86 3f 5d 95 4b 3f d8 ec fc be
       -0.81437665 1.048343 0.79524785 -0.49399447
000030 fb be 2a 3d 68 e4 be be 34 0d 9d 3e 4e 0c 5f be
       0.04168604 -0.37283635 0.30674136 -0.21782038

gat1.bias f4 [16]
000000 01 a6 12 be 55 39 b9 be a4 2d c8 3d c7 36 1e 3f
       -0.14321138 -0.36176553 0.0977433 0.61802334
000010 71 1f 86 bd f0 11 52 bd 1a 0e da 3e 75 39 bd be
       -0.06548966 -0.051286638 0.42588884 -0.369579
000020 8d df 37 be 1d 49 04 3d 20 e5 41 3d b3 7e 46 be
       -0.17956372 0.03229629 0.04733765 -0.1938427
000030 3c d6 0d 3e 37 2f 4b 3e 77 c0 77 be 70 88 b1 bd
       0.13851255 0.1984223 -0.24194513 -0.086686015

gat1.lin.weight f4 [16, 14]
000000 c9 48 ac bd b3 b7 ad be 9f e7 64 3e d3 da 5b 3e
       -0.0841232 -0.33929214 0.22353981 0.21470194
000010 f0 1f fd bb 08 37 96 be fc 68 90 3e 0f c1 5b 3e
       -0.0077247545 -0.2933886 0.28205097 0.21460365
000020 3d 28 cf 3e 2d df 11 bf 38 01 54 3f 55 c3 f9 bd
       0.40460387 -0.56981164 0.8281436 -0.1219546
000030 09 69 a4 3e 73 48 5a 3e 67 5a 9c bc 33 a5 29 3e
       0.32111385 0.213167 -0.019086076 0.16566925
000040 8e 46 f1 bd 14 4d 13 bd aa e4 a3 3e f0 54 61 3e
       -0.11781035 -0.03596218 0.32010394 0.22005057
000050 c4 9f a3 bb 92 f2 e4 3d 42 5c 0c bd 1e 00 2e bc
       -0.004993411 0.11179079 -0.03426767 -0.010620145
000060 d6 cd e6 bd 76 8c bf 3d 19 75 f8 3c f7 50 38 3e
       -0.11269729 0.09352963 0.030329274 0.17999636
000070 b7 f3 0c 3f f9 02 ec 3e ad 4c 12 3b 4f ce 5e 3f
       0.5505938 0.46096018 0.0022323534 0.8703355
000080 90 4d 2e bf 8d a1 0e 3f 31 d3 0e be 8c 02 4a 3e
       -0.680871 0.55715257 -0.1394775 0.19727534
000090 5b 4b d7 be e5 76 53 be db 6a c6 be c9 82 69 3e
       -0.4204968 -0.20650823 -0.387534 0.22803797
0000a0 c7 3d 6e be 31 4e 0b be 1c e8 00 3f ae cb 28 3e
       -0.23265754 -0.13604046 0.5035417 0.16483948
0000b0 20 a5 6a 3d 72 74 24 bf 71 fb 11 3f 68 fc 28 3d
       0.05728638 -0.6424018 0.57024294 0.04125634
0000c0 be 38 36 3f ef d1 95 bd 0f 81 45 3f 57 e4 14 3e
       0.7118033 -0.07315432 0.7715005 0.1454023
0000d0 c7 da ee be f5 6a 40 be 8f 2c 8f be a1 22 ad bd
       -0.4665129 -0.18790801 -0.27963683 -0.084538706
0000e0 5a 03 45 3c 30 7e 92 be 21 45 c9 3d c6 15 31 be
       0.012024725 -0.28611898 0.098276384 -0.17293462
0000f0 db 25 0b 3e c0 4c f2 3d f9 bb 7e 3e 48 ac 1e be
       0.1358866 0.11831045 0.24876393 -0.15495408
000100 1f 58 b9 bd a0 63 f5 b9 dd 44 c3 3e 29 a7 83 3d
       -0.09050011 -0.00046804268 0.38138476 0.06428368
000110 62 af 97 3e 58 5f 92 be 8b b4 44 bd 60 67 5d 3f
       0.29625994 -0.28588367 -0.04802374 0.8648586
000120 fc 53 63 be bf de 09 3f 5b 5f 47 bf 17 c8 07 3e
       -0.22200006 0.5385551 -0.77879876 0.13259922
000130 70 f5 45 bf af 89 67 3f a1 3c ce be cd c4 55 3e
       -0.7732763 0.90444463 -0.4028063 0.20875855
000140 a0 7c 21 3e 5c 00 e8 bd b0 de 47 3d b9 1b da be
       0.15770197 -0.113281935 0.048796356 -0.42599276
000150 f4 39 30 be fb 74 36 3d d7 f0 18 3e c4 3f 4a 3f
       -0.17209607 0.044545155 0.14935623 0.7900355
000160 0c 20 fe be f0 ba e3 3e 9e 9c 9f be ab f6 13 3f
       -0.49633825 0.4447856 -0.31174177 0.5779826
000170 fa 25 b7 be 78 fc 07 3f b0 78 a2 3d 7a 18 f4 bd
       -0.3577116 0.5311961 0.079331756 -0.11918731
000180 99 e1 bb 3e 1f 36 4a 3e 05 ad 71 3e fb b6 69 3c
       0.36695555 0.19747208 0.23601158 0.014264817
000190 96 e5 19 3e 24 ea 0e bf 5d 03 91 3e 68 02 16 bf
       0.15028986 -0.5582602 0.28322878 -0.5859742
0001a0 21 1c 01 3f 2b 64 0e bf 44 ec 3d be 1c 2f b0 3c
       0.50433546 -0.55621594 -0.1854716 0.021506839
0001b0 7f f5 97 3e 99 94 3e 3e 7d bb 98 3c b4 fa 8f 3e
       0.29679486 0.18611373 0.018644089 0.2812096
0001c0 a9 88 3d be 77 19 b2 be 58 23 b9 3c ac 82 d0 bd
       -0.18509163 -0.34785053 0.022599861 -0.10181174
0001d0 20 e8 58 3e a3 c0 82 be 17 00 5a 3e 97 06 23 be
       0.21182299 -0.25537595 0.21289097 -0.15920483
0001e0 28 23 db bd b8 fa 84 3e 5e 5b eb 3e d6 f2 07 be
       -0.10700065 0.25972533 0.45968145 -0.13276228
0001f0 53 9b 9c 3e 2f f7 72 3e bc ed fe 3e 93 14 fd 3e
       0.30587253 0.23727106 0.49790752 0.4942976
000200 9f ef 0b 3e d0 b2 a3 3e 2e 0c e7 3e b0 ee 63 be
       0.13665627 0.3197236 0.4512648 -0.22259021
000210 0e 61 b4 3e c4 56 8d 3e a6 43 16 3f e7 91 02 bd
       0.35230297 0.2760526 0.58696973 -0.031877425
000220 d1 f0 92 be 8c 7f 32 3e 4e 59 94 3e 98 02 e0 bd
       -0.28699353 0.17431468 0.28974384 -0.10937995
000230 2b d5 74 3e 24 dc 5e 3e f1 37 24 3e e3 84 20 3e
       0.23909442 0.21763664 0.16036965 0.15675692
000240 bb 77 0b 3f 85 80 9f 3d ff 8d 5e 3e cb b9 06 bf
       0.5447957 0.07788185 0.21733855 -0.5262725
000250 8b 47 f1 bd 4b 51 05 3f 5d 36 59 be 37 a0 53 be
       -0.11781224 0.5207717 -0.21212144 -0.20666586
000260 39 e1 f3 3c 23 99 a2 3e b6 b9 2f 3e 5e d9 7a be
       0.02977048 0.3175746 0.17160687 -0.24496982
000270 c5 ff b0 3e 17 22 88 3e 6b 4e e4 3d 6e df 64 3e
       0.34570137 0.26588508 0.111477695 0.22350857
000280 e5 a6 13 3f 1b 46 ae bc a3 11 e7 3e 0f a0 d8 bd
       0.57676536 -0.021273663 0.45130643 -0.10577404
000290 32 d0 f2 3e 3c d6 53 bd b8 fd 1d 3e 08 c9 09 be
       0.47424465 -0.05171798 0.15428817 -0.13455594
0002a0 78 fc e8 3d e4 38 2d 3f 9a d5 06 3f 49 0b 44 3e
       0.113762796 0.67664933 0.5266968 0.1914493
0002b0 a8 30 84 3e 96 47 b3 3e aa 74 f3 3d 12 76 35 3f
       0.25818372 0.35015553 0.11887486 0.70883286
0002c0 b5 fa 12 bf 62 c0 b2 3d c9 b8 de 3c b5 4f 53 3e
       -0.574138 0.087281 0.027187722 0.20635875
0002d0 c3 98 98 bd 85 06 d9 3d da e1 9b be 14 4a a6 be
       -0.07451012 0.105969466 -0.3044575 -0.32478392
0002e0 ab 5e e5 3d 9f 71 80 3d 56 a0 e2 be a8 2b 57 3d
       0.11199697 0.062716715 -0.44262952 0.05253187
0002f0 99 1c be be a9 56 23 3f 9d e2 55 3e 5f 20 14 3e
       -0.37131193 0.6380411 0.20887227 0.14465474
000300 44 63 cf 3c 56 f8 f9 3c e7 70 69 be fa 3a ab bd
       0.025315888 0.030513924 -0.22796975 -0.08360858
000310 a9 f9 9e 3d 14 c4 02 3f 35 6b e1 be 8c 61 36 3f
       0.07762463 0.5108044 -0.44027105 0.71242595
000320 9f e5 68 be 4e 81 07 3f db ba cc be 7a 31 f2 3e
       -0.22743843 0.5293168 -0.3998631 0.47303373
000330 93 60 54 bf 19 44 6d 3e ca de 6c be 61 56 5a be
       -0.8295986 0.23170508 -0.23131862 -0.21322013
000340 23 40 30 bf 6c 1c cf 3e 27 de da be 4d 68 12 bd
       -0.68847865 0.40451372 -0.42747614 -0.035744
000350 28 dc 08 3e 49 b4 92 be 88 28 d1 3d ee 68 9f be
       0.13365233 -0.28653172 0.10212809 -0.31134742
000360 a2 5b 33 3f a1 d9 76 be 26 09 13 be 06 75 8c be
       0.70061696 -0.24106456 -0.14358959 -0.27433032
000370 db d7 df 3e 06 e0 f2 3e 41 05 45 3d 0e 20 4a 3f
       0.43719372 0.4743654 0.048100714 0.7895516

gat1.lin_edge.weight f4 [16, 2]
000000 16 ca 00 bf 4c 67 03 bf de ab 90 bf 39 6c df 3e
       -0.5030836 -0.51329494 -1.130245 0.43637255
000010 ad eb 9a 3d 6b 25 a6 be a2 e6 25 3e 9a c2 0d 3e
       0.07564483 -0.32450423 0.1620126 0.13843766
000020 aa 86 ad 3d 37 15 a9 3e 1f d8 63 3f 4b 9a bc bd
       0.08472951 0.33023998 0.8900165 -0.092091165
000030 a7 31 00 bf fe 98 28 3e 91 25 00 3f fe 90 ae be
       -0.50075763 0.16464612 0.5005732 -0.34094995
000040 cf 85 70 3f 2d 2a 0d 3f 4d 4b 40 bf 79 49 04 3f
       0.93954176 0.5514248 -0.751149 0.5167461
000050 0b a1 d5 be 12 94 ad 3e 6b f4 ae 3e cb d9 3a 3e
       -0.4172443 0.3390203 0.3417085 0.18247144
000060 c6 6c c0 bc b8 cb 8e 3d df d8 41 3e 15 46 9b be
       -0.023489367 0.0697245 0.18930386 -0.30326906
000070 3d c8 c4 be 15 02 74 3e a8 62 35 bc 80 be 9f be
       -0.3843402 0.23828919 -0.011070885 -0.31200027

gat2.att_src f4 [1, 1, 16]
000000 a5 13 17 bf 4c fd ca be 19 7d d9 3e ba d3 d7 3e
       -0.5901435 -0.39646375 0.42478254 0.42153722
000010 09 af 02 3e e3 09 a3 be 60 5b be be 31 17 12 3d
       0.12762083 -0.3184348 -0.3717909 0.03566665
000020 d1 6c 89 bf 4a 8d b5 bd 54 bd 1c 3f ce 9e 7d 3e
       -1.0736333 -0.088648394 0.6122639 0.2476761
000030 e0 66 16 3a 57 46 5d bd 24 5c 98 3c 85 c8 9a 3c
       0.00057373755 -0.05402216 0.018598624 0.018894443

gat2.att_dst f4 [1, 1, 16]
000000 cd b1 66 be 80 d7 a4 3d 85 90 dc 3d 5e 7e ef be
       -0.22528763 0.08048916 0.107697524 -0.46776098
000010 e5 44 50 3f b3 14 1f bd 4a ba 59 be 0a 9e aa 3d
       0.81355125 -0.0388381 -0.2126247 0.08330925
000020 c6 bb da 3d b1 bc 0e 3e 38 83 b9 3e 48 71 a0 3d
       0.10680346 0.13939168 0.36232924 0.07834107
000030 78 99 0a bf d8 8e 1f 3e f9 43 fa be 49 49 3e 3e
       -0.54140425 0.15581834 -0.48879984 0.18582644

gat2.att_edge f4 [1, 1, 16]
000000 f6 6b cc 3f 1f 60 30 bf a7 99 d0 bf 41 be cd 3f
       1.5970447 -0.6889667 -1.6296891 1.6073686
000010 ff bc 0e 3f 58 a0 0e 3f c8 26 86 be 7b fe 54 3f
       0.55757135 0.55713415 -0.26201463 0.83200806
000020 39 68 dc 3e f5 0c 4d 3f 77 39 84 bd 17 6e e0 3f
       0.43048266 0.80097896 -0.06456273 1.7533597
000030 63 8a 8b 3f f0 2d 3e 3e 15 d9 e8 3f f9 f4 84 bf
       1.0901607 0.18572211 1.8191248 -1.038726

gat2.bias f4 [16]
000000 75 91 e2 bc 5a 6f 67 3e 0e 30 c2 bc 65 34 0a be
       -0.02765725 0.22601071 -0.023704555 -0.1349655
000010 15 19 58 be c8 df 93 3e a9 59 c3 3e f0 ab d4 bd
       -0.21103318 0.2888167 0.38154343 -0.10384357
000020 26 27 76 3e 16 e4 dd bc f6 27 57 3c 2b 61 21 3e
       0.24038371 -0.027086299 0.013132086 0.15759723
000030 de 70 34 be 57 98 17 bc 5c 6c 09 be 03 b4 a4 3e
       -0.1762118 -0.009252629 -0.13420242 0.32168588

gat2.lin.weight f4 [16, 16]
000000 ff ad 34 bf 55 37 f4 3e c7 1e 5d 3e b7 9d cf bc
       -0.70577997 0.47698465 0.21593772 -0.025343759
000010 3d f1 dc 3e 20 37 79 3e fb 8d e9 bd 8a 92 28 3f
       0.431528 0.24337435 -0.11404034 0.658486
000020 5a 79 88 3e 12 6f 2d bd 48 14 7e bd e3 fc 3e 3e
       0.26655084 -0.042342253 -0.06203106 0.18651156
000030 cc 77 68 be f5 35 81 3e 49 36 fa 3d 96 a5 f3 3e
       -0.22701949 0.25236478 0.12217385 0.4758727
000040 42 92 2b 3e 7c a4 99 3e 37 f0 1b 3f 0b 44 bc be
       0.16755012 0.30008304 0.60913414 -0.36770663
000050 d1 62 60 be 2b c9 47 3f d3 af 1a 3f 04 93 a9 3e
       -0.21912695 0.7804133 0.60424536 0.33119977
000060 14 5f e3 3d 02 65 1e bf 1a 56 08 bf 4a 86 72 3e
       0.11102119 -0.61872876 -0.5325638 0.2368404
000070 e3 4b ce 3e 9b 66 10 3f c8 b3 f3 3e bb 4e 10 3f
       0.40292272 0.56406564 0.475981 0.56370133
000080 b9 d7 04 3f de e9 13 be 3f 6a d6 be 0a 06 cc 3e
       0.51891667 -0.14444682 -0.41877934 0.39848357
000090 e3 ef 7b 3e ef 1d 85 3d 4c cc 3b be ce 88 fc bd
       0.24603228 0.0649985 -0.18339652 -0.12330781
0000a0 13 4e 17 bd ac db 13 be 3e 5f 9b 3e 33 40 f7 3d
       -0.03693969 -0.14439267 0.30346102 0.12072792
0000b0 84 d2 8d 3e 27 71 ac 3d f2 bf 53 bf 7e 5f ca 3e
       0.27699673 0.084200196 -0.8271476 0.3952598
0000c0 0e 22 6f 3c 2c 7b c2 bd 1b 83 1c be 4b ae fa 3e
       0.014595522 -0.094961494 -0.15284388 0.489611
0000d0 bf f0 0e 3f 56 8d 51 be 56 eb db 3e 7a e3 5b 3e
       0.558361 -0.20464072 0.42952985 0.21473494
0000e0 5c 67 2a 3e 17 20 8d be 46 37 8f bd f6 f9 06 3f
       0.16640991 -0.27563545 -0.069929644 0.5272516
0000f0 f7 eb f7 be 45 4b 97 bd 37 8f be be f6 93 c7 3e
       -0.48422214 -0.073874034 -0.3721864 0.38980073
000100 fc ba bf 3c 30 3b e3 3d b6 f9 69 3e 83 00 2c bf
       0.02340459 0.110952735 0.22849163 -0.6718828
000110 17 bf 8a bf 05 56 ff be 87 7a ea 3c c6 1b 49 bf
       -1.0839566 -0.49870315 0.028622879 -0.78558004
000120 42 4a 80 bf b7 32 25 bf e7 de 91 3b af 21 02 bf
       -1.0022662 -0.6453051 0.004451621 -0.5083265
000130 1f b3 46 3d 05 95 0c bf 53 47 af 3d 8e 26 48 be
       0.048510667 -0.54914886 0.08558526 -0.19545957
000140 db d2 1f 3f 33 38 b7 3d b7 fd 23 bd f1 c3 af 3e
       0.62431115 0.08946266 -0.040036883 0.3432918
000150 b2 87 ec 3e f4 79 7a 3d 8c 03 8c 3e e4 48 77 be
       0.46197277 0.06115146 0.27346456 -0.241489
000160 ed 68 06 3f 72 a9 a2 3b d0 32 06 be 24 35 9c 3e
       0.52503854 0.004964047 -0.13105321 0.30509293
000170 0d 32 29 bd 50 9c 8d be 38 ea 86 be 84 76 a7 3e
       -0.041307498 -0.2765832 -0.2635057 0.32707608
000180 60 9c d1 3d 13 b7 70 be 58 27 b3 bc e1 71 9a 3f
       0.10234904 -0.23507337 -0.021869346 1.2066003
000190 62 78 d7 3d da 54 e9 be 67 30 71 be af 81 40 3c
       0.10521008 -0.4557255 -0.2355362 0.011749669
0001a0 02 5f 9e be 74 88 79 3e ef c5 66 3f 6b 86 60 be
       -0.3093186 0.24368459 0.9014577 -0.21926276
0001b0 6f 54 a9 3e f3 0d 87 be e4 a4 62 be 1b 76 24 bc
       0.3307223 -0.2637783 -0.22133213 -0.010037924
0001c0 33 68 ab be de 03 90 be 78 09 10 3f 23 9c 47 bf
       -0.33477935 -0.2812795 0.5626445 -0.7797262
0001d0 c0 e7 25 bf 12 40 ca 3b d1 08 6a 3e 0e 2b 41 3e
       -0.6480675 0.0061721886 0.22854926 0.1886408
0001e0 f1 17 29 bf 6b 50 b9 be c8 b6 85 be 60 0d 06 bf
       -0.66052157 -0.36194167 -0.26116014 -0.5236416
0001f0 d8 d4 07 3f 01 50 98 3e bf 88 1c 3f b4 64 11 3e
       0.5305915 0.29748538 0.6114616 0.14198571
000200 23 83 ba 3e c3 60 1e be 0b 95 ef 3e 96 eb 39 be
       0.36428174 -0.15466599 0.46793398 -0.18156275
000210 f3 5b 25 3f 8e 96 96 3e b9 c3 29 3f eb 09 b5 3e
       0.6459343 0.2941174 0.66314274 0.3535913
000220 e2 55 0c 3f 37 eb 98 ba 52 f7 05 bf 44 22 98 3e
       0.54818547 -0.0011666779 -0.52330506 0.29713643
000230 8f d6 2f 3e 79 65 b7 3e eb 17 03 3f da 32 0d 3c
       0.17171691 0.35819605 0.5120837 0.008618081
000240 e9 cf 05 3e 07 a5 8d be 6a 7d a7 3e b3 f5 0e bf
       0.13067593 -0.27664968 0.3271287 -0.5584366
000250 a4 34 cd bd 75 bf 1a 3f 37 81 df 3e 97 eb 2c be
       -0.10019806 0.6044839 0.4365327 -0.16886745
000260 32 d7 a6 3d 89 00 64 be 0f 3f 1b bd 64 7f b7 3e
       0.08146514 -0.22265829 -0.037901934 0.3583938
000270 95 4d f7 3e e8 58 56 be 94 99 9c 3e 3d 25 6e bd
       0.48301378 -0.20932353 0.3058592 -0.058140982
000280 73 fb d7 be 2d c3 2d bf e1 e1 83 3e 96 c1 fd be
       -0.42184028 -0.6787594 0.2575827 -0.49561757
000290 12 60 91 3e 3d de f7 3e 6a 75 2c 3f 42 7f 0f be
       0.28393608 0.48411742 0.6736666 -0.14013389
0002a0 3e d6 1c 3e 59 3b ab be 91 0a 3d 3d aa 4c a7 3c
       0.15316102 -0.33443716 0.046152655 0.020422298
0002b0 f1 10 cc 3e 34 6e 31 3d d3 0c 03 bd 78 6a 3a 3f
       0.39856675 0.04331799 -0.031994652 0.7281871
0002c0 4e a1 41 be 42 62 71 be 61 9a 87 3d c3 67 9b be
       -0.18909189 -0.23572639 0.06621242 -0.303526
0002d0 94 24 da 3d a9 10 dd 3c 88 d3 f2 bd 90 c1 86 3d
       0.10651508 0.026985483 -0.11856753 0.06579888
0002e0 01 c4 7e 3e 19 94 a3 3e 53 2d 1b 3f e0 84 b2 3e
       0.24879457 0.31948927 0.60616034 0.34867
0002f0 db 2a 6d 3e df 10 21 bf c2 84 46 bf 69 48 a5 bd
       0.2316088 -0.6291637 -0.7754632 -0.08070452
000300 9f aa 1f be b7 b3 32 3e ec cb 01 3e e7 d0 3a bf
       -0.1559243 0.17451368 0.12675446 -0.7297501
000310 90 ca c0 3e b1 7c 68 3e 81 43 36 3e 37 b5 18 3e
       0.37654543 0.22703816 0.17799188 0.14912878
000320 f4 0f 7d 3d d3 33 26 bd ea dd 1a 3e b1 b0 cf 3d
       0.061782792 -0.040576767 0.15123716 0.10141123
000330 58 86 12 3f 20 6c 39 be e4 5a 6b 3e e7 e2 93 3e
       0.5723624 -0.18107653 0.22983891 0.2888405
000340 8c a0 ed be 3c b4 24 be 06 41 14 be cf 67 00 3f
       -0.4641155 -0.16084379 -0.1447793 0.501584
000350 42 26 f1 3d c4 0b 1d 3e 43 63 68 be dc 5a 67 3e
       0.11774875 0.1533652 -0.22694115 0.22593254
000360 1f ae 12 be d4 19 9d be 77 b8 5e 3d 43 8b 66 3e
       -0.14324234 -0.30683768 0.054375138 0.22514062
000370 ba 39 46 be 3c e5 82 bb 1e 1d 17 bc f4 24 88 be
       -0.19357958 -0.003994612 -0.009223251 -0.26590693
000380 94 c0 f1 bd 4f ea 83 3e 38 a5 02 be a5 1d 2d 3d
       -0.118043095 0.257647 -0.12758338 0.0422646
000390 00 c8 53 bf 16 ce f5 3e 74 e4 60 3e 43 f9 38 3d
       -0.8272705 0.48008794 0.21962148 0.04515959
0003a0 e4 5c b1 bd ac 8d 99 be 8c 17 e8 3d 3c c4 8e 3d
       -0.086602956 -0.299909 0.11332616 0.069710225
0003b0 9e 6b eb 3e 4a ef a2 3d 1c c5 2d 3e f1 6a 53 3c
       0.45980543 0.07955797 0.16969723 0.012903915
0003c0 06 d1 07 3f 4f bc d2 3e 1b 91 7c be 18 f1 54 3e
       0.5305332 0.41159293 -0.24664728 0.20795095
0003d0 0b 38 b1 3e d3 a4 a9 3e d1 c9 fe 3e 40 ac 4e be
       0.3461307 0.33133563 0.4976335 -0.20182896
0003e0 91 5b e6 3e 31 94 bb be cf cf 5c be 50 40 ca bb
       0.44991735 -0.366365 -0.21563648 -0.0061722174
0003f0 85 60 6c 3e b7 da ca 3e d1 55 be bb 49 7f 0f 3f
       0.23083694 0.3961999 -0.00580857 0.56053597

gat2.lin_edge.weight f4 [16, 2]
000000 a5 bd c8 bf 90 2e 25 bf f1 e1 21 3f bf 17 a1 be
       -1.5682875 -0.64524174 0.63235384 -0.3146343
000010 70 7b 99 3f f0 79 90 3e cd 3f bc bf 4c 40 ff be
       1.1990795 0.2821803 -1.470697 -0.49853742
000020 79 d1 69 bf 16 2b 24 bf ff e8 e4 be 49 31 bf 3d
       -0.91335255 -0.64128244 -0.44709012 0.09335572
000030 c3 c8 2a 3f 33 b2 e7 bd 82 63 be bf 32 6c db be
       0.6671259 -0.11313286 -1.4874117 -0.42855984
000040 57 6e 8a be 8f 8d 0b bf 21 f0 47 bf 85 7c ac 3e
       -0.27037308 -0.54512876 -0.7810078 0.3368875
000050 c5 2e 94 3d d5 ad 76 3e ec 09 ba bf 60 e8 23 bf
       0.07235483 0.24089749 -1.4534278 -0.6402645
000060 1d be 46 bf 40 26 e5 be 3f 10 3a be 79 ec c3 be
       -0.7763384 -0.44755745 -0.1817026 -0.38266352
000070 5d c3 aa bf 2b 61 2c bf 50 5f a3 3f 4f 6a 60 3e
       -1.334087 -0.67335767 1.2763462 0.21915554

mlp.0.weight f4 [16, 32]
000000 9a b1 22 bd d9 1b 0d 3d 93 73 39 be fc 1f 0a be
       -0.039720155 0.034450386 -0.18110494 -0.13488764
000010 d1 51 18 3e 5a 9b 6b be 46 89 5e bd a2 0d d4 bd
       0.1487496 -0.2300848 -0.054330133 -0.10354163
000020 9a a5 6a be a8 68 2c 3d 6b 49 c9 bd 1a 3f 3b 3e
       -0.22914734 0.042091995 -0.098284565 0.1828579
000030 c1 fe 3a be 27 c6 56 bd 2a 92 97 3b e0 f8 63 be
       -0.18261243 -0.052435067 0.0046255784 -0.22262907
000040 8c c6 4b be 2c 1f 65 bd bc 5a 72 be c7 8b 8d 3d
       -0.19899958 -0.05593793 -0.23667425 0.06911426
000050 42 95 ae bc c0 88 86 3c dc 92 ab bb 84 00 63 3d
       -0.021311406 0.01642263 -0.005236013 0.055420414
000060 a0 56 83 3d e9 eb af 3c 7b 22 2a 3d fd 18 de bd
       0.06413007 0.021474795 0.04153679 -0.1084461
000070 e1 4b dc bd 41 7a 8b 3d 6d 7a 04 3d 2d 64 b7 bd
       -0.1075666 0.068104275 0.032343317 -0.08954654
000080 f0 90 7b be 5c d6 6b be 44 ba eb bb 80 a5 60 3e
       -0.24567008 -0.2303099 -0.0071938355 0.21938133
000090 c4 73 61 3e 8a 37 18 3c 71 e9 97 3d 7d 7b 56 be
       0.22016817 0.009290585 0.07417572 -0.20945545
0000a0 11 73 2f 3e 83 e5 e2 bd 4c b7 18 be c8 d5 37 3e
       0.17133738 -0.11078932 -0.14913672 0.17952645
0000b0 f0 b5 93 be 87 78 3f bd 7a 46 6f be 32 74 56 3e
       -0.28849745 -0.046745803 -0.23366728 0.20942762
0000c0 e8 59 85 3e 17 73 0c 3e 87 d6 35 3e 7d 4b e1 3d
       0.26045156 0.13715778 0.17757617 0.11000726
0000d0 f1 71 53 3e 30 d4 b3 3e 3f cb 3a bb a1 92 3a 3d
       0.20648934 0.35122824 -0.0028502492 0.045549992
0000e0 c1 f0 5e 3e 3f d0 67 3d 8e 3b fd 3d 03 21 ff 3c
       0.21771528 0.056595083 0.12364875 0.03114367
0000f0 a2 0e 02 3d 21 1e ea bb de 95 4c 3e d9 e4 c2 3e
       0.031752236 -0.007144705 0.19979045 0.38065222
000100 b6 98 71 3e f3 f2 4c 3e 29 3a 26 bd c3 12 7b be
       0.23593411 0.20014553 -0.04058281 -0.24518876
000110 d9 4b 2f be b1 49 5a bd c0 b6 94 be d9 5d c4 3e
       -0.17118777 -0.053292934 -0.29045677 0.3835285
000120 91 d9 2c 3e 45 69 8f 3e 4a 0e 08 3e a9 e3 6a be
       0.1687987 0.28010002 0.13286701 -0.22938408
000130 01 6e 24 3e 2b 2c f7 bd 0d 8c d7 3d f2 75 0a 3e
       0.16057588 -0.12068971 0.105247594 0.13521555
000140 5a 6e af 3d 28 ce cf be ba f3 86 3c 17 4f bc bd
       0.0856597 -0.40586972 0.01647364 -0.09194773
000150 35 d1 b9 3c c2 12 a4 bd 8b f4 ad 3e 95 93 17 bf
       0.022682765 -0.0801139 0.33975634 -0.5920957
000160 a7 7f ab bd fe d2 77 bd c8 26 cf bd 58 48 be 3d
       -0.08373957 -0.060503952 -0.10114819 0.09291142
000170 3f 0f 12 be 1a 53 56 3e 80 99 fe bc 2e 2c 06 bd
       -0.14263628 0.20930138 -0.031079054 -0.032756977
000180 38 cd b0 bd 90 9e 38 3a a5 a0 2e 3e ef 55 dc 3d
       -0.08632892 0.00070426706 0.17053469 0.10758578
000190 d0 ae 04 3f d1 74 92 3e 88 7b 40 3e 40 b5 9b be
       0.5182924 0.2860475 0.18797123 -0.3041172
0001a0 12 5c ea bd 3e 57 8d be d1 20 79 be 4e 8f a5 3e
       -0.11443342 -0.27605623 -0.24328925 0.32335895
0001b0 56 fb 7c be d9 d8 7b 3d f1 21 44 bd 81 f7 64 bc
       -0.24705252 0.0614861 -0.04788393 -0.013975025
0001c0 bd 6e b5 3d 7c 25 9c 3e 76 64 83 3a f9 87 bc 3d
       0.08859012 0.30497348 0.0010024447 0.09205622
0001d0 b1 e3 53 bd 9f c3 cc 3d 95 dc a3 bd 1a dd 87 3e
       -0.051730815 0.09998249 -0.08001057 0.26535875
0001e0 c2 12 9c 3e 24 bd 87 bc a0 58 8c 3e 05 dc 07 3e
       0.3048306 -0.016569681 0.27411366 0.13267525
0001f0 7d 82 6e 3d ca 20 48 bd 3e 31 19 3e 12 cd 96 3d
       0.058229912 -0.048859395 0.1496019 0.07363333
000200 1c 62 85 be e7 33 16 be 5c 72 1b 3c 22 f1 1a 3e
       -0.26051414 -0.14668237 0.009487715 0.15131047
000210 17 6c 48 be cb 70 80 3e de 6a 1b 3f 60 5b 49 be
       -0.19572483 0.25086054 0.6070994 -0.19663763
000220 94 c5 1e be 84 36 b5 be 90 e6 a2 be 16 6b 83 3e
       -0.15505058 -0.35393155 -0.3181653 0.25667638
000230 1a 69 22 bb d2 83 81 be 7c d1 d7 bc dd d4 11 3e
       -0.0024781884 -0.25295883 -0.026345007 0.14241357
000240 94 e9 0c bd 2b 96 2e bc 69 02 c7 bd e6 19 c3 3d
       -0.034402445 -0.01065592 -0.097172566 0.09526424
000250 db 37 7b be 13 3a 76 3d a8 05 56 3f 25 c0 ac be
       -0.24533026 0.060113978 0.8360238 -0.33740345
000260 55 11 c2 bd a3 c2 1e be c7 8a ad be ae 6e 7d 3e
       -0.09475962 -0.15503936 -0.3389494 0.24749252
000270 48 35 85 3d 41 ee 85 bc 20 4c f7 3b 68 b3 81 3e
       0.06504303 -0.01634896 0.0075469166 0.2533219
000280 b8 ff 29 3e a0 d9 6d 3e c3 a3 2d 3e 8c 35 bb bd
       0.16601455 0.23227549 0.16957001 -0.09141073
000290 c1 76 a3 be f4 bc 8a bd 27 c7 24 be c6 c7 0c 3e
       -0.3192654 -0.06774321 -0.16091596 0.13748083
0002a0 65 a1 af 3e f1 ef 77 3e 63 19 eb 3d 8c 4a c8 be
       0.34302822 0.24212624 0.114794515 -0.39119375
0002b0 40 fc 6f 3e a8 53 23 3e 8c 6a 20 3e fa cd 4c 3e
       0.2343607 0.15949881 0.15665644 0.20000449
0002c0 1e fc cf bd 57 d1 db be 06 eb 41 be b0 b0 b8 be
       -0.101555094 -0.4293315 -0.1893731 -0.36072302
0002d0 08 92 48 bd 73 b1 a5 be aa d2 61 3e f5 aa 05 bf
       -0.04896739 -0.32361946 0.22053018 -0.52213985
0002e0 bb bf 45 bd f8 5f de bc 47 dd c5 bd ca 48 9e 3d
       -0.04827855 -0.02714537 -0.09661346 0.07728727
0002f0 b0 19 2b be 7b 75 41 3d 1c 36 5f be cc e8 87 bd
       -0.16709018 0.04723118 -0.21797985 -0.06636199
000300 72 bd ff 3d 15 83 1d be 65 3d 58 be 9a b7 19 be
       0.12487306 -0.15382035 -0.2111717 -0.15011445
000310 b6 e2 15 bd 63 6a 6a be 0c bc 70 bd 1e 87 85 3d
       -0.03659316 -0.22892146 -0.058773085 0.06519912
000320 26 58 21 bd 12 1e 32 be 8a d1 c9 bd c3 23 a6 bd
       -0.039390706 -0.17394283 -0.098544195 -0.0811229
000330 56 0a 8d 3d b1 6b 24 3e af 39 8a 3d 8e 00 df bd
       0.06886737 0.16056706 0.067492835 -0.10888778
000340 50 f2 0c be b2 ac 2b bd 36 53 ba bd ad 37 d7 bd
       -0.1376431 -0.041912742 -0.090979025 -0.10508666
000350 41 7c 08 3d 4a 0e a4 be 17 76 b6 bb 82 52 03 3d
       0.033321623 -0.32042152 -0.0055682766 0.032061107
000360 bc 47 24 bd 5a c4 81 bd 96 a9 23 be 39 13 c7 bd
       -0.040107474 -0.06336279 -0.1598266 -0.09720463
000370 7f 14 23 bd f0 53 65 bd d8 68 b9 bb 33 e0 2f be
       -0.03981447 -0.055988252 -0.0056582503 -0.17175369
000380 87 db 8d 3e 19 7b 51 3e 04 5b c0 3d f2 49 97 bd
       0.2770655 0.20457114 0.0939236 -0.07387151
000390 dd a1 36 be 30 dc 9f 3d df 87 4b 3d d9 f3 2a 3e
       -0.17835183 0.07805669 0.049690124 0.16694583
0003a0 5c a9 9e 3e 5b b0 88 3d 31 ce ba 3d f7 c8 2f be
       0.30988586 0.06674262 0.09121359 -0.17166506
0003b0 94 ae 5d 3d 00 ea d7 3d 33 ca 2c bd 8c e1 29 bd
       0.05412157 0.10542679 -0.04218502 -0.041474864
0003c0 dd 2d 43 3e 0e 8a b2 bb 55 53 14 3e 58 d0 23 be
       0.19060464 -0.0054485863 0.14484914 -0.15997446
0003d0 61 b0 80 bd 8d ce 8e 3c b1 7c c1 3d c8 c5 a0 bd
       -0.062836416 0.017432475 0.09447611 -0.07850224
0003e0 18 16 b6 3d 3d cd e9 3c 68 ee 15 3e d3 e9 a6 bd
       0.08890933 0.028540248 0.14641726 -0.08150067
0003f0 74 60 0d 3d 30 81 d0 3d 7d d4 1c bd b0 e9 dd 3d
       0.034515813 0.101808906 -0.038288582 0.10835588

mlp.0.bias f4 [16]
000000 c6 c3 2a 3d 78 33 82 3e 64 58 d2 bc e1 7f b7 3e
       0.04169061 0.25429893 -0.025676914 0.3583975
000010 74 dc e1 3e 77 9f 65 bd 21 2f 4c 3b a9 af d7 3d
       0.44113505 -0.05606028 0.003115602 0.105315514
000020 70 25 94 3e 3f 2a 1d 3e 6a 34 2b be c2 f3 67 bd
       0.28934813 0.15348147 -0.16719213 -0.05662895
000030 2c 67 b4 3d 16 cf f3 3c a3 af 87 be 8a d7 a7 bd
       0.08808741 0.029761832 -0.26501188 -0.08195408

mlp.2.weight f4 [1, 16]
000000 a8 08 89 bd 17 38 c8 3e 31 c5 8d be bb 71 c5 3e
       -0.06691104 0.39105293 -0.27689508 0.38563332
000010 20 9a 2c 3e d0 75 9b be c1 e1 eb 3d e3 e1 cd bd
       0.16855669 -0.3036332 0.115176685 -0.1005285
000020 2d c3 9b 3e 67 64 88 3e cc e7 33 3d 39 a6 67 bf
       0.30422345 0.266391 0.04392223 -0.9048801
000030 5b 77 b5 3e 23 6c 3f be 69 06 6b bd b9 30 7e be
       0.35442623 -0.18693595 -0.05737916 -0.24823274
