data/CTC/Fluo-N2DH-SIM+/02_RES_GAT/20250714_180029/manual_fold_1_best_model.pth (torch, 11177 bytes, 15 tensors)

gat1.att_src f4 [1, 1, 16]
00000000: 1b5f a53e 865f 893e f0c4 703e 3cbb 6f3e
00000010: 269e 6dbe e8ec d93e 8c7f 9fbe 815e b1be
00000020: d1b1 0ebf 5458 783e ed45 e53e 2169 53be
00000030: 9ac8 cb3e dd8c 243e 04a3 363e a4cd 8b3c
0.32299122 0.2683069 0.23512626 0.23411268 -0.2320486 0.42563558 -0.31151998 -0.34642413
-0.55740076 0.24252445 0.44779912 -0.20645572 0.39801484 0.1606936 0.17835623 0.01706583

gat1.att_dst f4 [1, 1, 16]
00000000: d978 34bf 829e 633e a92f 373f da1c 89bf
00000010: 05b4 fb3e 2f0b 82bf f754 eb3e d02d 7fbf
00000020: 1971 ac3e 93c7 edbe 53eb 45bf 73c1 393d
00000030: b197 41be 9eec 0a3f c5ae 46bf 31f8 953e
-0.704969 0.22228435 0.715571 -1.071193 0.49160782 -1.0159663 0.4596326 -0.9967928
0.33680037 -0.46441326 -0.773122 0.045350503 -0.18905522 0.542673 -0.7761043 0.29290918

gat1.att_edge f4 [1, 1, 16]
00000000: bfc2 71bf 230c 91bf 2335 a93f 84d3 a53f
00000010: 538a abbf 7c18 3fbf 020d 963f beec 8abf
00000020: 6006 af3f 996e 3a3f 11be 213f c49e 1f3d
00000030: 5ca9 9dbf 5dc0 0e3f 09cd 30bf 5436 043e
-0.94437784 -1.1331829 1.3219341 1.2955174 -1.3401588 -0.74646735 1.172272 -1.0853498
1.367382 0.7282501 0.63180643 0.03896977 -1.2317309 0.55762273 -0.6906286 0.1291135

gat1.bias f4 [16]
00000000: 3af8 8f3e 2a7c 353f 43d0 453f 88e3 923e
00000010: dcb4 c33e c17e a43d 2d8d 9b3e b661 4f3e
00000020: 73ec c7bc 6521 b53e 8c0f 043f 42a5 d63e
00000030: f540 ab3e ca04 34be b6fe 083f 79c9 803e
0.2811907 0.70892584 0.7727091 0.28689218 0.38223922 0.08031989 0.30381146 0.20252118
-0.02440474 0.3537704 0.5158622 0.41922957 0.33447996 -0.17579952 0.5351366 0.2515371

gat1.lin.weight f4 [16, 14]
00000000: 13a7 e23e 0f2f 053f d4e7 aebd cfa4 433f
00000010: 08e0 83be ede7 0e3f bf1b d6be 48df 413f
00000020: 01bc 0f3d 3898 33bf a0cc d03e e659 ea3e
00000030: 32fa e0bd 9410 02be d438 b63e 0926 773f
00000040: 8611 623e 9508 91bf 1f97 503e 4f8f 93bf
00000050: 6c79 4d3f ade0 2dbf e043 773f 8d12 77bd
00000060: e035 3ebe 2f85 a6bd 8bdd a2be f090 903c
00000070: 5a9c 2e3f d818 b33e 5e92 7f3e 2d2e 75bf
00000080: 2b00 823f e6fe 25bf 4cd7 883f b132 40bf
00000090: bb58 6d3f a131 823e dde1 babe a35e 8fbe
000000a0: c6a3 26bf bb5e a0bc a0ba a9bd 8c57 113e
000000b0: 8f5c 2abd abf6 1b3e f88a 23bf 7b23 563f
000000c0: ed11 62bf 0bbc 3b3f 1d7c 35bf 2fd7 fc3e
000000d0: 548d cabd fe25 a0be f293 01bf b8e1 243e
000000e0: ac0b 413e eb8e 613f 5364 3bbe 074a 12bf
000000f0: bf8b 643e 1ad3 e93b 7661 873e 687e 80be
00000100: ecad 313f d5a5 713d 3719 b13e 2438 5b3d
00000110: e9ba f7be 0d08 74be d930 f13d 3b0d 023f
00000120: 799b e83e 31b0 fa3e d7c3 c5be 1dbb b1bc
00000130: e8a4 49bf 28a0 933e e9ab debd 55d2 d43e
00000140: c005 053d 729c 743e 1ec1 aebd c19a 953d
00000150: 3b0d 903e c920 553f 7eb3 16bf 521d 9bbc
00000160: 6705 8abb c3b9 2bbf ca70 e73e 69b7 11bf
00000170: 6a5a 813e f031 9a3d 7631 063e c11b ea3e
00000180: 447e 99be 120a 4c3e 4002 80be 2bbd 56be
00000190: f73e 3a3d 0a41 233f bcbc a0be aea3 fa3d
000001a0: 31eb e7be c4ec 073f d33d f9be c7c8 babd
000001b0: 5d23 28bd 2ceb d3bd a22d d43d 678e e1bd
000001c0: a7d2 92be 77df 9cbe a19c 583e 6632 edbe
000001d0: 9e98 6dbe 4c30 1bbf 0189 24be 69fc 08bf
000001e0: b56b b9be 9e6c debe 60b4 1d3f 3a97 c13d
000001f0: e53c b03d 43db b23e a7b7 9ebd 9904 03bf
00000200: d16b cdbc 319f 31bf aa54 0c3f 540e bebe
00000210: 210d ecbc 52cb cebe a663 8dbd ddb7 7c3e
00000220: cbbb 123f 3258 a63e 27be 593e f38d d63e
00000230: fd56 1f3f 1ebc 603f bf0c e3be 90b8 573e
00000240: 8b29 2bbf e3c8 1e3f 8812 5cbf eb11 e63e
00000250: d731 4bbf 6d6b 063f e230 863d 931f 9a3e
00000260: 9506 2a3e 1c1e 9bbd 8a77 4e3e c35a 013f
00000270: f4d9 303e 5cd1 febe 51bb a43e 84ba cdbe
00000280: 797d 0f3f 9dda d0be 5a16 5b3f 4af8 2c3c
00000290: 9bcc f8bd 5feb c63e 3f76 fabd 50b3 563b
000002a0: 0c07 3d3d da6e a93f de64 2b3d 2573 af3e
000002b0: 3331 febe 1b82 2c3f 31df f7be 6948 473f
000002c0: 4184 82bd f98e 193e d73a 1d3f 9b04 9b3e
000002d0: 41ce f1be ee82 0fbd 0d41 603e 7cfc ad3e
000002e0: 561b 783c 3b63 1ebe fd04 94be 2adc 563d
000002f0: 65ad e63d 797c 38be 711b e53e d5d3 343e
00000300: 959d 883e ab67 9bbc 3cca e3bd e069 10be
00000310: 3e60 21be 4d4a 2c3f 25e9 12bd fdbd 503f
00000320: b07d 7abf 61e0 373f e71b 31bf 7c4a 293f
00000330: 4832 5dbf 4ee5 913e e32c 33be 89e2 c9be
00000340: 980a ddbc f934 21be d61f 033f a86a 713f
00000350: 090c c23c 5b99 113d 821b 09bf ce59 2f3e
00000360: 6914 58be be9d 5a3f e8d3 b6be 4dad 833d
00000370: 17f3 803d 6a8a 66bd a2e4 b7bd a0db a83e
0.44268093 0.5202493 -0.085403115 0.7642335 -0.2575686 0.5582264 -0.41818044 0.75731325
0.035091404 -0.7015414 0.40781116 0.45771712 -0.10985221 -0.12701637 0.3559023 0.9654241
0.22076997 -1.1330744 0.20370148 -1.1528109 0.802634 -0.67920953 0.96587944 -0.060320426
-0.18575239 -0.081308715 -0.3180965 0.017647237 0.68207324 0.34979892 0.24958178 -0.95773584
1.0156301 -0.6484207 1.0690703 -0.7507735 0.92713517 0.2542849 -0.36500445 -0.2800189
-0.6509365 -0.019576421 -0.08287549 0.14193553 -0.041592177 0.15230815 -0.63883924 0.8364789
-0.883086 0.73333806 -0.70892507 0.49382922 -0.098902375 -0.31278986 -0.5061637 0.1610173
0.18852109 0.881087 -0.1829999 -0.57144207 0.22318934 0.007135761 0.26441544 -0.2509644
0.6940601 0.05899604 0.3458955 0.053520337 -0.4838479 -0.23831196 0.11776895 0.5080144
0.45431116 0.48962548 -0.38625976 -0.021695668 -0.7876725 0.28833127 -0.10872633 0.4156672
0.032476187 0.23887804 -0.08532928 0.073049076 0.28135094 0.8325315 -0.58867633 -0.01893488
-0.00421207 -0.67080325 0.4520324 -0.56920487 0.25264293 0.07529056 0.13104805 0.457243
-0.29979146 0.19925717 -0.25001717 -0.209706 0.045470204 0.63771117 -0.31393993 0.12238251
-0.45296624 0.5309565 -0.4867998 -0.091203265 -0.04104935 -0.1034759 0.10360266 -0.11013489
-0.2867634 -0.3063924 0.21153499 -0.46327513 -0.2320275 -0.6062057 -0.16067888 -0.5351015
-0.36214986 -0.43442243 0.61603355 0.09452672 0.08605365 0.34932908 -0.07749873 -0.5117889
-0.025075825 -0.6938353 0.5481669 -0.37120306 -0.028814854 -0.40389496 -0.06903772 0.24679513
0.573178 0.32489163 0.21263944 0.41905174 0.6224211 0.87787044 -0.44345662 0.21066499
-0.66860265 0.6202528 -0.85965776 0.44935545 -0.79372925 0.5250767 0.065522924 0.30102214
0.16604073 -0.07574102 0.20162788 0.50529116 0.17270643 -0.49769104 0.3217416 -0.40181363
0.5605083 -0.4079179 0.8558098 0.010557244 -0.121484004 0.3885145 -0.12229585 0.0032760687
0.0461493 1.3236954 0.04184424 0.34267536 -0.4964691 0.67386025 -0.4841247 0.77844864
-0.06372882 0.14995946 0.6141791 0.3027695 -0.47227672 -0.035036974 0.21899815 0.33981693
0.015143236 -0.15467541 -0.28910056 0.05245606 0.11263541 -0.18016233 0.447475 0.17658933
0.26682726 -0.018970331 -0.111225575 -0.14102888 -0.1575937 0.67300874 -0.035866875 0.815399
-0.97848034 0.7182675 -0.691832 0.6612928 -0.8640485 0.28495258 -0.17497592 -0.39430645
-0.02698259 -0.15742864 0.5122045 0.9430337 0.02368738 0.03554664 -0.535576 0.17124102
-0.21101536 0.85396945 -0.35708547 0.06429539 0.06296366 -0.056284346 -0.08979155 0.3298006

gat1.lin_edge.weight f4 [16, 2]
00000000: ec41 4a3f 490b 5ebd c5fe 6e3f 4e06 633d
00000010: 83b0 63bf 35d7 913e b37d 60bf 282e da3e
00000020: 929d 503f 8908 8dbe 5f74 803f 60c6 0dbf
00000030: 7d3d 4ebf d7c3 90be 8667 5f3f 2a10 3cbe
00000040: 116d 45bf fe47 2ebd 6aac 81bf 7e9d e0be
00000050: 21c6 30bf 32f5 d13d ddfb f0bc 3cb6 88be
00000060: d656 9c3f 9253 b1bd 09b2 13bf 53eb 033e
00000070: b2bb 943f 84dc 853b 5513 ccbd 6c3f a53e
0.7900684 -0.05420998 0.933575 0.055425934 -0.8894121 0.28484502 -0.876918 0.4261334
0.81490433 -0.27545574 1.0035514 -0.5538082 -0.80562574 -0.28274414 0.8726734 -0.18365541
-0.7711955 -0.042549126 -1.0130742 -0.43870157 -0.6905232 0.102518454 -0.029416973 -0.26701534
1.2214 -0.08658518 -0.57693535 0.12882738 1.161978 0.0040851254 -0.09964625 0.3227495

gat2.att_src f4 [1, 1, 16]
00000000: 863c 85be 7b67 d23d 0fae 9f3d 26ec 50bd
00000010: 818c 9fbe baca cdbe 682c f0be 74ae 833e
00000020: dfc1 d5bc cdfa eabd 66ec 28bc 5e9b d63e
00000030: e054 a33d 6b2d 08be 99d1 bebe 8f46 a4be
-0.26022738 0.102736436 0.07796871 -0.05100646 -0.31161883 -0.4019373 -0.4690888 0.25719035
-0.026093422 -0.11473618 -0.010310268 0.4191541 0.07975173 -0.13298576 -0.37269285 -0.32085082

gat2.att_dst f4 [1, 1, 16]
00000000: 0a9a 7ebd 8351 09bd 79cd bfbe 7fa9 febd
00000010: a67b 39be 375f 13bf 19a8 abbd 4cf6 4e3f
00000020: 1e38 1b3d 939e 123f bba0 b03e d891 c0be
00000030: e343 bf3e 7c6b 683e de23 f73e d32f 443e
-0.06215862 -0.033525 -0.3746145 -0.124346726 -0.18113574 -0.5756716 -0.083816715 0.8084457
0.037895314 0.57273215 0.34497628 -0.3761127 0.3735648 0.22697252 0.48269552 0.19158868

gat2.att_edge f4 [1, 1, 16]
00000000: f867 623e 5f90 303f 5592 f2be aad4 12bf
00000010: 048a e13d 6870 4e3f f842 6abe d149 77bd
00000020: 6aa9 1cbd a4da 063e cc30 02bf 1c2d e0be
00000030: 6238 98bc 9688 57be 227b 2e3f e501 36bf
0.22109973 0.6897029 -0.47377267 -0.5735575 0.110126525 0.8064027 -0.22877109 -0.06037313
-0.038247503 0.13169342 -0.5085571 -0.43784416 -0.018581573 -0.21048197 0.68156636 -0.7109664

gat2.bias f4 [16]
00000000: 7f52 02be 63b7 6f3e 6920 75be bb46 b53e
00000010: eae1 3d3e b7f4 72bd df1d 693d aec8 7e3e
00000020: ca5e 90bd d9e9 8bbd 9422 f9bd a0b8 db3c
00000030: 7bf9 ef3d 3a04 9abd 3306 763e 29c8 bd3d
-0.12726782 0.234098 -0.23938145 0.35405526 0.1854321 -0.05931541 0.056913253 0.2488124
-0.070493296 -0.06831712 -0.121647984 0.026821434 0.117175065 -0.075203374 0.24025802 0.09266693

gat2.lin.weight f4 [16, 16]
00000000: 6b66 ac3e ea20 95be df8a 0fbf e482 193f
00000010: c45e 3ebf 0dfc ac3e b089 d73d d5c8 4d3e
00000020: 6279 a4be 33e9 6ebf 05b9 063f 5359 09bf
00000030: fa03 bc3e 7384 07bf 840a 183f fdf4 ce3e
00000040: da4e e7be a376 733f 945f c13e 819a 04be
00000050: e1ec 123f b15a 05bf 284b 563f 7d5d 1abf
00000060: bd9d 063e 023a ca3e 8a38 ddbe 2d05 343f
00000070: b88a 76be 94d9 b83d a9aa 0abf 3374 18bf
00000080: 4136 80be 518c 2cbf da43 123d 5287 643e
00000090: 23af 41be bd77 ccbe a75c 9cbd 560f e43d
000000a0: b034 1b3e c7d6 963e c4a6 5cbe 4930 513c
000000b0: fa3c d2be d934 963d 9713 39be 8290 88be
000000c0: e873 e93e 2227 3cbf 01b1 18bf f374 203f
000000d0: dbf1 95be c69e 4b3f e009 d4bd 7fde 363f
000000e0: eb9e 38bf 679a 40bf 685d 833f 8f53 c7be
000000f0: cc2a 443f 52b0 05be acde 433f 2cc5 583f
00000100: 6f53 f7bd 26c4 0c3f 68ba ec3e edd8 583e
00000110: 61e0 ce3e 5b64 e53e cdfc 41bd 850c cc3e
00000120: 78eb 703e 0758 293e 9def bbbd a630 de3e
00000130: 68cc 1dbd a846 663e b069 abbe e1f8 bdbd
00000140: 3851 493d 062a c8be beb1 a1bd b475 39bd
00000150: 85e0 1cbf fdc9 c5bd 4b1e 72be 1a74 70be
00000160: 2381 a0bd 5889 88bd 50fa e6be fbad f8bd
00000170: f94a 62be 3075 523d 26c3 a83d 5da2 153d
00000180: 00e2 8b3e 7877 dcbd dac8 95be c3a2 eb3e
00000190: b5b2 413c c598 163d d39c d2be 67b6 5a3d
000001a0: 237d c2bd 7d5e d6bd c80c db3e c949 73be
000001b0: efcb 8c3d 8930 243e c914 f23d 3cf0 4fbe
000001c0: c9d3 6b3e 18f4 ddbd 86d4 39bf a756 183f
000001d0: 41c1 da3d d736 373e c88a 8dbd d93e 093f
000001e0: 7ced 4bbe 9733 d1be 7ece 7f3e 7843 c1be
000001f0: 617c 4a3f e2d2 eabd 3e49 413f b483 c63e
00000200: 170a a8bd 13c8 a2be ef45 36be 0f80 b8be
00000210: 574b 943e 5deb 233d f072 4fbe 68c3 043f
00000220: 4380 0e3f 4a8b ffbd a813 93be 725b 0ebf
00000230: ffae adbe 9208 e4be 2321 7bbe 02e6 f8bd
00000240: c9c1 adbe d778 023f f85a 57be 6819 13bf
00000250: c3ba 3bbe c75c 3e3d c2fd f03e 1760 223e
00000260: a89f 1a3e 72d1 dbbe 45b1 8e3e 6d69 003e
00000270: cb83 2bbe 38b6 bd3e 08ec a6be fb13 2e3e
00000280: e25a 6fbe 26fe bfbe c117 fcbe 8ade 093f
00000290: 62d7 423e 4e0e 593c 2e76 54be 7dd5 abbe
000002a0: 7097 76be 0e38 8a3d e54d 6cbe 3aa3 4dbe
000002b0: 5f48 203e 98db 0a3e 39d5 88be c4e3 023e
000002c0: a93e efbe 4adf a2be f76e 583e 950f b8be
000002d0: d156 e73e 1480 9f3d 9a38 873e 3640 28be
000002e0: d86b cfbe cded 143e b066 e1be efcf dabe
000002f0: 00d8 e2be aa23 cc3e 0475 01bf 77aa b33e
00000300: cc0c bfbd 6626 95be aab7 b33e c22d eb3e
00000310: e819 66be ce5f b6be 9d5b f5be 19c0 e53e
00000320: 6fd9 2c3e 43be eb3e 81f8 16bd 61fc 013f
00000330: f5ec abbe 020f 85be 33be 97bd 2c35 93be
00000340: 7150 7fbf 80e0 553f 0f46 243f f062 47bf
00000350: ec0c 463e 99e1 89bd d0c2 393f 4a21 7bba
00000360: 2668 a13e 4c2e e23e a5a9 4abf 6af0 1f3f
00000370: 2a77 8fbe 2202 543b 1470 38bf 63e1 b83c
00000380: 39de e43d e6a2 163f ee5c 113f b2e0 b63e
00000390: c269 f13e 781e ba3e f2c6 343f e7bc afbc
000003a0: 4b0f 273e 28cf 5f3c 8c4f 86be 35b7 a53e
000003b0: f360 e3be c1f8 923e 9fcd 253e b0da bcbe
000003c0: 20fe 873b 399a 003e f7df 693e d3d0 18be
000003d0: 4ff1 c63e 0fe0 26be 1f90 9fbd 6bb6 95be
000003e0: e667 ce3e 9166 b23e bc0d eebe 91e7 953e
000003f0: 9d3e a5be 446f 4abe eb80 23bd ad0d 303e
0.3367189 -0.29126674 -0.56071275 0.5996535 -0.7436335 0.3378605 0.10524309 0.20096143
-0.32123858 -0.93324584 0.5262607 -0.5365192 0.36721784 -0.52936476 0.59391046 0.40421286
-0.45177346 0.951029 0.37768233 -0.12949564 0.573927 -0.5209151 0.8370843 -0.602989
0.1314611 0.3949738 -0.43207198 0.703204 -0.24076355 0.09025875 -0.54166657 -0.59552306
-0.25041392 -0.67401606 0.03570924 0.22317246 -0.18914466 -0.39935103 -0.076348595 0.111357376
0.15156817 0.29460737 -0.21547991 0.01276786 -0.41062146 0.07334299 -0.18073879 -0.2667275
0.45596242 -0.7349721 -0.59645087 0.6267845 -0.29286084 0.79539144 -0.10353446 0.7143325
-0.7211749 -0.752356 1.026288 -0.38930938 0.766278 -0.13055542 0.76511645 0.8467586
-0.120764606 0.549868 0.46235967 0.211765 0.40405563 0.44803128 -0.04736023 0.39853302
0.23527324 0.16537486 -0.09176562 0.4339649 -0.038525015 0.2248789 -0.3347907 -0.092759855
0.04914972 -0.3909456 -0.0789523 -0.045278266 -0.6128009 -0.09657667 -0.23644368 -0.23481789
-0.07837131 -0.06666821 -0.45112848 -0.12142559 -0.22098912 0.05138129 0.082403466 0.036531795
0.27320862 -0.10764974 -0.292548 0.46022615 0.011822392 0.036766786 -0.41135272 0.05339661
-0.09496524 -0.10467241 0.4278319 -0.23758616 0.06874835 0.1603414 0.11820371 -0.20306486
0.23030008 -0.10837573 -0.7258991 0.5950722 0.106813915 0.17892013 -0.06911236 0.5361152
-0.19914812 -0.40859672 0.24981114 -0.37746787 0.7909604 -0.11466004 0.75502384 0.38772357
-0.082050495 -0.3179327 -0.17800115 -0.360352 0.2896373 0.04001938 -0.20258689 0.51860666
0.5566446 -0.12477739 -0.28725934 -0.55608284 -0.33922574 -0.4453779 -0.2452436 -0.121532455
-0.3393691 0.50965637 -0.21030796 -0.5746064 -0.18332963 0.046475198 0.47068602 0.15856968
0.15099967 -0.42933232 0.2786962 0.12540217 -0.16749494 0.37053084 -0.32601953 0.1699981
-0.23374513 -0.37498587 -0.49236873 0.5385519 0.19027475 0.013248039 -0.20748207 -0.33561316
-0.24081206 0.06748973 -0.2307659 -0.20081797 0.15652607 0.13560331 -0.26725176 0.12782198
-0.46727493 -0.3181098 0.2113608 -0.35949388 0.45183423 0.07788101 0.2641037 -0.16430745
-0.40511966 0.14543839 -0.44023657 -0.42736766 -0.4430542 0.3987096 -0.50569177 0.35090992
-0.09328613 -0.29130858 0.35101062 0.45933348 -0.2247082 -0.35619968 -0.47921458 0.4487312
0.1687982 0.46043596 -0.036858086 0.50775725 -0.3357922 -0.25988013 -0.074093245 -0.28751504
-0.9973212 0.83545685 0.641694 -0.7788534 0.19340867 -0.067324825 0.72562885 -0.00095798506
0.3152477 0.44175947 -0.79165107 0.6247622 -0.28020602 0.0032349904 -0.7204602 0.02256841
0.11175198 0.58842313 0.56782424 0.35718304 0.47151 0.3635137 0.70616066 -0.02145238
0.16314428 0.01366023 -0.26232564 0.32366338 -0.44409904 0.2870541 0.1619172 -0.36885595
0.004150167 0.12558831 0.22839342 -0.1492341 0.3885598 -0.16296409 -0.07791161 -0.29240736
0.40313643 0.34843877 -0.46494853 0.29278234 -0.32274333 -0.19769007 -0.039917868 0.17192717

gat2.lin_edge.weight f4 [16, 2]
00000000: ed16 333d c946 0e3f 6eb6 b03e 2fba c53e
00000010: ff65 36be a9fc 44bf 473b 52bf b7ce 7e3e
00000020: f23d 733d ea3b 9abe 3459 ce3e bfb4 163f
00000030: 4e15 7d3e dce3 68be 721a 983d 52be 1abe
00000040: 2bf6 1fbd 191f 323d 3d28 843e 990c 27bf
00000050: c4a9 11bf 9aa3 813d 2666 40bf 294f 3c3e
00000060: 7020 ebbc 6a4a 62be fbb0 80be 1559 95bd
00000070: 98a2 283f 920c 953e 0cd4 0bbf f649 31bf
0.043723036 0.5557676 0.34514183 0.3861861 -0.17812346 -0.7694803 -0.821217 0.24883543
0.059385248 -0.30123836 0.40302432 0.58869547 0.24715158 -0.22743171 0.07426919 -0.15111664
-0.039053123 0.04348669 0.2581195 -0.652536 -0.56899667 0.06330033 -0.75155866 0.18389572
-0.02870199 -0.22098699 -0.25135025 -0.07292382 0.658731 0.29111153 -0.5462043 -0.6925348

mlp.0.weight f4 [16, 32]
00000000: 46e9 6dbd 14c0 943d c2c9 073d b1d1 24be
00000010: 8e49 563c a5ad 883c cd60 59be 7401 84be
00000020: 5d2b 053e 884d 57be 4aa2 0abe 689d 7fbe
00000030: 5792 343d a891 9abd 6d6e 16be 6e6b d6bd
00000040: 0e32 d0bd 01b7 0d3d 8422 51be 9a92 b83d
00000050: f83c 653d f8b5 d03c b091 63be 0e07 69bd
00000060: 5ddb 023e e86e 54be 4e9b 923d 0b0e 03bd
00000070: d26d e4bd f438 1fbe 7f5c 24be 3bd7 313d
00000080: e711 08be cd70 c5bd f892 17be c6d5 7e3c
00000090: 8ca7 62be e8a1 873d b5cd ac3d 2f5d 69bd
000000a0: 671a 19be 884d 70be a4a5 2abe 616e f1bc
000000b0: b5f4 1fbe a029 c8bd 7c50 75bd 5ad5 5fbd
000000c0: ca75 53be b906 1abe e38e 85be 16a4 1bbe
000000d0: 13b9 1c3d c967 66be 31e9 cbbd a84c f3bd
000000e0: 5de8 343e 05b2 1abe 51a9 6b3d 87e1 babd
000000f0: 4ee0 2a3d 720a 65bd 5d4d 1c3c c2ba f83c
00000100: 083a 0bbe d3ae 6b3d 5227 6cbe f9b1 14bd
00000110: 9020 03be cc07 16be a82d 68be 1486 32be
00000120: a0ea d93c 37ba 143e d792 87bd 26be 53bc
00000130: 5622 85bd 733c 79be b4bf 1abe 0395 943d
00000140: 9492 93bd 03f4 1bbe 315d 7b3d 60d4 35be
00000150: 21de bc3c b5d4 293e 2a9e 96bc 4ff8 b6bd
00000160: 809e 673c 82d3 aebd 71b1 873d 307c 563d
00000170: 9c50 7bbd de3b 08be 02e0 84be 20b0 8a3d
00000180: 1d96 913e ce9e bdbe 3109 ae3e 3d65 b63e
00000190: 62e5 b53b df06 0dbe 0249 763e 933c f83e
000001a0: 7ff3 6f3f 81d9 893d fae0 07bd 344d 5a3d
000001b0: 316d c03d f836 a9be 814d 27be 9d5f 34bf
000001c0: cabc 9bbe 1a41 823e 52bf 7d3c b7f3 c23d
000001d0: 9d88 163f 8063 d23b f425 acbe 131e 403e
000001e0: 8e04 a33d eacd 603e 879b 57be 0ae8 a83d
000001f0: 87d1 153f e2cc 1e3e 571e c03e 09ec 6b3e
00000200: 3abe 85be 85f6 173d 55b7 4b3e 1b26 12bf
00000210: 7524 7b3d ce01 9f3d 5bef 083f 1941 82bc
00000220: ac44 4a3f 9846 453d 90cc a73d 8b77 2bbe
00000230: 8fc7 61bd 5fc2 b53d ad21 803e 8d7e 1bbd
00000240: 0d74 80be 0c51 b43e 7b29 6bbe d19e 0ebf
00000250: d898 ff3d 2168 62bd d654 203f 9c23 55be
00000260: 5c1d febd fa19 20bd ce74 803d 64ba c8bd
00000270: 7af7 0c3e 150d 8a3e 9be7 b53e 8e2c 383e
00000280: 67c2 fd3c 727b 07bf 5e51 c13d 3bd7 b73e
00000290: 5fd9 90be f087 06bb 1841 4a3e 004a b33e
000002a0: 75ac 343f ae49 2b3e 5d2e a7bd 35e2 923d
000002b0: b6d0 503e 0ed7 8dbe 2caa 43be ed0d 31bf
000002c0: 9793 99be 480e ab3d e287 ffbd 95d0 323e
000002d0: 1ee6 db3e d090 ffbc 6529 70be 88a2 5fbb
000002e0: f07c 69bc d41a b23e 1619 32bd b02e 43be
000002f0: 30c4 063f d16c dd3d fc62 143e 6d57 6f3d
00000300: d624 f63e 441b 9fbe 33fe 08bf f129 a53e
00000310: ac11 8bbe e667 c83d c64a c53e 1ba3 9c3e
00000320: f42f 57bf 3518 32be b013 6fbc 7adf 5bbe
00000330: 5aaf 403d 6d21 8bbe 911e 90be c421 48be
00000340: 7300 c6be 6315 433e 72e2 b53e ac35 d4be
00000350: 660a 463e c9ab aabd f204 0bbf 7eca d9be
00000360: b0ec a73e f452 423e 9093 783d 9b44 9a3e
00000370: 6a02 b4bd d205 943e dd6a bc3e 55f4 733e
00000380: ab5b 5b3e 0a73 b4be b8b0 f2be b7f3 a33e
00000390: 9a4d 72be 9e6e c43d 6bda 1a3e 9752 dc3e
000003a0: 5289 5ebf f79f 4ebe 746f 0dbd 3b71 2bbe
000003b0: d345 35bd c6fe cbbe e847 d2be ab72 8bbe
000003c0: a54b fabe 10d1 b53e ac1b c33e b574 89be
000003d0: 8603 363e 8023 53bc e2d1 b4be 0b45 c2be
000003e0: 992d ea3e 7e39 363e 67cf 0a3e e7b1 b93e
000003f0: bc93 27bc a87c ee3e 8f44 ac3e e656 9a3e
-0.058083795 0.072631985 0.033151396 -0.16095616 0.01307906 0.016684363 -0.21228333 -0.2578236
0.13004823 -0.2102567 -0.13538471 -0.2496239 0.044084873 -0.07547313 -0.14690562 -0.10469709
-0.10165797 0.034598354 -0.20423323 0.09012337 0.055966347 0.025477394 -0.22223544 -0.056891493
0.12778993 -0.20745432 0.07158528 -0.031995814 -0.11153759 -0.1554907 -0.1605091 0.04341815
-0.13288079 -0.09640656 -0.14802158 0.015553897 -0.22134227 0.06622678 0.08437673 -0.056973632
-0.14951478 -0.23467076 -0.1666475 -0.029471578 -0.15620692 -0.09773564 -0.05989121 -0.054646827
-0.20650402 -0.15041627 -0.26085576 -0.15199313 0.038262438 -0.22500528 -0.09956587 -0.118798554
0.17666765 -0.15106972 0.05753452 -0.09125047 0.04171782 -0.055918165 0.009539929 0.03036249
-0.13596356 0.057539772 -0.23061875 -0.03630254 -0.1280539 -0.14651412 -0.22673666 -0.17433959
0.026601136 0.1452416 -0.06619804 -0.012923753 -0.0650069 -0.24339466 -0.15112191 0.07254984
-0.07205692 -0.15229802 0.06136817 -0.17756796 0.023055138 0.16585048 -0.018385965 -0.0893408
0.01413691 -0.08536436 0.06625641 0.05236453 -0.061356172 -0.13304088 -0.25952154 0.067718744
0.2843484 -0.3703522 0.33991387 0.35624114 0.005551026 -0.13772152 0.24051288 0.48483714
0.9373092 0.06730939 -0.03317354 0.053296283 0.093958266 -0.3304975 -0.16338159 -0.70458394
-0.30417472 0.25440294 0.015487509 0.09519141 0.58802205 0.0064205527 -0.33622706 0.18761472
0.07959853 0.2195355 -0.21055423 0.08247383 0.5852284 0.15507844 0.37523147 0.23039259
-0.26121694 0.037100334 0.19894154 -0.57089394 0.061314065 0.07764016 0.5349023 -0.015900182
0.79011035 0.048163027 0.08193314 -0.16744821 -0.055121955 0.08874964 0.25025693 -0.037962485
-0.2508854 0.35218084 -0.22965042 -0.55711085 0.124803245 -0.055275086 0.6262945 -0.20814365
-0.124079436 -0.039087273 0.06272279 -0.09801176 0.1376628 0.26963106 0.35528263 0.17985746
0.030976487 -0.5292274 0.09439348 0.35906395 -0.2829084 -0.0020527802 0.19751394 0.35017395
0.7057565 0.16727325 -0.0816314 0.07172052 0.20392117 -0.27703136 -0.19107884 -0.69161874
-0.29995415 0.08352333 -0.124770895 0.1746238 0.42949003 -0.031196982 -0.23453291 -0.0034123976
-0.014250979 0.34786093 -0.043480955 -0.19060779 0.5264311 0.10811771 0.14490885 0.058432985
0.4807498 -0.3107549 -0.5351288 0.3225856 -0.2716192 0.09785442 0.3853361 0.3059319
-0.84057546 -0.17392047 -0.014592096 -0.21471968 0.04704223 -0.2717394 -0.2814832 -0.1954413
-0.38672218 0.19051127 0.35524327 -0.41447198 0.19339904 -0.08333547 -0.5430442 -0.42537302
0.32797766 0.18976957 0.0606876 0.30130467 -0.08789523 0.2891069 0.3680028 0.23823674
0.21421687 -0.35244018 -0.4740045 0.32021877 -0.23662415 0.09591411 0.15122382 0.4303176
-0.86928284 -0.20178209 -0.034530118 -0.16742413 -0.044256043 -0.39842814 -0.41070485 -0.27235922
-0.48885837 0.35511065 0.3810705 -0.26846853 0.17774782 -0.012886882 -0.35316378 -0.379433
0.45737913 0.17795369 0.1355568 0.3626854 -0.010228094 0.4657948 0.33646056 0.30144423

mlp.0.bias f4 [16]
00000000: 865d 4bbe 3388 febb f0d1 a4be f078 523e
00000010: c7b7 233e 10c7 c23e b46c c4bc 97cf 10be
00000020: 0e1b 1bbe d2b7 413d 548a 50be 6b66 5d3e
00000030: 950c 653e 7ea0 3abe 40b9 8cbe 08cc 82b9
-0.19859895 -0.007767701 -0.3219142 0.20553946 0.15988074 0.38042498 -0.023977615 -0.14141689
-0.1514704 0.047294445 -0.20365268 0.216211 0.22368081 -0.18225285 -0.27485085 -0.00024947547

mlp.2.weight f4 [1, 16]
00000000: 9489 aebd e1e6 a8ba c09a 8b3c 4710 f33e
00000010: 0a64 d63e ff37 6c3e be09 a8bf f8ed 73bf
00000020: 6143 f7bd 719c a43e 0bcd 2dbf 6597 a43e
00000030: c3a3 cf3c 04d2 94be 4000 d6be 2518 7dbf
-0.08522335 -0.001288619 0.017041564 0.47473356 0.418732 0.23068236 -1.3127973 -0.95284986
-0.120733984 0.32150605 -0.67890996 0.32146755 0.025346642 -0.2906648 -0.41797066 -0.98864967
