data/CTC/Fluo-N2DH-SIM+/02_RES_GAT/20250714_180029/top1_model_fold4.pth (torch, 11177 bytes, 15 tensors)

gat1.att_src f4 [1, 1, 16]
000000 67 76 bb be 50 10 6e 3e f1 36 e4 3e bd 10 95 bd
       -0.3661377 0.2324841 0.44573167 -0.07278583
000010 c0 94 89 3e aa b6 a2 3e 72 5d 01 3d 00 a8 5e 3f
       0.268713 0.31779987 0.031583257 0.869751
000020 43 51 c2 bd 5c 9b 0d 3e 5d 09 f1 bd ca a3 05 3f
       -0.09488156 0.13828796 -0.11769364 0.5220305
000030 a5 49 8e be cf 7b 36 3e 00 c1 0c bf 47 cb a0 be
       -0.2779056 0.17820667 -0.54981995 -0.31405088

gat1.att_dst f4 [1, 1, 16]
000000 08 65 87 be 64 fd 50 3e f1 4b da be e0 6d 50 bd
       -0.26444268 0.20409161 -0.42636064 -0.050886035
000010 a7 24 97 3f 1b 3f 92 be 33 94 8d 3e 51 fe 02 bf
       1.180806 -0.2856377 0.2765213 -0.51169306
000020 2d 47 66 3e 2b bc 61 3e e8 ca 66 bf 1c 1a 4e 3f
       0.22488089 0.22044437 -0.9015336 0.8050859
000030 d1 a1 95 3e d0 f1 08 be e7 cf 67 3e 3f eb c7 3e
       0.2922502 -0.13373494 0.22637902 0.39046666

gat1.att_edge f4 [1, 1, 16]
000000 a7 f2 43 3f 59 5e 91 bf c1 da 14 bf a7 b1 6f bf
       0.76542133 -1.1356918 -0.5814629 -0.9363045
000010 20 5b 75 bf 7f 20 a8 3f 75 85 97 3f 9d 60 4c bf
       -0.9584217 1.3134917 1.1837603 -0.7983492
000020 0c 7e 87 3f 9c ab a7 3f 93 60 a0 bf dc db 7f bf
       1.0585341 1.3099246 -1.2529472 -0.99944854
000030 d7 dd 40 3f 3a b5 93 bf 75 fb e2 be 2b e2 76 3f
       0.753385 -1.1539681 -0.4433247 0.96438855

gat1.bias f4 [16]
000000 01 c3 ef bd c8 9b 2f 3f c8 2f a9 3e be 92 2b 3e
       -0.11707116 0.6859708 0.33044267 0.16755196
000010 38 75 c5 3e 93 40 46 3f 36 8f 2a bd a4 9f a6 3e
       0.38565993 0.7744228 -0.041640483 0.3254367
000020 92 53 36 3e 26 a2 46 3f 42 a2 eb 3e ba 5f 8e be
       0.17805317 0.7759117 0.4602223 -0.2780741
000030 92 46 4d 3f 21 1c 57 3e 65 0f c1 3e 0f 23 ef 3e
       0.80185807 0.21006824 0.37707058 0.46706435

gat1.lin.weight f4 [16, 14]
000000 66 68 84 3e 32 7a d3 3c 10 83 59 be 75 08 9f bf
       0.258609 0.025815103 -0.21241403 -1.2424456
000010 23 11 6c 3f 60 26 80 bf b0 08 df 3e 03 a7 8d bf
       0.9221365 -1.0011711 0.43561316 -1.1066593
000020 5d 3b 93 3e ea 3f 31 3d 32 d1 61 3d 4a c5 71 3e
       0.28756228 0.043273844 0.055131145 0.23610416
000030 3f 7c 83 bc a7 07 26 3e b5 79 0f 3f 03 d3 db 3d
       -0.016050456 0.16213857 0.56045085 0.10733607
000040 77 07 a9 be 82 d9 82 bf 4a a4 32 3f f8 f1 7f bf
       -0.33013508 -1.0222628 0.69781935 -0.9997859
000050 57 0d 84 3f 2e 7a 1e bf b2 f6 7b 3f 3c 32 96 be
       1.0316571 -0.6190518 0.984233 -0.293352
000060 fe cb 3f 3f d2 31 66 3d 1e 58 d9 3c 6c c6 a4 3c
       0.7492064 0.056199856 0.026531275 0.020114146
000070 3a d3 e6 3d 7c 5f 49 be c3 77 d2 be a8 e3 01 3e
       0.11270757 -0.1966533 -0.41106996 0.126845
000080 1f d7 97 be 48 80 64 3f b3 c9 7c bf d3 c8 b3 3e
       -0.29656312 0.8925824 -0.9874527 0.35114154
000090 27 10 eb be b4 fc 8e 3e 5b 4e 2e 3f 0b d2 c2 3c
       -0.4591076 0.27927172 0.6808831 0.023781797
0000a0 bc 6f 9a 3e 20 f0 a9 bd 78 84 c0 be b3 e8 92 be
       0.30163372 -0.08297753 -0.37601066 -0.2869316
0000b0 dd 3e 5b be 1b 94 96 3e 16 7c 36 3e 5b b3 89 3c
       -0.21410699 0.2940987 0.17820773 0.016809156
0000c0 c7 50 6f bd f2 fd 95 be 1d 48 82 be ca e2 b9 3c
       -0.058426645 -0.29295307 -0.25445643 0.02269115
0000d0 ae 20 12 be 8d df 38 be 06 c7 01 3c c3 6f 4c 3e
       -0.14270279 -0.18054028 0.007920986 0.19964509
0000e0 65 33 37 be d3 33 00 be 52 10 5c be b1 13 b9 3e
       -0.17890699 -0.1251977 -0.214906 0.36147836
0000f0 2f e1 22 be 72 50 f8 bd 2f cf 0c bf 18 84 1a 3e
       -0.15906213 -0.12124719 -0.5500364 0.15089452
000100 91 6c 6e 3d c5 b7 59 be d4 db bb be 65 a4 8e be
       0.058209006 -0.21261509 -0.36691153 -0.27859798
000110 16 2c eb be 30 cc 28 be 67 d4 54 3e 53 91 a9 be
       -0.45932072 -0.16484141 0.2078415 -0.33118686
000120 35 1f c9 be 96 6c 6a 3f 6e 69 b0 be dc 2e b0 3f
       -0.39281622 0.9157194 -0.34455436 1.37643
000130 66 91 9b be c6 4d 96 3f 9f f5 86 be 66 b6 cc bd
       -0.30384368 1.1742485 -0.2635927 -0.09995727
000140 d0 dd f1 3e 2a 9c 3a 3c 4f 9c ce 3d 77 95 87 3c
       0.47239542 0.0113897715 0.10088407 0.016550763
000150 9e 90 83 3e 67 e7 a0 be d0 ec 9a be 0e 71 80 3f
       0.25696272 -0.31426546 -0.302588 1.0034502
000160 68 51 2f bf e7 82 86 3f 52 0f 54 bf 6f fa 0e 3f
       -0.6848359 1.0508698 -0.82835877 0.5585088
000170 e4 79 65 bf 56 1b 8d 3d 75 cb c0 3d 4c 11 28 3e
       -0.89639115 0.068899795 0.09413806 0.16412848
000180 09 03 e2 bd fe 81 54 3d 1b a8 6a 3e ac fb de be
       -0.11035735 0.051881783 0.2291569 -0.43551385
000190 8b 6c b8 be fc d9 20 3f ae 3c b5 be b3 f8 3b 3f
       -0.36020312 0.6283262 -0.35397857 0.7342636
0001a0 84 5f d7 3c 05 1f 84 3e c6 2a 40 be f2 d0 dd 3e
       0.026290663 0.25804916 -0.18766317 0.43323475
0001b0 db 68 8e 3e d6 ce bd bb cb 9d 2e 3f ad fa f8 3d
       0.27814373 -0.005792479 0.6820952 0.121571876
0001c0 64 10 29 be 9f 23 82 bc 9d 30 c3 3b 39 19 02 bf
       -0.16510159 -0.015886126 0.005956723 -0.50819737
0001d0 de e7 88 3d 35 00 d3 be 97 4a b0 be 49 db b7 bd
       0.0668485 -0.41211095 -0.34431908 -0.08977372
0001e0 3d 37 f5 3e 2e 6f 96 3e 8d 56 ab be 69 2a 41 3e
       0.47893706 0.29381698 -0.3346447 0.18863834
0001f0 61 7c d8 3e bb d7 da bc 6d 39 31 be 5a b8 ea 3e
       0.42282394 -0.026714196 -0.17307062 0.45843774
000200 ff 2a 26 bf ac 65 9e bf 01 f7 80 bb 65 67 79 bf
       -0.64909357 -1.2374778 -0.003935695 -0.9742339
000210 12 f1 f4 3e 42 63 3e bf 25 cf f2 bd c3 cb 5e be
       0.47840172 -0.74370205 -0.11855916 -0.21757416
000220 b9 f8 be 3e b2 25 8e be 45 5d 82 3e 66 22 58 3c
       0.37299135 -0.27763134 0.25461784 0.013191795
000230 33 4e bc bd 20 86 34 be e8 35 04 3f 88 95 1e bf
       -0.09194603 -0.1762929 0.51644754 -0.61946917
000240 19 96 70 3f 91 c9 4f bf c4 57 6c 3f e2 b4 62 bf
       0.9397903 -0.8116694 0.9232142 -0.88557255
000250 f0 45 9a 3f fb f3 68 3b ce 15 07 3f d2 fc 17 3e
       1.2052593 0.0035545814 0.52767646 0.14842537
000260 32 d7 87 be e1 1f d1 3c 6e 3b 50 be e3 c4 77 3d
       -0.26531368 0.025527896 -0.2033517 0.0604905
000270 45 b8 e3 be c5 26 01 bf 6c dc 2d 3f 83 cc 47 bf
       -0.44476524 -0.5044978 0.6791446 -0.78046435
000280 a4 9a a7 3e 9f e2 80 bf bf 25 60 3f 0b 1c 95 3e
       0.3273517 -1.0069159 0.87557596 0.29122958
000290 c0 6b 86 3c a0 bc 47 be 36 61 d8 3a 89 cd 73 bd
       0.016408801 -0.19505548 0.0016508463 -0.059522185
0002a0 3a 5d b4 be a9 35 97 be 28 8b 53 bd 2d 78 51 bf
       -0.35227376 -0.29533127 -0.05164638 -0.81824
0002b0 fa e8 77 3e fb 1e 8a bf 75 8a 31 3f 78 38 93 bf
       0.24209967 -1.0790704 0.69351894 -1.1501608
0002c0 0f a9 e8 3d d3 9e 5c 3d 61 51 81 3e a9 d0 ad 3d
       0.1136037 0.053862404 0.252574 0.084870644
0002d0 42 95 1a be 83 d7 72 bd bb a0 81 be f0 b8 00 3c
       -0.15096 -0.05928756 -0.2531794 0.007856593
0002e0 2d 5e 56 3e 98 f2 ab 3f 83 d8 94 bf 81 e3 9a 3f
       0.20934363 1.3433409 -1.1628574 1.2100679
0002f0 93 5a 4b bf 5f cb ab 3f 57 31 66 bf a0 ef 81 3e
       -0.7943508 1.3421439 -0.89919037 0.25378132
000300 e0 ed 23 3e 0b 3d 93 bd a4 98 02 3d 85 bf 50 3c
       0.16008711 -0.071893774 0.03188385 0.012740974
000310 7b 1a e0 bd 7d 04 86 3d 84 2b 4b be ea d9 8e 3f
       -0.10942551 0.06543825 -0.19840819 1.1160252
000320 a4 09 82 bf 11 42 b8 3e be 1c b9 be cc 62 80 3f
       -1.0159192 0.35987905 -0.3615474 1.003015
000330 27 2b 5a bf cb 6d 0d bf 5e c0 49 be cc 96 2d be
       -0.85222095 -0.55245656 -0.19702289 -0.16952056
000340 8f 3e 23 3e 6e 01 6c bd 42 77 94 bd dd 0e f8 bd
       0.15941833 -0.05761855 -0.07249309 -0.1211221
000350 1b 9a 04 3e 89 fe 8b 3e 54 70 6a bf d4 3a 38 3f
       0.12949412 0.27342632 -0.9157765 0.71964765
000360 80 c8 a6 be e3 52 48 3f 65 d8 67 bf 07 be 41 3e
       -0.32574844 0.78251475 -0.90564567 0.18920146
000370 b5 28 9e 3e 41 e6 d6 bc 58 4a da be 5d db 8e bd
       0.30890432 -0.02623284 -0.42634845 -0.06975434

gat1.lin_edge.weight f4 [16, 2]
000000 52 e7 9c be 1a 40 95 3f 9d c1 65 3f cc cd 17 bf
       -0.30645233 1.1660187 0.89748555 -0.59298396
000010 e8 8b 7c 3f 56 c2 99 be 2f ab 4c 3f e4 b5 6d bf
       0.9865098 -0.3003108 0.79948705 -0.9285567
000020 82 bc 7b 3f 88 14 83 bf 1b e4 4c bf 0a 02 65 3f
       0.98334515 -1.0240641 -0.8003556 0.89456236
000030 22 f2 4d bf 15 68 0f 3f 89 ba 8e 3f 74 34 ba be
       -0.8044759 0.5601819 1.1150676 -0.36368144
000040 fb 66 79 bf 02 fd fc 3e 81 42 64 bf d8 8e 69 3f
       -0.9742276 0.4941178 -0.89163977 0.9123359
000050 20 d9 2d 3f ba 65 9e bf 3a 23 4f 3f 3a b8 23 bf
       0.6790943 -1.2374794 0.80913126 -0.6395298
000060 2b e0 46 bf 3b 8f 18 3f 24 92 9a 3f 4c 3b a0 bf
       -0.77685803 0.5959355 1.2075849 -1.2518096
000070 0d 24 5c 3e 4c cf 57 bf 7d 4c ee be 46 07 1c 3f
       0.21498127 -0.84300685 -0.4654273 0.609486

gat2.att_src f4 [1, 1, 16]
000000 01 2f d2 3d ef 0f cb 3e 2b 66 f0 bd 14 62 0f 3f
       0.102628715 0.39660594 -0.11738237 0.5600903
000010 36 6e 6f 3e fe 1d 86 3d 8e a1 80 3e 3f 13 17 3e
       0.23381886 0.06548689 0.25123256 0.14753436
000020 d3 2e d1 be 6a fd e4 3d d4 0e 81 3e 63 6a 01 3d
       -0.40856037 0.111811474 0.25206625 0.0315956
000030 90 62 a5 3d 26 2a 9a 3e 4a 27 b4 3d a0 4f da be
       0.0807544 0.30110282 0.08796556 -0.42638874

gat2.att_dst f4 [1, 1, 16]
000000 7d 06 cd bd 99 6c 76 be 66 65 ee 3c 45 2c 18 be
       -0.10011003 -0.24064864 0.029101085 -0.14860637
000010 aa fe 27 3f 36 6a 46 3e ae 0b 27 be 23 de 97 3c
       0.6562296 0.19376454 -0.16313049 0.01853854
000020 3b 02 8a 3e d8 44 b9 3e 6c 55 6d 3e ef 99 39 3f
       0.26954827 0.36185336 0.23177117 0.7250051
000030 18 1f e9 3e 59 4b a2 3e f2 8d 5d bf 29 28 a8 3e
       0.45531535 0.3169811 -0.86544716 0.3284314

gat2.att_edge f4 [1, 1, 16]
000000 b5 60 ea be e6 45 5f 3f 83 2b 35 3f 51 75 09 3f
       -0.45776907 0.8721603 0.7076952 0.53694636
000010 7e d6 eb be 08 f7 af be 5b aa 6a bf b9 7d e5 3d
       -0.46062082 -0.34368157 -0.9166619 0.1120562
000020 3b 11 c2 3d 08 90 66 3f 59 55 f8 3e dc 6c 9d bf
       0.09475943 0.90063524 0.48502615 -1.2298846
000030 91 e5 72 bf 48 5d a4 be 84 1c 42 bf ef 4a 94 bf
       -0.9488154 -0.32102418 -0.7582476 -1.1585368

gat2.bias f4 [16]
000000 df 28 06 be b1 27 96 3e f9 5b ac bc 90 b9 a4 3d
       -0.13101529 0.29327157 -0.02103995 0.08043206
000010 c7 5f 63 3e a0 cf a9 3e 54 dd a7 3e f8 a7 5b 3e
       0.22204505 0.33166218 0.32786047 0.21450794
000020 f6 98 7c 3e a3 8e 4a bd 2b 7c 80 be 9a 3b 03 3e
       0.24667725 -0.049452435 -0.25094733 0.12815705
000030 cf 9a d5 3e 2e d6 0e be 86 bf b5 bd 4e e9 5a 3e
       0.41719672 -0.1394889 -0.08874421 0.21378061

gat2.lin.weight f4 [16, 16]
000000 33 1b 0c 3f b8 68 8e 3e 5e d4 d7 be 34 f1 3f be
       0.54729 0.2781427 -0.4215421 -0.18744355
000010 54 04 9d 3d 93 9d 9f 3e 4e 96 ed bd 4b b5 64 bd
       0.07666841 0.31174907 -0.11600934 -0.055836957
000020 75 f2 d1 bd e6 1c e1 3d fe ff fa 3e a9 38 3e 3f
       -0.10251323 0.1099184 0.49023432 0.74305207
000030 dd c6 fa 3d 10 e3 41 3b d2 b6 51 be 5e 50 b7 be
       0.122449614 0.0029584803 -0.20479897 -0.35803503
000040 4c 5e cf 3e 97 1c ae 3e b8 e8 b5 bd 62 eb 85 3e
       0.4050163 0.34006187 -0.08882278 0.26156145
000050 06 c4 63 3e cb 9d 38 bf 1e f4 05 be 36 7f 08 bf
       0.22242746 -0.7211577 -0.13081405 -0.5331911
000060 97 6d 9e 3e 47 ea 5b 3f a8 bd 02 3f 60 33 4a 3f
       0.30942985 0.85904354 0.5107064 0.7898464
000070 77 ab 69 3f 8e 4f 89 be be ed 9d be fd 83 65 be
       0.9127726 -0.26818508 -0.30845445 -0.22413631
000080 af 1a ae 3d d3 78 e9 3d f3 76 3d 3e 2a 7e 16 3e
       0.08501183 0.113999985 0.18502407 0.14696565
000090 33 47 a0 bc 33 57 14 3e 2f 03 23 be 85 83 bc be
       -0.0195652 0.14486389 -0.15919183 -0.3681909
0000a0 d0 e3 d2 be 56 2f a9 be 0a fd 4a 3e ac 37 2d 3e
       -0.41189432 -0.33043927 0.19823089 0.16915768
0000b0 bc 5a dc be e2 65 7d bc ad b7 cd be 91 ed 9d be
       -0.43037975 -0.015466185 -0.40179196 -0.3084531
0000c0 b8 08 a5 be 42 27 ff be f4 64 ed 3e a2 67 a5 be
       -0.32233214 -0.4983464 0.46366084 -0.32305628
0000d0 a9 c3 3f bd 18 10 20 3f 20 5f 92 3f c7 af be 3e
       -0.046817455 0.6252456 1.143528 0.37243482
0000e0 77 03 75 bd ef b9 19 bf 98 18 07 bf 6f 68 76 bf
       -0.059817757 -0.6004934 -0.527719 -0.96253103
0000f0 0b af fd be 44 a0 67 3f b2 fa 01 3f 4b 06 1d 3f
       -0.4954761 0.9047892 0.50773156 0.6133773
000100 a5 b4 0a be eb e5 43 bf 1d c7 14 3e 0a 4b 14 3e
       -0.13545473 -0.765227 0.1452908 0.1448175
000110 18 8a a3 3e 46 1e dd 3e 6d a0 91 3e 19 48 0a 3e
       0.31941295 0.4318716 0.28442708 0.13504066
000120 b2 1c ef 3d bc 4e d2 be 7f 1e 4c bf 24 65 f2 be
       0.11675395 -0.41075695 -0.79734033 -0.4734279
000130 f9 66 b2 be 24 f3 87 3f f5 24 6b 3e 55 8d a8 3e
       -0.34844187 1.0621076 0.22963317 0.32920328
000140 63 a8 7b bd 1b 29 33 be ad e1 79 3e 0a dc e4 3d
       -0.061439883 -0.17496149 0.24402495 0.111747816
000150 81 cb df 3e 0f 94 ca 3e 82 c7 00 bf b4 92 f5 3e
       0.4370995 0.39566085 -0.50304425 0.47963488
000160 1b 65 70 3e ff ad ed bd 6d ed a4 3e a7 f2 42 be
       0.23476069 -0.11605453 0.32212391 -0.19037877
000170 06 44 b7 3c 67 93 0b be e0 c4 70 3e 8e 61 19 be
       0.022371303 -0.13630448 0.23512602 -0.1497862
000180 3f b0 05 3e 49 e0 33 bf fa d8 01 3f 0f 9c c0 3e
       0.13055514 -0.70264107 0.50721705 0.37619063
000190 64 80 75 3c 50 ed 3c 3f 13 40 39 3f a5 a8 5c 3e
       0.014984224 0.7379961 0.72363394 0.21548708
0001a0 ed 9d 93 be fc 1e 26 bf 0f c5 71 bf 97 e8 19 bf
       -0.28831425 -0.6489103 -0.9444131 -0.6012053
0001b0 0b ec 17 bf 7a dc 13 3f dd 70 f1 3e f0 66 31 3f
       -0.5934455 0.57758296 0.4715642 0.69297695
0001c0 03 25 f6 3e ef f8 cf 3d 12 f2 c0 3d 37 c2 98 3e
       0.48075113 0.10154902 0.09421171 0.29835674
0001d0 ba 10 9d 3e ad 3d 8d be 68 b5 1d 3e 70 53 9f be
       0.30676824 -0.27586117 0.15401232 -0.31118345
0001e0 6d bb a0 bd d2 f2 1c 3f cd 72 87 3e 6d 9b b3 bc
       -0.07848249 0.61308014 0.26454774 -0.021924699
0001f0 20 e4 b9 3e bc 69 ea be 8e 82 84 3e 1e b4 9c 3e
       0.36306858 -0.45783794 0.25880855 0.30606169
000200 e8 36 01 3f b5 bf 24 3f 57 b0 3e 3e f1 bb 80 3e
       0.50474405 0.6435502 0.18621956 0.25143388
000210 74 a8 a1 bd 92 9e 88 bf 9b c0 a3 be 8b 26 61 be
       -0.07893458 -1.0673392 -0.31982884 -0.21987359
000220 ae 06 b3 3e 2a f9 e0 3e 46 58 4d 3f 65 31 5b 3f
       0.34966034 0.43940097 0.8021282 0.85622245
000230 23 a7 89 3f 4b 0d 26 bd fe 55 7c be 8d fc a7 bd
       1.0754131 -0.04054002 -0.24642178 -0.08202467
000240 d5 c6 7a be 68 eb 23 bf ab d9 ed 3e eb e6 7e be
       -0.24489911 -0.64031076 0.4645513 -0.24892776
000250 86 ea dd 3e fe 55 0a 3f ca 9d 2e 3f 78 ea ba 3e
       0.4334299 0.54037464 0.68209517 0.3650701
000260 bf 26 84 be ef 9d 1b bf 8e 89 16 bf 7f ac c0 be
       -0.2581081 -0.6078786 -0.5880364 -0.37631604
000270 58 7a 10 bf 8e b9 4f 3f 18 2c d6 3e fd 23 8e 3e
       -0.5643668 0.8114251 0.41830516 0.27761832
000280 7b 74 ac 3e 77 e1 3c be 63 45 e0 3a 21 6f ad be
       0.33682618 -0.18445383 0.0017110523 -0.33873847
000290 b7 4e 3b be 42 1c 56 3e ae 2f af 3e 19 5a db 3d
       -0.18291746 0.20909217 0.34216064 0.10710544
0002a0 95 ee 28 be 99 1a 93 3e ca 9c d3 bd 26 ae 03 3f
       -0.16497262 0.2873123 -0.103326395 0.51437604
0002b0 36 1c 62 3e c7 6a ff 3e fe 94 dd bd de bb 88 be
       0.22081074 0.49886152 -0.10819434 -0.2670583
0002c0 26 80 29 3f 8e cb 95 3e a9 c6 28 3e f2 c1 50 3e
       0.66211164 0.29256862 0.16482033 0.20386484
0002d0 45 2f 10 3e fb ae 88 bf ac 58 ce 3e 23 53 a3 be
       0.14080532 -1.06784 0.40302026 -0.31899366
0002e0 7a 20 f3 3e 43 66 6d 3f 71 57 50 3f d1 66 48 3f
       0.47485715 0.92734164 0.81383425 0.78281885
0002f0 a1 29 65 3f b5 87 d1 be 23 31 67 be 1e 15 90 be
       0.89516646 -0.4092385 -0.22577338 -0.2814111
000300 20 9d 3d be ca 75 83 be 6b fa 07 3f 0a d2 b6 3e
       -0.1851697 -0.25675803 0.5311648 0.35707122
000310 3c 7b 97 3d 71 a3 4b 3f 05 32 ee 3e c3 d9 0b 3f
       0.07396552 0.79546267 0.46522537 0.54629153
000320 60 8c cc 3c 4e 46 f2 be f8 6d 6d bd 78 16 d5 bd
       0.02496928 -0.47319263 -0.057966202 -0.10404676
000330 db ba 2c bf 11 28 1d 3f 80 bf 3c be 3a ee 2e 3f
       -0.6747262 0.6138926 -0.18432426 0.68332255
000340 30 eb 73 3f 02 e1 87 3f 07 c4 a7 bd 3a 67 e7 3d
       0.9528074 1.0615542 -0.08191686 0.11298986
000350 11 22 eb 3d 88 24 32 bf 6a fb 85 bd c8 5d f0 be
       0.11481107 -0.6958699 -0.06542094 -0.4694655
000360 6d 07 22 3f f7 f3 f2 3e a1 9c af 3f 66 7b 87 3f
       0.6329258 0.47451755 1.3719674 1.0584533
000370 5c f9 93 3f 43 b8 19 bf 25 1a 27 3c 17 40 1f 3d
       1.1560473 -0.60046786 0.010199104 0.03887948
000380 01 2f e8 be a0 62 44 bd 4e 38 21 bd ff 73 2b bf
       -0.4534836 -0.04794562 -0.039360337 -0.6697387
000390 e8 45 2c bf 80 74 8d be 0d e3 ed 3d 0c 6f 22 bf
       -0.6729417 -0.27627945 0.11615572 -0.63450694
0003a0 10 a2 f6 3e c3 e3 e3 3d 13 01 9f 3c 65 b5 8c be
       0.4817052 0.111274265 0.019409692 -0.27482143
0003b0 d5 b0 13 bf 48 30 f3 3b 5f 8e ca be ae 26 b1 be
       -0.576917 0.007421527 -0.39561746 -0.34599823
0003c0 58 71 e0 bd 44 0c 89 bf 2d 63 97 3f cc 1b 06 3f
       -0.109591186 -1.0706868 1.1827141 0.52386165
0003d0 f6 8d 27 3f a2 a7 77 3f 9c e9 a0 3f c8 36 29 3f
       0.6545099 0.9674016 1.2571292 0.66099215
0003e0 b1 b3 1f bf e0 b2 b4 bf 0a 15 76 bf ef f5 1b be
       -0.6238356 -1.4117088 -0.96125853 -0.15230535
0003f0 a3 75 99 bf 24 ee b1 3f b6 d1 9f 3f 1c 50 85 3f
       -1.1989025 1.39008 1.2485874 1.0415072

gat2.lin_edge.weight f4 [16, 2]
000000 24 bf b6 3e 34 35 d3 be 98 1c ba be fd b0 50 3f
       0.35692704 -0.41251528 -0.3634994 0.8152006
000010 e5 d0 2a bf cb 9c 21 3f 82 8a 71 be e2 88 23 3f
       -0.66725 0.6312987 -0.23587993 0.6388074
000020 5a c1 26 3f a7 1a 98 be e0 ac 14 3d d6 17 83 bf
       0.6513878 -0.29707834 0.03629768 -1.0241649
000030 b2 e0 89 3f 70 d3 94 be 84 c1 40 3e 6c d9 de be
       1.0771697 -0.29067564 0.1882382 -0.43525255
000040 7d bd 01 3e bf f9 a9 be a9 62 3a bf 95 b6 de 3e
       0.1266994 -0.33198354 -0.72806793 0.43498674
000050 19 1b 5b bf 5b 6c 06 3f dd e3 14 3f 4d 2f 60 bf
       -0.8558822 0.5250909 0.5816019 -0.87572175
000060 1d 59 89 3f 50 4a 90 bf 8c 0c 8b 3d 55 00 41 bf
       1.073032 -1.1272678 0.067895025 -0.7539113
000070 d3 ab 70 3f 4f e6 60 bf b1 c3 7f 3f b3 52 85 bf
       0.9401218 -0.87851423 0.99907976 -1.0415863

mlp.0.weight f4 [16, 32]
000000 4a 8b 9e be f2 5d b9 3e 24 b0 7e 3f 51 17 f7 bd
       -0.30965644 0.36204487 0.9948752 -0.12064994
000010 9f 24 b2 be 57 45 b0 3e d4 b4 1d bf 84 1b 75 3e
       -0.34793565 0.34427902 -0.61604047 0.23936278
000020 55 6b 83 3e ad a4 dd be 36 f0 0f bf a4 3c a6 3e
       0.25667825 -0.432897 -0.5622591 0.3246814
000030 31 45 0c be 5f 68 90 be d6 84 d5 3e 91 83 09 bf
       -0.1369827 -0.2820463 0.41702908 -0.5371638
000040 1a 04 87 be 6e ad ff 3e 87 8b a8 be ef 19 2c be
       -0.26370317 0.49937004 -0.3291895 -0.16806768
000050 8b c1 c5 be ee 63 6d bc 03 57 0c bf 4b aa b2 3e
       -0.38624224 -0.014489157 -0.5482027 0.34895548
000060 b3 34 20 3f de 28 c7 be 03 b7 49 be 9b 69 1b 3f
       0.6258041 -0.38898367 -0.1969872 0.60708016
000070 aa 86 30 be 80 3f e8 3e ff 8b 48 3e 22 7e 1d bf
       -0.1723887 0.45360947 0.19584654 -0.6152059
000080 97 a3 0c bd 0a 82 b1 bd f1 35 25 be 22 2d 5e be
       -0.0343357 -0.08667381 -0.16133858 -0.21696904
000090 a5 7b c3 3c 3d 09 86 bd f1 ce 65 ba c5 4c 9c bd
       0.02386267 -0.06544731 -0.00087664934 -0.0763183
0000a0 64 41 cb bd d3 e0 35 be 23 61 a5 bd 5e a2 33 3d
       -0.09924582 -0.17761545 -0.08075168 0.043856017
0000b0 fc f3 02 3b dc 2a 12 be 29 89 a1 3d f9 5c 44 bd
       0.0019981852 -0.14274162 0.07887489 -0.047940228
0000c0 2a b4 da bd e5 9e 65 be 01 ba 7f bd 07 bb 2b be
       -0.10678895 -0.22423895 -0.062433247 -0.16770564
0000d0 2a 97 5a be c0 7b 80 bd 1f 8d 74 3b f4 7c bf bc
       -0.21346727 -0.062736034 0.003731556 -0.023375012
0000e0 ec fa 40 3d 07 c0 44 3b 06 25 0a be 2a 5a 98 bd
       0.047114298 0.0030021684 -0.13490686 -0.074390724
0000f0 09 5b 7a 3d 5a 5b 9d 3d 26 87 85 3c 13 46 07 bd
       0.061121974 0.076834396 0.016299795 -0.033025812
000100 df 87 17 be 04 1d 8b be 97 64 2e 3f 09 22 0a 3e
       -0.14797924 -0.27170575 0.6812224 0.13489546
000110 68 29 9b 3e 1e c6 41 3d d6 61 ba 3e e4 1f 05 bf
       0.30305028 0.04730808 0.36402768 -0.52001786
000120 4b e6 ea be 78 8a b4 3e aa c7 91 bd 31 ce 74 be
       -0.45878825 0.35261893 -0.07118161 -0.23906781
000130 4d 75 81 3e 82 1a e8 be c5 c5 a0 bd 5c 75 e6 3e
       0.25284806 -0.45332724 -0.078502215 0.45011413
000140 25 84 57 3e 17 d7 ab 3e 09 f1 54 bd cd 93 b4 be
       0.21046503 0.33562538 -0.05198768 -0.35269013
000150 6e b0 77 be be 58 f9 bd 37 9e f5 be bd 18 2e 3e
       -0.24188396 -0.12175129 -0.4797227 0.17001624
000160 46 09 00 3f 38 ff 0c be 93 d8 ad 3d 11 ec 0b 3f
       0.5001415 -0.13769233 0.08488574 0.54657084
000170 d8 ec 4d be c1 b6 7d 3e ff 80 05 3e 97 65 cf be
       -0.2010988 0.24776746 0.1303749 -0.40507194
000180 4c 0c e2 3d c7 3f 91 be ae 40 70 3e e7 52 b5 3e
       0.11037502 -0.2836897 0.23462173 0.35414812
000190 72 e2 88 3e 5d 08 e0 3e dd 41 f4 3d f7 b2 30 be
       0.26735264 0.4375638 0.11926625 -0.1725577
0001a0 6c f9 f8 bc 5d ef 84 bd ad 89 cf bd 0e ef b3 be
       -0.030392371 -0.064909674 -0.101336814 -0.35143322
0001b0 51 bd 9d 3e 08 d2 09 be e2 2c 4a bc f0 c6 34 3e
       0.308085 -0.13459027 -0.012339802 0.17654014
0001c0 e0 b4 4a bd 30 f6 c9 be 66 bb 72 3e 3b 99 e1 3c
       -0.049488902 -0.3944564 0.237043 0.027538886
0001d0 47 cd 2e bd 08 98 13 3f 7f 24 f5 3d d0 3a da 3e
       -0.042676236 0.57653856 0.11969852 0.42622995
0001e0 1d 27 f5 bd ed 44 53 be 6d 88 9c be 66 04 17 be
       -0.11970351 -0.20631762 -0.30572835 -0.14747772
0001f0 f0 23 59 bd 93 a6 60 3e a0 4b c4 3d 45 ee 84 3d
       -0.05301279 0.21938543 0.09584737 0.06490759
000200 b3 62 9b bd e7 e9 8a be 55 bf 60 bd fd 5e 76 bd
       -0.07587185 -0.27131578 -0.05486997 -0.06014918
000210 00 b7 fe 3d 63 f0 3f 3e 3d f8 0b 3d fe bd be bd
       0.12437248 0.18744044 0.034172285 -0.09313582
000220 ed d0 1c be bf 5b 8f 3d 58 5e ff bd d8 6d a8 be
       -0.15314074 0.06999921 -0.124691665 -0.32896304
000230 65 2e 8d 3e 60 65 f2 3d ab 8a c1 3c 9a a1 42 3e
       0.2757446 0.11835742 0.023625692 0.19006959
000240 54 4e 08 3e 0d ae 07 be fe f8 b6 3e ba ae ce bd
       0.1331113 -0.13249989 0.3573684 -0.1009192
000250 f6 0b ec bd b0 94 af 3e e3 31 87 3d 8d 80 e0 3d
       -0.11525719 0.34293127 0.06601312 0.10962019
000260 e3 d3 50 be 63 18 91 be ec f9 94 be 4a 8e a2 be
       -0.20393328 -0.28338918 -0.29096925 -0.31749183
000270 07 a6 3a 3e 59 fa f5 3d a8 f9 4b be b9 b5 1b 3e
       0.18227397 0.12010641 -0.19919455 0.1520604
000280 bc 15 36 3d c9 13 9d be 54 fc 65 3c fc ca 90 3d
       0.04445432 -0.30679157 0.0140372105 0.07069966
000290 41 4d 9a 3e 9d f9 82 3e 5a 5f 5a 3e 76 a2 a0 3d
       0.30137065 0.25581065 0.21325436 0.07843487
0002a0 68 19 4d bb e2 58 80 3d 60 96 92 3d 51 28 d0 bd
       -0.003129566 0.06266953 0.07157588 -0.1016394
0002b0 10 93 b6 3e 8f 6a 49 3d a3 eb 12 be 95 c2 03 be
       0.35659075 0.049173888 -0.14347701 -0.12867196
0002c0 b6 f9 39 3d cd 36 0a 3d c0 a4 65 3e 07 6a 23 bd
       0.04540416 0.03374367 0.22426128 -0.039896037
0002d0 1a 32 fa bd 1a 9f ff 3e e0 eb 10 bc 0c 4a bd 3e
       -0.12216587 0.49926072 -0.0088452995 0.36970556
0002e0 6e 08 92 bd 10 c2 2b be b8 c0 ed bd 5b 80 e7 bd
       -0.07130514 -0.16773248 -0.11609024 -0.11303779
0002f0 44 67 fb 3c bc d8 8e 3e fe e4 1b be cb d5 b2 3d
       0.03068889 0.2789973 -0.15224072 0.08732184
000300 8d f4 70 be 2a f7 6d be 17 ce 2b 3e e6 2a 2f bc
       -0.23530789 -0.23238817 0.16777836 -0.01069138
000310 5f 19 48 bd 7c d3 70 bd d3 d1 fb 3d 30 02 8a 3c
       -0.04885232 -0.058795437 0.1229588 0.016846746
000320 ae 3a bf 3c 38 ba 97 bc 92 f9 5e bc e0 0e 01 be
       0.02334341 -0.018521413 -0.013609307 -0.1260333
000330 50 10 17 be 8f d6 4d bd 67 f9 13 be 9c f8 5a bc
       -0.14752316 -0.050253447 -0.14450608 -0.013364937
000340 60 74 8b bd 3e 22 62 bd aa 67 9b bd 49 a7 4c be
       -0.06809306 -0.055208437 -0.07588132 -0.19985689
000350 56 0e 65 3c 40 f7 ed bc be d4 b1 bd a7 93 bc bd
       0.013980469 -0.029048562 -0.086831555 -0.0920785
000360 05 64 2e b9 c7 c5 20 bd 89 a9 5d be a3 e7 f1 ba
       -0.00016631193 -0.039251115 -0.21646704 -0.0018455874
000370 5c 9e cf 3c c1 a6 4f be 4b ae 91 3d d5 a8 93 bd
       0.025344066 -0.20278455 0.07113322 -0.072099365
000380 68 53 40 be 7a e6 d4 be 8c 91 bb 3e e5 90 c8 3e
       -0.18781817 -0.4158209 0.3663448 0.39173046
000390 d1 6a d4 3c f2 94 66 bc 68 5c 8a 3e ae 62 69 be
       0.02592984 -0.014073597 0.27023625 -0.2279155
0003a0 0d a5 9e be 7a e1 d1 3e ea 91 ae bd 72 fe c0 be
       -0.309853 0.40992337 -0.08523925 -0.37694126
0003b0 09 a2 60 3e 7e b6 fc be af 31 6c bd b5 a0 e5 3e
       0.21936812 -0.4935798 -0.05766457 0.44849172
0003c0 c3 59 4b 3e 5a 83 a8 3e 8e 25 12 bf ac a4 1d be
       0.1985846 0.32912713 -0.57088554 -0.15394849
0003d0 55 9b 0d bf 82 86 06 bd 5b bd d6 be ac 05 81 3e
       -0.5531514 -0.03284312 -0.41941342 0.2519964
0003e0 03 94 f3 3e b9 5e 5d be 35 7d fc bd 0e 3f 9a 3e
       0.4757386 -0.21618165 -0.12328569 0.30126232
0003f0 11 2c b9 be 43 03 fc 3e 1c 90 c5 3d f5 8f a4 be
       -0.36166432 0.49221238 0.09646627 -0.3214108

mlp.0.bias f4 [16]
000000 14 67 f8 3b 5f 23 21 be 6c d7 3a be 97 8c d8 3c
       0.0075806472 -0.15736149 -0.1824624 0.026434226
000010 dc 47 18 3d a9 1d a8 3e 59 c3 7c be 56 81 92 3d
       0.037177905 0.3283513 -0.24683894 0.07153575
000020 1e 27 38 3d ee ac 88 be 76 79 12 3a 2b 65 3c bd
       0.04495918 -0.26694435 0.0005587557 -0.04599492
000030 88 55 6c 3c 98 4a c7 3e c6 8b 56 3e 71 5a 39 3e
       0.014424689 0.38924098 0.20951757 0.18100907

mlp.2.weight f4 [1, 16]
000000 c6 5c 0b 3f a4 0c 81 bd 28 e0 84 bf 05 06 82 3e
       0.54438436 -0.06301239 -1.0380907 0.25395218
000010 41 d3 11 3e d1 41 30 3e 0b 24 fc 3d 26 dc 8c bf
       0.14240743 0.17212607 0.12311562 -1.1004684
000020 e3 b3 90 bf e2 3a 8b bd b4 c8 f9 be 57 52 57 bf
       -1.1304897 -0.067983404 -0.48785937 -0.84110016
000030 1a 5d d9 3d 23 07 bf 3e b2 16 98 3e 6c 14 83 3e
       0.10613461 0.37310132 0.29704815 0.25601518
