data/CTC/Fluo-N2DH-SIM+/02_RES_GAT/20250718_124539/manual_fold_1_best_model.pth (torch, 11177 bytes, 15 tensors)

gat1.att_src f4 [1, 1, 16]
000000 44 0c 4d be 8b f2 d6 bd 3f 17 46 be 01 91 d0 be
       -0.2002421 -0.1049548 -0.19344805 -0.4073563
000010 91 bd 7f 3e ab 66 fc 3e d9 00 96 3e 00 f1 c4 3e
       0.24974658 0.4929708 0.29297522 0.38465118
000020 6f 19 6d 3e ca d5 8c be b6 45 1c bd d6 16 ac 3e
       0.23154233 -0.27506858 -0.03815242 0.33611172
000030 ef be 0e 3e 5b f1 0f 3e b2 33 88 be ac eb f5 3e
       0.13940023 0.14056914 -0.2660194 0.48031366

gat1.att_dst f4 [1, 1, 16]
000000 bc b2 a1 bd 9b 64 94 3e 06 75 70 bf 61 da 77 3e
       -0.07895419 0.28983006 -0.93928564 0.24204399
000010 08 fa 10 3f 3d 93 2e 3f a8 d7 ae be 3f 8d c5 be
       0.5663152 0.6819342 -0.34148908 -0.38584325
000020 51 ed 05 bf 2a 6a 3d 3f ca d5 19 3b 70 2b 4d 3d
       -0.5231524 0.7399012 0.0023473375 0.050090253
000030 40 a7 8e 3f c3 b5 18 3e 0e 57 05 3f 0b 40 03 3e
       1.1144791 0.14913087 0.5208596 0.12817399

gat1.att_edge f4 [1, 1, 16]
000000 2e 33 80 3e 13 b9 2c 3d bb 06 39 3f e5 fa 43 3b
       0.25039047 0.042168688 0.72275895 0.0029904183
000010 23 26 36 bf 46 d6 03 bf c0 69 6a 3d 1f 18 ce 3d
       -0.7115194 -0.5149883 0.057229757 0.100631945
000020 5d 19 94 3f 95 d4 ac be cb 6b 5b 3f ee 41 61 3d
       1.157024 -0.33755937 0.85711354 0.054994516
000030 92 b4 f5 be 22 a7 0f bf 14 b7 8c bf 72 82 91 bf
       -0.47989327 -0.561144 -1.0993371 -1.1367934

gat1.bias f4 [16]
000000 f5 a3 ae 3e 6f 75 9e 3c c8 df 28 be 21 26 b3 3d
       0.34109464 0.019343106 -0.16491616 0.08747507
000010 78 d6 de bd 20 a3 8d 3e 21 ea 07 bd 9d c5 2f 3e
       -0.108807504 0.27663517 -0.033182267 0.17165227
000020 8b 0c 3c 3e 18 5e 4b 3e 7a 5d 9d 3e a9 9b b3 bd
       0.1836416 0.19860113 0.3073538 -0.08769924
000030 ed 54 88 3e 37 1a ff be 0f a2 c9 be 9c a0 21 be
       0.26627293 -0.49824688 -0.39381453 -0.15783924

gat1.lin.weight f4 [16, 14]
000000 e3 24 82 3e ed b6 df 3e a5 0e 07 3c 97 4e 4e bf
       0.25418767 0.4369425 0.008243238 -0.8058867
000010 8e c5 8a 3e 9f e7 20 bf 01 6d 36 3e 1a f6 6e be
       0.27103847 -0.62853426 0.17815019 -0.23336068
000020 35 ea 39 3f a4 5d b4 3d a5 15 c0 bd f1 03 ad be
       0.72622997 0.08806923 -0.09379128 -0.3379207
000030 93 0f a9 be b6 6f 02 bd 05 25 f5 be 9d da 1c bf
       -0.33019695 -0.031844817 -0.47879806 -0.6127108
000040 41 22 27 3e a0 31 24 3d 27 29 86 be 50 f7 36 3d
       0.1632166 0.04008639 -0.26203272 0.04466945
000050 e2 28 a2 bd 29 af b7 3b 0a 0a f2 3e de 43 5f 3e
       -0.07917954 0.0056055975 0.47273284 0.21803233
000060 4d ef 57 be ce 90 df 3e f1 ab f5 3e 89 56 4b 3e
       -0.2108738 0.43665165 0.47982743 0.1985723
000070 17 1d 65 3e 50 4d 07 bf c5 cf 22 3f 14 09 33 3e
       0.22374378 -0.52852345 0.6359828 0.17483932
000080 04 97 fc 3d 2a 0a af 3e 1a 1d 5f 3e 3f c7 a5 3e
       0.123334914 0.34187442 0.21788445 0.32378575
000090 e8 c4 80 3e 8a de 16 bf 42 fc 64 3f 2e ab b0 3e
       0.25150228 -0.5893332 0.89447415 0.345056
0000a0 4e 06 db 3e e7 03 0a 3e 8a 1b f7 bd 09 e4 24 be
       0.42778248 0.13478051 -0.120657995 -0.16102614
0000b0 5a c5 04 3e ed 45 36 be ea 26 29 3f 01 95 2b 3e
       0.12965909 -0.17800112 0.66075003 0.16756059
0000c0 2c c9 1f 3f 4f eb ad 3e 4d 0e c3 3e 79 c5 f6 3d
       0.6241634 0.3396859 0.38096848 0.12049384
0000d0 1b 4f 3d bd 2d 9f cf 3d 6d 8e 18 be 24 b6 a0 3c
       -0.04621802 0.10137782 -0.14898081 0.019618101
0000e0 86 e4 33 bd 5a 77 0c bf ae 28 cd bd b4 db f3 3d
       -0.04391911 -0.54869616 -0.10017525 0.119071394
0000f0 94 e4 38 be 8b 58 2c 3e f2 16 4b bd 7a 7c 6c be
       -0.18055946 0.16830651 -0.04958243 -0.23094359
000100 ab f9 f0 3d 89 20 40 be a2 ea cd be 34 10 49 3b
       0.117663704 -0.18762411 -0.40218073 0.0030679824
000110 29 19 04 bd 7d 02 3a be 1d 7a 02 3f c2 29 27 3e
       -0.032250557 -0.18165012 0.5096758 0.16324523
000120 e7 49 99 be 0d 96 1c bf ad e9 c7 3d dd 91 24 bf
       -0.29939196 -0.6116646 0.09761367 -0.6428507
000130 68 e0 46 be d9 1b d8 be 1a 5e c9 3e 23 11 aa 3e
       -0.19421542 -0.42208746 0.39329606 0.332162
000140 e6 e5 a9 be 0d 7e 91 3e 34 26 ee bd 8c b0 bc ba
       -0.3318321 0.28416482 -0.116283804 -0.0014395877
000150 1f 0f 59 bd b9 e7 d4 bd 67 0b 9c 3e 3a 59 17 3f
       -0.052992936 -0.1039576 0.3047745 0.59120524
000160 d1 61 fd bd 2e ed b3 3e 8b 37 78 3e ad 59 3b be
       -0.123721726 0.3514189 0.24239938 -0.18295927
000170 ed 5f 5c bd 89 dc 98 be 3f 64 0f be d6 dc 20 bf
       -0.05380242 -0.29855755 -0.14003085 -0.6283697
000180 36 19 1a bc 3d fd a5 3d 11 27 f8 3e 05 55 13 3f
       -0.009405425 0.08104942 0.48467305 0.57551605
000190 e4 db ad bd 00 48 63 3d 38 a0 89 3c 1e 83 61 3e
       -0.084892064 0.055488586 0.016800031 0.22022673
0001a0 31 b4 17 3d 32 20 fd be 16 ae 13 3e 33 b1 7e 3e
       0.03703708 -0.49438626 0.14421877 0.24872284
0001b0 1f a2 c6 3c 26 3c 3e 3e 0d f6 51 3e a8 08 40 bd
       0.024247227 0.18577632 0.20504017 -0.046883255
0001c0 05 be 40 3f 38 3a 00 3f 08 06 48 bf 4b 5a a2 be
       0.75289947 0.50088835 -0.781342 -0.31709513
0001d0 a2 85 59 3e 70 dc 0c be f4 1f 58 3f 0c ff 0d bf
       0.21242383 -0.13755965 0.84423757 -0.55467296
0001e0 b6 43 a8 3e cc 68 c6 bd a2 22 93 be a5 9e 17 3c
       0.3286416 -0.09687957 -0.2873736 0.009254132
0001f0 98 47 f9 be ab 96 cd 3d 33 bc 1e bf 5f b1 a7 be
       -0.48687434 0.10038503 -0.6200592 -0.3275251
000200 37 08 81 be d0 e2 e8 3e d3 5b 15 bf 1c 39 3f 3f
       -0.2520158 0.45485544 -0.5834324 0.74696517
000210 fc 7e 59 bf 0b a5 3b 3f b1 6b 0d bf fb 7e b2 bc
       -0.8495939 0.7329871 -0.5524245 -0.021789065
000220 fd 33 0d bf 46 f3 b6 be 11 ba e5 be a0 92 50 3e
       -0.5515745 -0.35732478 -0.4486852 0.20368433
000230 10 7a aa bd 0a ac 56 be 0f 87 6c be 56 86 c3 3e
       -0.08324063 -0.20964065 -0.23098396 0.38188428
000240 c5 8d 41 bf d2 c5 e7 3e 10 4d b4 bd 30 17 24 3f
       -0.7560695 0.45268112 -0.08803761 0.6409788
000250 27 3a f3 be 63 73 4a bd 00 f0 f3 bd df 2f 19 be
       -0.47505304 -0.049426448 -0.11911011 -0.14959668
000260 2d ab 46 3d 65 05 8b be c5 38 f2 be 4e b2 d4 be
       0.04850309 -0.27152553 -0.47308937 -0.41542286
000270 13 be 3b 3e 69 a3 b7 be 79 a7 1d 3e 3b 73 80 be
       0.18334226 -0.3586686 0.15395917 -0.25087914
000280 5c c5 b7 3e 94 0c a5 bd c6 93 48 3e 21 ec f9 3d
       0.3589276 -0.0805904 0.19587621 0.12203241
000290 98 32 3c 3f bc 37 63 3d cf f3 00 bd 7b 3d a9 3d
       0.735147 0.055473074 -0.031482514 0.082636796
0002a0 2c e3 3b be e6 2d a4 bd 04 e4 24 3e 99 a1 fb 3d
       -0.18348378 -0.08016567 0.16102606 0.12286682
0002b0 91 62 e4 be bf 1b 93 3e 7a 73 16 bf 0e c3 3a be
       -0.4460645 0.28732106 -0.58769953 -0.1823847
0002c0 2b 3a 28 bf 83 95 0e 3e 50 11 57 be 9e 03 9e be
       -0.6571376 0.13924222 -0.21002698 -0.30862135
0002d0 a0 ba 48 bf 7e 3f 2d be 9a 1d 2d 3c d7 dc 45 be
       -0.7840977 -0.16918752 0.01056614 -0.19322525
0002e0 6c 4c 0b 3f ae a7 0f 3e c5 81 af 3e 77 9b 81 3e
       0.54413486 0.14028808 0.34278694 0.25313923
0002f0 b4 4f 00 be e4 f1 3e 3d 24 32 1f 3d 40 26 23 3f
       -0.12530404 0.046617404 0.038866177 0.6373024
000300 b3 e9 33 be e8 3c 04 3e 4e b6 43 3d 3c fd 96 3e
       -0.17569618 0.12913859 0.04778128 0.29490077
000310 35 4f 90 3e 31 ab 20 bd 5f 0c 03 be 48 a6 95 be
       0.2818543 -0.03922576 -0.12797688 -0.29228425
000320 16 c6 11 3f 5d d0 2b be 01 13 97 3e 85 43 4c 3e
       0.5694288 -0.16778703 0.29506686 0.19947632
000330 b1 c3 22 3d 92 1d 83 3e 94 90 f2 be 1a db 1d bc
       0.039737407 0.25608498 -0.4737593 -0.009634757
000340 c4 23 a1 bd 8f dd fd bd 1a af 9e be 23 bd e6 be
       -0.0786815 -0.123957746 -0.30992967 -0.45066175
000350 c6 50 03 3f 28 bf 7d 3e 36 b2 cc bc 87 a8 93 3e
       0.51295125 0.24779952 -0.024987321 0.28839514
000360 2f d8 0b 3f 57 d2 de be 28 c8 2a 3e b0 85 88 3e
       0.54626745 -0.43519852 0.16677916 0.26664495
000370 54 d0 88 be 42 20 cd be 90 da c4 bd 1c ca 46 be
       -0.26721442 -0.40063673 -0.09612 -0.19413036

gat1.lin_edge.weight f4 [16, 2]
000000 30 72 48 be 26 01 05 3f 7f 5d de bd b8 d1 df 3c
       -0.19574809 0.5195488 -0.10857677 0.027321681
000010 89 5f 8a bf f6 d6 9f 3e bf 4a 65 3e 71 c6 be 3e
       -1.0810405 0.3121869 0.22391795 0.37260774
000020 51 ab 10 3f 1e 19 05 bf b3 e3 28 3f ef 22 34 bf
       0.5651141 -0.5199145 0.6597244 -0.70365804
000030 fe 24 d4 bd 5a 33 be bc 2d 2c 3e bc f9 6a 99 3e
       -0.10358618 -0.023217846 -0.011607212 0.29964426
000040 9f 8d 7d bf 4e ff e5 3e 72 d9 8c 3e 44 6c da bc
       -0.9904422 0.44921345 0.27509648 -0.026662953
000050 17 c2 40 bf 65 1d c8 bd b4 0c f3 3d 01 8c ab 3e
       -0.7529616 -0.097712316 0.11867657 0.33505252
000060 ab 3b 73 3e 24 b9 16 bf da a0 1f 3f 19 a0 b0 3e
       0.2375323 -0.5887625 0.62354815 0.34497145
000070 0a 84 57 3f e3 00 8b be 30 3b 77 3f be 1a 40 bf
       0.8418585 -0.27149114 0.9657469 -0.75040805

gat2.att_src f4 [1, 1, 16]
000000 89 1e d6 be b7 f1 32 3f be c1 24 be fb ba 1a bf
       -0.4182017 0.6990008 -0.16089532 -0.6044156
000010 02 61 d5 be 39 47 21 be 94 7d e5 be aa 12 6f bd
       -0.41675574 -0.15749826 -0.4482237 -0.05836741
000020 69 63 d4 be 1b e8 7d be 1d 46 57 3f bd 15 9e be
       -0.41482094 -0.24795572 0.8409136 -0.3087596
000030 de e4 62 3e fd f6 8b 3e 93 d4 a5 be 36 64 94 be
       0.22157618 0.27336875 -0.32388744 -0.28982705

gat2.att_dst f4 [1, 1, 16]
000000 81 0f 39 bf 2a ca ec 3e e6 57 34 3f 43 ac e6 be
       -0.7228928 0.4624799 0.7044662 -0.450533
000010 45 da 86 3d d7 e3 00 bf d4 5c 7a 3e 9e d6 a1 be
       0.065846 -0.50347656 0.24449474 -0.31609052
000020 96 62 6f bf 4f 47 4a bf 81 e4 89 3f 18 f2 e3 3e
       -0.93509805 -0.7901506 1.0772859 0.4452064
000030 57 45 30 3f 8c 27 b2 3e 42 f5 d1 be 69 8c 9a 3e
       0.68855804 0.34795797 -0.4100743 0.3018525

gat2.att_edge f4 [1, 1, 16]
000000 00 a0 a2 3e bd 70 00 bf 49 5e 68 be 22 15 e7 3e
       0.31762695 -0.50172025 -0.22692217 0.4513331
000010 d5 ad db 3e aa b6 e2 3e de d9 a2 be 89 98 37 bf
       0.4290606 0.44279987 -0.31806844 -0.71717125
000020 46 13 d4 3e 88 82 13 3e 5a b7 39 be 4b 2a 8c 3e
       0.41420954 0.14405262 -0.1813635 0.27376017
000030 fa 51 39 be 32 ce 24 3f 04 c1 ae bd d5 3c 4c bf
       -0.18097678 0.6437713 -0.085329086 -0.7978032

gat2.bias f4 [16]
000000 be bb b8 3e 73 75 04 3f 8a 97 5b be 52 9b 63 3c
       0.36080736 0.51741713 -0.21444526 0.013892012
000010 0f 1b 2a 3e e6 3f f8 bd 8f 16 87 3d 03 f0 d4 bd
       0.16611885 -0.12121563 0.065960996 -0.10397341
000020 b3 07 0e bd f8 66 c4 3d 02 98 3e be a4 a9 55 3d
       -0.03467531 0.09589952 -0.18612674 0.052163735
000030 98 c9 38 3e 26 38 4c bd 78 02 74 3d 4a da 06 be
       0.18045652 -0.049858235 0.059572667 -0.13169208

gat2.lin.weight f4 [16, 16]
000000 ae 74 65 3f 3f 2c 68 be 5a 29 1d bc 8c c6 7e 3f
       0.89631164 -0.22673129 -0.0095923785 0.9952171
000010 97 68 67 3e 14 ac a4 3e 4a 36 b1 3c e9 ce db 3e
       0.22598492 0.32162535 0.021632332 0.42931297
000020 91 c8 28 3f 44 61 29 bf d3 cb 1e bf 5a 13 3e 3e
       0.6593104 -0.6616404 -0.6202976 0.1856207
000030 f7 5e d6 be 9b 54 fb bc 06 15 86 3e 5c 22 18 3e
       -0.41869327 -0.030679991 0.26187915 0.14856857
000040 67 30 46 3f 2d 52 29 3e ed f2 cb 3e 55 fb 1b be
       0.77417606 0.16535254 0.39833775 -0.15232594
000050 a8 8d f9 3d 2a 0b 46 3e 8a ad 71 bd d5 cc 16 bf
       0.12185222 0.19340196 -0.05900339 -0.589063
000060 00 63 88 3e b3 f5 ba be bb 36 a3 3e a0 53 a8 3e
       0.2663803 -0.3651558 0.31877694 0.328763
000070 dd ec 23 3d 12 1c 44 3c c1 b8 1a 3d a7 ee d6 3d
       0.040020812 0.011969583 0.03777385 0.10494738
000080 99 0a 38 bf 9a 92 9c be 9e c9 69 be 47 e6 2e bf
       -0.7189117 -0.30580598 -0.22830817 -0.68320125
000090 96 44 0d be b9 77 c3 be 8f 7c 83 bd c8 e7 82 3e
       -0.13795695 -0.3817728 -0.06420242 0.2556746
0000a0 2c 1a c4 be 48 83 bf 3e f8 51 12 bd d4 dc 33 be
       -0.38301218 0.37404847 -0.035722703 -0.17564708
0000b0 40 99 50 3e 93 fb 98 be 23 13 d9 be fd 24 f3 be
       0.2037096 -0.29879436 -0.42397413 -0.47489157
0000c0 2f ab 83 be 51 4d ca be 67 cd 64 bd 4d 32 25 bd
       -0.2571654 -0.39512113 -0.05585995 -0.040331174
0000d0 31 f5 a7 3e 6b a7 26 be 73 98 47 3e d2 65 6d 3e
       0.32804254 -0.16274802 0.19491749 0.23183373
0000e0 26 a2 a8 3e 5b 46 b8 3e 33 15 d0 3e 0e e7 49 bc
       0.3293621 0.35991177 0.40641174 -0.012323154
0000f0 dd 1f a0 bd 92 a2 24 be 67 7a 1b 3d 9c 5f 91 3e
       -0.078185774 -0.1607764 0.03795853 0.28393257
000100 49 ce 4b be 65 0b 68 3d 52 5f c3 bd 1a 40 85 3e
       -0.1990291 0.05665149 -0.09539665 0.26025468
000110 49 8f a7 3e 93 81 3b bc 3d 26 fd 3d 53 89 29 3e
       0.32726505 -0.011444467 0.12360809 0.16556291
000120 00 42 01 3e a1 75 e2 bd 3b 53 f5 3e f0 08 bd be
       0.12622833 -0.11057592 0.47915062 -0.3692088
000130 34 e6 99 3c 80 93 f2 3e bc 10 11 be 45 f5 af bd
       0.018786527 0.4737816 -0.1416654 -0.08591703
000140 cb 7e d8 be be 8d 13 3e 6a d9 57 3e 0e db fb 3c
       -0.42284235 0.14409539 0.2107903 0.030744102
000150 d6 de 44 bd 32 73 61 bc f4 c2 3f be e2 86 d2 be
       -0.048064075 -0.013760375 -0.18726712 -0.41118532
000160 3c df af bd 70 32 b0 bd c6 fe 55 3d 62 62 87 3e
       -0.085875005 -0.0860337 0.052244924 0.26442248
000170 ef b0 e6 bd 1b 76 fb be 84 cb f7 3d fa a7 9a 3e
       -0.11264216 -0.49113545 0.120993644 0.3020628
000180 8e 7f d1 be ed 20 ca 3d 3b 13 87 be 14 37 5f be
       -0.4091763 0.09869561 -0.2638186 -0.21798354
000190 b5 d2 91 be 50 43 06 bf e3 59 85 3e 1c 69 89 3e
       -0.2848107 -0.5244646 0.2604514 0.26838005
0001a0 4c 52 09 3e 07 49 49 be 80 d7 82 be a3 8a 12 3e
       0.134103 -0.19656764 -0.25555038 0.14310698
0001b0 ae d8 58 3e 1a fd 24 3f 92 52 9b 3e 1f 1d 5a bf
       0.21176407 0.644487 0.30336434 -0.85200685
0001c0 c7 d3 bf be 41 d8 b1 3d b2 b1 54 be 3b 05 8f be
       -0.3746626 0.08683825 -0.2077091 -0.27933678
0001d0 1a e9 00 bf b9 4d d2 be b8 d2 3b 3e c3 5d 0a 3e
       -0.50355685 -0.41074923 0.18342102 0.1351233
0001e0 57 92 44 bf 3a 9f f6 3e 08 cc 12 3f 5c 3d aa 3d
       -0.76785797 0.48168355 0.57342577 0.083124846
0001f0 21 36 84 bd 83 5b bd be 1b 7e 8e 3b f4 cc 37 3e
       -0.06455637 -0.3698388 0.004348529 0.17949277
000200 d7 f3 25 bd 30 dc eb 3e 3c a6 ec 3e b8 11 72 b9
       -0.040515747 0.46066427 0.46220577 -0.00023085519
000210 89 48 77 be ed 1f bf be fb e7 98 3e 4e 8e 1e bf
       -0.24148764 -0.37329045 0.29864487 -0.6193589
000220 f3 79 15 3e d4 f8 97 be 25 79 1a be a3 da d7 3e
       0.14597301 -0.29682028 -0.15085275 0.42158994
000230 bb 1e c4 be 34 58 51 3e 17 b9 67 3e 2a 56 99 3e
       -0.38304695 0.20443803 0.226292 0.2994855
000240 38 52 a3 3e 40 b6 58 bd 90 87 e4 3e 32 ae c8 3e
       0.31898665 -0.052908182 0.44634676 0.391954
000250 a7 80 b6 3e 3d bf e1 be 3b 98 26 be 84 7d 15 be
       0.3564503 -0.44091216 -0.16269009 -0.14598662
000260 e0 72 11 be 6a 48 6a bd 11 f3 ab 3e 35 22 53 be
       -0.14203978 -0.057197966 0.33583882 -0.20618518
000270 f5 94 c4 3e 0b 09 cc 3d 0e b4 df 3d 51 56 b3 3e
       0.38394895 0.09962662 0.109230146 0.35026792
000280 dc c4 d3 3e 59 44 e0 3e 89 f3 99 be b1 18 bb be
       0.4136113 0.43802145 -0.30068615 -0.36542276
000290 60 78 79 be 6a df ba 3e 9f 84 08 3e 71 9f 28 be
       -0.24362326 0.36498576 0.13331841 -0.16467072
0002a0 7e 70 5c be bc bb 2f 3b e4 1c 6a be 62 cc b6 bd
       -0.21527287 0.002681478 -0.22862583 -0.08925702
0002b0 6d c1 d5 be de da 59 bf 8f f4 84 be 18 a8 c4 be
       -0.41749135 -0.8509959 -0.25967833 -0.38409495
0002c0 f7 bc 24 3f 1f e0 7d be 34 93 79 be 78 47 8e 3e
       0.6435084 -0.24792527 -0.2437256 0.277889
0002d0 65 73 5e 3e ff de 5c 3d 58 46 b6 ba c4 c7 b8 3e
       0.21723707 0.053923603 -0.0013906462 0.3608991
0002e0 fc fe 27 3b ef e4 44 be d7 21 2a bf dd f0 bc 3e
       0.002563416 -0.19227956 -0.66457886 0.36902514
0002f0 56 42 07 bb ea eb 3c bd e0 96 2d 3f 43 b8 a7 3e
       -0.0020638905 -0.046123423 0.6780834 0.32757768
000300 1c 8e 6c be b8 14 b7 be 7e bd 26 bf 13 63 0c bf
       -0.23101085 -0.35757995 -0.6513289 -0.54838675
000310 e2 f0 ab be 23 b8 63 bf 53 0a ec 3e 49 8a 5b 3e
       -0.33582217 -0.88952845 0.46101627 0.2143947
000320 1a b6 53 bf e5 b2 c2 3e ac 7a c5 3e 42 ea 22 bf
       -0.8269974 0.3802711 0.38570154 -0.636387
000330 64 1e f5 3e 00 2b 0c bf be ae f3 be c9 dc e2 3d
       0.4787475 -0.5475311 -0.47594255 0.11077268
000340 fc 85 be be 44 be d5 3d 78 c2 f3 be 87 6d 1e be
       -0.37211597 0.10436681 -0.47609305 -0.15471469
000350 88 50 1a 3d 6f 55 d6 be 76 3d b2 3e a2 49 b8 3e
       0.037674457 -0.41862056 0.34812516 0.35993677
000360 97 7b 0e be 49 7c 06 3e 83 02 5d 3e 7b f1 07 bf
       -0.13914333 0.13133349 0.2158299 -0.53102845
000370 f8 38 b7 3e 78 ea 9d bd 6a c8 e0 be 49 f5 d7 3e
       0.3578565 -0.07710737 -0.43902904 0.42179325
000380 5e 02 da be 9c 95 05 3f 10 43 2a 3f e3 a7 81 3e
       -0.4257993 0.5218141 0.6650858 0.253234
000390 7e 7a 93 3e b4 f2 11 bf 82 67 b2 be eb 7c 49 be
       0.28804392 -0.5701096 -0.34844595 -0.19676559
0003a0 10 df 69 3e b0 d1 b9 3d 9e 4e 1c bd d7 e8 df 3e
       0.22838998 0.09073198 -0.038160913 0.4373233
0003b0 ca 27 a1 bd 1b a6 95 be a7 a0 82 bd 2d 81 9e bd
       -0.07868917 -0.2922829 -0.06378298 -0.07739482
0003c0 fb 26 82 bd 86 55 26 bf de 9a ef be 00 f5 86 3d
       -0.06355091 -0.6497425 -0.46797842 0.06589699
0003d0 e8 e0 08 be 3c 24 f8 bd 4c be 89 bd 27 cd 2b 3e
       -0.13367045 -0.12116286 -0.067257494 0.16777478
0003e0 37 f4 92 be fb 36 d2 3e bd 62 5f be 6a c2 43 be
       -0.28701946 0.41057572 -0.2181501 -0.19117132
0003f0 a9 46 7c 3e 45 f5 7e 3e 6f 84 76 be 80 e3 1f bf
       0.2463633 0.2489825 -0.24073957 -0.6245651

gat2.lin_edge.weight f4 [16, 2]
000000 46 2e 2e bd c3 c4 84 3f 22 84 95 bc 18 67 95 bf
       -0.0425246 1.0372547 -0.018251482 -1.1672087
000010 f4 2d e0 be 0b ee 28 bf 19 8d 46 3f ad eb 7f 3f
       -0.4378506 -0.65988225 0.7755905 0.9996899
000020 58 27 2e 3f 88 68 8c 3e fc f0 ad 3e b0 25 95 3e
       0.68028784 0.274235 0.3397292 0.29130316
000030 3f 68 86 3e 26 ce b5 be be 41 2b be 18 55 84 bf
       0.26251408 -0.3550884 -0.16724297 -1.0338469
000040 ec 3a 39 3f 0e bb bd 3e 23 10 5b be 1c bd a3 3d
       0.7235553 0.37056774 -0.21392874 0.07995054
000050 92 76 55 be af 53 85 be e1 4f f0 3e de 92 4a 3f
       -0.20846012 -0.26040408 0.46935943 0.7913035
000060 d2 bc 02 bf 07 b3 4b bf 88 a2 39 3f 99 94 0d 3f
       -0.51069367 -0.7957005 0.7251363 0.5530487
000070 ca 67 5e be 51 4e 0f bf 81 e3 8e be 94 b7 1c bf
       -0.2171928 -0.55978876 -0.27907947 -0.6121762

mlp.0.weight f4 [16, 32]
000000 68 02 72 bd 92 48 19 be 34 95 21 bd 9a 59 4e 3d
       -0.059084326 -0.1496909 -0.03944893 0.05037842
000010 a0 f2 13 be d6 90 85 bd 78 41 2b 3e d5 74 ce 3c
       -0.14448023 -0.06521766 0.16724193 0.025202194
000020 c4 6b 1c bd 58 c9 2c 3e 1c f8 e9 bd 62 9d 1d be
       -0.03818871 0.16873682 -0.11424276 -0.15392068
000030 be ec 9e bd 38 ce 38 bc f9 10 7f be 4a 86 80 3d
       -0.07759999 -0.011279635 -0.24908818 0.062756136
000040 9b e9 60 be 27 63 15 be cb 8a 4b 3d eb dc 61 bd
       -0.21964113 -0.14588605 0.04969291 -0.055142324
000050 db 24 4f 3d 12 54 39 3b 0e f6 58 be b0 f5 a0 3c
       0.050572257 0.002827887 -0.21187612 0.019648403
000060 0c 06 8d 3d 69 1c a7 3c 39 41 29 be 7a 10 50 be
       0.06885919 0.02039929 -0.16528787 -0.20318785
000070 b9 c8 13 be 4d 37 2e 3d b1 23 c7 bd 29 b9 68 bd
       -0.14432038 0.042533208 -0.097236045 -0.056817207
000080 d8 c2 71 3c 1c 75 56 3d 21 d0 b7 3e 8a 0f 3b 3d
       0.014755927 0.052357778 0.35900977 0.045669116
000090 ec ea e2 3d a0 bd 8e 3d 55 c1 69 3d 6a bc 60 3e
       0.11079964 0.06969762 0.05706914 0.21946874
0000a0 fe c5 fc 3c f2 62 14 bd 8f 47 c4 be a1 29 f2 bd
       0.030856129 -0.036227174 -0.38335845 -0.11824346
0000b0 3b ca 8e 3e 12 ae ac 3e 5b d7 0f bc 21 c5 9e 3e
       0.27888665 0.33726555 -0.008779372 0.31009772
0000c0 82 c4 fb 3e 63 00 22 3e 7c 7d cd 3d ea 9b 8c 3c
       0.4917336 0.1582046 0.100337 0.01716419
0000d0 85 3c ea bc fc 7c 8b bd 1f 4e 17 be 69 fc 6c 3c
       -0.028593311 -0.06810948 -0.14775895 0.014464476
0000e0 82 3e 0c 3e 38 4a 8e bd 99 80 28 be a6 3e da 3d
       0.1369572 -0.0694775 -0.16455306 0.106564805
0000f0 a2 7e a0 3e 58 b3 86 3d ed fa 2b bd 94 1b f3 bd
       0.31346613 0.06577176 -0.04198735 -0.118704945
000100 23 52 0b be 48 3c 0c be d1 10 83 3e 41 42 cc 3d
       -0.13605551 -0.1369487 0.25598767 0.099735744
000110 a2 76 0e be 84 19 b1 bd 6e 53 c5 bc b2 a4 02 3e
       -0.13912442 -0.08647445 -0.024087634 0.12758139
000120 e1 94 14 be a5 73 13 3e ea 16 d6 be 40 f7 98 bd
       -0.14509918 0.14399584 -0.41814357 -0.07469034
000130 da ed b3 3e 7a 2f 83 3e 83 76 10 3e 7d c9 79 3e
       0.35142404 0.2562216 0.14107709 0.24393268
000140 2f b2 eb 3e ce da 38 3d f2 2f 24 3e 18 d5 2e be
       0.4603438 0.045130543 0.16033915 -0.17073476
000150 f4 a6 f2 bd b0 6b 35 3e 94 e6 56 bd 78 21 4a 3d
       -0.1184825 0.17716861 -0.05246599 0.049348325
000160 93 e5 3e be a2 25 52 be 3e ad 7e bd 41 70 63 3e
       -0.18642263 -0.20522168 -0.062176935 0.2221079
000170 a7 59 b5 3d b6 55 4e 3d da a9 04 3e 58 f5 17 3d
       0.088549905 0.05037471 0.12955418 0.037099212
000180 3a f9 06 be 99 d8 04 3f c1 7b bd be d3 e5 45 3e
       -0.1318101 0.51893 -0.3700848 0.19325952
000190 2b db 2d 3d 06 71 b6 3d 35 a8 51 3e e8 aa 9b 3d
       0.042445343 0.08908276 0.20474322 0.07600957
0001a0 21 93 90 3d c0 9e d1 3d c3 f9 97 be 34 97 41 3e
       0.070593126 0.10235357 -0.2968274 0.18905336
0001b0 61 97 2d 3e 70 1c 02 39 3f f3 9c 3e 0e 9f 05 3e
       0.16952278 0.0001240836 0.30654332 0.13048956
0001c0 f7 63 2d bf eb 44 98 3d 8e 0c 65 3d b4 9d 67 3e
       -0.6773066 0.0743502 0.055920176 0.22618753
0001d0 8d c1 f9 bd 9e de 35 3e 5e 07 62 bc 02 8d 97 3e
       -0.1219512 0.17760703 -0.013795702 0.29599768
0001e0 ce 56 ab 3d 95 de 5a 3e 92 53 43 be 43 66 12 bf
       0.08366166 0.21373971 -0.19074848 -0.5718729
0001f0 ee 8f 5a 3e b2 63 22 bd 74 9b d3 3e 28 ed 63 bb
       0.21343967 -0.039645858 0.4132954 -0.0034778807
000200 e0 1a 51 bf 6f aa bb 3d ac c0 bc be fe 8f 2b 3e
       -0.81681633 0.09163367 -0.36865747 0.16754147
000210 82 a7 e2 be 6f b6 17 3d e1 ec ed 3d 8e 01 b8 bd
       -0.44268423 0.037039217 0.11617447 -0.089846715
000220 d0 35 db 3c 88 be 3b 3e 23 02 1a 3e a1 48 26 bf
       0.026759058 0.183344 0.15039878 -0.6495457
000230 54 53 c7 3e 93 53 84 3d a5 81 59 3e 2a c2 03 3d
       0.38930762 0.06461253 0.21240862 0.03216759
000240 4f e9 53 bf aa e7 ae be 26 2f 3a be ff 74 ba 3e
       -0.82777876 -0.3416112 -0.18182048 0.36417386
000250 bf a5 84 be ec f9 6f 3e 1c 58 8f 3e 15 a1 04 3e
       -0.25907704 0.23435181 0.2799691 0.12952073
000260 35 89 38 3e 15 45 82 3e 7f b4 5f be b1 a0 0a bf
       0.1802109 0.2544333 -0.21846198 -0.54151446
000270 6f ba e2 3e 2f 6c df 3d 12 29 bd 3d a2 58 96 3c
       0.44282863 0.10909306 0.09236349 0.01835281
000280 c0 ae 1a 3c a5 0e 1c 3c c9 0a 6b be 18 ae 24 3e
       0.009441078 0.009524976 -0.22953333 0.16082036
000290 48 ae 09 bd 6e 85 12 bd 47 4e a4 3d 9c e7 18 be
       -0.033613473 -0.03577178 0.08022743 -0.14932102
0002a0 2e 2d 68 be 6a 8f 72 be 44 67 14 3f 40 38 a3 3d
       -0.22673485 -0.2368752 0.5797007 0.07969713
0002b0 30 7f 29 be 48 2d ec bd af 6e 07 be 88 3a 9c bd
       -0.16552424 -0.11532074 -0.13225816 -0.076283514
0002c0 17 e0 0d be 47 0f 64 3d 82 8a b3 be 72 26 3f 3e
       -0.13855015 0.055678632 -0.3506661 0.1866701
0002d0 7c ac 8f be 4e 49 00 3e 64 a7 2d bc 1c bc 64 be
       -0.28061283 0.12527964 -0.010598991 -0.22337383
0002e0 27 c1 b6 bc 2f 6d 8a 3d 30 7d 91 be eb 16 3b 3d
       -0.0223089 0.06759106 -0.28415823 0.045676153
0002f0 3c 83 bc be d7 67 8a be 55 5e b8 bd 63 76 8e bd
       -0.36818874 -0.2703235 -0.090023674 -0.06956174
000300 74 8d c4 3c 5a 6b 73 bd 60 39 9e 3b 04 69 0f 3c
       0.023993231 -0.05942855 0.004828617 0.008753065
000310 78 4f 32 3c 5b 30 f2 3b 90 da 8b 3d b0 6c a9 ba
       0.010883205 0.0073910183 0.06828797 -0.0012926068
000320 f6 8a 84 be c9 cc 1c be b0 f0 89 bc 04 66 19 be
       -0.2588727 -0.15312494 -0.016838402 -0.14980322
000330 6f 26 95 be 82 c0 4a be 06 bd 8a be eb 56 e3 bc
       -0.29130885 -0.19799998 -0.27097338 -0.027751407
000340 8d 50 1a bd 17 1f 1c 3d 58 53 37 3d 5e db 59 3e
       -0.037674475 0.038115587 0.044757217 0.21275088
000350 df 1b 2e be 62 2e 82 3c 33 aa 04 3e db 74 34 bc
       -0.1700282 0.015891258 0.12955551 -0.011014189
000360 8b 15 82 be 96 ec 1b be 85 19 24 3e 19 03 26 3c
       -0.2540706 -0.15226969 0.1602536 0.0101325745
000370 8b 2b da bd 9c 05 f1 3c 51 41 a4 be a3 4d 45 bd
       -0.106528364 0.02942162 -0.32081082 -0.048169743
000380 13 4a 76 bf cc f6 54 be 17 06 ca be 2a b6 2b 3e
       -0.9620678 -0.2079727 -0.3945777 0.16768709
000390 0d 37 15 be 5e dc 30 be 4b a9 ab 3e 44 33 06 be
       -0.14571781 -0.17271563 0.33527598 -0.13105494
0003a0 76 07 b6 3d b5 21 5f 3e 7c 33 d9 be 0e 2f fe be
       0.08888142 0.21790202 -0.42422092 -0.49645275
0003b0 81 34 80 3e ac 5e 94 3e 58 1a 85 3a bf ad 9a bd
       0.25040057 0.2897848 0.0010154946 -0.07552671
0003c0 0b e9 73 bf 7f cd f8 be 0e 7a 0a be 9a 86 93 3e
       -0.9527747 -0.4859428 -0.13523123 0.2881363
0003d0 5f 55 3b be 77 fd 8e 3d 27 ce fa 3e 34 40 33 3d
       -0.18294285 0.06981938 0.48985407 0.0437624
0003e0 1d cf 8d 3d 11 24 96 3e cb 62 1b bf 19 dc e1 be
       0.06924269 0.2932439 -0.6069762 -0.44113234
0003f0 ef e6 84 3e 84 90 a9 3e 29 40 99 bd 32 cb 81 3e
       0.25957438 0.3311807 -0.07482941 0.25350338

mlp.0.bias f4 [16]
000000 c3 d2 10 be a8 ee 78 bc 81 f2 96 3c 9e 45 3e 3e
       -0.14142899 -0.015193619 0.018426182 0.18581244
000010 b0 16 55 be ef e5 29 be 82 ed 70 be bb 92 82 bd
       -0.20809436 -0.16591619 -0.23528102 -0.06375643
000020 b0 8a ec bd fb 77 5a bc 41 96 97 3d 32 de 7e 3c
       -0.1154989 -0.01333427 0.074017055 0.015555905
000030 a8 0d 24 3f 2e 90 48 be e0 8e 2a 3e a6 10 06 be
       0.6408334 -0.1958625 0.16656065 -0.13092288

mlp.2.weight f4 [1, 16]
000000 25 02 78 3d 95 c8 5e be be 75 78 be b1 76 98 3e
       0.06054892 -0.21756203 -0.24263665 0.29778054
000010 11 0d 98 3e 7c de cc bc 6f 20 eb 3b 05 fe cb 3e
       0.2969747 -0.025008433 0.0071754972 0.3984224
000020 8b ab 8f bf 92 c2 2f be be 8d 8b be f0 9d 88 3e
       -1.1224226 -0.17164066 -0.27256578 0.26682997
000030 97 5f e7 3e aa a4 eb 3b e2 c8 e9 bd 7d f0 a9 3e
       0.45190117 0.0071912603 -0.114152685 0.3319129
