data/CTC/Fluo-N2DH-SIM+/02_RES_GAT/20250718_124539/top2_model_fold3.pth (torch, 11177 bytes, 15 tensors)

gat1.att_src f4 [1, 1, 16]
0	0xbb648196	-0.0034867278
1	0x3ed1533a	0.4088381
2	0x3edd78f7	0.4325635
3	0xbd9d193e	-0.0767083
4	0x3ef63387	0.48086187
5	0xbdb42d58	-0.08797711
6	0xbe654f29	-0.22393478
7	0x3d55f135	0.052231986
8	0x3d66bb4a	0.056330957
9	0xbd5cc6bc	-0.053900465
10	0x3ecc70b6	0.39929742
11	0xbdfe8aea	-0.124288395
12	0x3f02c22a	0.5107752
13	0x3de80239	0.11328549
14	0x3ea9eb4e	0.33187336
15	0xbe49cc33	-0.19706802

gat1.att_dst f4 [1, 1, 16]
0	0x3f60befc	0.8779142
1	0xbeb8f5fe	-0.36125177
2	0xbe269202	-0.16266635
3	0xbe3fe4c2	-0.18739608
4	0xbf4e2b9b	-0.80535287
5	0xbf6cc786	-0.9249195
6	0x3e85138d	0.2599148
7	0x3eecbae6	0.46236342
8	0x3f8d9679	1.1061546
9	0x3eb35b68	0.35030675
10	0xbe6b9f29	-0.23009934
11	0xbe74bbe8	-0.23899806
12	0xbefc51ed	-0.49281254
13	0x3e63b18a	0.22235695
14	0xbf5d7986	-0.86513555
15	0x3edda5c3	0.4329053

gat1.att_edge f4 [1, 1, 16]
0	0xbf1f6adc	-0.6227243
1	0xbeb7efb9	-0.3592508
2	0xbf5fe6de	-0.8746165
3	0xbf777d71	-0.96675783
4	0x3f997b92	1.1990836
5	0xbf84387e	-1.032974
6	0x3f12cc73	0.57343215
7	0x3f4710ad	0.7775982
8	0x3f2bd29c	0.6711824
9	0xbef01cf3	-0.46897087
10	0xbe833f1f	-0.25634095
11	0xbf7e938d	-0.99443895
12	0xbd281829	-0.041038666
13	0x3f857be9	1.0428439
14	0x3f4b8966	0.7950653
15	0xbf469b41	-0.7758065

gat1.bias f4 [16]
0	0x3f1e0bad	0.61736566
1	0x3ecd9e8c	0.40160024
2	0x3f2878ad	0.65809137
3	0xbedf3417	-0.4359443
4	0xbed462a8	-0.4148152
5	0xbf3219ed	-0.6957081
6	0x3ea26ab8	0.31722045
7	0x3e159302	0.1460686
8	0x3e4c6dd3	0.1996377
9	0x3dfd0e8d	0.12356291
10	0x3dead76a	0.11466868
11	0xbe3239b4	-0.17404824
12	0x3ecf7362	0.40517718
13	0xbe3e576b	-0.18588035
14	0x3ee14105	0.43994918
15	0xbf06881a	-0.52551425

gat1.lin.weight f4 [16, 14]
0	0x3efac99c	0.4898194
1	0x3f29c028	0.6630883
2	0xbe9db87c	-0.30804813
3	0xbf0eaf0f	-0.5573587
4	0x3f7a2b58	0.9772239
5	0xbf10b5e8	-0.56527567
6	0x3f999e0b	1.2001356
7	0xbed09414	-0.40737975
8	0x3f865085	1.0493323
9	0x3d80dc04	0.06291965
10	0xbc11bf9f	-0.008895784
11	0xbe4b9398	-0.19880521
12	0xbf091b73	-0.5355751
13	0xbe9413a3	-0.28921232
14	0xbdedebdc	-0.11617252
15	0x3e483c87	0.1955434
16	0xbef778ff	-0.483345
17	0x3f1ad0b7	0.60474724
18	0xbf8426ef	-1.0324382
19	0x3f79e025	0.9760764
20	0xbf0303e8	-0.51177835
21	0x3fa182ff	1.2618102
22	0xbefd8dfc	-0.49522388
23	0xbde99ab4	-0.114064604
24	0x3e2637bd	0.162322
25	0xbeced5e4	-0.4039756
26	0xbf0b6c71	-0.54462343
27	0xbd8d60fb	-0.06903263
28	0xbe0113cb	-0.12605207
29	0xbde806f3	-0.113294505
30	0x3e000d33	0.12505035
31	0xbe89aa92	-0.26887947
32	0xbf3cc9cf	-0.73745435
33	0xbefe29b8	-0.49641204
34	0xbdf3786e	-0.118882045
35	0xbe83b67e	-0.25725168
36	0xbf6af902	-0.91786206
37	0xbdd5da6c	-0.10442051
38	0xbc5effb1	-0.013610766
39	0xbe5e5314	-0.2171138
40	0x3ebfec1d	0.37484828
41	0xbcf1cea0	-0.029517472
42	0xbf2a74f3	-0.665847
43	0xbf3d1114	-0.73854184
44	0x3ed1a2a3	0.40944394
45	0xbd965836	-0.07341044
46	0xbea2abd6	-0.31771725
47	0x3ec04cfa	0.37558728
48	0x3eb7ca5b	0.35896572
49	0x3c985537	0.018595321
50	0xbe6ea664	-0.2330566
51	0xbefb626b	-0.49098524
52	0x3e9c9587	0.3058283
53	0xbd2b7dc4	-0.041867986
54	0x3f4f05a2	0.8086797
55	0x3da3d575	0.07999698
56	0x3ea60efe	0.32433313
57	0xbef20e11	-0.47276357
58	0xbe26cb6b	-0.16288535
59	0xbeb715f4	-0.35758936
60	0xbe9f4487	-0.3110697
61	0xbdb9bbc4	-0.090690166
62	0x3ecd0d26	0.40049094
63	0xbf1809ce	-0.5938996
64	0xbe5a7e0e	-0.21337149
65	0x3ec22e9a	0.3792618
66	0xbebe53d3	-0.37173328
67	0xbdca4d5d	-0.09878037
68	0x3e0d96d5	0.13827069
69	0x3cc7d6db	0.024394443
70	0xbee5995a	-0.4484356
71	0xbf0a1dcc	-0.53951716
72	0xbdcee3b6	-0.10102026
73	0x3c741cfe	0.01489949
74	0x3e36c2ae	0.17847702
75	0x3cccc9a5	0.024998495
76	0xbec85fa2	-0.39135462
77	0x3ec03b12	0.37545067
78	0xbd817a63	-0.063221715
79	0x3dcb9fd1	0.09942592
80	0x3e32b576	0.17452034
81	0xbe17695e	-0.14786288
82	0x3f22c519	0.63582
83	0x3e1a049d	0.15040822
84	0x3d920e71	0.07131661
85	0xbea40121	-0.3203211
86	0xbd96f84f	-0.0737158
87	0x3ee30b2b	0.44344458
88	0x3e4b91c2	0.19879821
89	0x3e9bc012	0.30419976
90	0x3f01d83d	0.5072058
91	0x3f1f51f1	0.6223441
92	0x3f6d5210	0.9270334
93	0x3e53c6c5	0.20681293
94	0x3eb17994	0.3466307
95	0xbec11150	-0.3770852
96	0x3e0c63b4	0.13709909
97	0xbdb06e84	-0.08614829
98	0x3e54dff4	0.20788556
99	0x3f512a61	0.8170529
100	0xbe6e554a	-0.23274723
101	0xbec9167a	-0.3927496
102	0x3f7ec0a7	0.99512714
103	0xbf08d5a7	-0.5345101
104	0x3e976dc4	0.29575932
105	0xbef05425	-0.46939197
106	0x3f0e9794	0.5570004
107	0x3f1c6f74	0.61107564
108	0xbf076346	-0.52885854
109	0xbf3edae1	-0.7455273
110	0xbe9c1021	-0.30481055
111	0x3ea4ad9e	0.3216371
112	0x3ed24933	0.41071472
113	0x3de46745	0.111525096
114	0xbcacacc8	-0.021078482
115	0xbf8d5e27	-1.1044358
116	0x3f1d036a	0.61333334
117	0xbec9ec45	-0.39438072
118	0x3f297bd2	0.6620456
119	0xbefa3024	-0.48864853
120	0x3dbc7f36	0.09203951
121	0xbe360e84	-0.17778975
122	0xbe339964	-0.17538983
123	0xbe07ec8f	-0.13273834
124	0xbeae7222	-0.3407145
125	0xbe2d7c02	-0.16941836
126	0x3debc931	0.115129836
127	0xbdc22bc9	-0.094810076
128	0x3e18c368	0.14918292
129	0xbeedd6e8	-0.46453023
130	0x3ee3a910	0.44464922
131	0xbf451bd2	-0.76995575
132	0x3e5a0d46	0.21294126
133	0xbf2f1513	-0.6839153
134	0x3e2fa694	0.17153388
135	0xbebc1549	-0.3673499
136	0x3e909e86	0.28245944
137	0xbd8a2129	-0.06744606
138	0xbdf9047c	-0.121590585
139	0x3d935e74	0.0719575
140	0xbd8e9c94	-0.06963459
141	0xbf20486c	-0.62610507
142	0x3e5e2de2	0.2169719
143	0xbf03eb61	-0.51531035
144	0x3e7529cb	0.23941724
145	0xbea23bca	-0.3168624
146	0xbedb9739	-0.4288881
147	0xbe0e6f6d	-0.13909693
148	0x3d82dde3	0.06389978
149	0xbc816d26	-0.015799116
150	0xbe88d2fe	-0.26723474
151	0xbc3bd64a	-0.011464665
152	0xbf2b7bcc	-0.66985774
153	0xbe81150a	-0.25211364
154	0x3ee41618	0.44548106
155	0x3e2eb680	0.17061806
156	0xbe0068e1	-0.12540008
157	0xbdd2d287	-0.10294061
158	0x3de2834e	0.11060201
159	0x3f24c8a7	0.6436867
160	0x3ed387ad	0.4131445
161	0x3ee9183c	0.45526302
162	0x3c24e0f5	0.0100634
163	0x3ecdbfa8	0.40185285
164	0xbdd59714	-0.104292065
165	0xbe3d92cc	-0.1851303
166	0xbe91d253	-0.28480777
167	0xbd8e7ac9	-0.06957013
168	0x3d97fdcc	0.07421455
169	0xbf2de2bc	-0.67924094
170	0x3ecc0134	0.39844668
171	0x3ee2839e	0.4424104
172	0xbf7dbdb0	-0.99117565
173	0x3ed60055	0.41797128
174	0xbf340c45	-0.7033122
175	0x3e3d5d00	0.18492508
176	0xbe9c695e	-0.3054914
177	0xbd1bd3be	-0.03804373
178	0x3cf83249	0.030297415
179	0xbe81f2db	-0.25380597
180	0x3eb5d6fc	0.35515583
181	0x3e167b38	0.14695442
182	0x3e838ee9	0.2569497
183	0x3e232432	0.15931776
184	0x3f3f3bfc	0.74700904
185	0xbf10696b	-0.56410855
186	0x3c86dc75	0.016462544
187	0xbe0cc9aa	-0.13748804
188	0x3e97dbe6	0.29659957
189	0x3e685b30	0.22691035
190	0xbe5af752	-0.21383408
191	0x3e40d0b0	0.18829608
192	0xbe9f6f25	-0.31139484
193	0x3ecaafd7	0.3958728
194	0xbeaace4d	-0.3336052
195	0xbea93e77	-0.3305547
196	0x3ef76729	0.48320892
197	0x3e3cad09	0.18425383
198	0xbdeef2a8	-0.11667377
199	0xbf57a8a4	-0.842417
200	0xbf7eaa77	-0.9947886
201	0xbe235e11	-0.15953852
202	0xbf73ed17	-0.95283645
203	0xbf2e3bcf	-0.6806001
204	0xbf55ea9d	-0.83561116
205	0x3e492367	0.19642411
206	0x3c23bfe0	0.009994477
207	0xbe6a1f38	-0.22863472
208	0xbe8d70f3	-0.27625236
209	0x3ce1e071	0.027572842
210	0x3eeb872d	0.46001568
211	0x3e83888f	0.25690123
212	0xbdaccea9	-0.08437855
213	0x3e0a2c8d	0.13493557
214	0x3d6dd7f8	0.058067292
215	0xbcc08731	-0.023501964
216	0xbdd75dea	-0.105159596
217	0x3f303ea2	0.6884557
218	0x3eee195d	0.46503726
219	0x3d06ba3d	0.032892454
220	0x3e4c053f	0.19923876
221	0x3e3f2312	0.18665722
222	0x3dfc4c1d	0.12319205
223	0xbd4569d7	-0.04819664

gat1.lin_edge.weight f4 [16, 2]
0	0x3f27514f	0.6535844
1	0xbf48c6f8	-0.784286
2	0x3e9ff522	0.3124171
3	0xbeb8a6f4	-0.36064875
4	0x3f0e224d	0.5552109
5	0x3e86d7c1	0.26336482
6	0x3f84059f	1.0314215
7	0xbee255d4	-0.44206107
8	0xbf934b4c	-1.1507354
9	0xbe602e85	-0.21892746
10	0x3f8277f2	1.0192854
11	0x3daf9667	0.08573609
12	0xbf1836a4	-0.59458375
13	0x3f9d6605	1.2296759
14	0xbf758e48	-0.9592023
15	0x3eada133	0.33912048
16	0xbf62aebd	-0.8854788
17	0x3f1bc2d1	0.6084414
18	0x3f0a2494	0.53962064
19	0xbf4ccbd2	-0.79998505
20	0x3e14818e	0.14502546
21	0xbf36a265	-0.71341544
22	0x3f3be230	0.7339201
23	0xbdab85d7	-0.08375137
24	0xbde7b375	-0.113135256
25	0xbf0a334e	-0.53984535
26	0xbf9bbeb7	-1.2167577
27	0xbd28a83d	-0.04117607
28	0xbf71625c	-0.9429071
29	0x3f15bd59	0.58492047
30	0x3f62db78	0.8861613
31	0xbf4ae752	-0.79259217

gat2.att_src f4 [1, 1, 16]
0	0xbd2fb6fd	-0.04289912
1	0xbe945678	-0.2897222
2	0xbe328152	-0.17432144
3	0x3e890a1d	0.26765528
4	0xbd71afc7	-0.059005525
5	0xbdf546f0	-0.11976421
6	0xbed1484d	-0.40875474
7	0xbd1ecdb9	-0.03877041
8	0xbe9ab817	-0.30218574
9	0x3f03429b	0.51273507
10	0xbdabc160	-0.08386493
11	0xbe424498	-0.18971479
12	0x3e3a3e72	0.18187883
13	0xbe378d88	-0.17925084
14	0xbe25c502	-0.16188434
15	0x3d80e200	0.06293106

gat2.att_dst f4 [1, 1, 16]
0	0xbed78171	-0.42090943
1	0xbf81bdeb	-1.0136083
2	0x3f3b314c	0.73122096
3	0x3f4d1536	0.8011049
4	0x3e130acc	0.14359587
5	0xbe9982f2	-0.29982716
6	0x3dbbe459	0.09174413
7	0x3f6df756	0.9295553
8	0x3c50ff30	0.012756154
9	0x3f2cbad2	0.67472565
10	0x3e1e5fff	0.15466307
11	0xbeaeac3e	-0.34115785
12	0x3e58dd60	0.21178198
13	0x3e9755ef	0.2955775
14	0x3ef8dcf2	0.48606068
15	0x3f51cb97	0.8195128

gat2.att_edge f4 [1, 1, 16]
0	0x3e80502d	0.2506117
1	0xbf1e8d30	-0.61934185
2	0xbf572067	-0.8403382
3	0xbc6540fe	-0.013992546
4	0x3eea3298	0.45741725
5	0xbec89a55	-0.39180246
6	0xbe91df57	-0.28490707
7	0x3f539a41	0.8265725
8	0xbd8da28b	-0.06915768
9	0x3e5cf650	0.21578336
10	0x3ec943ae	0.39309448
11	0xbcdbf4fa	-0.026850212
12	0xbf3e4c0d	-0.74334794
13	0xbe287f20	-0.16454744
14	0xbe4ccbca	-0.19999614
15	0x3ef00a91	0.46883062

gat2.bias f4 [16]
0	0x3e9b63a3	0.30349454
1	0x3eba4ee4	0.36388314
2	0x3d52cdcd	0.0514658
3	0xbe49aeb9	-0.19695558
4	0x3d076615	0.033056337
5	0xbda0decd	-0.07854996
6	0xbc4259ac	-0.0118622
7	0x3ee74687	0.45170996
8	0x3e3855ec	0.18001527
9	0x3dd3ee00	0.10348129
10	0x3e449bd4	0.19200069
11	0xbca6f1bd	-0.020378942
12	0x3ded5fe4	0.11590555
13	0xbdc7e37f	-0.09760188
14	0x3dc0a741	0.09406901
15	0xbe775890	-0.24154878

gat2.lin.weight f4 [16, 16]
0	0xbe93d56e	-0.2887377
1	0x3e9a7105	0.30164352
2	0x3f8f9e58	1.1220198
3	0xbe18a9c8	-0.14908516
4	0x3ecaa93e	0.39582247
5	0xbf415435	-0.75519115
6	0xbf92b9dc	-1.146297
7	0xbd65f6b2	-0.05614347
8	0x3eebd28c	0.46059072
9	0x3e32903b	0.17437832
10	0x3f7b1f9d	0.98095113
11	0xbef6fc83	-0.48239526
12	0x3e0285ad	0.12746306
13	0xbdfe3a04	-0.12413409
14	0x3f505384	0.81377435
15	0xbedba8f5	-0.4290234
16	0xbed2c426	-0.41165274
17	0x3f5e2d9c	0.86788344
18	0xbdb77463	-0.08957746
19	0xbea0d414	-0.31411803
20	0x3ed785cd	0.4209427
21	0xbf1a44ad	-0.6026104
22	0x3e474159	0.19458522
23	0x3e066361	0.13123848
24	0xbeba3572	-0.363689
25	0xbf37a459	-0.7173515
26	0x3e98c261	0.298358
27	0x3efefb4d	0.49801102
28	0xbe9d674a	-0.30742866
29	0xbe2e0a53	-0.16996126
30	0xbe289b8c	-0.16465586
31	0x3ea5587b	0.32294068
32	0x3d387549	0.045033727
33	0x3f0146c0	0.5049858
34	0x3da3aece	0.07992326
35	0xbe3fb596	-0.18721613
36	0xbdd86222	-0.10565592
37	0x3f15f1f6	0.5857233
38	0x3f2dcb0f	0.6788797
39	0xbeab414e	-0.3344826
40	0x3ed89b9f	0.4230623
41	0xbe95ea43	-0.2928029
42	0xbd9dd32a	-0.07706292
43	0x3eb68431	0.3564773
44	0x3f3832c4	0.7195246
45	0xbed09de3	-0.40745458
46	0xbe0a66d6	-0.13515791
47	0x3d682014	0.056671217
48	0x3f0510d5	0.5197881
49	0xbe10a4c0	-0.14125347
50	0xbe3af0ae	-0.18255875
51	0xbfa15579	-1.2604209
52	0xbed84525	-0.42240253
53	0x3e8b72d4	0.27236044
54	0x3e843223	0.258195
55	0x3e9c63e8	0.30544972
56	0xbe1dd65a	-0.154138
57	0x3e036a6f	0.1283357
58	0xbf35da93	-0.7103664
59	0xbee97817	-0.45599434
60	0xbf8b9aa7	-1.0906571
61	0xbec479ed	-0.38374272
62	0xbf5c6303	-0.8608858
63	0xbe657357	-0.2240728
64	0x3ed1facf	0.41011664
65	0xbf2c7e52	-0.6738025
66	0xbe5369c5	-0.20645817
67	0x3f0ea78f	0.55724424
68	0xbea85fb4	-0.32885516
69	0xbe086665	-0.1332031
70	0xbe216ed9	-0.15764941
71	0x3f09b929	0.53798157
72	0xbc64daaf	-0.013968154
73	0x3f0f24e7	0.55915684
74	0x3d606f34	0.05479355
75	0xbdef2480	-0.11676884
76	0x3ca6b446	0.020349633
77	0xbd0514fd	-0.03249072
78	0xbf59e474	-0.85114217
79	0x3ec9ed19	0.39438704
80	0x3ec27284	0.37977993
81	0xbf3380ae	-0.70118225
82	0xbe3cde3d	-0.18444152
83	0xbf2b51be	-0.66921604
84	0x3d9722d7	0.07379692
85	0xbeb3c627	-0.35112116
86	0xbf8c455e	-1.0958669
87	0x3ea77045	0.32702842
88	0x3e99db98	0.3005035
89	0xbddea753	-0.10871758
90	0xbe223d2a	-0.15843645
91	0xbd1ed264	-0.038774863
92	0xbf15a419	-0.5845352
93	0x3d71f869	0.059074793
94	0xbe86eaa9	-0.26350906
95	0x3f0029a6	0.5006355
96	0xbe98416f	-0.29737422
97	0x3ee0c963	0.43903646
98	0xbdefcc02	-0.11708833
99	0x3f1fbd9e	0.6239871
100	0x3dfcfead	0.12353263
101	0x3f328d1e	0.6974658
102	0xbe8f62c9	-0.28005055
103	0xbe9c9cb1	-0.30588296
104	0xbe8b49ec	-0.27204835
105	0x3e578efa	0.21050635
106	0xbe18cf67	-0.14922868
107	0x3e9cdf95	0.3063933
108	0x3f28908b	0.65845555
109	0x3e31384f	0.17306636
110	0xbe0a7be6	-0.13523826
111	0x3e334e07	0.17510234
112	0x3e085293	0.1331275
113	0xbe4e800b	-0.20166032
114	0x3fa4e26e	1.2881601
115	0xbc0a7e13	-0.00845291
116	0xbdb49fae	-0.08819519
117	0xbe7bd15e	-0.24591586
118	0x3e34543c	0.17610258
119	0xbeaf98b8	-0.34296203
120	0x3ea1d3c9	0.31606892
121	0x3e5a28b4	0.2130459
122	0x3dc99bba	0.098441556
123	0xbef74142	-0.48291975
124	0xbc8c334e	-0.017114308
125	0xbed4aae9	-0.41536644
126	0x3f88b6d2	1.0680792
127	0xbdbaf71e	-0.09129165
128	0x3e9fb0ca	0.31189567
129	0xbe9f6a01	-0.31135562
130	0x3f1d3f38	0.6142459
131	0xbe666dd4	-0.22502834
132	0xbbcbe83a	-0.006222752
133	0xbea17dbc	-0.3154124
134	0xbe037506	-0.1283761
135	0x3f158f47	0.5842175
136	0x3ea3bafe	0.319786
137	0x3f4f8f74	0.8107827
138	0x3ef2556f	0.47330806
139	0xbadd5038	-0.0016884869
140	0xbe066648	-0.13124955
141	0x3e62d2ce	0.22150728
142	0x3e4593f4	0.19294721
143	0x3cfd4882	0.030918363
144	0xbe9062b7	-0.28200313
145	0xbe8209af	-0.25398013
146	0x3ecc88c8	0.39948106
147	0xbf322a6a	-0.6959597
148	0xbedac462	-0.42727953
149	0xbb2c3ffe	-0.002628326
150	0xbf1b4f07	-0.6066746
151	0xbebd0d28	-0.369241
152	0xbe0233f2	-0.12715128
153	0xbf0d1123	-0.55104274
154	0x3d8cfbda	0.068839744
155	0xbe0f4648	-0.13991654
156	0x3e59007c	0.21191591
157	0x3d863c57	0.06554478
158	0x3f3f52da	0.74735796
159	0xbf1bb882	-0.6082841
160	0xbf581ec5	-0.8442195
161	0x3ed84847	0.42242643
162	0x3f970928	1.1799669
163	0xbf3bd6a7	-0.7337441
164	0xbe2380ab	-0.15967052
165	0xbfbdf2a0	-1.4839668
166	0xbf6b53a5	-0.91924506
167	0xbee32e58	-0.44371295
168	0xbe993400	-0.29922485
169	0xbee6d2e3	-0.4508277
170	0x3f59781f	0.84948915
171	0xbb42a904	-0.0029702792
172	0x3f33dff2	0.7026359
173	0x3dfbe340	0.12299204
174	0x3f012c1a	0.5045792
175	0x3df862a4	0.12128189
176	0x3ef3873b	0.4756411
177	0xbf2a4f4a	-0.66527236
178	0xbe5984c0	-0.21242046
179	0xbef63bca	-0.4809249
180	0x3ee6bbb8	0.45065093
181	0xbe8e7bcb	-0.27828822
182	0xbebc8ba2	-0.3682528
183	0x3f09a0f6	0.5376123
184	0x3f1418c7	0.5785031
185	0x3ee6fc9f	0.4511461
186	0x3cda62a4	0.026658364
187	0x3e2afc03	0.16697697
188	0xbf33e976	-0.7027811
189	0x3d1f9e79	0.03896949
190	0xbe94d7c4	-0.29070866
191	0x3ea4c04e	0.32177967
192	0xbe10f91b	-0.14157526
193	0xbe4d835c	-0.20069641
194	0xbe94f7eb	-0.29095396
195	0xbd675eaa	-0.056486763
196	0xbef62174	-0.48072398
197	0x3e61bf6f	0.22045682
198	0xbecb3363	-0.39687642
199	0x3ea30cc5	0.3184568
200	0xbdabe7cc	-0.08393821
201	0x3df1f12d	0.11813579
202	0xbe9e665d	-0.30937472
203	0x3d8f18b3	0.06987133
204	0xbecd3d44	-0.40085804
205	0x3c6c0df8	0.014407627
206	0x3d4c8afc	0.049937233
207	0xbf08df96	-0.53466165
208	0x3e0de80f	0.13858055
209	0xbd8e0c6b	-0.06935962
210	0x3de0b97a	0.10972877
211	0x3d53502f	0.05159014
212	0xbea3155a	-0.31852227
213	0xbeb3866d	-0.35063496
214	0xbea49510	-0.32144976
215	0xbe8d56f3	-0.276054
216	0xbe5b7541	-0.21431448
217	0xbc8d214f	-0.017227797
218	0xbeccbc1b	-0.39987263
219	0xbc92ce50	-0.017920643
220	0xbeb6c361	-0.35695937
221	0xbdc311f7	-0.09524911
222	0x3b87530f	0.0041297744
223	0xbe7d24d5	-0.24721082
224	0xbf057afe	-0.52140796
225	0xbdd85bb5	-0.10564367
226	0x3f0936d8	0.5359931
227	0x3eb0cdf5	0.34532133
228	0xbe49ec81	-0.19719125
229	0x3ee0be2e	0.43895096
230	0x3d94310c	0.072359174
231	0x3e04db91	0.12974383
232	0xbdd50323	-0.10400989
233	0x3d89c123	0.06726291
234	0xbecedb5c	-0.40401733
235	0xbe34d659	-0.17659892
236	0x3f31aa02	0.69400036
237	0x3d47a5c6	0.04874208
238	0xbe0c7887	-0.13717853
239	0x3f5f1cf0	0.8715353
240	0x3f12b780	0.5731125
241	0xbe89dcbc	-0.2692622
242	0xbcf3a9c6	-0.02974404
243	0xbecae5d1	-0.3962846
244	0xbe9bb0fc	-0.30408466
245	0xbdc8df3b	-0.09808203
246	0x3d99616b	0.07489284
247	0xbd8dd09f	-0.06924557
248	0xbe791391	-0.2432387
249	0xbef30e79	-0.4747198
250	0xbe9fc1df	-0.312026
251	0xbdee2abc	-0.11629245
252	0xbd4b0812	-0.049568243
253	0xbe701dda	-0.23448887
254	0xbe9943d6	-0.29934567
255	0x3c776c29	0.015101471

gat2.lin_edge.weight f4 [16, 2]
0	0xbe9431c7	-0.28944227
1	0xbe935284	-0.28773892
2	0xbe846dba	-0.25864965
3	0xbe2dae14	-0.16960937
4	0xbefd9f6b	-0.4953569
5	0xbebca366	-0.36843413
6	0x3df1736e	0.117895946
7	0xbea565e1	-0.3230429
8	0x3ea0fe34	0.31443942
9	0xbe126d60	-0.14299536
10	0xbf514363	-0.8174345
11	0x3ebf7abb	0.37398323
12	0xbf26a85b	-0.6510064
13	0x3f04f1be	0.5193137
14	0x3f377358	0.71660376
15	0xbeecbc18	-0.46237254
16	0xbd045d78	-0.0323157
17	0xbe1e3c48	-0.15452683
18	0x3e4176b0	0.18892932
19	0x3ea27099	0.3172653
20	0x3f548157	0.83009857
21	0xbe399ef7	-0.18127047
22	0xbc63ec42	-0.013911309
23	0xbd8f83c6	-0.07007556
24	0xbf346211	-0.7046214
25	0xbeec2a1b	-0.46125874
26	0xbe8aef4a	-0.27135688
27	0xbd866bfd	-0.06563566
28	0xbe727993	-0.2367919
29	0x3eb1eb94	0.34750044
30	0x3ef64388	0.48098397
31	0x3d361320	0.044451833

mlp.0.weight f4 [16, 32]
0	0x3f1ccb50	0.6124773
1	0xbf62ca41	-0.88589865
2	0xbf2e9e3c	-0.68210196
3	0x3e1c631c	0.15272182
4	0x3e4a5ee9	0.19762768
5	0x3d526a3c	0.051370844
6	0x3e1ce890	0.1532309
7	0x3f353e9a	0.7079865
8	0x3ec85d14	0.39133513
9	0x3f0ab45f	0.54181474
10	0x3f27eebd	0.6559866
11	0x3ea8ea86	0.32991427
12	0x3d8a0f69	0.067412205
13	0x3da4511f	0.08023285
14	0x3e5f1915	0.21786912
15	0x3e1384b3	0.1440609
16	0xbf2c22ca	-0.67240584
17	0x3faab999	1.333789
18	0x3ef8f3d5	0.4862353
19	0xbe307f06	-0.17235956
20	0xbdae778c	-0.085188955
21	0xbea37bb2	-0.3193031
22	0xbd99bec8	-0.07507092
23	0xbf127b49	-0.5721937
24	0xbefc0515	-0.49222627
25	0xbeab7d01	-0.33493808
26	0xbf367242	-0.71268094
27	0xbe46d907	-0.19418727
28	0xbe8dfbe8	-0.27731252
29	0x3c9dc149	0.019257205
30	0xbe70ad5a	-0.23503628
31	0x3e1ca042	0.15295509
32	0x3ea70946	0.32624263
33	0x3f86b9cb	1.052545
34	0x3e938b8f	0.28817412
35	0xbeca65ee	-0.3953089
36	0xbea03fc4	-0.3129865
37	0xbedda98e	-0.43293422
38	0x3de6c976	0.112688944
39	0x3eb5170e	0.35369152
40	0xbef53c08	-0.47897363
41	0x3f0f958c	0.56087565
42	0x3ebc6479	0.36795405
43	0xbefc87d5	-0.49322382
44	0xbdc3a475	-0.09552852
45	0x3e400dc4	0.18755251
46	0xbf24e33a	-0.6440922
47	0xbe0103df	-0.12599133
48	0xbe8dda5f	-0.27705666
49	0xbf7300f5	-0.94923335
50	0xbe9fc823	-0.3120738
51	0x3eca8bbc	0.39559734
52	0x3ed193ef	0.40933177
53	0x3edab91f	0.4271936
54	0x3afadf10	0.0019139964
55	0xbea81f51	-0.32836393
56	0x3eeef850	0.46673822
57	0xbecfbc12	-0.40573174
58	0xbf0b4c44	-0.5441325
59	0x3ee36861	0.44415572
60	0x3dcdbb34	0.10045472
61	0xbe8623e5	-0.2619926
62	0x3f26c281	0.6514054
63	0x3e52b931	0.20578457
64	0xbeedec8c	-0.46469533
65	0xbf77384f	-0.96570295
66	0x3dc9a9c7	0.098468356
67	0x3e343f16	0.1760219
68	0x3e0c8577	0.13722788
69	0xbdff5391	-0.12467111
70	0x3ea566f7	0.32305118
71	0x3e924bb3	0.2857338
72	0x3f47fc71	0.7811957
73	0xbed3cddf	-0.41368005
74	0x3ec78fde	0.3897695
75	0xbbd5f84f	-0.006529845
76	0xbe4dbc92	-0.20091465
77	0xbdbb2492	-0.091378346
78	0x3ece4db2	0.40293652
79	0xbdac3400	-0.08408356
80	0xbeb28997	-0.34870598
81	0xbf56d4a1	-0.83918196
82	0x3dadabfb	0.08480068
83	0xbd05de7a	-0.032682873
84	0x3ea00208	0.3125155
85	0xbd9e4011	-0.077270634
86	0x3e492370	0.19642425
87	0xbe39c360	-0.18140936
88	0x3f26f964	0.6522429
89	0xbf174836	-0.5909456
90	0x3ebd7bff	0.37008664
91	0xbce0dc95	-0.027448932
92	0xbdd7fa47	-0.105457835
93	0xbed220b4	-0.41040576
94	0x3e51d340	0.20490742
95	0xbea47076	-0.3211705
96	0x3c374d6d	0.011187893
97	0x3d6951bf	0.056962725
98	0xbdd488a3	-0.10377624
99	0xbdae68bb	-0.085160695
100	0x3a8a0c00	0.0010532141
101	0xbe38c7f5	-0.18045028
102	0x3c7afd9a	0.015319252
103	0xbd5b03c2	-0.05347038
104	0xbe29fc99	-0.16600265
105	0xbae75c80	-0.0017651469
106	0xbd819b8e	-0.06328498
107	0x3dc10d86	0.094264075
108	0xbd1e43bc	-0.038638815
109	0x3da77152	0.08175911
110	0xbe24f3f9	-0.16108693
111	0x3c15ca20	0.009142429
112	0xbe270ed6	-0.16314253
113	0x3d8eaf39	0.06967015
114	0xbddcb3f3	-0.1077651
115	0x3dab07d2	0.08351101
116	0x3bb83640	0.0056217015
117	0xbcb57056	-0.022148293
118	0xbe2d6e82	-0.16936687
119	0x3d9f18ae	0.07768379
120	0xbcb9b478	-0.022669062
121	0x3dc7c146	0.09753661
122	0xbdd0242a	-0.10163148
123	0xbdf41191	-0.11917413
124	0xbe1c0fa6	-0.15240344
125	0x3decfefe	0.115720734
126	0xbe20bcee	-0.15697071
127	0x3d135bc4	0.035976186
128	0xbeadcb2f	-0.3394408
129	0xbf88d2be	-1.0689313
130	0xbea73cc3	-0.32663545
131	0xbc04cc1e	-0.008105306
132	0x3ea1a860	0.31573772
133	0xbbbed602	-0.0058238516
134	0x3e351d49	0.17686953
135	0xbec45f1c	-0.38353813
136	0x3ec07725	0.375909
137	0xbf2b644a	-0.66949904
138	0xbf262dd0	-0.64913654
139	0x3db7197d	0.089404084
140	0xbdf2759c	-0.118388385
141	0xbda95ee0	-0.08270049
142	0x3e8cb393	0.27480754
143	0xbdc26f34	-0.094938666
144	0xbe98f291	-0.29872563
145	0x3e6cf4b7	0.23140226
146	0x3e9a4248	0.30128694
147	0xbe9b5946	-0.30341548
148	0x3c420bea	0.011843661
149	0xbe0da740	-0.13833332
150	0x3eff4213	0.49855098
151	0x3e5c93b7	0.21540724
152	0x3e74d939	0.23910989
153	0xbed92645	-0.4241201
154	0x3edc527f	0.4303169
155	0xbdab8198	-0.083743274
156	0xbdf388dc	-0.11891338
157	0xbd29555e	-0.041341178
158	0x3ed133e0	0.4085989
159	0xbdf092b7	-0.11746734
160	0xbf254a40	-0.6456642
161	0x3eaf084b	0.34186015
162	0x3d7f41e0	0.062318683
163	0x3dec3d07	0.115350775
164	0x3efd7ce5	0.4950935
165	0x3e6e53cc	0.23274153
166	0xbefec3ff	-0.49758908
167	0x3defa078	0.11700529
168	0x3e3942df	0.18091916
169	0xbdc633fc	-0.09677884
170	0xbf465a78	-0.77481794
171	0x3da4c497	0.08045309
172	0xbe10eb41	-0.14152242
173	0xbe0ec3cd	-0.1394188
174	0xbf296dac	-0.6618297
175	0x3e4948d3	0.19656686
176	0xbe5dbf1e	-0.21654937
177	0xbd67a788	-0.056556255
178	0xbe777066	-0.2416397
179	0x3e68f286	0.22748765
180	0x3e830aee	0.25594276
181	0x3e14130e	0.14460394
182	0xbf5542f6	-0.833053
183	0xbc49eeb8	-0.012324981
184	0x3eea15ee	0.45719856
185	0xbcb0e01b	-0.021591237
186	0xbd8dcbe4	-0.06923655
187	0x3e8ac9b5	0.27107015
188	0xbd491244	-0.049089685
189	0xbd82ee61	-0.063931234
190	0xbf94c397	-1.1622189
191	0xbd548c6b	-0.051891726
192	0xbf3155de	-0.6927165
193	0xbea62bf6	-0.32455415
194	0x3e495b76	0.19663796
195	0x3eb4a6cf	0.35283515
196	0x3e9b234e	0.30300373
197	0x3ea71d2f	0.32639453
198	0x3ea8f7a8	0.33001447
199	0xbf4b46c0	-0.7940483
200	0x3e402559	0.18764247
201	0xbf0185d5	-0.50594836
202	0xbf4b7d89	-0.79488426
203	0x3eca91dd	0.3956441
204	0xbd613c49	-0.054989133
205	0x3d37aad4	0.04484065
206	0x3f227d2c	0.6347225
207	0x3f053dd7	0.52047485
208	0x3f19141c	0.5979631
209	0x3e4edd8c	0.20201701
210	0xbdfbb139	-0.12289662
211	0xbebf3432	-0.3734451
212	0xbe8f0f13	-0.27941188
213	0xbeae7e9d	-0.34080973
214	0x3d021801	0.031761173
215	0x3f71a354	0.94389844
216	0xbe918e2f	-0.2842879
217	0x3f18380d	0.59460527
218	0x3f4022f1	0.75053316
219	0xbea2026a	-0.31642467
220	0x3e557462	0.20845178
221	0xbc2dae44	-0.01060063
222	0xbed01299	-0.4063919
223	0xbec40d84	-0.38291562
224	0xbe11cf04	-0.14239126
225	0xbdff3863	-0.12461927
226	0xbe8c15af	-0.27360293
227	0x3d022110	0.031769812
228	0xbd4b5362	-0.049640067
229	0x3c9069a8	0.017628506
230	0x3b8f6d8d	0.004377073
231	0x3da8b7de	0.08238195
232	0xbe26074d	-0.16213723
233	0xbe7cdaca	-0.24692836
234	0xbd8d98e7	-0.069139294
235	0x3dde295a	0.10847731
236	0xbdcf94c4	-0.10135797
237	0xbdc0bab5	-0.094106115
238	0xbe2132b6	-0.15742001
239	0xbe4334ea	-0.19063154
240	0xbdfcff96	-0.12353437
241	0x3e0a912b	0.1353194
242	0xbdbbc007	-0.09167486
243	0xbd90546b	-0.070473514
244	0xbdd7978a	-0.10526951
245	0x3cdce460	0.026964366
246	0xbc8ade91	-0.016951831
247	0xbd8b9596	-0.06815641
248	0xbdb5c9f8	-0.08876413
249	0xbd7c1ee3	-0.061552893
250	0x3dc38632	0.0954708
251	0x3d7bd7c8	0.061485082
252	0x3c859724	0.016307421
253	0xbdb56b8c	-0.088584036
254	0xbe24cd00	-0.16093826
255	0x3dce90f3	0.100862406

mlp.0.bias f4 [16]
0	0xbe891a4e	-0.2677788
1	0xbde4a8e1	-0.111650236
2	0xbe30a60f	-0.17250846
3	0xbe3c80f2	-0.18408564
4	0xbe8956b0	-0.2682395
5	0x3e0d15a2	0.13777784
6	0xbe000e0c	-0.12505358
7	0xbe3bbbe2	-0.1833339
8	0xbd85a796	-0.06526105
9	0x3e12c75a	0.14333859
10	0xbbae81c0	-0.005325526
11	0xbe523d86	-0.20531282
12	0xbe285f18	-0.16442525
13	0xbe63a0c6	-0.22229299
14	0x3e4a5162	0.19757608
15	0x3e38cf14	0.18047744

mlp.2.weight f4 [1, 16]
0	0xbfa2a9c9	-1.2708064
1	0xbf7365b5	-0.9507707
2	0x3e974886	0.29547518
3	0xbd47726b	-0.0486931
4	0x3e8b70ed	0.27234593
5	0xbe9db587	-0.30802557
6	0xbf5c3263	-0.86014384
7	0xbd858a56	-0.06520526
8	0x3ecca3ce	0.39968723
9	0x3d577f4a	0.052611627
10	0x3ecdd3c1	0.40200618
11	0x3edf074f	0.43560264
12	0x3ea7e31b	0.32790455
13	0xbd66f343	-0.056384336
14	0xbe2e11c9	-0.16998972
15	0xbecf0d5e	-0.40439886
