data/CTC/Fluo-N2DH-SIM+/02_RES_GAT/20250714_204636/manual_fold_5_best_model.pth (torch, 11177 bytes, 15 tensors)

gat1.att_src f4 [1, 1, 16]
00000000: a77d dd3d 5b5e e93e fb7e 61bd cfb2 8ebd
00000010: 4123 cdbe 4446 a1bd 066b 31bc 0316 4cbe
00000020: c6e7 fe3e cb89 753e 9d60 89be 5a6a a43e
00000030: 8d60 063e 880f 033c f868 16be dbb2 04be
0.10814982 0.455798 -0.05505274 -0.06967699 -0.4006596 -0.0787473 -0.010828739 -0.19930272
0.49786204 0.23978345 -0.26831523 0.3211239 0.13122769 0.007999308 -0.1468848 -0.12958853

gat1.att_dst f4 [1, 1, 16]
00000000: c5ba f03d d3a0 0ebf e285 7f3e a1df e3bd
00000010: 11ba b23e 747c 053f bb7b 713e 6dd0 0fbe
00000020: 659e e43e cbc5 85be ffbf 843e 61d2 dabe
00000030: 397d 233f 9e2c 4c3e db63 54be 48cf d13e
0.117543735 -0.5571415 0.24953416 -0.11126638 0.34907582 0.52143025 0.23582356 -0.14044352
0.44652095 -0.26127467 0.2592773 -0.4273863 0.6386295 0.19938895 -0.20741217 0.40978456

gat1.att_edge f4 [1, 1, 16]
00000000: f28e 303e 3b87 753e a132 d7be b4c4 df3e
00000010: 85d8 883e 77a3 113d 62e7 8e3e 8bc9 cebe
00000020: aedd d5be aaa4 ed3d 3be1 bf3e 4897 16bf
00000030: 89a8 50be a7e9 ad3e 2f7c b13e 71ad 94bd
0.1724203 0.23977368 -0.42030814 0.4370476 0.2672769 0.035556283 0.27910906 -0.4038814
-0.4177069 0.11603673 0.37476525 -0.58824587 -0.20376791 0.33967325 0.34665057 -0.07259644

gat1.bias f4 [16]
00000000: 4f0a f0bb 3185 10be 1360 cabc 2850 b0bc
00000010: e5fa c63d 68d1 45be 872b a2bd fe4a 7fbe
00000020: ac06 1f3e bacf 10be d52e 56bc d3ee bbbc
00000030: c486 403c 270f a23c a813 8c3d b4bf 853d
-0.0073254476 -0.14113308 -0.024704015 -0.021522596 0.09715823 -0.19318163 -0.079184584 -0.24930951
0.15529889 -0.14141741 -0.013072689 -0.022941029 0.011750881 0.019782616 0.06839687 0.06530705

gat1.lin.weight f4 [16, 14]
00000000: 1261 b73d 76a0 803d 624c bb3e f699 b0bd
00000010: b7c4 c53d 2592 39bc 3288 bdbe 17e6 5c3e
00000020: 5899 aebc b1f6 b1be 7a33 c93e 2be9 f2be
00000030: 207d f8bd e158 ae3e 2e7e c8be 5a65 513e
00000040: a94a 963c c65a b13e aa0b bdbe b0cf edbe
00000050: 575d b8bd b9e9 96be 11b7 0ebe 2119 84bd
00000060: 3e9e e83e 2c4b 1cbc 5083 713e 08ea a9be
00000070: c647 4dbe 65b6 24be 0876 403e 756a 3c3e
00000080: a933 a53e 7ac6 873e 8181 11be 7b81 c63e
00000090: b78f 9d3d df29 cc3e 9277 9dbe 1ec8 84be
000000a0: c47c e2be 081b c8be 88ae 11bf c1f2 25be
000000b0: 1b63 cbbe fdbb 6d3e d8d7 773e a962 8b3e
000000c0: 8742 963d 697e 21bd 1c3a cdbc b1ca ddba
000000d0: 3463 b0be 9868 423e 7607 e33b 6193 afbd
000000e0: 9984 503e e24d ee3e 0dec 283e f858 b03e
000000f0: e969 a4be 8ecb 24be d77a 6cbe 6172 21be
00000100: fb2e 82be b30f 11be 13b2 86bd 5a29 08be
00000110: d97a 2c3e 4ae0 9dbe ec2a a23e 7d1f 51be
00000120: 6c25 c63d e772 003e ed25 4b3d 9773 1bbe
00000130: 4699 e53d b66f 033f b990 87be 4a5f babe
00000140: e1e2 8c3e 73d7 10be 5dc7 bfbd cdaa c3be
00000150: a6e1 b33e d201 083c d80c 4b3e 8822 2fbe
00000160: fda3 45be e8ba 463d 9c98 9c3d d267 18be
00000170: 9003 4a3e 9c8f a4be caa5 e23d c303 aa3e
00000180: ab23 ea3e 3242 febe e462 54be 0977 97bd
00000190: 9a64 b43e 72e1 5e3d 26b6 9d3d 0fcd 84bd
000001a0: b2a9 bdbe 3856 88bc b772 9fbe a4c8 b53e
000001b0: c639 64bd 297b 5b3e c5c2 30bd 85b5 b33e
000001c0: 6e0a 063f de91 e83e 3d48 1c3c 4608 96be
000001d0: 3b73 42bd a043 67bd 3a12 9c3e 1c2a dbbe
000001e0: b9fb 1e3e 5f10 88be b38d 87be 9ed9 733e
000001f0: 463d 67be d51d ab3e 448f aa3e 0d93 f2be
00000200: 0b4d 38be 6b40 66bd 616e 91be d5a7 38be
00000210: 30c2 073e 276d 343e 9dc3 b63e d7fd 97be
00000220: 5241 1a3e 9ad0 efbe 6e96 8b3e 7626 e1be
00000230: 9452 32be 5f01 24bf 0a48 433e 1446 3ebe
00000240: 45df 123e c6b1 813c ca72 053f 437a ef3e
00000250: 85fd bbbd d0bf 03b8 3f19 4abe 3a16 743d
00000260: 7e14 0d3e 0204 d6bb a57a 423e fa32 c73e
00000270: 9d14 a03e e502 debd 23cc 6e3c 6d1a a8bc
00000280: 4481 3abe 939b 8b3e 3e16 043d eaec e33d
00000290: 66c9 5abc 902b 9c3e b33c bfbd 50e7 fb3d
000002a0: 9d8b a73e 4141 db3e e920 823d 493a 2f3e
000002b0: d394 25be 2a8c 883e d82f cdbe ab8a 89be
000002c0: 4902 df3d 03fe f0bc 9801 e43e 6443 8cbe
000002d0: 48d5 de3e 9e00 833e b144 f7be cae5 633e
000002e0: 32a5 dd3d c25b d73e 4148 c4bd 82bb ea3d
000002f0: 31e9 093f f721 a8be 1565 873e 80bb 843e
00000300: a1f9 dd3e 121c 9dbe 26b8 263e 352a 7d3d
00000310: 59a3 993d 8475 fe3d b693 c0be bf7a 01be
00000320: b761 46be 48ad bf3e 3d3e f6bd a256 a33e
00000330: c3bf 5f3e ecc0 a83e a502 883d 18e0 a9bc
00000340: cc42 783d 13e6 2f3e c41e afbd 922b be3e
00000350: c86d 6ebe 6c77 e73d 3cb2 e53d 9e75 9c3e
00000360: e02d e93d 9cdd 0e3f 2435 2a3e 506d bd3e
00000370: c195 18be 9d30 0d3e 4d52 953e 6f9b 473d
0.089540616 0.062806055 0.36581713 -0.08623116 0.09656661 -0.0113263475 -0.3701797 0.21572147
-0.021313354 -0.34758523 0.39297086 -0.47443518 -0.12133241 0.34052184 -0.39158767 0.20448819
0.018346148 0.34639567 -0.3692296 -0.46447515 -0.09002178 -0.2947519 -0.13937022 -0.064501055
0.4543323 -0.009539407 0.23585248 -0.33186364 -0.2004691 -0.16085203 0.18795025 0.18399985
0.32265976 0.26518613 -0.14209558 0.3877066 0.07693427 0.39875695 -0.30755287 -0.25933927
-0.44235814 -0.39083123 -0.5690694 -0.16205885 -0.3972405 0.23216243 0.24203432 0.2722371
0.07336908 -0.039427195 -0.025052123 -0.0016921369 -0.34450686 0.18985212 0.0069283796 -0.08573032
0.20363082 0.46543795 0.16496296 0.34442878 -0.32112053 -0.16093275 -0.23093735 -0.15766288
-0.25426468 -0.14166145 -0.06576934 -0.13297024 0.16843738 -0.3083518 0.31673372 -0.20422168
0.096751064 0.12543832 0.049596716 -0.15180813 0.11210875 0.5134233 -0.26477602 -0.36400825
0.27516845 -0.14144687 -0.093641974 -0.38216248 0.35133094 0.008301215 0.19829118 -0.17103016
-0.19300838 0.04851809 0.076462954 -0.14883354 0.19727921 -0.32140815 0.11066778 0.33205995
0.45730338 -0.49659878 -0.20740849 -0.07395751 0.35233003 0.05441422 0.07700758 -0.06484424
-0.3704353 -0.016642675 -0.31142208 0.3550464 -0.05571916 0.214337 -0.043154497 0.35099426
0.52359664 0.45423788 0.009538707 -0.29303187 -0.047473174 -0.056460977 0.30482656 -0.42805564
0.15525712 -0.2657499 -0.26475295 0.23813483 -0.22581968 0.33421198 0.33312428 -0.47377816
-0.1799814 -0.056213778 -0.28404525 -0.18032773 0.1325767 0.17619763 0.35696116 -0.29685852
0.1506398 -0.46838838 0.27263206 -0.43974656 -0.17414314 -0.6406459 0.1907045 -0.1858142
0.14342983 0.01583184 0.5212828 0.46772966 -0.091792144 -3.1411473e-05 -0.19736193 0.05959151
0.13777348 -0.0065312395 0.18992098 0.3890608 0.31265727 -0.10840396 0.014575037 -0.020520413
-0.18213373 0.2726713 0.032247774 0.11129172 -0.013353681 0.30501986 -0.09337749 0.12299979
0.32723704 0.42823222 0.06353933 0.17112078 -0.16170053 0.26669437 -0.40075564 -0.26863608
0.10889108 -0.029417997 0.44532466 -0.27395165 0.43522096 0.25586408 -0.48294595 0.22255626
0.10822524 0.42062193 -0.09584094 0.114615455 0.53871447 -0.32838413 0.26444307 0.259243
0.43354514 -0.30685478 0.16281185 0.06180783 0.07501859 0.12424758 -0.37612695 -0.1264448
-0.19373213 0.3743689 -0.1202359 0.31902033 0.21850495 0.32959688 0.066411294 -0.020736739
0.060610577 0.1717761 -0.0855079 0.37142617 -0.23284066 0.11302075 0.11215636 0.30558485
0.11385703 0.558069 0.16621834 0.3699746 -0.14900877 0.13788076 0.29164353 0.048732217

gat1.lin_edge.weight f4 [16, 2]
00000000: c8d6 363e e9c0 a73b 979e b33d 806b 97be
00000010: f1aa d13e 70ec f8be b64d 043e 02ab 543e
00000020: 8d94 90be 16cd 0b3f 6035 0d3e 0e66 fcbe
00000030: 9c74 d13d 00a6 193f ce7c 793d 10bc 14bf
00000040: 827a ee3b 3079 9dbe 789f 11bf 884a 993e
00000050: 1293 73be 8e44 203e 8e35 a33e 17aa 1fbe
00000060: 707b 3a3e e152 bfbe a15f efbd 8cdf 193f
00000070: 161e 7fbe adfb ca3e aae6 88be a2ac 573e
0.1785537 0.005119432 0.08770483 -0.29574203 0.4095073 -0.48617887 0.1292027 0.2076836
-0.28238335 0.5460981 0.13789892 -0.49296612 0.102273196 0.6001892 0.06091004 -0.5809946
0.0072777877 -0.3075652 -0.56883955 0.29939675 -0.23786572 0.15651152 0.31876796 -0.15592228
0.1821115 -0.3736792 -0.11688162 0.6010673 -0.2491382 0.39645138 -0.26738483 0.21061948

gat2.att_src f4 [1, 1, 16]
00000000: beef 993d 840c e83d 6529 fbbe 81c3 d9be
00000010: 06b6 1dbe 2a87 d23b 9948 8bbe 5fc6 053e
00000020: 8d5b d03e 9cda 783e bccc bdbe 0e89 973d
00000030: cef6 e8be 25a1 e6be ee9e 2e3d ccd2 033d
0.0751643 0.11330512 -0.4905502 -0.4253197 -0.15401468 0.006424804 -0.27203825 0.13063954
0.40694848 0.24302143 -0.37070262 0.07399188 -0.45500797 -0.4504482 0.042632036 0.032183453

gat2.att_dst f4 [1, 1, 16]
00000000: 21c2 cb3c 1c94 eabd 6a86 033f dc62 0fbf
00000010: 96c7 df3e 1b34 253e beb1 d13d 86e2 003f
00000020: 661f efbe 646a 813e c9f6 fd3e ddc1 fdbe
00000030: e060 7cbe e2ea a6be 0150 063f 28b9 cfbd
0.024872841 -0.11454031 0.51376975 -0.5601022 0.4370696 0.16133158 0.1023898 0.5034565
-0.46703643 0.25276482 0.49602345 -0.49561968 -0.2464633 -0.32601076 0.52465826 -0.101427376

gat2.att_edge f4 [1, 1, 16]
00000000: d81f c63e 3614 bb3e 827c 43be 5a2d eebc
00000010: fffe 8f3e 10d6 0fbe b387 dbbe 2b03 263f
00000020: e783 ac3e e8ab a0be c41d 86be a423 933e
00000030: 4c64 efbe 4daf 0dbd 0f3f fabe 3f26 843c
0.3869617 0.36538857 -0.19090465 -0.02907436 0.28124234 -0.14046502 -0.42876968 0.64848584
0.33694384 -0.31381154 -0.26194584 0.2873813 -0.46756208 -0.034591008 -0.48876235 0.016131518

gat2.bias f4 [16]
00000000: a676 2a3d eae1 d3bc 6029 c9bd d365 203d
00000010: 244b 58bd cf0c 2dbd e774 95bd 3514 9fbb
00000020: ada9 f5bc 9a48 2ebd f489 03bc d015 7abd
00000030: a151 eebc 9f8c d439 159f e23d 8790 3abd
0.04161706 -0.02586456 -0.09822345 0.039159607 -0.052806035 -0.042248543 -0.07297688 -0.004854704
-0.029988134 -0.042549707 -0.008028496 -0.06105596 -0.029091658 0.00040540562 0.11065499 -0.04554799

gat2.lin.weight f4 [16, 16]
00000000: 1d55 c3be 693c 35be 723a 9d3c 50d9 913d
00000010: ca4a 453e ed9f 6c3d 71e2 19be e7d4 7f3e
00000020: 9eb4 e43e ca74 01ba 01bf c5be 221f c63d
00000030: 3068 0f3e 8644 04be e493 9f3e 5557 81be
00000040: c1a1 413e 7424 d3bd eec5 633e 7982 dbbe
00000050: a03d a53e e081 48be 079f 5a3e 6a60 193c
00000060: f241 d5bd f3a3 16be ce14 763e d1f0 b83e
00000070: 46d1 d53e 7ac7 b3be 7204 1f3e 800b 793e
00000080: 642b 893d c315 0abf 8433 d33c 5bcf 5bbd
00000090: 5c05 dabe 92be ab3d f440 2b3e 56b7 593e
000000a0: beb8 4ebd d1cf b1bc fafc dcbe bf11 dfbd
000000b0: 44cf 54be a7b1 4d3e ef3e 7a3d 1bd1 9cbc
000000c0: 9ba9 3b3d f04a aabe 2229 9abe 7faf a03e
000000d0: f76c fc3d ec54 57be a48a f23d d36d 54be
000000e0: e637 1d3e 5f59 f0bc f4cd 90bd 4a72 d23e
000000f0: be38 55b8 d451 0cbf 97ec 2f3e b4a1 81be
00000100: 16f8 f63d 1050 643e 89e2 06be 770e 7c3e
00000110: fcec ac3e ad16 0d3e 9e06 e7be 69c2 94be
00000120: 4ea3 e9bd 61e5 733e ae15 cebe 5351 613e
00000130: b85b e0bd 57c8 7dbd eba4 cd3d 4c12 2cbd
00000140: b6b9 7a3d ef7c 293e 043a fa3e 5180 0a3e
00000150: 192f 99be a1ec 073f 55cb efbe 8cf9 7abe
00000160: 341b 953e 50ea 3cbe 8c6a 043d a4b1 b4bd
00000170: 9651 e33c 69ec e33e bc4c 00bf 9e6d 0cbf
00000180: 52f2 e3be 7486 eabe 8a06 96b9 04dd 5e3e
00000190: c8dd 443e ca45 6e3e ddb6 de3d 2c6a febd
000001a0: 8c2c 81bd 0cfa 02be 0211 e6be ac30 98be
000001b0: 1fb5 afbc 7578 2fbe 3c6b d13d 8af9 d33c
000001c0: b157 70be bb2f e13e 97df ffbd 3037 fc3d
000001d0: 22b0 86be fcc3 36be cb75 23bd 5296 cd3e
000001e0: 141a 45be 43c1 9b3d 5c73 e63e a455 85be
000001f0: 08b0 003e a20e ccbc 4ccd 00be 753a 543d
00000200: 7159 fbbc d548 953e b0dc a63e c1f1 893c
00000210: 47bd b0be 004c cabd aab9 593e b83d 413e
00000220: e54e 99be ace8 223e 46fe b93e ea92 a8bb
00000230: 8bb4 863e 43d9 ae3c 89ae a13c eac8 d6be
00000240: f98e 7dbe a633 2f3d bf49 aa3c b965 583e
00000250: 1d41 06bf ffad c1be 4cc9 0dbf 9873 c93e
00000260: 26bc 1b3e 54b4 e1be c8e2 773e 91e7 aabe
00000270: aabb f7be 3d01 423c 0eec f9be a8b5 9cbe
00000280: 05a4 113e 0bcf c7be b9e4 26bd a2f4 503e
00000290: bb31 9bbe 017b df3d c0da 35be 1c7a 5d3e
000002a0: 4e36 233e 9d37 6c3e f8cc 693e eecb 773e
000002b0: 5dd3 94be f070 8fbd 9975 b03d 5d1f 233d
000002c0: 3a7a 193e 2380 90bd a32e dc3e 099d c3bc
000002d0: 104e db3e fbc1 4cbe caf6 80be 06ec bf3c
000002e0: 2149 0fbe 5937 7f3e 89ec af3e 619c c83e
000002f0: 03fc 983d dc52 0bbc c916 c6be 4a7f cdbe
00000300: 34ed bc3c 35d2 09be c0ea fc3e b623 35be
00000310: a7c7 103e 3fc1 a23e d292 99be 6d21 993e
00000320: 72b3 fbbd 3c27 5ebd 7aad 70be ab8c bbbd
00000330: fd2d 89be 1a2e 383e 89de 9ebe 5b64 5c3e
00000340: fd71 a63d e51a 9b3e 6c45 413e df9a e0bc
00000350: c5d1 993e 977c 6bbd bbe7 823e 6957 723e
00000360: de85 da3e 450c d63e 189e 863e 385b b0be
00000370: b75a b53e bc75 443e c24f aa3e 35b4 81be
00000380: 12bb fabd da49 ccbd 1f35 eabe 0799 33be
00000390: 7228 093e 4ea0 943e aea0 833d 61e2 47be
000003a0: e7fd f0be c50a 93bd e94c ecbd 9acf 1c3e
000003b0: 47b0 94be 1591 c9be cd0d 313e 305a 15bc
000003c0: e637 c9be 0c58 0fbe b18c 853e 4d1e 013f
000003d0: ddbe 2e3d 8f27 743e bf0d 803e 9ca7 443e
000003e0: 6595 44be 8943 b13d 7848 d63e d3aa e0be
000003f0: aaa5 a4be ffdd 9f3e c548 e83e 40e0 93be
-0.38150874 -0.17698826 0.019192908 0.07121527 0.19266811 0.057769705 -0.15027787 0.2498356
0.4466905 -0.00049383624 -0.38622287 0.09673907 0.14004588 -0.12916765 0.3116752 -0.25261942
0.1890936 -0.10309687 0.22243473 -0.4287298 0.3227358 -0.19580793 0.21349727 0.009361366
-0.10412969 -0.14710979 0.24031374 0.36121228 0.41761225 -0.35113126 0.1552904 0.24320793
0.06697729 -0.53939456 0.0257814 -0.053664546 -0.42582214 0.08385958 0.16723996 0.21261343
-0.050469153 -0.02170554 -0.43161756 -0.10892057 -0.2078219 0.200873 0.061095174 -0.019142678
0.045816045 -0.33260298 -0.30109507 0.31383893 0.12325471 -0.21028489 0.1184285 -0.2074502
0.15353355 -0.02933949 -0.070705324 0.4110282 -5.0836003e-05 -0.5481236 0.17180096 -0.25318682
0.120590374 0.22296166 -0.13172354 0.24614893 0.33774555 0.13778181 -0.45122236 -0.29054573
-0.11408101 0.2381797 -0.40250915 0.22003679 -0.10954994 -0.061958637 0.10041221 -0.042009637
0.061212264 0.16551565 0.48872387 0.13525511 -0.29918745 0.5309544 -0.46834818 -0.24509257
0.29122317 -0.18448758 0.032328174 -0.08822945 0.027748864 0.44516304 -0.5011709 -0.5485476
-0.44520813 -0.45805705 -0.00028615101 0.21763998 0.19225228 0.2326881 0.10874722 -0.124225944
-0.06307325 -0.12790698 -0.4493485 -0.29724634 -0.02144867 -0.17135794 0.102255315 0.025875825
-0.23470952 0.43981728 -0.12493818 0.12315214 -0.26306254 -0.178482 -0.039907258 0.40153748
-0.1924823 0.07605221 0.45009887 -0.260419 0.1256715 -0.024909321 -0.12578315 0.05181356
-0.030682297 0.2915713 0.32590246 0.01683891 -0.34519407 -0.09877777 0.21262231 0.188712
-0.29943004 0.1590907 0.36326808 -0.0051444666 0.26309618 0.021343833 0.019736545 -0.4195016
-0.24761571 0.042773865 0.020787118 0.21132554 -0.52443105 -0.3782806 -0.5538528 0.39346004
0.15208492 -0.44082892 0.24207604 -0.33379796 -0.48385364 0.011841116 -0.48812908 -0.30607343
0.14222725 -0.3902515 -0.04074547 0.2040582 -0.3031138 0.10912133 -0.17759228 0.21628612
0.15938684 0.2306809 0.22832096 0.24198887 -0.29067507 -0.07003963 0.0861618 0.039824832
0.14988032 -0.0705569 0.4300433 -0.023878591 0.42832994 -0.19995873 -0.25188285 0.023427974
-0.1399274 0.24923457 0.3436015 0.39181808 0.074699424 -0.008503642 -0.3868926 -0.40136176
0.023062326 -0.13459094 0.4939785 -0.17689404 0.14138661 0.3178806 -0.29994828 0.29908314
-0.12290086 -0.054236636 -0.23503676 -0.0915769 -0.267929 0.17986336 -0.31029156 0.21522658
0.0812721 0.30293956 0.18874139 -0.027417598 0.30042854 -0.057491865 0.2556742 0.23666157
0.42680258 0.41806236 0.2629249 -0.34444594 0.35420772 0.19185537 0.33263975 -0.253328
-0.12242712 -0.099750236 -0.45743653 -0.17538844 0.13394335 0.29028553 0.064271316 -0.1951995
-0.47068712 -0.071797885 -0.11538107 0.15313569 -0.2904074 -0.393685 0.17290421 -0.009115741
-0.3930046 -0.13998431 0.26083902 0.5043686 0.04266249 0.23843215 0.25010487 0.19204563
-0.19197614 0.086554594 0.41852164 -0.4388033 -0.32157642 0.31224057 0.4536802 -0.28882027

gat2.lin_edge.weight f4 [16, 2]
00000000: ca32 3a3e 5f31 adbe 1452 8c3e 999b 8f3e
00000010: ec7e 363f d0aa 203f 8918 c1be be70 963c
00000020: bf0e ccbe 257f 6ebe ae28 9bbe cd26 68be
00000030: cf84 ad3c 3e3a 083e 058f 13bf 4502 00bf
00000040: 5edc 5abe 0732 50be 3135 0b3f 5fb8 413e
00000050: 933c fe3e 7372 2e3f d7a1 d1be a849 283d
00000060: 8f92 413e 34af b33e 7d0b cdbd 093b 003f
00000070: 1288 d33d a0ac cd3e f223 ca3e 0859 043e
0.18183437 -0.3382673 0.2740637 0.280484 0.7128742 0.6276064 -0.3771403 0.018364307
-0.39855 -0.2329069 -0.30304474 -0.22671051 0.021181492 0.13303468 -0.57640105 -0.50003463
-0.21373126 -0.20331584 0.5437804 0.18917988 0.4965559 0.68143386 -0.40943787 0.04108587
0.18903564 0.35094607 -0.10011957 0.5009008 0.10328688 0.40170765 0.3948055 0.12924588

mlp.0.weight f4 [16, 32]
00000000: 5d1f 0a3e bcbe abbd 5b11 563e 343c 313e
00000010: ca69 873d 760f 4fbe 3913 813e 4759 9dbe
00000020: 3847 d5bd 071c a6be 22c9 b5bd fe30 ccbd
00000030: 1c15 10be bb9b ca3d 987c 03be a35f 80be
00000040: 7f98 5e3e 3c87 a03c 1684 3f3e 922e b73d
00000050: 4108 c0bd 0e00 2abe 333d 893e d889 a83c
00000060: ba0b 45be 4856 5ebd 95b5 cd3c 5db1 c63c
00000070: 1e4a 5abe 6275 e43d 67e1 3f3d b52e 8dbd
00000080: 19cd 1a3e c5c1 b13d 41f5 033b 5772 b73d
00000090: b759 493e a393 f3bd f015 493e a76b 0fbe
000000a0: 3aeb 16bd 378a d9bd 84f8 e93c a533 b93c
000000b0: 3103 a7bd 3ba8 363e e599 993d 5df6 4cbe
000000c0: 52e7 4d3c cf68 243d b8ae 783e 0baa 50bd
000000d0: 1a7b 1abd df54 14bd 1451 953d 818b 78be
000000e0: 1748 d1bc d7bd 07be 4d50 22be 02e4 123e
000000f0: a229 58be 013e e33d 9923 0e3e 2d64 45be
00000100: 69c0 c93c 84da 393e 2d6e 06be d1b4 c83c
00000110: b2bc 1bbe a21b 883d 90e2 82bd a1d2 0ebd
00000120: 21e9 babd df53 82bd d8ba 263e 9e22 813e
00000130: b34d d43d d08a fe3d 1ee3 d63d cb04 e03d
00000140: 7f2e 893d 1fa5 b13d 455b 86bd 53a1 99bc
00000150: 3aec 5c3b d062 543e 8ec7 fdba 3215 4fbd
00000160: bd88 113e a4a0 23bd 83ff a3bd 3372 653d
00000170: d0d8 a5bc cedb 66bd c122 47bd f4cb 563e
00000180: 268d 843c 47e6 07be 4804 263e 29c4 113e
00000190: bf4d 953d 32d2 2a3e 1011 903d c2e6 03bd
000001a0: c1b5 47be 19f0 f23c a631 f53a 986b 38be
000001b0: ccd8 6dbe 6d02 943c eb67 0f3e 7bab 8aba
000001c0: 0aff 043c 99db d0bd 412b f23d 221a 133d
000001d0: 5692 163e a591 2abe 38e3 803e 2b66 39bd
000001e0: 9488 1bbe 0214 94be 3fa2 66be dbf2 f2bc
000001f0: 6aa0 5e3c 1eda 83be 84e4 23be a3ce 55bc
00000200: 9d16 2bbe 16f5 25be b0d9 e03d 7c52 4cbd
00000210: 6426 c73d ceab c83d 3225 9abd c5bf 903d
00000220: 310a 0b3e 6c28 893d 1239 a3bc 0397 3abd
00000230: e5ca 98bd 2cdb a73c c39b 0f3e e224 903e
00000240: 10e7 623d 2643 f53d 6e0b 52bd 0f14 6dbe
00000250: 7647 2c3d 8c61 043e 4c86 1c3c c902 893e
00000260: c2e7 fd3d 9387 aebd 0b34 a4bc b74e d0bd
00000270: b74e 043e 070e ebbd 9ac0 083e b4b5 39bd
00000280: 007a 5abe 2880 2f3e 93ac 04be 3b9f 25bd
00000290: b3ac 21be 5dbd c63a b8c8 503d b657 dc3d
000002a0: 952c 123c f67e edbd d149 db3d e664 c2bd
000002b0: 6136 3ebd fc08 e0bd 72d2 69bc 7244 5fbc
000002c0: 9722 a7bd 234d f8bd 6487 d63d 5deb 0e3e
000002d0: 68b4 c03b 356a e63d cbae 0c3e 7c73 98bc
000002e0: 71e7 3fbe 810f 59bd f23d 753d 620a 7cbd
000002f0: ef36 f7bd e240 02be 7e2f 0c3e e17d 24be
00000300: 2fd5 88be 8ef5 e23b ba86 9ab7 095c 07be
00000310: a736 0dbd c410 f63c e428 0cbe 29a0 a43d
00000320: bacc 363e f13d 1d3e 10bb 9fbc bd4d d03d
00000330: 6fb0 1fbe 1bb4 013d 4dcd 813e 7e06 963e
00000340: 0f41 c2bd e194 ce3d e984 dbbd 4f36 45be
00000350: 8df8 b03b 4953 26bd 5fd8 173b 6645 573e
00000360: d9d4 58bd 921b 6b3e 1fee 3cbd 3bd5 b73d
00000370: 1b08 f1bc 5470 b73d da99 933d 5e0f 7d3e
00000380: 8905 9e3d 306e 65bd ed74 f73c 50ec 85bc
00000390: ac28 69bd 99a9 82bd 2f62 ef3d 0bb0 273e
000003a0: 2b80 65be 26f0 013e 8c5c a4bc 9eba 6fbe
000003b0: 8ac3 fabd fe35 31be 04f7 993d da5c 8cbb
000003c0: 0dcb 843d 7be7 bfbd 116c c3bd f8df 2e3d
000003d0: c9e8 e9bd fed0 e1bd 23fd 62bd 539e e3bd
000003e0: 2329 f8bd 3cf8 383e 1c35 23bd a667 8dbd
000003f0: 8612 92bd ff5d 5cbe 2aa0 253e 3734 453d
0.13488527 -0.08385989 0.20905058 0.17308122 0.066119745 -0.20220742 0.25209978 -0.30732176
-0.104139745 -0.32443258 -0.08876254 -0.09970282 -0.14070553 0.098929845 -0.12840497 -0.25072965
0.2173786 0.019595735 0.1870273 0.089444295 -0.09376574 -0.16601583 0.26804504 0.020573542
-0.19242755 -0.054281503 0.025111 0.024254495 -0.21317336 0.111552015 0.04684582 -0.06893674
0.15117301 0.08679537 0.0020135196 0.089573555 0.1966313 -0.11893394 0.19637275 -0.1400591
-0.036845423 -0.106220655 0.028560884 0.022607634 -0.081549056 0.17837612 0.07500056 -0.20015855
0.012567358 0.040139016 0.242854 -0.050943416 -0.037715055 -0.036213752 0.07290855 -0.24271967
-0.02554707 -0.13256012 -0.15850945 0.1434479 -0.21109632 0.11095811 0.13880767 -0.19276495
0.024627881 0.18149763 -0.13127966 0.024500282 -0.152087 0.066458955 -0.063908696 -0.03486884
-0.09126497 -0.063636534 0.16282213 0.25221723 0.103663824 0.1242882 0.10492538 0.10938414
0.066983216 0.086740725 -0.06560377 -0.018753683 0.0033710138 0.20740819 -0.001936184 -0.050557323
0.14212318 -0.03994812 -0.08007719 0.056017112 -0.020244986 -0.056361966 -0.04861713 0.2097624
0.016180586 -0.13271438 0.1621257 0.14234985 0.072902195 0.16681746 0.070345044 -0.03220249
-0.19502927 0.029655503 0.0018706813 -0.18009794 -0.23227233 0.018067563 0.14004485 -0.001057967
0.008117447 -0.10198135 0.11824656 0.035913594 0.1470426 -0.16657121 0.25173354 -0.04526345
-0.15188819 -0.28921515 -0.2252283 -0.029656818 0.01358805 -0.25752348 -0.1600514 -0.013049754
-0.16707845 -0.16206774 0.109790206 -0.04988335 0.09724119 0.09798394 -0.07526626 0.07067827
0.13578106 0.06697163 -0.019924674 -0.045554172 -0.07460574 0.020490251 0.14024262 0.2815314
0.05539614 0.11975698 -0.05128043 -0.23152183 0.042060338 0.12927836 0.009553503 0.26759937
0.1239772 -0.085219525 -0.020044347 -0.10171264 0.12920652 -0.11477285 0.13354722 -0.0453393
-0.21335602 0.17138731 -0.12956457 -0.040435057 -0.15788536 0.0015162636 0.05097267 0.10758917
0.008921762 -0.115964815 0.10707439 -0.09491901 -0.04643858 -0.10939214 -0.0142713655 -0.0136271585
-0.08160894 -0.12124088 0.104750425 0.13956971 0.005880881 0.11250726 0.13738553 -0.018609755
-0.18740632 -0.0529933 0.05987353 -0.06153334 -0.120710246 -0.12720063 0.13689992 -0.16063644
-0.26725146 0.006926245 -1.8420968e-05 -0.13218702 -0.03447595 0.030037291 -0.13687474 0.080383606
0.17851534 0.1535566 -0.019498378 0.101710774 -0.15594648 0.031665903 0.25351945 0.29301828
-0.09485065 0.1008699 -0.1071871 -0.19258998 0.0054007233 -0.04060677 0.0023169739 0.21022567
-0.052937362 0.22959736 -0.046125527 0.08976217 -0.02942281 0.08956972 0.07207079 0.24712893
0.077158995 -0.056013286 0.030207122 -0.016348034 -0.056923553 -0.063800044 0.11688649 0.16375749
-0.22412173 0.12689266 -0.020063661 -0.23411033 -0.12244327 -0.17305753 0.075178176 -0.0042835297
0.06484041 -0.09370323 -0.095420964 0.042694062 -0.11421353 -0.1102619 -0.05541719 -0.11114182
-0.12117221 0.18063444 -0.03984557 -0.06904535 -0.07132439 -0.21520232 0.16174379 0.0481455

mlp.0.bias f4 [16]
00000000: 6ed9 513d 483d eabd cede c8bd f63f 47bd
00000010: 8e6a d0bd 7f17 18be 3297 80bc 2d8d 40be
00000020: c722 833b 12e6 aabd c566 12be 7ed0 723a
00000030: 06c1 79bc e82d dc3d f4d1 da3b 8d4d 133e
0.051232748 -0.1143747 -0.098081216 -0.048644982 -0.10176574 -0.14852713 -0.015697096 -0.18803854
0.0040019485 -0.08344664 -0.14297016 0.0009262635 -0.015243774 0.107509434 0.0066778604 0.14385052

mlp.2.weight f4 [1, 16]
00000000: 8df3 58bd b71e edbd 44cc 7a3e 2a1c 24bc
00000010: 7ae5 3dbc 096e 18bd 1bf2 3a3e 878f 153e
00000020: 2f4a 72be c32a f23d 9814 333e faea 6dbe
00000030: 6fde cf3d 36bd 3b3e a258 093e afa3 89be
-0.052966643 -0.11578124 0.24491984 -0.01001648 -0.011590356 -0.037214313 0.18256418 0.14605533
-0.23661111 0.118245624 0.17488325 -0.23234168 0.10149848 0.18333897 0.13412717 -0.26882693
