data/CTC/Fluo-N2DH-SIM+/02_RES_GAT/20250714_204636/manual_fold_4_best_model.pth (torch, 11177 bytes, 15 tensors)

gat1.att_src f4 [1, 1, 16]
00000000: dc45 fa3e 3356 9a3e 784f 7bbf 2342 2dbe
00000010: 12c8 c03e 2955 75be 9093 e1be 948d 0bbe
00000020: daaf 31be c8e4 5f3b d68e 5fbe 17ba 83be
00000030: 5b92 9cbe ded8 3a3f 31bc 88bd 8dea 133d
0.48881423 0.3014389 -0.98168135 -0.1691976 0.37652642 -0.23958267 -0.44057894 -0.13628227
-0.17352238 0.0034163464 -0.21831831 -0.25727913 -0.3058041 0.72987163 -0.0667652 0.036112357

gat1.att_dst f4 [1, 1, 16]
00000000: e22a 7fbe 7ea5 5d3e 7aba 70be a9b2 c3be
00000010: 1689 f13e af5f c4bb 3dd3 22bf 4b8e 663f
00000020: 6e44 053f 2375 94bf 5ab4 a83e f0c9 0d3f
00000030: b1d7 453e 9972 c53e 436e 4dbf 4664 b0bd
-0.24918702 0.21645162 -0.23508635 -0.38222244 0.471749 -0.0059928517 -0.63603574 0.9006087
0.5205754 -1.1598247 0.32950097 0.5538626 0.19320561 0.38563994 -0.8024637 -0.08612876

gat1.att_edge f4 [1, 1, 16]
00000000: 430d 1f3f 02e3 1dbf d165 683f a7c6 85be
00000010: cf84 18bc 18f1 903d 1a67 3a3f c9a1 78bf
00000020: e956 203d aefd 0fbc ba46 85be 64fe cbbe
00000030: 9d7a 653f 085f 09bf 29a5 553f 077b 2a3f
0.6212961 -0.6167451 0.9078036 -0.26128122 -0.009309008 0.07077235 0.7281357 -0.97121865
0.039145384 -0.008788509 -0.26030523 -0.39842522 0.8964022 -0.5366063 0.8345514 0.66593975

gat1.bias f4 [16]
00000000: 6700 1e3e 126a 223f 6fd8 c33e 454c d7be
00000010: aef5 073f a9ee c03e 469b 2e3e d669 403f
00000020: bd16 c1be 2008 903e 19b6 d63e 1884 0b3e
00000030: 5440 c6bc 9bec 4c3f 1859 bf3e 0862 95be
0.15429841 0.634431 0.38251063 -0.42050377 0.5310925 0.37682083 0.1705142 0.7516149
-0.3771266 0.281312 0.41935804 0.13624609 -0.024200596 0.8004853 0.3737266 -0.29176354

gat1.lin.weight f4 [16, 14]
00000000: 7a31 113f 1ead 193f 87d4 113d 5649 88be
00000010: 5c0b 123f b689 0cbf 8aa9 d13e a636 adbe
00000020: 57c4 2b3f 77ec 033f 89b5 c5be 771a 89be
00000030: 6134 c1be 9acc a93d 5901 6f3e ea5f 33bd
00000040: 9800 9e3d a942 0abf efb6 c73d e85b ecbe
00000050: 4d58 553e e467 2fbf 34f2 f33e 0b58 4e3e
00000060: b8c7 8cbe 09e6 62bc 06f2 62bf 405d f13d
00000070: 18f2 073e 06e1 14bf 2fbe a53e 54ba 993e
00000080: 252b a33e bd56 463c 5a93 013e c11b c9be
00000090: 493c d6bd 12e1 7d3e 7e6c cdbe 42f5 37be
000000a0: c6fe 633f cb18 b93d 7e02 e6be 34aa 8bbd
000000b0: 4c5e a83d 22de 7e3d dc90 e7be add0 833e
000000c0: 4bab d0be 4d50 efbe f838 77bd 5ef3 5fbe
000000d0: 6336 893c 335d 94be f7c5 09bc 0bc4 3d3d
000000e0: 475a e8be 3272 d1be 3660 5e3e 7b7c 9f3e
000000f0: 68a0 e13e f042 c1b9 ff49 a63e 5065 a8bc
00000100: 6513 713d db8d 633e 6721 243f 2e8f a7be
00000110: 3ed4 843e f0f4 fdbd 70da 193e 32ce 563f
00000120: 0380 e1be ac57 36bf 4c25 803c 676c 2fbf
00000130: dc96 933e 9d19 2fbf 0da7 2d3f 6f34 a83e
00000140: 45d7 6e3d 5a30 02bd b83e 41bf e459 39be
00000150: aa40 1ebe 30aa a03d 48a8 3e3b 298f 423f
00000160: 8fae 313e ef16 29bd 12f6 283e 861c 353f
00000170: fc01 f73d 6834 c5bc 6671 983c 1cee 9a3b
00000180: 3dee 543f c16f 113d 1009 ba3e d37d 613f
00000190: 2527 a4be 2d72 28bf 3dfd 033f fd76 60bf
000001a0: 7f36 783f a1ea 22bf 080c 023f d62d 6b3e
000001b0: 1385 b1be b41b a0be b055 95bf 609e fa3d
000001c0: d463 823e b729 10be 0173 103c cf12 7abc
000001d0: 1174 f93e 9514 f73c 76d7 9cbc 60b6 c03d
000001e0: de7c e4bc 7a7f b5be 4d9e 04bf 4b58 393e
000001f0: 0ed4 19bb 0d97 0abe 1ae1 85bd 4a2e 333f
00000200: a4ed 5b3d d704 933e b3d3 1cbf 10af 923e
00000210: b8e9 07bd 3a7d 7b3d 6319 14bf c703 71be
00000220: aac3 af3e 266d 183e 3018 583e 9121 83bc
00000230: 406d 453e 34c6 313f 77c3 d83d d68e b6be
00000240: 9e6f ff3e aa0d f5be 4c98 713d da97 18bf
00000250: e387 2a3f 9cfd 44be cef2 92bc 0f73 7a3d
00000260: 0674 0bbf 4120 a7bd 42e6 7a3e b65a 313d
00000270: 730b c13e 6d6d e13d ebd5 853e 3c66 883e
00000280: 3c58 593e d0d3 073f 2de2 233d b2cd 3ebe
00000290: b60a 2abe d603 85bd 846f a8bd 3f76 463e
000002a0: c11e b63e 6776 013f c259 883e a256 133b
000002b0: 539f bd3e 5f91 32bf 15b9 063e ceeb 0ebf
000002c0: cb9f 49be f706 a33e 7599 8dbe e541 4e3e
000002d0: 445b 37be 96c4 4c3d f2f8 3f3e 2aa7 163f
000002e0: 7855 46bf 0993 15bf b2b3 6c3f 5a0f edbe
000002f0: ec2a 193f 2afd 0fbf bd0f 313f 8cc1 b43e
00000300: 911d b23d 7f76 83be e315 83bf eb08 94bd
00000310: c78f 45bf 9bdd 97bd c18c 2d3e b778 0e3f
00000320: e4b1 28bf 30e6 0cbe 5e17 d23d dae4 533e
00000330: 92b3 8ebe 3319 c4be 42e9 ccbe d965 85be
00000340: 1461 45bf 232b 05be efd1 d3be c053 6cbc
00000350: b8af 2a3f 9bc4 a3bd fc02 82be 72ce 4b3e
00000360: dfa1 8c3e 6642 8bbe 3946 41bd b978 1abf
00000370: 0066 533e 5ecb 453e c73b a8be 21c4 da3e
0.5671612 0.6002978 0.035603072 -0.2661845 0.57048583 -0.5489763 0.4094966 -0.33830756
0.67096466 0.5153269 -0.38615063 -0.26778004 -0.37735274 0.08290978 0.23340358 -0.043792643
0.07714957 -0.54007965 0.09751689 -0.4616387 0.20834465 -0.685179 0.47645724 0.20150773
-0.27496123 -0.01384879 -0.8865055 0.11785364 0.13275945 -0.5815586 0.3237166 0.3002497
0.31868854 0.012105641 0.12653866 -0.39278987 -0.10460717 0.24792889 -0.40121835 -0.17964652
0.8906063 0.09037932 -0.44923776 -0.06819573 0.08221111 0.06222356 -0.45227706 0.25745144
-0.40755686 -0.46740952 -0.060357064 -0.21870181 0.016749566 -0.28977355 -0.008409015 0.04632954
-0.45381376 -0.40907437 0.21716389 0.3114966 0.44067693 -0.000368617 0.3247833 -0.020556122
0.058856387 0.22222082 0.6411347 -0.32726425 0.25943178 -0.12400234 0.15024734 0.8390838
-0.44042978 -0.71227527 0.015642785 -0.68524784 0.28826034 -0.6839846 0.67833024 0.32852504
0.058310766 -0.031784393 -0.75486326 -0.18100697 -0.15454355 0.07844961 0.0029092003 0.75999695
0.17351745 -0.041281637 0.16500118 0.7074665 0.12060925 -0.02407284 0.01860876 0.004728092
0.8317602 0.035506967 0.3633504 0.8808262 -0.32061115 -0.6579922 0.51558286 -0.8768156
0.96958154 -0.63639265 0.5079961 0.22966704 -0.3467184 -0.31271136 -1.1666775 0.12237239
0.25466788 -0.14078413 0.008816482 -0.015263273 0.48721364 0.030161181 -0.019145709 0.09409785
-0.027891573 -0.3544882 -0.5180405 0.18100087 -0.0023472342 -0.13534184 -0.06537075 0.69992507
0.05369343 0.2871463 -0.6126053 0.28649187 -0.033181876 0.061398722 -0.5785124 -0.23536597
0.34328967 0.14885387 0.21102977 -0.016007217 0.19279957 0.6944306 0.10584157 -0.3565585
0.49889845 -0.47861987 0.058983132 -0.5960671 0.66613597 -0.1923737 -0.017938044 0.061144885
-0.5447391 -0.08160449 0.24501899 0.0432994 0.37704048 0.110071994 0.2613977 0.266405
0.21225065 0.53057575 0.04001062 -0.18633154 -0.16605648 -0.06494872 -0.08224395 0.19381045
0.35570338 0.5057129 0.2663098 0.0022482057 0.37035617 -0.6975307 0.1315654 -0.5582856
-0.19689862 0.3184125 -0.2765614 0.20142324 -0.17905909 0.049992166 0.18747309 0.5884882
-0.77474165 -0.5842748 0.92461693 -0.46300775 0.5983112 -0.5624567 0.6916464 0.35303915
0.086970456 -0.25676343 -1.0241054 -0.072282635 -0.7717251 -0.07415315 0.16948225 0.55652946
-0.6589644 -0.13759685 0.10258363 0.20692769 -0.27871376 -0.38300475 -0.40021712 -0.26054266
-0.77101254 -0.13004737 -0.41371104 -0.014424264 0.66674376 -0.07996484 -0.25392902 0.19902971
0.27467248 -0.27199095 -0.04718611 -0.6034046 0.20644379 0.1931586 -0.32858106 0.4272776

gat1.lin_edge.weight f4 [16, 2]
00000000: b840 45bf a4b5 ad3d 73dd 193f 4c81 763e
00000010: 5796 54bf 828e 61be 1407 c13e 7871 e4be
00000020: 37eb ac3d 9b4f 053f 9ec6 5ebd e061 b8be
00000030: 9d91 6ebf 510f 6bbe 2e04 7a3f 8650 3dbd
00000040: 5123 d33c 77bd f83e eb71 aabc 04f9 e43e
00000050: fe21 213e 2379 ee3e 8eae 9a3e 32c3 04bc
00000060: 098e f0be 1dbe 59be 30e5 193f 6865 ee3d
00000070: fdd9 6bbf 0c96 803d 7603 71bf 1a0d f23c
-0.7705188 0.08481911 0.6010353 0.2407276 -0.830419 -0.22027019 0.37700713 -0.4461782
0.08443301 0.52074593 -0.054388635 -0.36012173 -0.9319094 -0.22955061 0.9766263 -0.04621937
0.025773676 0.4858205 -0.020806273 0.44721234 0.15735623 0.46576795 0.302113 -0.008103179
-0.46983364 -0.21263929 0.6011534 0.116404355 -0.921295 0.06278619 -0.94145906 0.029547263

gat2.att_src f4 [1, 1, 16]
00000000: cd15 17bf 9c53 d93e 6aa6 69bd 16b4 0dbf
00000010: 560e 81bc 5405 3a3d 4192 953c 1b27 bebe
00000020: 6dfa eabe 712b bdbe 38f1 563d fc88 ac3d
00000030: 383e d43d 3bf6 93be 92b6 f13e 32c8 983e
-0.5901764 0.424466 -0.05704347 -0.55352914 -0.015753906 0.045415238 0.018258216 -0.3713921
-0.45894185 -0.36947206 0.052476138 0.08424565 0.1036343 -0.28898796 0.47209603 0.29840237

gat2.att_dst f4 [1, 1, 16]
00000000: a00e efbe 3786 323e 594c 9dbe 7982 233e
00000010: 3467 b9bd 0b4c 62be 6da1 01bd 4d08 bbbe
00000020: d0ff d03e 61ac c93e 3614 a1be 6bf5 aebe
00000030: ec41 5c3d 6ec5 d6be befd 07bf 45a3 133f
-0.46690845 0.17434011 -0.3072231 0.1596774 -0.090528876 -0.2209932 -0.03164809 -0.3652977
0.4082017 0.39389327 -0.31460732 -0.34171614 0.053773805 -0.41947502 -0.53121555 0.57671005

gat2.att_edge f4 [1, 1, 16]
00000000: a7df 4bbe 0e17 663f 97da 723e 1a27 71be
00000010: dee9 b13e 75b7 79be c998 0cbf 4dfb b9bd
00000020: 9199 83be db61 22be b1c9 08bf 521c 43be
00000030: 8d04 42bf 5f5c 47bf 8dc1 bd3e 19a6 07bc
-0.19909535 0.8987893 0.23716198 -0.23550072 0.3474874 -0.2438639 -0.5492063 -0.09081135
-0.257031 -0.15857641 -0.53432757 -0.19053772 -0.75788194 -0.7787532 0.3706173 -0.008279347

gat2.bias f4 [16]
00000000: 235d 93bc 31f7 3a3e b294 803e b317 f1bd
00000010: 8904 d73e cb0b a63e d908 5b3e 329b 2d3f
00000020: 35d6 893e 2b76 f43d ca7d 083f 4689 bc3e
00000030: caa8 ddbd e472 553e 38e5 033f 3f9a 383e
-0.017988747 0.18258359 0.25113446 -0.117720984 0.41995648 0.32430872 0.21390094 0.67814934
0.2692124 0.11936601 0.5331694 0.3682348 -0.108232096 0.20844609 0.51521635 0.1802759

gat2.lin.weight f4 [16, 16]
00000000: 349e a03e 0707 643e f1ed b73e bb1f c5be
00000010: 285a 243e 86e4 c73d b990 7b3e 8525 893d
00000020: 8c7a e0be 4913 543e 3168 043e 7688 aa3e
00000030: 6f7e 5dbe 150e ca3e 90f4 b73e f3e9 d5be
00000040: b3c7 a93e 2f74 72be be90 e53e 2800 c1be
00000050: 8120 c1be f89e 8dbd 3743 85be 0100 ddbe
00000060: f583 8bbd 1bac 4dbe 7351 7fbe 32a7 b2be
00000070: b419 503e 5cdf 19be 08fb 343f 6edc 4c3d
00000080: 144d 67be 6d45 b43d 16aa 2a3e e8ca 0e3d
00000090: ae7c 5b3e 207b 5fbe b70b db3e e609 fe3c
000000a0: 4f0f 35be 7766 1f3f 9642 8a3d bf8e fa3d
000000b0: dfda 283e 9aa9 febd 4545 0d3f 81c5 f6be
000000c0: b5b6 e13e ace9 c03d 38e1 dabe bb92 d93d
000000d0: 7e53 b5be b55a 7dbe 3088 003e 6201 673d
000000e0: 084d 0c3e bec9 72be 286c febe f25f 94bc
000000f0: 1f1b a93e 517f 703e 6836 1dbe b196 533e
00000100: c170 a43e 970a 823f a4c6 5e3f 3f77 803d
00000110: 46ba d93e 6520 1e3f 6171 e43e cc82 5f3f
00000120: eaad 94bd 3429 d2be beb7 823f ae6a bcbe
00000130: 1aaf 343f 50ec 723f 01b6 cbbe 180c dfbd
00000140: 71f9 b93e 5c5d 3c3f 523f 3f3e 016b 1e3d
00000150: f7be 203f 0a01 1c3f b2e3 943e 28b0 e73e
00000160: b742 233e a8dd dbbe 2760 3c3f 04c3 a53e
00000170: 9557 f03e 0e4a 123f d280 eabd b27d a2be
00000180: 6965 0a3f 76c2 043f 66ec d9be b697 f63d
00000190: 909c 92be 8504 003f ab28 d7be 38f7 3d3f
000001a0: 75a1 f8bd aa02 8fbe d66b 483f 2350 cf3d
000001b0: 8836 353d c495 5a3f 107b 44bd d4f9 f6be
000001c0: f4b5 623e 1747 69be d819 80be fb8e 6f3d
000001d0: ff96 0fbe 8959 acbe ee2d fb3d ed3d 0ebf
000001e0: 34a7 a43e 6250 873e 8c3c b2be e749 2b3f
000001f0: d2a3 9e3e 76e7 d73c 7a56 ca3e 697f a73d
00000200: 3ee9 8e3e 1d35 ce3e 48c3 dc3e 9fb2 cd3e
00000210: bea8 c43e bcf7 7d3e 94b5 2b3f ea64 803e
00000220: a035 5d3d 814d f6bd a0d7 9dbd 9207 42be
00000230: 72fb cd3e 8a4c da3e 1d34 053f 09c7 d0be
00000240: 5164 2e3f cfa7 a13c 4fcb 04bd 59a4 953e
00000250: 1322 59be 4420 2a3f 42ae 29bf 713b de3e
00000260: c8ac be3e 5606 9ebe efdc 1e3e 3894 863c
00000270: 9522 8b3e 94d5 0d3f 611e f2be 756d 123f
00000280: 87e7 f1be 767b 88be 4331 033f 76c1 c8be
00000290: 9540 35be 72d3 9dbd 0bf0 88be bb10 e0be
000002a0: ec32 14bf 4280 293f 4285 9dbe 2257 213e
000002b0: 8aa6 8cbe 4213 fdbe dab6 253f f690 df3c
000002c0: f6a1 b0be 0847 ae3c efce 2c3f 4cea 16bf
000002d0: b434 a63d 68db 48be 33c2 1dbd 896c 2b3e
000002e0: a97c 5abe f9df 813e edc0 27be 70ce 8dbe
000002f0: 9eb4 28bd 79e4 8cbe da90 083f b681 8cbe
00000300: caed e23e 630f 23be d54e 6a3d f7c0 1fbd
00000310: 9aef 463e 5f63 163f 5fc6 68bf 7a03 d93e
00000320: 0bd7 aabe ca5b 25bf 2afc c33e 5132 b03d
00000330: 008c 5a3e f794 3abe 5456 87bf ba48 05be
00000340: 887a 163c 25d7 5c3e 0508 083d f49f bf3c
00000350: d732 183f a6a7 0abe 722a bc3e 2a61 023f
00000360: f4f9 103f d7c9 2ebe d509 873e 2c81 32be
00000370: 2487 973e f0a1 fa3e 8e12 06be 24d4 9cbe
00000380: 7646 143f 832b 113f d618 b43d 4611 25bf
00000390: 6317 9b3d fad5 f03e e1d4 fd3d 52d9 6f3f
000003a0: 9134 c6be 722a a8bd a8c0 df3c 98bd 503e
000003b0: a3e7 0c3d e0f4 523f b31b fcbe d550 19bd
000003c0: 5007 1b3f 14d8 6c3d 7d56 423e 88a9 afbd
000003d0: 1b23 9c3e 25e1 223f 212d d7be ab90 b43e
000003e0: d010 2abd a457 debe 92c1 ae3e 4ca0 95bd
000003f0: 1c5b 013f 20ce 1e3f e0ce 063e 4014 4ebe
0.313707 0.22268306 0.35923722 -0.3850077 0.16050017 0.09760384 0.24566926 0.066966094
-0.43843496 0.20710482 0.12930371 0.33307236 -0.21630262 0.3946387 0.35928774 -0.41780052
0.3316017 -0.23677133 0.44836992 -0.37695432 -0.3772011 -0.069150865 -0.26027843 -0.43164065
-0.06812278 -0.20085184 -0.24933414 -0.34893185 0.20322305 -0.15026611 0.70695543 0.050014906
-0.22587997 0.088023044 0.16666445 0.034861475 0.2143428 -0.21824312 0.42782375 0.03101058
-0.17681621 0.62265724 0.067509815 0.12234258 0.16489743 -0.12434693 0.5518382 -0.4819756
0.44084707 0.094195694 -0.42749953 0.1062369 -0.35415262 -0.24741633 0.12551951 0.056397803
0.1370126 -0.23709771 -0.49691892 -0.018112157 0.33028504 0.23486067 -0.15352786 0.20662953
0.32117274 1.0159482 0.8702185 0.062727444 0.42524928 0.6176818 0.4461775 0.87308955
-0.07259734 -0.4104706 1.0212324 -0.3680014 0.70579684 0.94891834 -0.39787295 -0.108909786
0.3632312 0.73579955 0.18676499 0.038676266 0.6279139 0.60939085 0.29079968 0.45251584
0.15943418 -0.42942548 0.73584217 0.32375348 0.4694182 0.5714425 -0.11450352 -0.31736523
0.5406099 0.51859224 -0.4256317 0.12040655 -0.28635073 0.50006896 -0.42023215 0.7420535
-0.121401705 -0.2793172 0.78289545 0.10122707 0.04424146 0.85384774 -0.047968924 -0.4823748
0.22139722 -0.22781025 -0.25019717 0.058485966 -0.14022444 -0.3366206 0.1226462 -0.5556324
0.32158816 0.26428515 -0.3481182 0.6690964 0.3098436 0.026355486 0.395191 0.081785984
0.27912325 0.40274897 0.43117738 0.4017534 0.3840999 0.24801534 0.6707394 0.2507699
0.05400622 -0.120265014 -0.07707143 -0.189482 0.402309 0.4263652 0.52032644 -0.40776852
0.6812182 0.019733338 -0.032420453 0.2922695 -0.21204405 0.66455483 -0.6628152 0.43404725
0.37241197 -0.3086421 0.15513967 0.016428098 0.27174821 0.5540402 -0.47288802 0.5719827
-0.47246954 -0.26656693 0.5124704 -0.392101 -0.17700417 -0.077063456 -0.26745638 -0.43762764
-0.578902 0.6621133 -0.3076573 0.15755895 -0.2747081 -0.49428755 0.64732134 0.027290802
-0.34498566 0.021274105 0.67503256 -0.5895126 0.08115521 -0.19614947 -0.03851528 0.16740622
-0.21336617 0.2536619 -0.16382189 -0.27696562 -0.041187875 -0.2751806 0.53346026 -0.27442712
0.44322044 -0.15923838 0.057204086 -0.039002385 0.19427338 0.5874538 -0.9092769 0.42385465
-0.3336719 -0.64593184 0.38278323 0.08603347 0.21342468 -0.18220888 -1.057322 -0.13016024
0.009184487 0.21566446 0.033210773 0.023391701 0.59452575 -0.13540515 0.36751133 0.5092951
0.566314 -0.17069183 0.2637469 -0.17432088 0.29595292 0.48951674 -0.13093016 -0.306306
0.57920015 0.5670702 0.087937996 -0.6447948 0.0757282 0.4703825 0.12394119 0.9369098
-0.3871198 -0.08211221 0.027313545 0.20384824 0.034400593 0.824049 -0.49239883 -0.037430603
0.60558033 0.057823256 0.18978305 -0.085772574 0.30495533 0.63624793 -0.42026618 0.35266623
-0.04151994 -0.4342624 0.34132057 -0.07305965 0.50529647 0.6203327 0.13164854 -0.20124912

gat2.lin_edge.weight f4 [16, 2]
00000000: 5082 b8be b494 2fbe a177 273f da1a 90be
00000010: 2493 c2bd 88f4 3fbf 1ed4 b4be cd14 80be
00000020: edde a23e 9514 23bf 16c7 343e 894a 083f
00000030: 2ce9 53bf d3a8 bd3e 2e8d 77bd 3c7b 863e
00000040: 6dc0 e8be 2986 673e 7615 31bd 71bf 4a3f
00000050: 3b3a 7abe ee31 c0be cf9e 83bd 778a 593f
00000060: 703f f4be f87f 1c3f f55b 38bf 3dc3 273d
00000070: 0d0e 423e 8972 a7be ed7e 84bd 1626 58be
-0.3603692 -0.1714657 0.65416914 -0.28145486 -0.09500721 -0.749825 -0.35318083 -0.2501587
0.31810704 -0.6370328 0.1765407 0.5323873 -0.8277767 0.37042865 -0.060437374 0.26265895
-0.4545931 0.22609772 -0.043233357 0.79198366 -0.24436276 -0.37538093 -0.06426775 0.84976906
-0.4770465 0.61132765 -0.72015315 0.040957678 0.18950672 -0.3270457 -0.06469522 -0.21108279

mlp.0.weight f4 [16, 32]
00000000: 3797 65bd 9c17 973e 3613 12bd 7eec 7bbd
00000010: d791 c33d ee50 14be fcfe 18bc ebde 573d
00000020: bfe8 2cbe 17c5 843c 3310 1e3f a816 d53e
00000030: 130c cf3c d976 5abd 8303 ffbd 7077 88bd
00000040: 5794 6dbc d104 dbbd fab9 f1be 3554 893e
00000050: e0e1 af3e f59b 593e 7b00 fa3d bc3c 15bf
00000060: cb7a 05bd 5e83 853e 085c 32bd 0597 02be
00000070: ce69 803d 2e40 703e fcf1 883d 30ee 613d
00000080: 2362 68be e2d3 2a3e 2ab2 e73b 801f 18be
00000090: eff2 48be d4bf 1abe 373f a6bd 5e31 97bd
000000a0: 5977 213c 4eae 233e 4bc7 b4be 0014 8abb
000000b0: 740a 8f3d 2c64 e3bd b831 aa3c 0073 9abd
000000c0: e17a d23c e236 303e 8fbc 9a3b 0280 27be
000000d0: 48f5 28be 885d 7c3d db74 153e 2069 58be
000000e0: e4af 73be e523 533d 9e34 9fbc c8aa 8fbd
000000f0: eddf ef3c dc42 51bc 8fed a43d 990c 9bbd
00000100: caa1 f03c b069 febd 7816 893d b580 24be
00000110: 9155 b63e d212 703e dddf 123e 7e79 84be
00000120: 0870 4e3e f6a7 52bd 3c88 e4be af3b 5dbe
00000130: def6 41bd dfbd 6a3e 1512 1b3e 6624 183e
00000140: f5eb b53d f749 723e 603e 8b3e bcc1 29bc
00000150: dbb0 82bb f15b 39be 40fa 8e3d 32e0 01be
00000160: 34ba 303e 8b0f 9cbe 786a 8d3e 8d19 8c3e
00000170: e3b7 33be e45c f43d 2482 07be 9130 dbbd
00000180: 32ae 29be 6a76 bf3d 0363 c93d f4b1 34bd
00000190: 6f9a 3fbe 3930 48be f30e e4bd eb1f debd
000001a0: c879 1bbe 60d3 dcbd 1a9a a7bd c335 933d
000001b0: a564 63be 16ef 23be 3d26 10be a679 b6bd
000001c0: b956 6dbe b8bf c5bc 0a30 edbb b43f b33d
000001d0: 669b 263d 2289 2e3d b4c3 453d e412 4e3d
000001e0: 2573 71bd 7312 e2bd c60c 5f3d 7b81 32bc
000001f0: 4ecf 01bc 8575 923d 83f3 51be a7a5 d4bd
00000200: e73a ff3d 9ef9 b9bd ef90 a33e 3f71 263c
00000210: 7287 febb e32d 6f3e df94 9f3e 9040 b43e
00000220: 605c a53e 585f db3d 29b6 993e a7b1 533e
00000230: 92ff 693e b8c2 493e 58ab b639 97d0 953e
00000240: 0aac 843e 6285 f53e 7890 c23e 0ab0 18bb
00000250: 9ab3 58be 692b 91be 1422 f1be 6b0c 4f3e
00000260: 7129 2f3e 5211 26bf 6db2 cb3d 7914 873e
00000270: 1661 85bd aa44 f73d 9dc1 28bf e9b0 89be
00000280: 7452 98bd 63ed e33e 3f8c 3bbe ecfe b93d
00000290: aea4 10bd 7c49 93bc 4d8d 1fbe cf99 153e
000002a0: fcc1 74bd 9d2f 2e3c 8a11 043f 58ae 303f
000002b0: 10ff 9e3d da9a 96bd ada5 1ebe e37b b13d
000002c0: 0994 b93c 1cbd 01be 8c7c 9fbe 0001 7d3e
000002d0: 7518 7a3e d50b 223e b798 553e 86b8 ddbe
000002e0: c96d 303e a48f 9c3e 42e9 12bf e82f 05be
000002f0: f4b7 9e3e d898 013e 6816 c93e cffb 3b3e
00000300: d9df 6fbc 36d5 9f3d 3552 28be 7715 453c
00000310: 5c9e 2f3e f22b db3d 8238 5f3b bed4 4b3e
00000320: 9030 933d 8b53 843e 82af 48bf 8161 e9be
00000330: 8415 96bd a320 fb3c d578 c93e 04eb 903e
00000340: 4e19 0abd 30a4 8fbd 8d8b 91bd c437 60be
00000350: a5bf 3fbe 9fdd de3d e34d c4bd f94b 813d
00000360: 42d2 07be 56c9 ba3d 6890 40be ba6e 623e
00000370: ba60 6f3d 472c 56be 2973 7a3d 5bcb 323d
00000380: 9688 ac3c 0c47 b73d d211 11be 2e0a 3f3d
00000390: 5687 7bbc fb3f d2bd 6e93 25be 8ecf 8e3d
000003a0: 2e50 09be f196 99bd 448d a4bc d375 c53b
000003b0: c394 60be 8bf5 53be 2a66 2bbe a563 5abe
000003c0: fc43 f4bd 1b54 5e3d 5055 363d db7f 803d
000003d0: 9c21 1cbe e84f 6cbd 4439 7d3d 74a1 7abc
000003e0: 9cb1 60be 694b df3a 1c33 31bc ca06 42be
000003f0: e296 843d 19c3 0dbe c81d a83d 13ce 78be
-0.056052413 0.295102 -0.035662852 -0.061504833 0.09549301 -0.14483997 -0.009338137 0.052702826
-0.1688566 0.016207261 0.6174347 0.41618848 0.025274312 -0.053336 -0.12451842 -0.06663406
-0.014500699 -0.10694278 -0.472122 0.26822057 0.34352016 0.21250899 0.12207123 -0.582958
-0.032587808 0.26076788 -0.0435448 -0.12752922 0.06270181 0.23461983 0.0668678 0.055158794
-0.22693686 0.1668239 0.0070707994 -0.14855766 -0.19623922 -0.15112239 -0.08117526 -0.07382463
0.009855115 0.1598446 -0.35308298 -0.00421381 0.06984416 -0.11103091 0.02077566 -0.07541466
0.025693359 0.17208436 0.004722185 -0.16357425 -0.16499817 0.061612636 0.14595358 -0.21133852
-0.23797566 0.051547904 -0.01943427 -0.07014996 0.02928158 -0.012772288 0.08053123 -0.07570762
0.029374022 -0.12422502 0.06693739 -0.16064723 0.35612157 0.2344468 0.1434321 -0.2587394
0.20159924 -0.05142971 -0.4463519 -0.21604799 -0.04735457 0.22923993 0.15143616 0.14857635
0.08882896 0.23661028 0.27196026 -0.010361131 -0.003988368 -0.18101479 0.06981325 -0.1268318
0.17258531 -0.30480608 0.27620292 0.27363244 -0.17550616 0.1193178 -0.13233238 -0.10702623
-0.16570356 0.093487576 0.09833338 -0.04411502 -0.18711255 -0.19549645 -0.11135664 -0.108459316
-0.15183175 -0.10782504 -0.081836894 0.071879886 -0.22206362 -0.16009173 -0.14077087 -0.08909921
-0.23177613 -0.02413927 -0.0072383927 0.08752385 0.040675543 0.04261125 0.04828234 0.050310984
-0.0589477 -0.11038675 0.05445554 -0.010895128 -0.00792296 0.07151321 -0.20503049 -0.10383158
0.124624066 -0.09080814 0.31946513 0.010158836 -0.007767611 0.23357348 0.31168267 0.35205507
0.3229704 0.10711545 0.3002179 0.20673238 0.22851399 0.19703186 0.00034841406 0.29260704
0.25912505 0.47953326 0.38000846 -0.0023298287 -0.21162263 -0.28353432 -0.47096312 0.20219581
0.17105652 -0.6487018 0.099461414 0.26382807 -0.06512658 0.120736435 -0.6592043 -0.26892784
-0.07437602 0.4451705 -0.18315218 0.090818256 -0.0353133 -0.017979376 -0.15581246 0.14609455
-0.05975531 0.010631469 0.5158926 0.6901603 0.07763493 -0.07353754 -0.15492888 0.08666208
0.022653596 -0.12669796 -0.3114971 0.24707413 0.24423392 0.15824826 0.20859037 -0.43304843
0.1722938 0.3057834 -0.57387173 -0.13006556 0.3099972 0.12655962 0.39274907 0.18357776
-0.014640772 0.07804339 -0.1643761 0.012029043 0.17150253 0.10701741 0.003406078 0.19905373
0.07186997 0.25844988 -0.78392804 -0.45582202 -0.073283225 0.03065521 0.3935 0.28304303
-0.03371554 -0.07013738 -0.07106695 -0.21896273 -0.1872545 0.108821146 -0.09585168 0.06313319
-0.132638 0.09120433 -0.18805087 0.22112551 0.058441855 -0.20915328 0.06114498 0.043650966
0.021061223 0.08949098 -0.14166954 0.046640567 -0.015352091 -0.102661096 -0.16169521 0.06973182
-0.13409492 -0.07499493 -0.020086892 0.0060260086 -0.21931748 -0.20699136 -0.16738191 -0.21327074
-0.119270295 0.054279428 0.044514954 0.062743865 -0.15247196 -0.057693392 0.06182219 -0.0152972825
-0.21942753 0.0017036024 -0.010815408 -0.18947902 0.06474091 -0.13843955 0.08208805 -0.24297361

mlp.0.bias f4 [16]
00000000: bf22 05be fa87 c9bd e74f 213e 9c26 7fbe
00000010: e550 ae3d 3f3f 1ebe 4a22 f1bd 3910 6bbe
00000020: 2f96 44bd 41ee fa3d 53d1 543e f640 03be
00000030: 0ae3 2abb 682f b1bb 1be9 27be de0d 013e
-0.13001536 -0.098403886 0.15753137 -0.24917072 0.08511523 -0.15453814 -0.11774118 -0.22955407
-0.04799479 0.122524746 0.20782976 -0.1281775 -0.0026075267 -0.0054072626 -0.16397516 0.12602946

mlp.2.weight f4 [1, 16]
00000000: afb0 fcbd 3f1d ad3d 38c9 bc3e 4340 5c3c
00000010: 61a4 c03e 8bf6 a9be fb10 863e 2fe1 163e
00000020: 9e31 ae3d 1f7d 7fbf 8ec9 9d3e 5cb1 48bf
00000030: 2bc7 3abf b66f 13bf c9b3 88bc 46ae 30bf
-0.12338387 0.08452844 0.36872268 0.013443056 0.3762541 -0.3319591 0.2618483 0.14734338
0.085055575 -0.99800295 0.30817837 -0.7839563 -0.72960156 -0.5759233 -0.01668729 -0.6901592
