data/CTC/Fluo-N2DH-SIM+/02_RES_GAT/20250714_204636/top1_model_fold2.pth (torch, 11177 bytes, 15 tensors)

gat1.att_src f4 [1, 1, 16]
000000 a2 44 c0 3e c2 d0 9c bd e5 8e be be 72 fe 17 bf
       0.37552363 -0.07657005 -0.37218395 -0.5937263
000010 45 f3 ac be 77 a2 72 3f d4 8c a5 3e 73 f5 63 3e
       -0.3377935 0.9477915 0.32334006 0.222616
000020 3e b0 c0 be f6 ba a3 3e 11 b6 04 3e ba 3e c6 3d
       -0.37634462 0.31978577 0.12960078 0.09679933
000030 f6 56 27 3e f7 1a 92 3e 49 02 ea 3e 51 a8 39 3f
       0.16341767 0.28536198 0.45704868 0.72522455

gat1.att_dst f4 [1, 1, 16]
000000 5f d0 d8 3e 2b c1 53 3f 3c bc 10 bd 7f 3c 4f 3f
       0.42346475 0.82716626 -0.035335764 0.80951685
000010 f8 3c ec 3e ae 62 62 3e f3 0b 70 bf 25 d8 bd 3e
       0.46140265 0.22107956 -0.93768233 0.37078968
000020 06 e9 ca be da a4 4e bf 3c 38 1e be e5 4c 3a 3f
       -0.39630908 -0.80720294 -0.15451139 0.7277358
000030 99 6e 3a 3f d5 21 9e 3e de ce 97 3f 61 b6 cf 3d
       0.7282501 0.30885187 1.1860006 0.10142208

gat1.att_edge f4 [1, 1, 16]
000000 4a c2 5a 3f 8d c7 be bf ea 40 58 bf 04 af 3c bf
       0.8545271 -1.4904648 -0.8447405 -0.7370455
000010 e5 36 6f bc 38 02 94 3f cb 19 ec be 4d ee 8e 3f
       -0.01460049 1.1563177 -0.46113428 1.1166474
000020 4e 67 46 3f 3f 0d 8b bf 91 3a 8d bf 82 38 71 3f
       0.7750138 -1.0863417 -1.1033498 0.9422685
000030 71 82 24 3f b4 76 14 3f 29 8f 4b bf 70 5e 66 bf
       0.6426154 0.57993627 -0.7951532 -0.8998785

gat1.bias f4 [16]
000000 35 b3 06 3d f7 c3 d1 3e 2e 8d d1 3e 1f 9a 7c 3e
       0.03288575 0.40969822 0.40928024 0.24668168
000010 98 e9 34 3f a6 60 d8 bb e4 43 5a 3f 92 3c 4b 3e
       0.70668936 -0.0066033183 0.8525984 0.19847324
000020 fd 04 80 3d 1c a0 24 3f a5 b3 c5 3e cd 3d 28 3f
       0.062509514 0.6430681 0.3861362 0.657193
000030 5d e9 a5 3e c7 1f f3 3e a4 be 08 3f bc 7c 3f 3e
       0.32404605 0.47485182 0.53415895 0.18699926

gat1.lin.weight f4 [16, 14]
000000 d6 4c ae 3e 23 41 19 3f 92 d1 36 be 0a a9 71 be
       0.34042996 0.59865016 -0.17853382 -0.2359964
000010 b8 ac e8 3e d4 1e 55 3e 8e 7c 5e 3f e7 23 9f be
       0.45444274 0.20812541 0.86908805 -0.3108208
000020 a7 4f 02 3f d1 45 87 3e d0 7a 28 3e eb b9 7b be
       0.5090279 0.26420453 0.16453099 -0.24582641
000030 f4 71 03 bf 75 59 5e be f8 b0 18 bf c4 c7 c6 be
       -0.51345754 -0.21713813 -0.5964503 -0.38824284
000040 b6 4f a4 3e 0f 04 84 bc 61 1b 5f 3e 01 d6 29 be
       0.32092065 -0.016115217 0.21787788 -0.16585542
000050 b9 99 aa 3e 9a 60 2d 3d 63 aa bd bd 22 31 1a 3e
       0.33320406 0.042328455 -0.09261014 0.15057805
000060 5a 7f 3d bd 67 c6 e3 be be b4 04 bd 85 e1 e8 be
       -0.04626403 -0.44487306 -0.03239893 -0.45484558
000070 c2 d8 81 3e 95 f7 0f 3f a0 fc 86 3d ee 98 11 be
       0.25360686 0.56237155 0.06591153 -0.14218494
000080 93 e2 35 bf 27 30 eb bd 3b 48 52 bf c2 dc 65 3e
       -0.7104885 -0.11483794 -0.82141465 0.22447494
000090 fb 33 dc be 94 47 b3 3e 10 65 61 be 33 f9 1d 3e
       -0.43008408 0.35015547 -0.22011209 0.15427093
0000a0 ee b9 9c be d0 62 d0 bb bb f8 08 be 08 84 77 3f
       -0.30610603 -0.0063594356 -0.13376133 0.9668584
0000b0 09 2e c3 3b 37 1b 61 bf 1a 31 25 3f be 3e 70 bf
       0.0059564156 -0.8793215 0.6452805 -0.93845737
0000c0 fd 1f aa 3e 62 11 7e bf 21 14 34 3f bf 34 63 be
       0.3322753 -0.99245274 0.70343214 -0.2218809
0000d0 e0 7d 54 be 1d dc ad be de 99 9c be df 56 56 3e
       -0.20751143 -0.33956996 -0.3058614 0.20931576
0000e0 2f 04 69 3c 0a 1e 07 3f 9d c1 df bd e6 f9 14 3f
       0.014222189 0.5278021 -0.10925601 0.58193815
0000f0 0d aa 13 bf ad fd bd 3e 35 47 84 bf 72 fb bd 3e
       -0.5768135 0.37107602 -1.0334231 0.371059
000100 ee 08 7d bf ae bc 2c be 9a 70 eb be b6 4b ba 3c
       -0.9884175 -0.1686885 -0.45984346 0.02274118
000110 78 a1 4a bf 72 69 23 bf 07 0f 5e be 70 13 90 b9
       -0.7915263 -0.6383277 -0.2168542 -0.00027480302
000120 bf 07 41 3e b6 30 5e 3f 33 aa 94 bc ce e8 8d 3f
       0.18850611 0.86793077 -0.018147564 1.1086671
000130 0b 72 be 3e d1 cb 17 3f 14 f2 44 3d 6b 62 0b be
       0.37196383 0.59295374 0.048082426 -0.13611762
000140 ba c2 45 3e a6 04 75 be 05 09 ca bc 04 9f d8 bd
       0.19312564 -0.23927554 -0.024662504 -0.10577205
000150 1f 55 13 3f 89 1b 86 3e e0 ba 51 3e ef 39 05 3f
       0.5755176 0.26192883 0.20481443 0.52041525
000160 04 8a 61 bf eb df 3e 3f 39 87 59 bf 54 e5 55 3f
       -0.8810122 0.7456042 -0.8497196 0.8355305
000170 13 8c 34 bf 38 d1 39 3e c2 d7 ea 3e 04 dc 00 bf
       -0.70526236 0.18146217 0.45867735 -0.5033572
000180 54 af a6 bf 3f d4 a9 3e 13 e2 1e 3f 1b a1 22 3f
       -1.3022256 0.33169743 0.6206371 0.6352708
000190 56 28 0c 3e 8e f1 b4 bc 9e 46 05 3f f7 7e b4 be
       0.13687262 -0.022087839 0.5206088 -0.35253116
0001a0 6d 65 97 3e bd ef 81 3c 2f ad c7 3e a2 cc 80 3c
       0.2956957 0.015861386 0.38999316 0.015722577
0001b0 bb 2b a6 3d 7e b0 11 bd 1c 21 d8 be a5 03 60 3e
       0.0811381 -0.035568707 -0.4221276 0.2187639
0001c0 a1 80 56 3c 36 01 d4 bd c4 8c 96 3e 38 f5 8b be
       0.013092191 -0.103517935 0.2940427 -0.27335525
0001d0 77 22 8c be 29 b8 26 be 55 e6 a5 be 0f 08 96 3e
       -0.27370045 -0.16281189 -0.32402292 0.29303023
0001e0 f6 c3 7c bf 63 66 03 bf 1d c2 79 3d be 7a e0 3e
       -0.9873651 -0.51328105 0.060976136 0.43843645
0001f0 0e 4c c2 3f ae 66 a5 3e 3f bf f8 be 69 f7 5e be
       1.517946 0.323049 -0.4858341 -0.21774067
000200 29 96 16 be 26 94 d0 bd 86 ec 57 bf e5 a8 f7 3e
       -0.14705719 -0.10184507 -0.8434528 0.48371044
000210 6a a4 12 bf 29 b6 03 3f a0 a6 01 bf 45 d5 b6 3e
       -0.57282126 0.5144983 -0.50644875 0.35709587
000220 b4 e0 d2 bd 91 a1 33 be f9 ad a6 be 1a c9 6b 3b
       -0.10296765 -0.17542101 -0.32554606 0.003597802
000230 86 82 50 3e 8c 98 73 3c 38 9e d9 be 25 5c 1d 3f
       0.2036229 0.014867913 -0.42503524 0.61468726
000240 ad 5d fe be 9f f4 3d 3f 68 d8 f7 be d5 08 f9 3e
       -0.49680844 0.7420139 -0.48407292 0.4863955
000250 90 27 14 bf 50 41 02 3e 46 90 1b be b6 e5 8f be
       -0.5787287 0.12720227 -0.15191755 -0.28104943
000260 cd 65 1f bf 1d be 96 3e 46 1d 8a bd 3c 25 d3 3e
       -0.6226471 0.2944192 -0.06743865 0.41239345
000270 06 73 2d 3e eb 0c 2c 3e 10 e7 44 3f 24 51 f6 be
       0.16938409 0.16801803 0.76915073 -0.4810878
000280 38 a1 3c 3f f3 6f c1 be a0 4c 5c b9 33 a5 6c bd
       0.736835 -0.37780723 -0.0002100938 -0.057774734
000290 7c c7 53 be 1a 55 a8 bd c3 61 a7 bc f5 aa 6d 3d
       -0.20681566 -0.08219357 -0.020432359 0.058024365
0002a0 0c 0f b5 bd 8a 2e 06 3f e3 80 ee bd 92 d6 2c be
       -0.088407606 0.5241476 -0.11645677 -0.16878727
0002b0 8c 35 84 3e e3 64 3f 3c 20 86 13 3f ca 66 44 bd
       0.25822103 0.011681768 0.57626534 -0.04794959
0002c0 24 ae 2e 3f db 8f 79 3e b8 d3 93 be 38 cf a7 3e
       0.6823447 0.24371283 -0.28872466 0.32775283
0002d0 33 f3 1d bf 4d 2e 18 bd 06 68 99 3e 09 7f b4 3e
       -0.6169922 -0.03715353 0.29962176 0.3525317
0002e0 ba a6 0a bc 29 b9 1c 3f f4 69 2f be 59 3b 40 3f
       -0.008462602 0.6122003 -0.17130262 0.7509056
0002f0 57 cf b8 bd de f8 3b 3f 7a 0d 2d bf 9a e9 d9 bc
       -0.09023922 0.73426616 -0.6759869 -0.026600648
000300 72 7e 55 3c 71 38 60 3e 08 1e a8 be b1 37 f0 bd
       0.013030635 0.2189653 -0.32835412 -0.11729372
000310 0c 38 47 3e e1 5b 49 3f 2d 11 50 3e 66 68 9a be
       0.19454974 0.7865582 0.20319052 -0.30157775
000320 02 2d 77 3f 2c 67 e9 bd d0 82 8f 3e d5 1e 1e bf
       0.9655305 -0.113966316 0.2802949 -0.61765796
000330 dc ed 50 3f e7 ce 00 be a2 d7 88 bb 4c 59 af be
       0.81612945 -0.12578927 -0.004176096 -0.34247816
000340 b1 a4 5c be 26 ac 03 be 1f de 0e 3f 7f 1f d9 3d
       -0.215472 -0.12858638 0.5580768 0.106017105
000350 33 64 05 bf 3e a4 c4 be 79 98 1d 3f 52 b9 21 3e
       -0.52106017 -0.38406557 0.6156078 0.1579335
000360 79 f9 94 3e 02 ec 1c bd 42 43 84 3e 7e a3 a7 3e
       0.29096583 -0.038311012 0.25832564 0.32741922
000370 ce 04 bf 3e 30 29 95 3e e7 d1 25 bf a8 e4 eb 3d
       0.37308353 0.29132986 -0.6477341 0.11518222

gat1.lin_edge.weight f4 [16, 2]
000000 9f e8 36 bf 8d ab 1b bf 55 1b 9b 3f a5 5d 56 3e
       -0.714487 -0.6080864 1.2117716 0.2093416
000010 bf 76 94 3f 5b 6f 92 be c4 7a 4b 3f 7a 62 8d bd
       1.1598738 -0.28600582 0.794842 -0.069035485
000020 b3 0d 04 3d 32 a2 e6 bb e7 92 5c bf 3a 0a 76 3d
       0.032239627 -0.007038378 -0.86161655 0.060068347
000030 e4 35 a5 3e b9 d8 48 3f d9 e9 39 bf 4d ee 85 bc
       0.32267678 0.7845569 -0.7262245 -0.016348982
000040 cc 24 91 bf 4b fb 9a 3e 1a 28 40 3f 7a ce 57 3e
       -1.1339355 0.30269846 0.7506119 0.21074858
000050 6c 3d aa 3f 93 99 59 3f e5 42 a0 bf 14 86 7a 3e
       1.3299994 0.8499996 -1.2520415 0.24465209
000060 83 c4 13 bf eb 0f 7f be 80 30 39 bf 1f d8 0b bf
       -0.5772173 -0.24908416 -0.7233963 -0.5462665
000070 64 e8 41 3f 73 51 05 3e 1b 66 8d 3f 7c 80 5e be
       0.75745225 0.13019352 1.1046785 -0.217287

gat2.att_src f4 [1, 1, 16]
000000 34 74 e3 3d 9d 32 b5 bd ef fa 15 be 9a 6b 4f be
       0.11106148 -0.08847544 -0.14646505 -0.2025589
000010 b8 ff bf bd 86 c6 40 3e a6 8f cb 3e e6 da 49 3e
       -0.09374946 0.1882573 0.39758033 0.1971241
000020 60 23 4d 3d 2a 89 a8 bd 03 8b c3 3d 31 32 f6 be
       0.050082564 -0.08229287 0.09547999 -0.48085168
000030 a3 96 d5 bc c4 37 1b 3f af 12 c5 be 0d 6d 4e be
       -0.026072806 0.60631967 -0.38490817 -0.20158787

gat2.att_dst f4 [1, 1, 16]
000000 0f a6 15 bf 1d 27 a3 bd 49 d2 2d 3f f4 00 35 3f
       -0.5845651 -0.07966445 0.67898995 0.7070458
000010 8e 43 e7 3d 65 77 29 3f 06 a3 64 be 6f fa 94 be
       0.11292182 0.66197807 -0.22327814 -0.29097316
000020 19 1a f4 be 71 58 84 be 6b 0a 8c be 99 ba 63 bf
       -0.4767616 -0.25848725 -0.27351698 -0.889566
000030 5f 4e 80 bd a2 45 1c 3f e8 89 e5 3d a6 77 00 3e
       -0.06264948 0.6104375 0.11207944 0.12545642

gat2.att_edge f4 [1, 1, 16]
000000 c6 eb 2c bf 9c 23 0e be a3 6b 65 bf 6f d1 1b 3f
       -0.6754726 -0.13880771 -0.89617366 0.60866445
000010 b1 44 a4 3e 8e c3 4e be fd 77 39 bf 75 3a 85 3d
       0.32083657 -0.20191786 -0.7244871 0.065052904
000020 8d ac d2 3e bd 03 1f bf 52 2a 3f 3f 18 ba 6d bf
       0.4114727 -0.6211508 0.7467395 -0.9286208
000030 90 27 b7 be bf b1 46 be 7b fd 83 3e f2 aa 08 bf
       -0.3577237 -0.19403742 0.25779328 -0.5338584

gat2.bias f4 [16]
000000 65 52 93 3e 1a 1b f2 3e 87 40 ea 3c d4 75 14 3f
       0.287738 0.47286302 0.028595222 0.5799229
000010 01 46 86 3e ea 00 62 3e c7 6d ca bc 46 06 8c 3e
       0.26225284 0.22070661 -0.024710549 0.27348536
000020 80 06 0f 3e dd e5 ba 3d 4c b2 1f 3f 8c bf 6b 3e
       0.13967323 0.09125874 0.62381434 0.23022288
000030 af 49 0f 3e 35 4a 10 be ef 88 cf bd fe ae 9d 3d
       0.13992952 -0.14090808 -0.1013354 0.07699393

gat2.lin.weight f4 [16, 16]
000000 d0 6b 89 be cc 76 f4 3e 9e b3 be be 88 2d e6 3d
       -0.26840067 0.47746885 -0.37246412 0.11239153
000010 4d 39 19 3e 17 23 05 bd 7b bd e3 3d 77 a4 c5 3e
       0.14963265 -0.032504167 0.11120125 0.3860204
000020 8d 9d b8 3e d2 64 0d 3f 25 f0 a6 bd ab e5 a8 3c
       0.36057702 0.55231965 -0.08151273 0.020617327
000030 aa cd 4b bd 4f 0a 94 3e f2 e7 11 be 0d 06 eb bd
       -0.049756683 0.28914115 -0.14248636 -0.114757635
000040 1b 52 f0 be 06 5f cf 3e 73 3e 65 3f d9 0d 04 bf
       -0.46937642 0.40502185 0.89548415 -0.5158363
000050 f2 77 1d 3f bd e6 ac 3e a4 93 2f 3e b1 d0 02 bf
       0.6151115 0.3376979 0.17146164 -0.5109969
000060 9a 4c 21 3f 0e 3d 50 3f 32 4d 59 3f 1d 97 45 3e
       0.6300751 0.8134316 0.84883416 0.19295926
000070 d7 ae f4 be 37 02 30 3f ec 3c 13 be c9 c9 52 bd
       -0.47789642 0.6875338 -0.14378709 -0.05146197
000080 36 64 12 bf e3 35 d2 be a5 06 2f 3e 4e 95 ef be
       -0.5718416 -0.41056737 0.17092378 -0.46793598
000090 5e e4 5d 3e 7e 24 20 bc 93 48 33 3f 63 e0 1c 3c
       0.21669146 -0.009774325 0.70032614 0.009574982
0000a0 96 a5 1c 3c 40 49 4d be a9 b0 bf 3e 30 a9 a0 bd
       0.009560963 -0.20047474 0.37439469 -0.0784477
0000b0 6d 77 aa bd e0 9f c4 3e 8e c2 af 3d 9d e0 d3 bd
       -0.0832356 0.38403225 0.0858203 -0.10345576
0000c0 ad d6 5d be 3d bb 94 3e 43 9c 82 3e 7e 43 e1 3d
       -0.21663924 0.290491 0.25509843 0.10999201
0000d0 15 b1 e7 3e 29 de 3a 3e 46 4d 6e 3f ce f1 d2 bd
       0.4525229 0.1824881 0.9308666 -0.10300027
0000e0 6b 49 a8 3e e4 b6 f6 3d 33 e6 12 3f 91 aa 06 3f
       0.32868513 0.12046602 0.57382506 0.52604014
0000f0 4d 02 16 3f 59 86 0e 3f 5f da 1f bf 2e c1 b5 be
       0.5859726 0.5567375 -0.6244258 -0.35498947
000100 43 2d aa 3e f1 67 b0 3e 02 dd d3 be 44 24 d4 3e
       0.33237657 0.344543 -0.41379553 0.41433918
000110 10 17 07 bd 71 ca 2a bd 2d 21 b1 be d1 23 0a 3e
       -0.03298098 -0.04169697 -0.34595624 0.13490225
000120 7f e8 9f be 96 17 19 3d 69 8b ef be b9 1d 21 3f
       -0.31232068 0.03737601 -0.4678605 0.6293598
000130 f2 4c f8 3e 56 69 bb 3e a1 54 05 3f 09 4c b4 3e
       0.48496205 0.36603802 0.5208226 0.3521426
000140 9a 79 1e 3f bd 09 13 be f0 46 97 bf 99 f1 27 3f
       0.619043 -0.14359184 -1.1818523 0.65603024
000150 7f a2 f1 be 25 6d 31 bf 51 a9 6f bf 9a 59 8b 3e
       -0.47194287 -0.69307166 -0.9361773 0.27216798
000160 1c 4c 97 bf 76 44 3f bf 29 2c 18 bf d6 dd 6a 3e
       -1.1820102 -0.7471384 -0.59442383 0.22936186
000170 91 1f 25 3f fb 16 ac 3d 59 24 b0 3e dd 29 06 3f
       0.6450129 0.08402821 0.3440273 0.5240763
000180 a7 fc dc be 09 6a 91 3c 8a 4b 82 3d a0 d5 c7 bd
       -0.43161508 0.017750757 0.06362064 -0.097575426
000190 90 9e a3 be a1 87 e8 bd 60 c2 85 3d 51 9f e7 3e
       -0.3195691 -0.11353994 0.06531215 0.45238736
0001a0 23 9a 96 3e b1 52 01 3e 50 87 fe 3d fa db aa 3d
       0.29414472 0.126292 0.124281526 0.083427384
0001b0 7e 10 05 bf 47 df 0e bf 2a c0 cc bc 53 23 af 3e
       -0.5197829 -0.55809444 -0.024993975 0.34206638
0001c0 60 37 5b 3e b7 fc 18 3f 57 4a e9 be 27 c3 dc 3d
       0.21407843 0.5976061 -0.4556453 0.1077941
0001d0 c8 15 86 3e ed eb 3d 3d ec 78 18 be ba 58 71 3f
       0.26188493 0.046367574 -0.14889878 0.9427601
0001e0 b0 b6 ac 3e 1f 50 c0 3e a1 9b 6b bd 09 e5 f1 3e
       0.3373313 0.37561128 -0.057521466 0.47245052
0001f0 6a ab 04 3f 01 95 11 bd a2 35 ca 3e 1d e0 3b 3f
       0.5182406 -0.03554249 0.39494044 0.73388845
000200 b0 31 11 3e 2f e8 e8 bd 05 0f 9c bd 80 89 be 3e
       0.1417911 -0.113724105 -0.07620052 0.3721428
000210 f3 64 30 be 5d 00 c5 bd a7 3d 90 bd 0d 1e e8 bd
       -0.17226009 -0.0961921 -0.07043009 -0.11333857
000220 7c c8 04 bf b0 23 3d be b7 e5 7c be a8 22 10 3f
       -0.51868415 -0.18470645 -0.24697004 0.5630288
000230 f7 76 b5 3e e9 94 7f 3e 9f 67 03 3f e3 b4 9c 3d
       0.35442325 0.24959148 0.5132999 0.07651689
000240 40 5c a2 3b 5d 91 13 bd 8d 51 81 3e 7f 36 f5 3d
       0.0049548447 -0.0360273 0.2525753 0.11973285
000250 61 f8 84 3e 80 38 0c ba ec f2 82 3e f5 a2 5a 3e
       0.25970748 -0.00053489953 0.2557596 0.21351226
000260 37 d4 14 3e 7d 1f 85 be f0 60 0c bf 37 73 b8 3c
       0.14534079 -0.26000586 -0.54835415 0.022515876
000270 d2 2d b2 3e d6 9a 79 3e a4 03 7b be 96 b9 4b be
       0.34800583 0.24375471 -0.24513108 -0.19895014
000280 83 b2 22 bf e7 dc 37 3e 73 3d 64 3f 82 e6 55 bf
       -0.6355364 0.17955361 0.89156264 -0.8355485
000290 68 00 2e 3f 63 ca ad 3e 27 85 88 3f d0 f7 d3 be
       0.6796937 0.3394347 1.0665635 -0.41400003
0002a0 a1 b0 dc 3e d3 a6 53 3f 0c fd 7b 3f 61 0f 0a be
       0.43103507 0.8267643 0.98432994 -0.13482429
0002b0 2d 83 24 3e 84 1c ed 3e aa fd 17 be dd b8 06 bf
       0.16065665 0.46310818 -0.14842859 -0.5262583
0002c0 e4 dc af bd 1d e7 d4 3e f3 66 a5 3d e9 0b 32 3e
       -0.085870534 0.41582575 0.08076277 0.17387356
0002d0 96 9d c8 be d3 30 25 3f 28 5a c1 be a4 6c e5 3e
       -0.3918273 0.64527625 -0.37764096 0.4480945
0002e0 32 0f e6 3e 54 f0 5d 3e 3f 4b 6c 3d 2b 77 0c 3f
       0.44933468 0.21673709 0.057688948 0.54869336
0002f0 67 78 ac 3d 17 71 70 bc b6 5e 97 3e 75 a6 88 3d
       0.084214024 -0.0146754 0.29564446 0.06672374
000300 e3 ed e9 3e 30 f9 97 3e ee 3c 92 be 64 ad 84 3c
       0.45689306 0.29682302 -0.2856211 0.01619596
000310 7e 8f 88 be 29 71 57 3e f7 cf 14 bf 38 c9 fa 3e
       -0.26671976 0.21039261 -0.5812983 0.48981643
000320 16 bc 56 3f f1 4a 83 3e 10 16 42 be 16 0e 1e 3f
       0.83880746 0.25643113 -0.18953729 0.61740243
000330 84 0f 87 3d 23 21 74 bd 33 c9 77 3f 7b 5f 1b 3f
       0.06594756 -0.059601914 0.9679138 0.60692567
000340 c3 1a 2f be ce b8 67 3e 6f 22 fc be 27 23 fe 3b
       -0.17100053 0.22629091 -0.4924502 0.0077556553
000350 ba 2a 56 3d 78 1f 34 bf 28 ba 97 3e 0d ef 94 bd
       0.05228684 -0.7036052 0.29634213 -0.07272158
000360 32 d4 04 bc 7f af 99 be a6 8e ed be 2e f6 70 bf
       -0.008107232 -0.30016705 -0.46397895 -0.9412564
000370 92 e3 9f bd fd 94 79 3d d9 b1 a0 be 52 52 da be
       -0.078070775 0.060933102 -0.31385687 -0.4264093
000380 f6 56 ee bc 3c df 80 be 73 96 3f bf 65 ea f8 3d
       -0.0290942 -0.25170314 -0.7483894 0.12154082
000390 e7 81 c9 be 39 eb bc bd bb 6f 36 bf 51 2b f7 3e
       -0.3935692 -0.09224553 -0.7126424 0.48275235
0003a0 2a 80 47 bf 56 61 d7 be 42 b7 df bd 52 0a 6e 3e
       -0.7792994 -0.4206645 -0.109236255 0.23246124
0003b0 ba f5 e3 3e 27 79 9f be 23 da 0a 3f 43 c5 1c 3e
       0.44523412 -0.3114712 0.542391 0.15309624
0003c0 0b 75 ed bd 2a 38 e7 3e 2c 82 6f bd 15 69 b4 be
       -0.1159459 0.45160037 -0.05847375 -0.3523642
0003d0 26 10 bd 3e 39 05 5f 3f fa 3e 45 3e e0 ca b9 ba
       0.36926383 0.87117344 0.19262305 -0.0014174841
0003e0 9c 2e 36 3f c5 8e 46 3f 03 58 24 3f 91 9b ba 3e
       0.7116487 0.775616 0.64196795 0.36446813
0003f0 68 32 6d be 37 c9 9a 3d 5d 54 28 3e a7 92 6a 3d
       -0.2316376 0.0755791 0.16438432 0.057268765

gat2.lin_edge.weight f4 [16, 2]
000000 75 0f 34 bf bc 5f d3 be 7d e1 6c bd f6 e1 8c be
       -0.70336086 -0.41283977 -0.05783223 -0.27516145
000010 48 5a 68 bf 83 18 3d be f3 55 48 3f 4d 3f c0 3c
       -0.9076276 -0.18466382 0.7825615 0.023467684
000020 7e c3 33 3f 9b 5e 30 3f 70 c8 9c be 67 68 74 3d
       0.7022017 0.68894356 -0.30621672 0.05966988
000030 97 fe eb be 76 55 be be 06 f7 81 bd a6 6c ee bc
       -0.46092674 -0.37174577 -0.06345944 -0.029104542
000040 f6 11 14 3f da 3b 32 3f de 33 76 bf 14 ea 26 bf
       0.57839906 0.69622576 -0.96172893 -0.65200925
000050 07 a4 12 3f 42 fe dc 3e 90 f0 00 bf ad 66 a0 be
       0.57281536 0.43162733 -0.5036707 -0.31328335
000060 e7 29 de be 7f ee 44 3d 6b 09 d3 be 41 2f 82 bf
       -0.43391344 0.04807901 -0.41218123 -1.0170671
000070 da 30 ab 3e 75 ed 45 3e b6 23 6d bf 77 6d 60 bf
       0.33435708 0.19328864 -0.92632616 -0.8766703

mlp.0.weight f4 [16, 32]
000000 6a 38 80 bd 53 05 d5 bd 4b 0c 79 3c af dc 0d be
       -0.0626076 -0.10401406 0.015200685 -0.13853715
000010 64 4b a2 3e 4c 9f 15 3e f6 06 32 3e 36 74 72 3e
       0.31698143 0.14611548 0.17385468 0.23677143
000020 8d 0f b5 bc a6 43 67 be 30 ce 8e 3d eb a7 87 3e
       -0.022102142 -0.225844 0.06972921 0.264953
000030 e2 8c a2 3e 0c 85 91 be 29 76 8d 3e a7 9e 49 3d
       0.3174811 -0.2842182 0.27629212 0.04922357
000040 62 60 26 be 4f 44 b3 bd f8 0b 88 3e a0 69 9e 3e
       -0.16247705 -0.08753263 0.2657163 0.3093996
000050 06 20 fd bc 33 8e 46 be 9a ed cb 3e c0 5c 49 be
       -0.030899059 -0.19390182 0.39829713 -0.19664288
000060 31 c3 ac be 0d 28 ba be ff 56 72 3e 2e cc 66 be
       -0.3374267 -0.3635868 0.23665999 -0.22538826
000070 6e a4 52 be 2d 79 d0 3e 2d 69 0b be 0e ba c7 bd
       -0.20570537 0.4071745 -0.1361434 -0.09752284
000080 ef de a0 3e d5 ab f4 3c ae b6 6f 3a 93 ec cf 3e
       0.31420085 0.029867092 0.0009144348 0.4061018
000090 52 1e 91 be 7f bd 95 be 0a 94 1c be 03 7c f3 3d
       -0.28343445 -0.29246137 -0.15290847 0.11888888
0000a0 78 c4 3f be bc 05 53 bd 4c 1d 86 3e 7e 05 c6 bd
       -0.1872729 -0.05151914 0.26194227 -0.09669016
0000b0 29 a0 98 be 4d f2 66 3f ca f7 9b be 80 e9 63 3e
       -0.29809693 0.9021347 -0.30462486 0.22257042
0000c0 1f 5f 1a 3e 91 94 cf 3c 8b a6 fa bd bb 31 83 3d
       0.15075348 0.025339397 -0.12238797 0.0640597
0000d0 88 71 13 be c1 d8 0b bf d3 5f e9 3d 6e 16 b1 3e
       -0.14398777 -0.54627615 0.1139523 0.34587425
0000e0 c9 42 c5 3e 14 d7 fa bc 4a 37 1d 3d b6 72 86 3e
       0.38527516 -0.030620135 0.038382806 0.26259392
0000f0 ca 8a 1f 3e c9 9e 39 bf 3b 83 b9 be 1c ed c4 3d
       0.15580288 -0.7250791 -0.36232933 0.096155375
000100 76 b8 90 be 30 f6 20 be 44 4e 02 be be 77 30 bf
       -0.28265733 -0.15718913 -0.12725168 -0.6893271
000110 8e 6f e4 3e fc 61 5b 3e a8 5d e4 3e d3 1b 89 3e
       0.4461636 0.21424097 0.44602704 0.2677904
000120 2f 53 72 3e 17 54 d2 bc 70 2d 9c be 4c 6f 7a 3e
       0.23664545 -0.025674863 -0.30503416 0.24456519
000130 77 1e 97 3e 92 85 81 be 7f 2f 9e 3e f0 4b 52 be
       0.2951543 -0.2529722 0.30895612 -0.2053678
000140 46 5e b7 bd bd 1c a9 3e 2e 99 1c 3f 53 07 af 3c
       -0.08953528 0.33029738 0.61171234 0.021365797
000150 df e1 56 3d bb 51 89 3e 4e 88 00 3f b8 ae 7b be
       0.0524615 0.26820168 0.50207984 -0.24578369
000160 ed d9 08 be 86 ab 1a 3e ef dc fa 3e d8 0d a1 3d
       -0.13364382 0.15104493 0.48996684 0.078639686
000170 a4 7e 60 be 77 67 84 3e 59 3f 15 bd 58 c8 8c 3e
       -0.2192331 0.25860187 -0.036437366 0.274966
000180 16 7a 3c 3d d5 68 3f be aa c3 67 be 98 b8 61 be
       0.046014868 -0.18692334 -0.22633234 -0.22043073
000190 33 32 73 3d 68 da 3d be c3 d2 5a 3d e3 3b 32 be
       0.059374046 -0.18540347 0.053423654 -0.17405657
0001a0 d3 a7 f1 bd af 8a 4d 3d 7a cd 6e be b0 b4 ee 3d
       -0.11799588 0.050181087 -0.2332057 0.11655557
0001b0 38 5e 4f bd c4 2f 47 3d 24 5a fc bb 10 31 a0 3d
       -0.050626963 0.048629537 -0.0077011753 0.07821858
0001c0 64 8a 51 be b8 c6 64 ba a1 6d 11 be f7 7d ea bd
       -0.20462948 -0.0008727121 -0.14201976 -0.11449807
0001d0 aa 23 a7 3d da ba 4a 3d d2 a2 c8 3d a4 70 cb bd
       0.08161099 0.0494946 0.097966805 -0.09933594
0001e0 23 d8 e8 3b 0f 8f 81 be a3 81 04 be af 29 57 3d
       0.0071058436 -0.25304458 -0.12940077 0.052529987
0001f0 10 33 42 be 47 ab 32 be 4f 00 2f be ff 6e 32 be
       -0.18964791 -0.1744815 -0.17089961 -0.17425154
000200 bc 7d f8 bd 46 f0 0e bf c5 83 34 be 15 74 34 bd
       -0.12133357 -0.5583538 -0.17628391 -0.044056017
000210 4f 39 23 3f 6a 12 56 3e 3c 6b 3b bf d3 d5 db be
       0.6375932 0.20905462 -0.732105 -0.42936572
000220 76 b5 e3 bd 30 1c 5e 3c aa b3 70 bf 31 c7 eb 3b
       -0.11118595 0.013556525 -0.94024146 0.0071953763
000230 75 08 bf 3c 55 9c a8 be 47 b9 cd be 14 7e 04 bf
       0.023319462 -0.32931772 -0.40180418 -0.5175488
000240 01 b7 7f be a9 d7 01 bf ce 88 c3 bd 82 1f ed be
       -0.24972154 -0.50719696 -0.09547578 -0.463131
000250 9e f0 51 3f 26 e3 f3 3e b0 f4 21 bf fb 02 24 3d
       0.8200778 0.47634238 -0.6326399 0.040041905
000260 d7 3f 06 be 20 cd c4 bd 08 c9 31 bf 85 49 b1 3e
       -0.1311029 -0.09609437 -0.69447374 0.34626403
000270 86 44 64 3e 28 95 ab bd 1a 48 30 be 18 ed 0f bf
       0.22291765 -0.08378059 -0.17215005 -0.5622115
000280 89 0c 86 3c c7 40 8e 3e e0 52 c8 3e 66 c7 cf 3d
       0.0163634 0.27783796 0.3912573 0.10145454
000290 b2 25 d1 be 66 84 c4 be 99 d1 c6 3d 86 99 9f be
       -0.40849072 -0.38382262 0.09707946 -0.31171817
0002a0 d2 cd 55 be d3 4e b7 3d aa 50 5a 3e a1 ed a7 be
       -0.20879295 0.089505814 0.21319833 -0.32798484
0002b0 99 44 e4 be 87 ed 9c be c6 62 88 be ac 5a 80 39
       -0.44583586 -0.3064997 -0.26637858 0.00024481618
0002c0 4c de 40 3d 66 6f 39 be 9e 22 6f be 49 93 66 bc
       0.047087 -0.18108901 -0.23353049 -0.014073201
0002d0 a1 5d 97 3e db 19 ac 3e 9e 29 94 be 59 a3 e8 3e
       0.2956362 0.33613476 -0.28938 0.45437124
0002e0 cf bc 9b 3e 8b 0b 19 be be 63 9f be 8f 39 a1 3e
       0.30417487 -0.1494581 -0.31130785 0.31489226
0002f0 2e b5 bb 3e 52 f2 cc 3e 46 5b a9 3e 2b d2 66 be
       0.36661667 0.40028626 0.3307745 -0.2254111
000300 58 e8 83 be 75 5b 2c 3d 53 70 a4 3e e5 33 c0 be
       -0.25763202 0.042079408 0.32116947 -0.37539592
000310 fc db b7 3e 75 0a d3 3e 0c 41 d0 3d 33 92 85 3e
       0.35910022 0.41218916 0.10168657 0.26088104
000320 96 ec 6f 3d c4 c4 37 3e 5c a1 a5 3d f1 b2 17 bd
       0.058575235 0.17946154 0.080874175 -0.037035886
000330 e3 16 69 3e 9a e1 2e 3d ce b5 cb 3e 20 07 74 3d
       0.22762637 0.04269562 0.39787143 0.059577107
000340 96 5e 53 be c0 20 9d 3e 9d 0b 66 3e cd 5a d0 bd
       -0.2064155 0.3068905 0.22465368 -0.10173569
000350 99 e0 0d 3d 30 1d c4 3c a2 6a 92 3e 84 15 cc bc
       0.03463802 0.023939699 0.2859698 -0.024912603
000360 a3 00 ce 3c e9 f4 70 bd dc da 8a 3e 3d d3 01 be
       0.025146788 -0.058827315 0.271201 -0.12678237
000370 c9 58 4a be cf 04 af 3e 2e 45 4d 3d 1c c7 bd 3e
       -0.19760431 0.34183356 0.050114803 0.3706597
000380 18 de 84 3e fd 4d 80 3e bc ea 2c bf e5 ec 93 3e
       0.25950694 0.250595 -0.67545676 0.28891674
000390 23 00 62 ba 3c 30 8c bc 35 30 5f 3e 09 e8 e5 bc
       -0.0008621236 -0.017112844 0.21795733 -0.028064745
0003a0 17 77 6c 3d 62 f2 8d bd 2d 20 b2 3c d0 03 fe 3d
       0.05773076 -0.069309965 0.021743858 0.12403071
0003b0 88 ab 49 3d ba d8 78 3f 90 27 78 be 9f 67 3f 3d
       0.04923585 0.972057 -0.24233842 0.04672968
0003c0 31 d4 7b 3e e4 31 24 bf f6 30 0c bf d8 9d 4d 3d
       0.24592663 -0.6413863 -0.5476221 0.05019936
0003d0 00 fe ad 3e f1 f7 2a 3e 0d 89 5f 3e 6b 86 38 3e
       0.3398285 0.16696145 0.21829624 0.18020026
0003e0 80 2e 5e 3e e9 d0 be 3d ef 1f e0 be a3 45 1a 3e
       0.21697426 0.0931719 -0.43774363 0.15065627
0003f0 9d 3b c2 3e f9 29 09 bf 8a c8 fc bd da 71 a9 be
       0.37936106 -0.5357967 -0.12342937 -0.33094674

mlp.0.bias f4 [16]
000000 e7 05 89 be 72 1c 61 3e db 20 f1 3d 87 b3 4c be
       -0.26762316 0.21983507 0.11773845 -0.19990359
000010 8a e8 bd bd 33 b6 08 be 56 86 6e 3d c0 fd 6a 3e
       -0.09272869 -0.13350753 0.05823358 0.2294836
000020 da bb 99 bd c7 70 44 3e c3 08 a7 3d 88 26 05 be
       -0.07506533 0.19183646 0.08155968 -0.1300298
000030 fe 5c 4c be 0c 4b 0e be 4a fe b4 3d 63 2f e0 bd
       -0.19957349 -0.13895816 0.08837564 -0.10946538

mlp.2.weight f4 [1, 16]
000000 57 96 18 be f7 97 21 3e 15 c5 03 bf 8a d3 32 be
       -0.149011 0.15780626 -0.514726 -0.17463508
000010 81 98 fb 3e 5a fd 95 bf 26 62 7c be 86 8a 56 3e
       0.4913979 -1.1717942 -0.24646816 0.2095128
000020 30 1d d3 3e 2d e7 bf 3e 61 a7 b2 bf 82 e8 a2 be
       0.41233206 0.3748106 -1.395733 -0.31818014
000030 c8 86 9d be 11 61 42 be f8 52 75 3e 2f d1 92 3d
       -0.30766892 -0.1898234 0.23957431 0.07168805
