data/CTC/Fluo-N2DH-SIM+/02_RES_GAT/20250718_190450/manual_fold_2_best_model.pth (torch, 11177 bytes, 15 tensors)

gat1.att_src f4 [1, 1, 16]
0.44215384 0.34290984 0.32736447 0.13521561 -0.28982753 0.025569282 -0.34564528 -0.086602494
-0.06894983 0.33548254 -0.39038682 0.47532317 -0.16184416 -0.117418624 -0.58038217 0.39869973
00000000: fd61 e23e e191 af3e 519c a73e f675 0a3e
00000010: 4664 94be ac76 d13c 6bf8 b0be a65c b1bd
00000020: 9235 8dbd 5ec4 ab3e c8e0 c7be 8f5d f33e
00000030: 7aba 25be 2d79 f0bd ed93 14bf 5f22 cc3e

gat1.att_dst f4 [1, 1, 16]
-0.22647688 -0.5560709 -0.6040387 0.7233873 -0.3084637 -0.68275595 0.1223547 0.12527019
-0.61230654 -0.22834912 0.5861746 0.07966696 -0.16765308 -0.005045776 0.12965746 0.07498571
00000000: 8ee9 67be aa5a 0ebf 48a2 1abf e92f 393f
00000010: f4ee 9dbe 18c9 2ebf 1a95 fa3d d446 003e
00000020: 1fc0 1cbf 5ad4 69be 8a0f 163f 6e28 a33d
00000030: 40ad 2bbe 0957 a5bb edc4 043e 1c92 993d

gat1.att_edge f4 [1, 1, 16]
-0.5041936 1.3092229 0.4450939 0.81077564 1.0949324 1.1891156 0.9287971 -1.4655017
-0.78589773 -0.8871845 1.4675469 -0.24408907 -1.037703 0.78116477 -0.897493 0.886123
00000000: d512 01bf 9e94 a73f 59e3 e33e fe8e 4f3f
00000010: bf26 8c3f f134 983f a6c5 6d3f 8f95 bbbf
00000020: 9830 49bf 861e 63bf 94d8 bb3f 7cf2 79be
00000030: 74d3 84bf 6afa 473f 1ac2 65bf f5d8 623f

gat1.bias f4 [16]
0.027905196 0.9673183 1.0820528 0.2412202 0.39439628 -0.082753755 0.6880478 0.4344262
0.6146924 0.9709591 0.79120934 1.0975459 -0.5506922 0.657985 0.26431468 -0.09340152
00000000: 7099 e43c 2ca2 773f b580 8a3f 6e02 773e
00000010: 4fee c93e cd7a a9bd e723 303f 1c6d de3e
00000020: 7b5c 1d3f c790 783f b28c 4a3f 627c 8c3f
00000030: 2afa 0cbf b471 283f 4154 873e 4c49 bfbd

gat1.lin.weight f4 [16, 14]
0.20630805 -0.6126593 0.5097042 -0.0023840582 0.15056469 -0.5976007 -0.44423118 -0.043936275
-0.42303506 -0.14505109 0.31580162 0.27633372 0.32517233 0.16449125 0.14358759 0.12638001
-0.5689947 -0.029369047 -1.0150647 0.35481656 -0.98992807 0.08703286 -0.92299443 0.776166
-0.4357856 0.08843108 -0.28847247 0.01963104 0.111316666 0.9269238 0.21238907 0.6703888
-0.5051015 0.38153058 -0.44325167 0.13384522 0.4122735 0.41133514 0.5710425 0.18664654
-0.17613906 0.027014928 0.03127806 0.09652209 0.47230238 0.94940686 0.081688836 1.2338731
0.05927307 0.9621807 0.15238886 -0.1324046 0.8296901 -0.028399603 0.29590803 -0.21762025
-0.069109835 -0.23870637 -0.23293732 -0.60606647 0.81021124 -0.5483984 0.29926872 -0.7588329
0.71683526 0.025001606 0.2571357 0.3312206 -0.38513482 -0.07542868 0.0036579908 0.14916502
0.13835435 0.39494416 0.2513882 0.13555518 0.55812126 0.14315195 0.6422144 0.3665943
0.5026135 -0.18798654 -0.2509827 -0.12403096 -0.7987194 0.28669924 -0.29090235 0.50765824
0.5128914 0.719721 0.5895846 0.39362657 0.67948025 -0.36194852 -0.08973388 -0.28917116
-0.33003405 -0.2920128 0.30850837 1.1537439 0.5362823 -0.30334285 -0.42303276 -0.42291683
-0.047861386 0.06752327 -0.691177 0.54640555 -0.014757686 0.20170656 0.4367746 0.009490555
1.1916298 0.37324 -0.11588723 0.34695613 0.7667733 0.42107663 0.76872754 0.97192305
0.68490654 0.16716546 -0.091791995 -0.47613743 0.042772368 -0.055619948 0.24655795 0.124852136
-0.41733804 0.75409377 -0.8239701 0.7492945 -1.0569414 0.32422212 -1.0358535 -0.22983155
-0.3692177 -0.43414804 -0.05180118 -0.25201577 -0.2664767 -0.027150411 -0.46477968 -0.5841809
-0.7211598 -0.6145353 -0.551567 -0.14557399 -0.7234635 0.26382163 0.10216202 -0.028668515
-0.21367322 -0.02905094 -0.12692246 0.61427057 -0.20903876 0.25774616 -0.49889135 0.6616268
-1.1245582 1.0516967 -1.1343918 -0.11150719 -0.3337819 -0.3210504 -0.3213791 0.09808044
0.11525265 -0.5663516 -0.29988298 0.1614527 -0.1731263 -0.31955007 0.6084141 0.17093061
-0.09985396 -0.1289901 0.76507235 0.33819064 0.016634192 0.0061208718 0.60229963 -0.112172246
0.24749796 0.26560447 1.1771797 0.185454 0.860508 -0.2432785 0.6163137 0.24428937
-0.20427825 -0.13489604 0.10531588 0.081060804 -0.12374644 -0.17371799 -0.089514256 0.8302653
0.6607128 1.0208458 0.116734564 0.40213645 0.41406316 0.37413698 -0.011061286 -0.07385795
0.44790584 0.24148597 -0.65429205 -0.48595706 0.00125643 0.3430049 -0.20383526 0.00048086743
-0.34770778 0.23755369 -0.06575053 -0.12913667 0.15549237 -0.0033672713 0.46533993 -0.06702493
00000000: 6b42 533e 3dd7 1cbf f97b 023f dc3d 1cbb
00000010: a12d 1a3e 5cfc 18bf 4572 e3be 86f6 33bd
00000020: 0d98 d8be 4688 14be c0b0 a13e 9d7b 8d3e
00000030: fd7c a63e 6570 283e a008 133e c369 013e
00000040: a3a9 11bf 5b97 f0bc a4ed 81bf 84aa b53e
00000050: ed6b 7dbf 493e b23d 5d49 6cbf d1b2 463f
00000060: 4a1f dfbe 5b1b b53d aab2 93be 46d1 a03c
00000070: fef9 e33d e14a 6d3f 857c 593e 9a9e 2b3f
00000080: 554e 01bf fa57 c33e e2f1 e2be b90e 093e
00000090: 8315 d33e 859a d23e d72f 123f 4520 3f3e
000000a0: cc5d 34be 694e dd3c 6c1d 003d 60ad c53d
000000b0: 9ed1 f13e 540c 733f 7a4c a73d 8eef 9d3f
000000c0: 52c8 723d 7951 763f d30b 1c3e 1295 07be
000000d0: 9266 543f 49a6 e8bc 4281 973e d8d7 5ebe
000000e0: 7589 8dbd 716f 74be 1f87 6ebe 2c27 1bbf
000000f0: 016a 4f3f d663 0cbf c039 993e df42 42bf
00000100: 8482 373f 2bd0 cc3c 4aa7 833e bf95 a93e
00000110: 6430 c5be 5a7a 9abd e7ba 6f3b b7be 183e
00000120: c3ac 0d3e 1f36 ca3e f4b5 803e face 0a3e
00000130: 09e1 0e3f 6d96 123e 2a68 243f 40b2 bb3e
00000140: 47ab 003f 8b7f 40be ce80 80be f203 febd
00000150: e078 4cbf 3eca 923e 27f1 94be e4f5 013f
00000160: da4c 033f a33f 383f 04ef 163f 6c89 c93e
00000170: 6bf2 2d3f 5151 b9be 65c6 b7bd 3e0e 94be
00000180: 39fa a8be b482 95be cff4 9d3e e1ad 933f
00000190: cc49 093f c14f 9bbe c097 d8be 8e88 d8be
000001a0: 4d0a 44bd a449 8a3d faf0 30bf 3ce1 0b3f
000001b0: 39ca 71bc 2a8c 4e3e eca0 df3e 467e 1b3c
000001c0: 5387 983f 5019 bf3e 4956 edbd 3ca4 b13e
000001d0: 414b 443f 5b97 d73e 54cb 443f f3cf 783f
000001e0: 0956 2f3f 6c2d 2b3e 71fd bbbd 49c8 f3be
000001f0: 1432 2f3d bed1 63bd b079 7c3e 7ab2 ff3d
00000200: 55ad d5be 4a0c 413f b4ef 52bf c4d1 3f3f
00000210: db49 87bf 7100 a63e d996 84bf f658 6bbe
00000220: 1a0a bdbe a748 debe 792d 54bd 3608 81be
00000230: a26f 88be 8a6a debc 9af7 edbe e18c 15bf
00000240: ee9d 38bf 2f52 1dbf 7f33 0dbf 5911 15be
00000250: e734 39bf a113 873e 523a d13d 3cda eabc
00000260: 27cd 5abe 3dfc edbc f6f7 01be d640 1d3f
00000270: 420e 56be 4ef7 833e b06e ffbe 6060 293f
00000280: 86f1 8fbf ff9d 863f c033 91bf e25d e4bd
00000290: 76e5 aabe b860 a4be cd8b a4be 66de c83d
000002a0: 9509 ec3d 6bfc 10bf 438a 99be db53 253e
000002b0: 0548 31be 119c a3be 07c1 1b3f 6f08 2f3e
000002c0: 3c80 ccbd fb15 04be c8db 433f 5327 ad3e
000002d0: 6e44 883c 9891 c83b 4f30 1a3f 90ba e5bd
000002e0: 1b70 7d3e 4ffd 873e d3ad 963f a7e7 3d3e
000002f0: 414a 5c3f 001e 79be bcc6 1d3f fe26 7a3e
00000300: 512e 51be 3022 0abe daaf d73d 3503 a63d
00000310: c66e fdbd 21e3 31be 4053 b7bd 448c 543f
00000320: 7924 293f 13ab 823f 8812 ef3d d4e4 cd3e
00000330: 1600 d43e e28e bf3e 653a 35bc d642 97bd
00000340: ea53 e53e 1948 773e af7f 27bf 5dcf f8be
00000350: ccae a43a 579e af3e 31ba 50be ef1c fc39
00000360: c106 b2be 4641 733e 37a8 86bd 673c 04be
00000370: 6439 1f3e 70ad 5cbb 0941 ee3e 5e44 89bd

gat1.lin_edge.weight f4 [16, 2]
1.0629827 -0.37284404 -0.62088794 1.4435512 -0.39009708 0.75911903 -0.034602758 1.2365234
-0.82645094 1.431165 -0.7701005 1.073232 -0.12877557 1.2906568 0.5775989 -1.1390122
0.86575043 -0.805706 0.116462275 -1.3480283 -1.0837849 1.3042306 0.17752908 -0.26763865
0.052583598 -0.90875 -0.6181306 0.8370663 0.8814934 -0.9755423 -0.7135821 0.4505603
00000000: d10f 883f 6ae5 bebe 83f2 1ebf 49c6 b83f
00000010: ceba c7be a055 423f 9fbb 0dbd 6646 9e3f
00000020: 4a92 53bf 6a30 b73f 4e25 45bf ab5f 893f
00000030: bedd 03be 3e34 a53f 86dd 133f 27cb 91bf
00000040: d2a1 5d3f c042 4ebf c683 ee3d 318c acbf
00000050: 77b9 8abf 07f1 a63f 2fca 353e ef07 89be
00000060: e661 573d d7a3 68bf cf3d 1ebf fa49 563f
00000070: 8da9 613f 24bd 79bf 51ad 36bf d7af e63e

gat2.att_src f4 [1, 1, 16]
-0.44520804 0.16310157 -0.7930967 0.8052908 0.06488077 -0.21260889 0.090535946 -0.44700357
0.83705854 0.0007650051 0.0039761616 0.24926983 -0.36823896 0.09299236 0.20169763 0.4288936
00000000: 4ff2 e3be 1904 273e 6308 4bbf 8a27 4e3f
00000010: 36e0 843d 25b6 59be e96a b93d a7dd e4be
00000020: 7849 563f a08a 483a 764a 823b 9740 7f3e
00000030: d189 bcbe c772 be3d d389 4e3e f197 db3e

gat2.att_dst f4 [1, 1, 16]
0.0932315 0.20733924 -0.8032183 -0.2828689 0.08713272 -0.5558509 -0.56756985 -0.413352
-0.11145738 -0.6343794 -0.79347765 -0.2925997 -0.20565386 -0.21883558 0.38810512 0.5572827
00000000: 28f0 be3d bd50 543e b79f 4dbf 31d4 90be
00000010: a472 b23d 3f4c 0ebf 424c 11bf e0a2 d3be
00000020: c443 e4bd b066 22bf 5a21 4bbf a1cf 95be
00000030: ed96 52be 6f16 60be b7b5 c63e 14aa 0e3f

gat2.att_edge f4 [1, 1, 16]
-1.8800682 -0.9084891 -0.7697549 1.3328283 -1.703198 1.6603515 -1.474048 -1.3781085
1.1833878 1.5922269 -1.5481265 -1.3729221 1.8487558 1.424383 1.5201842 -1.1843354
00000000: 13a6 f0bf be92 68bf a80e 45bf 1e9a aa3f
00000010: 6402 dabf 6686 d43f 9bad bcbf dc65 b0bf
00000020: 4079 973f 17ce cb3f 0229 c6bf e9bb afbf
00000030: 08a4 ec3f 2f52 b63f 6595 c23f 4d98 97bf

gat2.bias f4 [16]
-0.05931544 0.3547389 0.22127473 0.05647633 -0.44839695 -0.39464626 -0.33964592 0.09396841
-0.52110565 0.56115603 0.38673967 0.17397778 -0.047436774 0.4609938 0.4268466 0.08983783
00000000: bff4 72bd 56a0 b53e d895 623e b953 673d
00000010: 4994 e5be 130f cabe 12e6 adbe 8272 c03d
00000020: 2e67 05bf eca7 0f3f be02 c63e 3b27 323e
00000030: 104d 42bd 6107 ec3e a38b da3e e5fc b73d

gat2.lin.weight f4 [16, 16]
0.23642096 -0.62254745 -0.427841 0.30525532 0.006405072 0.5982233 0.9526516 -0.51815516
0.6880849 -0.9038365 -1.4579237 -0.805109 0.043881554 0.9338867 0.9687129 0.14319624
-0.24004328 0.18370493 0.48188475 -0.15307222 0.38546804 -0.029488226 -0.17357095 0.2999424
-0.11549116 0.3892216 -0.18282151 0.39692008 -0.3234826 0.38006032 -0.2949416 0.34109777
0.4436962 0.22044942 -0.25229776 -0.04513953 -0.28300002 -0.3550923 0.3191834 -0.5177979
-0.07889317 -0.29456326 0.66021377 0.10228446 -0.32457417 0.22391473 0.26461816 0.46472332
0.21416318 -0.07577767 0.36709422 0.37988523 -0.58162016 0.00389507 -0.08738152 0.4751306
0.44195327 0.51469207 -0.2863686 0.5070621 0.032439757 -0.37714586 -0.015377046 -0.033826128
0.2136676 -0.031812582 -0.094359815 -0.14810462 -0.58438146 -0.88263524 -0.9013074 -1.0372282
0.85797924 0.44059548 0.024083178 0.15466607 -0.28800595 0.37050784 -0.30606169 0.7089992
0.34809408 -1.0692829 -1.1381859 -0.036666702 -0.11280118 -0.6134061 0.45338032 -1.3042307
-0.5603236 -1.1998855 -0.007312646 -0.82858044 0.93515646 0.18794163 0.83421123 0.71174896
0.64000654 -0.44417298 0.16596217 0.35302794 0.59632593 -0.5178209 -0.7764844 -1.339223
-0.49694565 0.34220198 0.18564813 -0.11178343 0.83040595 -0.35610533 -0.07315434 0.28607562
0.2790731 0.3756128 -0.03447744 0.028556664 -0.63591534 -0.5200321 0.23823778 0.23260225
-0.44465637 0.74796814 0.17925744 0.5500074 -0.20054828 -0.809066 0.25811672 -0.10844815
0.58731246 0.028101327 0.14472327 0.87625766 -1.3963115 0.040522594 -0.5199065 -0.5337388
-0.050945915 0.16385664 -0.318124 0.6770334 -0.3840704 -0.3525265 -0.104185246 0.22959879
0.16238792 -0.39161468 0.46195978 1.1118699 0.17380552 0.83763856 1.1798816 -0.57055575
1.3747767 -0.025266413 -0.1471011 0.30129632 0.65618014 0.7610416 1.1344293 0.15108165
0.37555584 -0.34930682 0.77893883 0.8235104 -0.023976536 0.13458858 0.8496081 -0.27644026
0.28514433 0.28128627 0.010743654 0.08154287 0.53761995 0.39575976 0.82127726 -0.18870316
0.03510701 -0.847696 0.33218366 -0.15824686 0.07590144 -0.3290652 0.3467106 0.0058849473
-0.3871082 -0.40236247 0.23287652 -0.093923524 0.2789258 0.16123293 0.7554286 -0.14651369
0.42567417 0.42537332 -0.87584066 -0.47155786 0.5465405 0.33788705 0.029030139 -0.18868932
-0.11676174 -0.21906799 1.2889051 0.0061241956 -0.5861945 -0.6305102 -0.08516643 0.26175958
-0.114097 0.26935157 0.17891526 0.15322825 -0.5681169 0.06946953 0.4279113 0.6052371
-0.31165358 0.5844097 0.6315351 0.64493364 -0.26871106 -0.0047339704 0.5075006 0.195845
-0.06672713 0.85969335 0.70599395 -0.31017536 -0.96171206 0.09075145 -0.22960441 0.70284826
-0.6721986 1.0949076 0.14359477 1.1434381 -0.03955334 -0.50002486 -0.39483804 0.2349725
0.3327124 0.87230474 0.5872543 0.47887662 -0.6776128 -0.3014111 -0.2576888 0.58384186
-0.25043562 0.48322123 -0.12733549 1.0193264 0.06438226 -0.18882889 -0.2264287 -0.04301225
00000000: 5618 723e 455f 1fbf fa0d dbbe 6d4a 9c3e
00000010: a3e1 d13b 2a25 193f fae0 733f d1a5 04bf
00000020: 5526 303f d461 67bf 3e9d babf a01b 4ebf
00000030: 25bd 333d 3313 6f3f 92fd 773f 09a2 123e
00000040: e8cd 75be 251d 3c3e 99b9 f63e f7be 1cbe
00000050: 115c c53e 4b91 f1bc 95bc 31be 0d92 993e
00000060: a186 ecbd 0e48 c73e 9035 3bbe 1c39 cb3e
00000070: 839f a5be 4497 c23e 9602 97be 5ea4 ae3e
00000080: 262c e33e 7ebd 613e 2c2d 81be 3ae4 38bd
00000090: 61e5 90be a8ce b5be 026c a33e 678e 04bf
000000a0: be92 a1bd ffd0 96be c503 293f 847a d13d
000000b0: 962e a6be e749 653e 087c 873e 37f0 ed3e
000000c0: 984d 5b3e 5331 9bbd c6f3 bb3e 5180 c23e
000000d0: 0fe5 14bf 6e44 7f3b 15f5 b2bd 5144 f33e
000000e0: b347 e23e dcc2 033f e89e 92be d2ce 013f
000000f0: 8ddf 043d 4319 c1be 01f0 7bbc 448d 0abd
00000100: aecb 5a3e e94d 02bd b83f c1bd bda8 17be
00000110: 069a 15bf 62f4 61bf 15bc 66bf e5c3 84bf
00000120: 87a4 5b3f bb95 e13e 164a c53c c860 1e3e
00000130: 8475 93be 34b3 bd3e 1eb4 9cbe f980 353f
00000140: 6339 b23e 43de 88bf 13b0 91bf d32f 16bd
00000150: 4e04 e7bd 2f08 1dbf 7721 e83e 08f1 a6bf
00000160: 5e71 0fbf d995 99bf ec9e efbb d91d 54bf
00000170: 6a66 6f3f c573 403e de8e 553f 2e35 363f
00000180: 78d7 233f a46a e3be fdf1 293e 14c0 b43e
00000190: d1a8 183f e98f 04bf aec7 46bf a96b abbf
000001a0: a96f febe 1935 af3e 8b1a 3e3e b6ee e4bd
000001b0: 7c95 543f 7053 b6be f1d1 95bd 8178 923e
000001c0: abe2 8e3e 5250 c03e 3738 0dbd aaef e93c
000001d0: 59cb 22bf d320 05bf 9bf4 733e 492f 6e3e
000001e0: 00aa e3be d77a 3f3f 438f 373e 49cd 0c3f
000001f0: 875c 4dbe f31e 4fbf e027 843e 101a debd
00000200: 1c5a 163f c134 e63c 5632 143e 6c52 603f
00000210: 56ba b2bf 05fb 253d 9818 05bf 1ba3 08bf
00000220: aaac 50bd 09ca 273e 26e1 a2be 1052 2d3f
00000230: e0a4 c4be 5a7e b4be 135f d5bd f21b 6b3e
00000240: 0549 263e b881 c8be fe85 ec3e c151 8e3f
00000250: 13fa 313e 7b6f 563f 5c06 973f f10f 12bf
00000260: aff8 af3f 82fb cebc aca1 16be 8343 9a3e
00000270: 6cfb 273f 9fd3 423f fb34 913f 26b5 1a3e
00000280: db48 c03e 58d8 b2be 8968 473f 94d1 523f
00000290: 716a c4bc 97d1 093e eb7f 593f 9489 8dbe
000002a0: 70fe 913e c104 903e 2706 303c f3ff a63d
000002b0: 76a1 093f 06a1 ca3e 3a3f 523f 673b 41be
000002c0: 5ecc 0f3d 9b02 59bf fa13 aa3e 770b 22be
000002d0: 3772 9b3d 3c7b a8be 0d84 b13e 84d6 c03b
000002e0: 0c33 c6be 7402 cebe 2f77 6e3e fa5a c0bd
000002f0: 5dcf 8e3e 3f1a 253e c563 413f af07 16be
00000300: f7f1 d93e 88ca d93e 1837 60bf 0870 f1be
00000310: 14ea 0b3f 88ff ac3e 9dd0 ed3c c637 41be
00000320: c720 efbd 5c53 60be d8fa a43f 7aad c83b
00000330: d810 16bf 1e69 21bf bd6b aebd 5a05 863e
00000340: b0ab e9bd 73e8 893e 9035 373e dee7 1c3e
00000350: 1c70 11bf 0a46 8e3d 3117 db3e d2f0 1a3f
00000360: 0f91 9fbe e09b 153f 49ac 213f 5f1a 253f
00000370: 7f94 89be 6c1f 9bbb 8feb 013f 978b 483e
00000380: 3ca8 88bd dd14 5c3f 05bc 343f 4ecf 9ebe
00000390: c332 76bf e5db b93d 6b1d 6bbe dded 333f
000003a0: 3515 2cbf ef25 8c3f 820a 133e 2e5c 923f
000003b0: af02 22bd a101 00bf 3628 cabe a29c 703e
000003c0: 4859 aa3e 5d4f 5f3f 4c56 163f 512f f53e
000003d0: 0878 2dbf 8e52 9abe c9ef 83be a976 153f
000003e0: 1939 80be c668 f73e 3c64 02be 4a79 823f
000003f0: d9da 833d 5c5c 41be eddc 67be 9d2d 30bd

gat2.lin_edge.weight f4 [16, 2]
1.8282497 -0.17328067 0.8456645 -0.2862623 0.82075816 -0.058434647 -1.5389013 -0.16432364
1.5123607 -0.4551682 -1.5166016 0.6245696 1.472985 -0.4598526 1.7434033 -0.29439813
-1.2199012 -0.30427364 -1.3492981 0.040529322 1.4752425 0.42459828 1.3126336 -0.4046498
-1.9073981 -0.3576305 -1.5057596 -0.19916913 -1.9543871 0.61096627 1.3032252 -0.24278468
00000000: 1604 ea3f 7d70 31be 787d 583f f990 92be
00000010: 351d 523f 2b59 6fbd b8fa c4bf 7544 28be
00000020: 0995 c13f ce0b e9be 0020 c2bf cbe3 1f3f
00000030: c68a bc3f cd71 ebbe d727 df3f 5abb 96be
00000040: b925 9cbf c1c9 9bbe cdb5 acbf 1302 263d
00000050: bfd4 bc3f f264 d93e 6104 a83f 422e cfbe
00000060: 9f25 f4bf 581b b7be bbbc c0bf fef2 4bbe
00000070: 5b29 fabf 4968 1c3f 15d0 a63f 8c9c 78be

mlp.0.weight f4 [16, 32]
-0.56438595 -0.051693045 0.18651791 -0.27749735 0.3549714 -1.056801 -0.6777152 -0.03445254
-0.24004172 -0.73943233 -0.35914242 -0.5382627 0.6536628 -0.13564937 -0.08728584 -0.1772048
0.6152344 0.20397677 -0.18055934 0.32907766 -0.25496224 0.3089201 0.624964 0.12329565
0.21330473 0.7329046 0.36604092 0.47131696 -0.5734752 -0.049579587 0.02131089 0.27093264
0.31024468 -0.025296826 0.23495425 -0.49859965 0.27487758 0.20699106 0.4081912 -0.27093157
0.6060985 0.08332107 0.112346426 0.088080496 0.30132425 -0.08863154 -0.4771006 -0.49443546
0.2856327 -0.05255095 0.17354608 -0.44739717 -0.04833442 1.0166959 0.053870488 -0.70674974
0.49110287 0.12244606 0.048893563 0.25356394 0.01945459 -0.11299243 -0.57566345 -0.38348034
-0.6123027 0.2587186 0.27371588 -0.17322223 0.6692568 0.6442912 -0.04818946 -0.0015628563
0.332689 0.2145775 -0.041937444 0.30771858 0.18975772 0.22777304 -0.04401505 0.010186019
-0.5556557 0.48059765 0.16633841 0.108492024 0.16162363 1.3048755 0.21998613 0.055551484
0.17722327 0.14554588 0.20298064 0.5683438 -0.063164935 0.11770904 0.10333549 -0.0046067247
0.0065306746 0.3155389 -0.2755356 0.11925072 -0.8957597 -0.90482414 -0.19464386 0.054465372
0.11387699 0.13308117 0.22001235 -0.2736503 -0.48392674 0.123555824 0.117433995 0.17460606
-0.2810764 -0.15660536 0.31035239 -0.15984428 0.45691085 -0.6132827 -0.3500159 -0.24638885
-0.16748092 -0.07223877 -0.17667954 -1.1612072 0.539859 -0.12727277 -0.03036843 -0.13650598
0.70434415 -0.191838 0.1238298 -0.18307275 0.42864093 -0.08548562 0.83750314 -0.44001442
-0.015799176 0.53447837 0.14332582 -0.23448649 0.32927817 -0.4750824 -0.43526417 -0.4766616
-0.6728567 0.28722346 -0.07414454 0.26528487 -0.14793065 0.28986564 -0.80760145 0.36036375
0.10454042 -0.59438753 -0.09949309 0.27978528 -0.32938075 0.4095484 0.40044552 0.48900267
0.56134003 0.103200264 0.050307035 0.031483132 -0.03319822 0.6681853 0.644367 -0.435226
1.1186082 0.2906638 0.032454137 0.05083903 -0.21546228 -0.22277209 -0.6566477 -0.17291705
0.6304032 -0.13608688 -0.0061562406 0.25435764 -0.26482818 1.3966475 0.52294284 -0.49463376
0.858224 -0.060935304 0.27097216 0.2634564 -0.30123252 -0.15034357 -0.6213397 -0.04932779
0.47024623 -0.06909475 0.06409144 0.19652925 -0.3311284 -0.49742994 0.26235852 0.14334597
0.1582846 0.2097605 0.064236455 -0.11449472 0.064694 0.08452923 0.22398329 0.10148643
0.3833903 -0.046722665 0.11315858 0.2443647 0.18425247 -1.2428592 -0.20242876 0.107857876
-0.048323702 0.15589432 0.098709606 -0.28792292 0.3065129 -0.109388016 0.121358156 0.11663345
-0.09839534 -0.19475745 -0.046994496 -0.2268311 0.14523354 0.31267396 0.01159262 -0.0047738403
-0.07945576 -0.22604313 -0.24051118 0.18403614 -0.05523246 0.16190052 -0.19319525 -0.05512323
-0.21724826 -0.16995846 -0.0048819883 0.08341974 0.12689671 -0.22907569 0.18459314 -0.124337345
-0.09091322 0.0028188836 0.042316798 0.20123236 0.0026524912 -0.10648301 -0.20771924 -0.30832902
00000000: 997b 10bf 16bc 53bd 8dfe 3e3e 2214 8ebe
00000010: d0be b53e 4145 87bf be7e 2dbf 1b1e 0dbd
00000020: 7fcd 75be 704b 3dbf 84e1 b7be 96cb 09bf
00000030: 7256 273f abe7 0abe ebc2 b2bd 2d75 35be
00000040: 0080 1d3f 49df 503e 8ce4 38be de7c a83e
00000050: 698a 82be c62a 9e3e a4fd 1f3f 6e82 fc3d
00000060: 8e6c 5a3e a39f 3b3f b769 bb3e 7550 f13e
00000070: 45cf 12bf f713 4bbd 2d94 ae3c afb7 8a3e
00000080: 64d8 9e3e 4a3b cfbc d997 703e 7448 ffbe
00000090: c1bc 8c3e 77f5 533e 70fe d03e 8bb7 8abe
000000a0: 4529 1b3f 3da4 aa3d e215 e63d 8c63 b43d
000000b0: 2c47 9a3e 7484 b5bd 8846 f4be a526 fdbe
000000c0: 733e 923e aa3f 57bd 10b6 313e 3e11 e5be
000000d0: 50fa 45bd 1723 823f 4da7 5c3d 8ded 34bf
000000e0: d671 fb3e 00c5 fa3d 9e44 483d 22d3 813e
000000f0: 3b5f 9f3c 9368 e7bd ae5e 13bf 8957 c4be
00000100: dfbf 1cbf c476 843e 7d24 8c3e 2b61 31be
00000110: 6a54 2b3f 45f0 243f 5062 45bd c1d8 ccba
00000120: 3656 aa3e 34ba 5b3e 99c6 2bbd 4a8d 9d3e
00000130: d94f 423e 563d 693e 2049 34bd 43e3 263c
00000140: 743f 0ebf e510 f63e 9e54 2a3e 1131 de3d
00000150: aa80 253e 2906 a73f 0b44 613e f489 633d
00000160: 047a 353e fb09 153e 28da 4f3e fb7e 113f
00000170: 9e5c 81bd 7011 f13d 8fa1 d33d 02f4 96bb
00000180: 45ff d53b 518e a13e 0113 8dbe b939 f43d
00000190: 8250 65bf 8ea2 67bf b850 47be 1517 5f3d
000001a0: 5738 e93d 6e46 083e eb4a 613e e41b 8cbe
000001b0: 3fc5 f7be d60a fd3d 3c81 f03d eecb 323e
000001c0: 3fe9 8fbe 285d 20be 82e6 9e3e 38ae 23be
000001d0: 38f0 e93e 1800 1dbf 4935 b3be 5c4d 7cbe
000001e0: 1e80 2bbe ecf1 93bd 7beb 34be 70a2 94bf
000001f0: 3334 0a3f cb53 02be 37c7 f8bc 39c8 0bbe
00000200: e64f 343f 2e71 44be 7a9a fd3d 6c77 3bbe
00000210: d376 db3e 1613 afbd 9b66 563f 9249 e1be
00000220: 466d 81bc 93d3 083f 01c4 123e 3a1d 70be
00000230: 2697 a83e 003e f3be f2da debe fd0c f4be
00000240: 5640 2cbf f40e 933e 18d9 97bd 6bd3 873e
00000250: 227b 17be 4569 943e f8be 4ebf 9981 b83e
00000260: 4a19 d63d c829 18bf 08c3 cbbd 0440 8f3e
00000270: 98a4 a8be 54b0 d13e 3207 cd3e 8f5e fa3e
00000280: fbb3 0f3f a95a d33d c00e 4e3d 75f4 003d
00000290: dbfa 07bd 310e 2b3f 3cf5 243f f1d5 debe
000002a0: 8e2e 8f3f e3d1 943e a1ee 043d 963c 503d
000002b0: 25a2 5cbe 5e1e 64be 101a 28bf 2b11 31be
000002c0: 1b62 213f 5c5a 0bbe 4aba c9bb 2a3b 823e
000002d0: 8f97 87be 58c5 b23f 95df 053f a340 fdbe
000002e0: 91b4 5b3f 4c97 79bd ddbc 8a3e c2e3 863e
000002f0: 263b 9abe aaf3 19be 1e10 1fbf f00b 4abd
00000300: 1dc4 f03e 8c81 8dbd 5f42 833d f73e 493e
00000310: a989 a9be 23af febe db53 863e 49c9 123e
00000320: 5c15 223e 75cb 563e 678e 833d 357c eabd
00000330: 4a7e 843d a91d ad3d e05b 653e 1ed8 cf3d
00000340: bc4b c43e 4460 3fbd b0bf e73d bd3a 7a3e
00000350: aeac 3c3e 0316 9fbf 7c49 4fbe 97e4 dc3d
00000360: 13ef 45bd c3a2 1f3e 4328 ca3d a26a 93be
00000370: 42ef 9c3e d306 e0bd a08a f83d 85dd ee3d
00000380: 7f83 c9bd 7f6e 47be 4d7d 40bd 6946 68be
00000390: 1ab8 143e cd16 a03e f9ee 3d3c e06d 9cbb
000003a0: b4b9 a2bd da77 67be 9048 76be f873 3c3e
000003b0: 6f3b 62bd 40c9 253e fad4 45be e5c8 61bd
000003c0: 5476 5ebe 9709 2ebe 16f9 9fbb f8d7 aa3d
000003d0: 36f1 013e d192 6abe fc05 3d3e 94a4 febd
000003e0: b630 babd 05bd 383b 6154 2d3d db0f 4e3e
000003f0: 6bd5 2d3b c413 dabd 5ab4 54be 4ddd 9dbe

mlp.0.bias f4 [16]
-0.2077653 0.21948414 0.33317912 -0.01862233 -0.13955902 0.0671256 0.013449644 0.04737817
0.3338813 -0.0045993673 -0.24450466 -0.015420457 -0.04584195 -0.0019375801 -0.2325165 0.24638073
00000000: 6dc0 54be 73c0 603e 7496 aa3e db8d 98bc
00000010: 8fe8 0ebe 2679 893d e55b 5c3c 9d0f 423d
00000020: 7df2 aa3e 4ab6 96bb 6e5f 7abe 16a6 7cbc
00000030: c5c4 3bbd 66f6 fdba ce18 6ebe 3b4b 7c3e

mlp.2.weight f4 [1, 16]
-0.9269234 0.34401038 0.28092274 -0.40794152 -1.0387577 0.6219057 -0.19772862 0.030608617
0.63693 0.041994218 0.964932 0.09032641 -0.32627714 -0.24666479 -0.01998058 0.2703402
00000000: da4a 6dbf 2122 b03e 1bd5 8f3e b6dd d0be
00000010: 03f6 84bf 3635 1f3f 5f79 4abe ecbe fa3c
00000020: d80d 233f 2102 2c3d c905 773f 0efd b83d
00000030: cc0d a7be b295 7cbe 50ae a3bc 086a 8a3e
