data/CTC/Fluo-N2DH-SIM+/02_RES_GAT/20250718_190450/top2_model_fold3.pth (torch, 11177 bytes, 15 tensors)

gat1.att_src f4 [1, 1, 16]
0	0xbdd20277	-0.102543764
1	0xbd940e27	-0.07229262
2	0xbe3e2315	-0.1856807
3	0x3e1b557d	0.1516933
4	0x3de36b30	0.11104429
5	0x3d9e5b59	0.07732267
6	0x3e141c7f	0.14463995
7	0xbee4f24c	-0.44716108
8	0xbe9484be	-0.29007524
9	0x3d65663b	0.056005698
10	0x3f25e8b7	0.6480822
11	0x3d8137ab	0.06309446
12	0xbf3c7591	-0.7361689
13	0xbe2bf064	-0.1679092
14	0x3eb3f4bb	0.35147652
15	0xbec03245	-0.37538353

gat1.att_dst f4 [1, 1, 16]
0	0x3fa21b1f	1.2664527
1	0x3f08239c	0.53179336
2	0x3f642d96	0.8913206
3	0x3edcedba	0.4315012
4	0x3e149f31	0.14513852
5	0xbe66d0a0	-0.22540522
6	0xbfb9b4b1	-1.4508268
7	0x3e8f1379	0.27944544
8	0xbea250fe	-0.31702417
9	0x3f87d627	1.0612229
10	0xbe207fd1	-0.15673758
11	0xbe8b9b10	-0.2726674
12	0x3eb20da2	0.34776026
13	0x3f7dadfa	0.9909359
14	0xbf490c26	-0.7853416
15	0xbe146e12	-0.14495113

gat1.att_edge f4 [1, 1, 16]
0	0x3dad1ab2	0.08452357
1	0x3f789e24	0.97116303
2	0xbf5ec47a	-0.8701855
3	0x3eb19801	0.34686282
4	0x3fa1800c	1.2617202
5	0xbf3c9e3d	-0.7367895
6	0xbf6cff07	-0.9257664
7	0x3f35f999	0.7108398
8	0xbd81fcf2	-0.063470736
9	0x3f1f39d9	0.62197644
10	0x3f2d48f9	0.6768947
11	0xbf1a310e	-0.602311
12	0x3e42bd9b	0.19017641
13	0x3f74c145	0.95607406
14	0xbf9bdacc	-1.2176147
15	0x3f907a81	1.1287385

gat1.bias f4 [16]
0	0x3dd2861e	0.10279487
1	0x3ee31955	0.44355264
2	0x3c4766d9	0.012170517
3	0x3e3bc641	0.18337347
4	0xbe4adf16	-0.19811663
5	0xbf352624	-0.7076132
6	0xbebb7624	-0.36613572
7	0xbf065019	-0.5246597
8	0x3ef829e7	0.4846947
9	0x3dc6dbeb	0.09709915
10	0x3e9fee1d	0.31236354
11	0x3eccd36b	0.4000505
12	0x3cf4f87a	0.02990364
13	0x3f0c2972	0.5475074
14	0xbe918397	-0.28420708
15	0x3f180468	0.59381723

gat1.lin.weight f4 [16, 14]
0	0x3c8c9084	0.017158754
1	0x3ed4c0d4	0.41553366
2	0xbda295a7	-0.079387
3	0xbef5d718	-0.48015666
4	0x3f14adfc	0.5807798
5	0xbf8977d3	-1.0739692
6	0x3e81e1a6	0.2536747
7	0xbf359edd	-0.7094553
8	0x3f67a933	0.9049255
9	0x3bc68c77	0.006059225
10	0x3eb74d58	0.35801196
11	0x3dcf6142	0.10125972
12	0x3d8da156	0.06915538
13	0xbd025785	-0.031821746
14	0xbe37e4b5	-0.17958339
15	0x3e50f410	0.20405602
16	0x3ea3e895	0.32013384
17	0x3e920ff6	0.28527802
18	0x3df26660	0.11835933
19	0x3b169032	0.002297413
20	0xbe612da3	-0.21990065
21	0x3ed6b8ac	0.41937768
22	0xbe155d9e	-0.14586493
23	0x3f1bdb7d	0.6088179
24	0x3cc1c2c6	0.023652446
25	0x3d78d3d6	0.060748897
26	0x3e32da54	0.17466098
27	0x3e376d6b	0.17912833
28	0x3eb301a2	0.34962183
29	0x3eedd6de	0.46452993
30	0xbeb94ee1	-0.36192992
31	0xbe9461d5	-0.2898089
32	0x3e77ba19	0.24192084
33	0xbf1a26fd	-0.6021574
34	0xbd879fbd	-0.066222645
35	0xbf4a42ca	-0.7900816
36	0xbdab884a	-0.083756045
37	0xbecab330	-0.39589834
38	0xbbb1b558	-0.005423229
39	0xbdbda655	-0.09260241
40	0xbe3c49be	-0.18387505
41	0xbe65eaaf	-0.22452806
42	0x3df85d84	0.12127212
43	0x3f1908bd	0.5977896
44	0xbf2d4013	-0.67675894
45	0xbeed04ca	-0.46292716
46	0xbeada05f	-0.33911416
47	0x3d21092f	0.0393154
48	0xbe986fa0	-0.29772663
49	0xbf2b0094	-0.6679776
50	0xbe44f91b	-0.19235651
51	0xbf04c393	-0.5186092
52	0xbf1a7590	-0.60335636
53	0xbe8c4c03	-0.27401742
54	0xbee89e7f	-0.45433423
55	0x3b60b778	0.0034289043
56	0x3ea28349	0.31740788
57	0xbdf4399e	-0.11925052
58	0xbe3823df	-0.17982434
59	0xbf082d1d	-0.5319384
60	0xbf1071be	-0.56423557
61	0xbe9db1fd	-0.30799857
62	0xbf4b4cd6	-0.7941412
63	0x3e0d9bb1	0.13828923
64	0xbe8ad301	-0.27114108
65	0x3eeea0ba	0.46607
66	0x3ec3c675	0.38237348
67	0xbe515172	-0.20441225
68	0x3e1aecdd	0.15129419
69	0x3e8bdc9b	0.27316746
70	0xbdb26b6b	-0.087118946
71	0x3f8d303f	1.1030349
72	0xbe2a3805	-0.16622932
73	0xbc3f9f5e	-0.011695711
74	0xbe7241e6	-0.23657951
75	0x3f149843	0.5804483
76	0xbf488070	-0.7832098
77	0x3f59f5af	0.8514051
78	0xbf0de421	-0.5542622
79	0xbba196ea	-0.0049313204
80	0xbf3a2486	-0.7271198
81	0x3d869ac6	0.065724894
82	0xbf3d0c94	-0.7384732
83	0xbd5e8444	-0.054325357
84	0x3ea0c625	0.31401172
85	0xbf66adf8	-0.90109205
86	0x3eae01a2	0.3398562
87	0x3ee2b44b	0.44278178
88	0x3f032988	0.51235247
89	0x3eb73b88	0.35787606
90	0x3f3c227c	0.7349012
91	0x3e7fcae8	0.24979746
92	0xbdf026d7	-0.11726158
93	0xbf147919	-0.5799728
94	0x3f167471	0.58771425
95	0x3e303ca8	0.17210639
96	0x3da831e3	0.0821264
97	0xbe540007	-0.20703135
98	0xbef3440c	-0.47512853
99	0xbf1f97af	-0.62340826
100	0x3e59e4d1	0.21278693
101	0xbee28a90	-0.4424634
102	0x3b48acbe	0.003062054
103	0x3df8728b	0.12131222
104	0x3ecfa992	0.4055906
105	0xbe957d31	-0.29197076
106	0x3f333504	0.7000277
107	0x3c6fd390	0.014637843
108	0xbe4d08de	-0.20022914
109	0xbd0bbec7	-0.034117486
110	0x3e715502	0.23567584
111	0xba1987d8	-0.0005856729
112	0xbf028bfa	-0.5099484
113	0x3e2c503c	0.16827482
114	0x3cf81b9b	0.0302866
115	0x3f6374f8	0.88850355
116	0x3f29e8cf	0.6637086
117	0x3f266d4b	0.6501052
118	0x3ec06a0d	0.3758091
119	0x3f550f87	0.8322682
120	0x3f1007b4	0.56261754
121	0xbe8da857	-0.27667496
122	0xbd87a6b9	-0.06623597
123	0x3d3a4bd0	0.045482457
124	0xbd8324f5	-0.06403533
125	0xbdf6a9a6	-0.120440766
126	0xbda32fd3	-0.07968106
127	0x3f14561b	0.57943887
128	0xbf023d96	-0.5087522
129	0xbe6fe8c8	-0.23428643
130	0xbeb5bbd7	-0.35494873
131	0xbebb7baf	-0.366178
132	0x3ed3dcbf	0.41379353
133	0x3da57720	0.08079362
134	0xbe310541	-0.1728716
135	0xbeb4d38d	-0.3531765
136	0x3ce4d529	0.027933674
137	0x3e3535a4	0.17696244
138	0x3dad93d1	0.08475459
139	0x3ec56e49	0.38560703
140	0x3c24dcc4	0.0100624
141	0xbdf2f09a	-0.11862297
142	0x3e4b1e98	0.1983589
143	0x3ed71df3	0.42015037
144	0xbf184486	-0.5947956
145	0x3f16f811	0.5897227
146	0xbe02d450	-0.12776303
147	0x3d1754b8	0.03694603
148	0xbf1e3265	-0.61795646
149	0xbe0b4641	-0.13601018
150	0x3e62bb35	0.22141726
151	0x3e989f89	0.29809216
152	0xbe6992b1	-0.22809865
153	0xbd8f6bd9	-0.07002992
154	0x3e82dcd3	0.255591
155	0x3f1ec6f8	0.6202235
156	0x3ee9f6d7	0.45696136
157	0x3f659c58	0.89691687
158	0x3d926bc8	0.07149464
159	0x3ed95c9f	0.42453477
160	0x3ec3249c	0.38113868
161	0x3e9ec093	0.31006297
162	0x3d244279	0.040102456
163	0x3c9915dd	0.018687183
164	0x3f000ac5	0.50016433
165	0xbee1dc22	-0.4411326
166	0xbee15a73	-0.4401432
167	0x3e6c7aeb	0.23093764
168	0xbf5e0571	-0.8672705
169	0xbf11b231	-0.56912524
170	0xbdde41b6	-0.10852377
171	0xbf1df7fd	-0.61706525
172	0xbbcfdf4b	-0.0063437573
173	0x3da09841	0.0784154
174	0xbeed6bb3	-0.4637123
175	0xbf114159	-0.5674034
176	0xbdf15335	-0.117834486
177	0x3d7cf149	0.061753545
178	0xbe87d4df	-0.26529595
179	0xbe3a30fc	-0.18182749
180	0x3e354d4b	0.17705266
181	0x3d70e024	0.058807507
182	0x3ebbfdc2	0.3671704
183	0x3f6d1f64	0.92626023
184	0xbe3494be	-0.17634866
185	0xbf9e0461	-1.2345086
186	0x3f745ffe	0.9545897
187	0xbf463bac	-0.774348
188	0x3f3c1291	0.7346583
189	0xbf9af720	-1.2106667
190	0x3dbca83a	0.09211774
191	0x3ecd96f2	0.40154225
192	0x3f1415d4	0.5784581
193	0x3e2bcfd8	0.16778505
194	0xbe1e1365	-0.15437086
195	0xbe5f3c69	-0.21800388
196	0xbd6e5d3e	-0.05819439
197	0xbebc2862	-0.3674956
198	0x3ebb400e	0.36572307
199	0x3ee17ea7	0.4404194
200	0x3edb328f	0.4281201
201	0x3df15a28	0.11784774
202	0x3cce3141	0.02516997
203	0xbea72ed3	-0.32652912
204	0xbd756d2c	-0.059918568
205	0x3e43520c	0.19074267
206	0x3e165037	0.14679037
207	0xbbaa30f2	-0.005193823
208	0x3f2bef10	0.67161655
209	0x3e99d7ae	0.30047363
210	0x3eba2f06	0.36364
211	0xbe8c7da5	-0.2743961
212	0x3e4373ce	0.19087145
213	0xbfb3b8a8	-1.4040728
214	0x3f4f8ece	0.8107728
215	0xbfb40594	-1.4064202
216	0x3f63ef57	0.8903708
217	0xbf1731e7	-0.5906052
218	0x3ed7f201	0.42176822
219	0xbee42b80	-0.44564438
220	0x3f317f4f	0.6933488
221	0x3e0d654d	0.13808174
222	0x3e14c3d2	0.14527825
223	0x3e10173d	0.14071365

gat1.lin_edge.weight f4 [16, 2]
0	0xbe78d7c2	-0.24301055
1	0x3db8a4eb	0.090158306
2	0xbf8141f5	-1.0098253
3	0xbdf857a2	-0.1212609
4	0x3f8e1908	1.1101389
5	0xbf2e11d9	-0.67995983
6	0xbe901965	-0.28144374
7	0x3f32ba63	0.69815654
8	0xbf4b4561	-0.7940274
9	0x3eef20a9	0.46704605
10	0x3f01543d	0.5051916
11	0xbf2c5e3a	-0.6733128
12	0x3f67023d	0.9023779
13	0x3db55a06	0.08855061
14	0xbf0e6b03	-0.55632037
15	0x3f2a6251	0.6655627
16	0x3daa3f37	0.083128385
17	0x3e62180a	0.22079483
18	0xbfaeaf1b	-1.3647188
19	0x3e731d80	0.23741722
20	0xbf8cdab6	-1.1004245
21	0xbe00415e	-0.12524936
22	0x3f699959	0.91249615
23	0x3e0f98b7	0.140231
24	0xbf024e4d	-0.5090073
25	0xbeec5564	-0.46158898
26	0xbf952e7a	-1.1654809
27	0xbe256a9c	-0.1615395
28	0x3f71213e	0.9419135
29	0xbea6f214	-0.32606566
30	0xbf46de3b	-0.77682847
31	0x3e764580	0.2404995

gat2.att_src f4 [1, 1, 16]
0	0xbf7a0e44	-0.9767802
1	0x3f85bf2f	1.044897
2	0x3eb9e5cc	0.36308134
3	0x3f73c285	0.9521869
4	0x3da60f27	0.08108359
5	0x3f2a13ca	0.66436446
6	0xbefb0bcd	-0.4903244
7	0x3e32048e	0.1738455
8	0xbf36b4f1	-0.71369845
9	0x3fa6d4f1	1.3033735
10	0x3ddd1e96	0.107968494
11	0x3f5dd9fb	0.86660737
12	0x3f16480f	0.587037
13	0x3f34b492	0.7058803
14	0x3ecb9ba1	0.39767173
15	0xbf122c42	-0.5709878

gat2.att_dst f4 [1, 1, 16]
0	0x3ee2c174	0.44288218
1	0x3e40b169	0.18817677
2	0x3f51d642	0.81967556
3	0xbe173c53	-0.14769106
4	0x3f3be87b	0.7340161
5	0x3f4f92ec	0.8108356
6	0xbeeb31f2	-0.45936543
7	0xbf4a2df9	-0.789764
8	0xbedc1b40	-0.4298954
9	0xbd328969	-0.043588076
10	0x3f7fd2d3	0.9993107
11	0xbf232637	-0.63730186
12	0xbf371e5e	-0.7153071
13	0x3f8e1406	1.1099861
14	0xbfbe5be4	-1.4871793
15	0xbf423bc5	-0.7587245

gat2.att_edge f4 [1, 1, 16]
0	0xbfd495b5	-1.6608187
1	0x3faaaea0	1.3334541
2	0xbf69d253	-0.91336554
3	0x3c0b91be	0.008518634
4	0x3f8a769b	1.0817446
5	0xbfc3eed5	-1.5307261
6	0xbf28c92a	-0.6593195
7	0xc00f235d	-2.2365334
8	0xbd987fcd	-0.07446251
9	0xbf8a1d2a	-1.079015
10	0x3fc7e0f2	1.5615523
11	0xbb2e4010	-0.0026588477
12	0xbfd0c1c3	-1.6309131
13	0xbe139dcc	-0.14415663
14	0x3f8f2ef7	1.1186208
15	0xbfca5146	-1.5806053

gat2.bias f4 [16]
0	0x3e143c7e	0.14476201
1	0xbddde2ef	-0.108343
2	0xbec03a75	-0.375446
3	0xbd1e9607	-0.038717296
4	0x3efd896e	0.49518913
5	0x3d315ddf	0.043302413
6	0x3e08dbe7	0.13365136
7	0xbd2447b2	-0.040107436
8	0x3e4dab7d	0.20084949
9	0xbefa4c13	-0.48886165
10	0x3efccabe	0.4937343
11	0x3dd241d5	0.10266463
12	0xbd3f68f4	-0.04673095
13	0x3f9c170a	1.2194531
14	0xbe174dd5	-0.14775784
15	0x3e1c83cf	0.15284656

gat2.lin.weight f4 [16, 16]
0	0x3ec04112	0.37549645
1	0x3e9784c4	0.2959348
2	0x3e9617b6	0.29314965
3	0xbc4135bc	-0.011792596
4	0x3df4776c	0.119368404
5	0x3e407fce	0.18798754
6	0xbf9d6fcd	-1.2299744
7	0xbe899cff	-0.2687759
8	0xbf67bee1	-0.90525633
9	0xbcdad1df	-0.026711402
10	0x3e815d09	0.25266293
11	0x3ee660f5	0.44995847
12	0x3e832090	0.2561078
13	0x3ec65a0c	0.38740575
14	0x3e0d8b3d	0.13822646
15	0x3f0d63fb	0.55230683
16	0x3e202a7a	0.15641204
17	0xbe6e9558	-0.23299158
18	0xbe99bdc8	-0.30027604
19	0xbf9d1b1e	-1.22739
20	0x3e39402d	0.18090887
21	0x3eb4dde0	0.35325527
22	0x3f23708c	0.6384361
23	0x3f1d3eb6	0.61423814
24	0x3d8fc1bc	0.07019374
25	0xbe00f864	-0.12594754
26	0xbe8bf419	-0.2733467
27	0xbeb9aefc	-0.36266315
28	0xbf116879	-0.5680004
29	0xbf470081	-0.77735144
30	0x3eb562fa	0.35427076
31	0x3e2538a5	0.1613489
32	0xbf0801aa	-0.5312754
33	0xbe4780dc	-0.1948275
34	0xbf06e446	-0.5269207
35	0x3e04fbfe	0.12986752
36	0xbf3493f7	-0.70538276
37	0xbe8db6d4	-0.2767855
38	0x3e864817	0.26226875
39	0x3eb82ced	0.35971776
40	0x3f6802c7	0.9062924
41	0x3e8d53e6	0.27603072
42	0xbda888dc	-0.08229229
43	0x3f09a074	0.5376046
44	0xbd47db18	-0.04879293
45	0xbcfd360b	-0.030909559
46	0x3ebed436	0.3727128
47	0x3bd6e7f8	0.0065584145
48	0x3ed7f768	0.42180943
49	0xbe6a29b5	-0.22867472
50	0x3e98f631	0.2987533
51	0x3de60843	0.112320445
52	0x3e97e3cc	0.29665983
53	0x3e1c25e1	0.15248825
54	0x3ee54eed	0.44786778
55	0xbd62b7c1	-0.055351023
56	0x3e559e9c	0.20861286
57	0xbe502eae	-0.20330307
58	0x3ee0251b	0.4377831
59	0xbde106c5	-0.10987619
60	0x3e7dd9fe	0.24790189
61	0x3ed50a1c	0.41609275
62	0x3e659c90	0.22423005
63	0x3f1f8a08	0.62319994
64	0x3e9d4b34	0.30721438
65	0x3ec7de43	0.3903676
66	0xbef2494b	-0.47321543
67	0xbf1f9ba8	-0.6234689
68	0xbf41b19c	-0.75661635
69	0xbfbc55fb	-1.4713739
70	0xbeb6ec59	-0.35727194
71	0xbf1955d4	-0.5989659
72	0x3f5ee88e	0.870736
73	0xbdc4c2e0	-0.09607482
74	0x3d24509e	0.040115945
75	0x3f68f35d	0.9099634
76	0xbf8fe791	-1.1242543
77	0x3d9b6ba1	0.07588888
78	0xbf0d5ace	-0.5521668
79	0xbf7bba55	-0.98331195
80	0x3ebc7c55	0.36813608
81	0xbeb4776d	-0.35247365
82	0xbc8df71f	-0.01732975
83	0xbe0a71e6	-0.13520011
84	0x3e456de1	0.19280197
85	0x3e95b703	0.2924119
86	0x3e702ef7	0.23455416
87	0x3e8db932	0.27680355
88	0xbe78aeab	-0.2428538
89	0x3c04f2ed	0.008114559
90	0x3e9c140d	0.30484048
91	0x3ef6e073	0.48218116
92	0xbf3e94ee	-0.74446
93	0x3f2ca9fe	0.6744689
94	0xbe78842f	-0.24269174
95	0x3ece6d43	0.40317735
96	0x3f14f1ee	0.58181655
97	0x3ecadaf8	0.39620185
98	0x3e393960	0.18088293
99	0x3eaa1b7d	0.33224097
100	0xbd6660dd	-0.05624472
101	0xbe75013c	-0.23926252
102	0xbf2c152e	-0.6721982
103	0xbe0ca3c1	-0.13734342
104	0xbeb191b6	-0.3468148
105	0x3e81e1f8	0.25367713
106	0x3ca1303c	0.01967632
107	0x3eb2581d	0.3483285
108	0xbe9268ac	-0.28595483
109	0x3f2532aa	0.6453043
110	0x3d96ae68	0.07357484
111	0x3ee901d6	0.45509213
112	0x3e3f49f1	0.1868055
113	0xbdbecb11	-0.093160756
114	0x3ef3fcfc	0.4765395
115	0x3f1c0882	0.6095048
116	0x3eff98e0	0.49921322
117	0x3f1c36c6	0.6102108
118	0xbe11920b	-0.14215867
119	0xbf2448a5	-0.64173347
120	0xbf40c2ab	-0.7529704
121	0x3eca7722	0.39544016
122	0xbdac5743	-0.08415081
123	0xbf26662a	-0.6499964
124	0x3dec80b9	0.115479894
125	0x3f313e77	0.6923594
126	0xbd11e286	-0.03561642
127	0x3f96f315	1.1792933
128	0xbf55a2da	-0.83451617
129	0x3bf49ec0	0.0074652135
130	0xbf17d06c	-0.593024
131	0x3f0c4c3f	0.5480384
132	0xbe6d65fa	-0.23183432
133	0x3f02d2e4	0.51103044
134	0xbe44dfd4	-0.19226009
135	0x3ed748ab	0.4204763
136	0x3ee84847	0.45367643
137	0x3e4be487	0.19911395
138	0x3ea1bbc5	0.3158857
139	0xbecc2db9	-0.39878634
140	0x3e5d82bb	0.21631901
141	0xbefe8e3c	-0.4971789
142	0x3e3129f2	0.17301157
143	0xbec02ecf	-0.37535712
144	0xbddf87f0	-0.109146
145	0xbf5df015	-0.8669446
146	0xbe244abb	-0.16044132
147	0xbf2417ec	-0.64099
148	0x3eb9b60e	0.3627171
149	0x3e3ff50c	0.18745822
150	0x3f71326e	0.94217575
151	0x3eb8033c	0.35939968
152	0x3e829712	0.25505883
153	0x3de202ec	0.110357136
154	0xbee430b2	-0.44568402
155	0xbf07df7f	-0.530754
156	0xbe6f2322	-0.23353246
157	0xbf226a6d	-0.6344364
158	0x3ecb582f	0.39715716
159	0x3eeef195	0.46668687
160	0xbf82d826	-1.0222213
161	0x3e29f38d	0.16596813
162	0x3e910eb2	0.28331524
163	0x3eb0891c	0.34479606
164	0xbf9a30f0	-1.2046185
165	0xbfa22702	-1.2668154
166	0x3e7eaf0c	0.24871463
167	0xbe970b08	-0.29500604
168	0x3fe78bbf	1.8089522
169	0x3f2ce269	0.67532974
170	0xbf2fb4bf	-0.6863517
171	0x3f686ab5	0.9078782
172	0xbfe44bb4	-1.7835603
173	0x3de7dd30	0.11321485
174	0xbe00c61d	-0.12575574
175	0xbf0eab70	-0.5573034
176	0xbc47ad91	-0.012187378
177	0xbcb51667	-0.022105409
178	0x3edaf0bb	0.42761788
179	0xbbbc970c	-0.005755311
180	0xbea3b8df	-0.31976983
181	0x3e1a11fe	0.15045926
182	0x3d0df2a8	0.034655243
183	0x3d7b5ce5	0.061367888
184	0x3daa93d3	0.083289765
185	0x3e17d0c3	0.1482573
186	0xbd634d2c	-0.05549352
187	0xbea2dcf9	-0.31809214
188	0xbec51c1c	-0.38498008
189	0xbe2ca8e2	-0.16861299
190	0xbdfcc71a	-0.12342663
191	0x3ed6b936	0.4193818
192	0x3e90fe33	0.2831894
193	0x3d65d750	0.05611354
194	0x3e699498	0.2281059
195	0x3e55dfa2	0.2088609
196	0x3e01e4da	0.12684956
197	0xbdcd771b	-0.10032483
198	0x3f32bf5e	0.69823253
199	0x3e478cbe	0.19487283
200	0xbe5e3e3f	-0.21703433
201	0x3e2b8c81	0.16752817
202	0xbda955d1	-0.08268321
203	0xbe9f5cc5	-0.31125465
204	0x3e652319	0.2237667
205	0x3f2040c9	0.62598854
206	0x3f06a31c	0.52592635
207	0x3f1fcc94	0.62421536
208	0xbe4844b1	-0.19557454
209	0x3da792e8	0.08182317
210	0xbf1f74ed	-0.6228779
211	0xbf911d8c	-1.1337142
212	0x3dda5c59	0.10662145
213	0xbf93be4c	-1.1542449
214	0xbd5696d6	-0.052389942
215	0xbf88232f	-1.0635737
216	0x3fc8342d	1.5640923
217	0xbcd4d5c4	-0.025980838
218	0x3e13eead	0.14446516
219	0x3f612c87	0.8795857
220	0xbf69dc99	-0.9135223
221	0x3f19abe9	0.6002794
222	0x3e1d6643	0.15371041
223	0xbf825cce	-1.0184572
224	0x3e68a31a	0.22718468
225	0xba4fad94	-0.00079222885
226	0x3e57898e	0.21048567
227	0xbf4a4a6c	-0.7901981
228	0xbe77f7e1	-0.24215652
229	0xbc60c21a	-0.013718152
230	0xbf027593	-0.50960654
231	0x3e54f794	0.20797569
232	0x3ede2435	0.43387
233	0x3d3cec22	0.04612363
234	0x3db46113	0.08807578
235	0xbef4615f	-0.47730538
236	0x3e4d964d	0.20076866
237	0x3d77defd	0.060515393
238	0xbeccfc78	-0.40036368
239	0xbc9eea17	-0.019398732
240	0xbd9c918f	-0.076449506
241	0x3e4c0b8c	0.1992628
242	0x3ec45ee7	0.38353655
243	0x3e6554be	0.22395608
244	0x3df80837	0.12110942
245	0x3f229aac	0.6351726
246	0xbf5983c1	-0.84966666
247	0xbd68765d	-0.056753505
248	0xbee8f4e1	-0.45499328
249	0x3deb8ba2	0.11501242
250	0x3c48cb31	0.012255476
251	0xbe9be4c2	-0.30447966
252	0x3dceb886	0.10093789
253	0x3dd2833a	0.10278936
254	0xbe40b75a	-0.18819943
255	0x3f475885	0.77869445

gat2.lin_edge.weight f4 [16, 2]
0	0x3fd3de39	1.6552192
1	0xbed0efc6	-0.40807933
2	0xbfd156fc	-1.635467
3	0xbf1d0aa7	-0.6134438
4	0x3faa8a8a	1.3323529
5	0xbf2e24df	-0.6802501
6	0x3e16f05b	0.14740126
7	0xbe97ef54	-0.2967478
8	0xc0020785	-2.031709
9	0x3e5e4bea	0.21708646
10	0x3f9e2d65	1.2357603
11	0x3edfa76e	0.43682426
12	0x3f0dbf43	0.5536997
13	0x3da1663a	0.07880826
14	0x3f9f4573	1.2443069
15	0x3dd980bf	0.106202595
16	0x3e9521a4	0.29127228
17	0xbeec0b3d	-0.46102324
18	0x3f98a223	1.192448
19	0x3f01963c	0.50619864
20	0xbfc0a88b	-1.5051435
21	0xbd1d7508	-0.038441688
22	0x3d169add	0.036768783
23	0xbe9adc8e	-0.30246395
24	0x3fb4fcb6	1.4139621
25	0x3d8dd5d4	0.0692555
26	0x3e913ee3	0.2836829
27	0x3e0aab71	0.13541962
28	0xbff746ec	-1.9318519
29	0x3e83c87e	0.257389
30	0x3f92f80e	1.148195
31	0x3ed679f9	0.41889933

mlp.0.weight f4 [16, 32]
0	0x3d247cff	0.040158268
1	0xbdaee190	-0.085391164
2	0x3e8c3a2d	0.27388135
3	0x3e8527f9	0.2600706
4	0x3edf077b	0.43560395
5	0xbca54129	-0.020172672
6	0x3e0269de	0.12735698
7	0x3e230660	0.159204
8	0xbe86dfc9	-0.2634261
9	0xbe9ed767	-0.31023714
10	0x3f0881ee	0.53323257
11	0x3e5330a1	0.20624019
12	0x3e2edb00	0.1707573
13	0x3ebe90ee	0.37219948
14	0x3db04c20	0.0860827
15	0x3e22e816	0.15908846
16	0x3e7e5930	0.2483871
17	0x3cbe923b	0.023263087
18	0x3c1b579a	0.009481335
19	0x3e7a4908	0.24441922
20	0xbe1169e2	-0.14200547
21	0x3ea1e04c	0.31616437
22	0xbc742d8e	-0.014903439
23	0x3ea9c239	0.33155993
24	0xbdff2446	-0.124580905
25	0xbef91312	-0.48647362
26	0xbe223d74	-0.15843755
27	0x3e8bd4ac	0.27310693
28	0x3e713a37	0.23557363
29	0xbe8fd18f	-0.28089568
30	0x3ded80ee	0.11596857
31	0x3e4d8a65	0.20072325
32	0x3e47c6e4	0.19509465
33	0x3e65a619	0.22426642
34	0x3dd382ac	0.10327658
35	0x3e4f1c88	0.20225728
36	0xbee3913e	-0.44446748
37	0x3e3d29f5	0.18473037
38	0x3ecd45a0	0.40092182
39	0x3e4bd7fa	0.19906607
40	0xbe82a813	-0.25518855
41	0x3c653526	0.013989722
42	0xbf434ec7	-0.7629208
43	0x3c9a1d40	0.018812776
44	0x3e5c8cdc	0.21538109
45	0xbf18ea21	-0.5973225
46	0x3e699a4f	0.2281277
47	0x3e25bc1b	0.16185038
48	0xbe650304	-0.22364432
49	0xbda5fb30	-0.08104551
50	0x3e536b70	0.20646453
51	0xbe55e11d	-0.20886655
52	0x3f0dd175	0.5539773
53	0xbe23bc50	-0.15989804
54	0xbec0c1b7	-0.37647793
55	0xbe0b8d95	-0.13628228
56	0x3e112eeb	0.14178054
57	0xbe87edf3	-0.26548728
58	0x3f0040e6	0.5009903
59	0xbdd704c1	-0.104989536
60	0xbebe5406	-0.3717348
61	0x3f2be1dc	0.6714151
62	0x3dd7bc78	0.105339944
63	0xbd9fb7fb	-0.07798763
64	0xbd0fe814	-0.035133436
65	0x3e193c5d	0.14964433
66	0x3e7f462a	0.24929109
67	0x3e12896b	0.14310233
68	0xbf62aa9f	-0.885416
69	0x3e239535	0.15974887
70	0x3e13e50e	0.14442846
71	0x3ef74db8	0.48301482
72	0x3e865124	0.2623378
73	0x3eb790d2	0.35852677
74	0x3f4c8a47	0.79898494
75	0xbe1fd0ba	-0.15606967
76	0x3efe562f	0.49675128
77	0xbead0e35	-0.33799902
78	0x3e3c8a8f	0.18412231
79	0x3e258cd8	0.16167009
80	0x3d074021	0.033020142
81	0x3eb2120d	0.34779397
82	0xbe1b41b9	-0.1516179
83	0x3e91a1ea	0.28443843
84	0xbf05b648	-0.52231264
85	0xbe75c62a	-0.24001375
86	0xbe5bc143	-0.21460442
87	0x3ec684b7	0.38773128
88	0xbd880791	-0.06642068
89	0x3f058ec4	0.5217097
90	0x3f5c5c44	0.86078286
91	0xbe41bce9	-0.1891972
92	0x3eb55a93	0.35420665
93	0xbf2a5798	-0.6653991
94	0x3d8c4fd2	0.06851162
95	0x3d289468	0.041157156
96	0xbe244157	-0.1604055
97	0xbe7001c5	-0.23438175
98	0xbe635535	-0.22200473
99	0xbcfccec8	-0.03086032
100	0xbe33ff8d	-0.17577954
101	0xbe1b095e	-0.15140292
102	0x3e17c630	0.14821696
103	0xbdf64357	-0.12024563
104	0xbe9ebee7	-0.31005022
105	0xbe43b39e	-0.19111487
106	0x3e1d1717	0.1534084
107	0x3e5deece	0.21673128
108	0x3c3e6e67	0.011623002
109	0xbe7896c6	-0.24276266
110	0x3d61b51b	0.055104356
111	0x3d589b4c	0.052882478
112	0xbe0b9326	-0.13630351
113	0xbe68da69	-0.22739567
114	0xbb534c00	-0.0032241344
115	0xbc705908	-0.014669664
116	0x3933dbe5	0.00017152687
117	0xbe26a60e	-0.16274282
118	0x3c98ebaa	0.01866706
119	0xbd663237	-0.056200232
120	0xbe95bd31	-0.29245904
121	0x3d061ec2	0.032744177
122	0xbe204aaf	-0.1565349
123	0x3e84aef4	0.2591473
124	0xbd0601d5	-0.03271659
125	0xbdaada13	-0.083423756
126	0x3b3b9cb1	0.002862733
127	0x3e9437bb	0.2894877
128	0x3ed11838	0.4083879
129	0x3d1cdd0d	0.038296748
130	0xbf0bca91	-0.54605967
131	0x3e9c89f0	0.30573988
132	0x3eea7aab	0.45796713
133	0x3e0e84e5	0.13917883
134	0x3ef52bc7	0.47884962
135	0xbf960073	-1.1718887
136	0x3f279314	0.654588
137	0xbe41f56f	-0.18941282
138	0xbec17d25	-0.3779079
139	0xbde99a06	-0.11406331
140	0xbea5f5b1	-0.3241401
141	0xbea08d33	-0.31357726
142	0xbe59ccc3	-0.21269517
143	0xbefb056c	-0.49027574
144	0x3e2fe55b	0.17177336
145	0xbdc87a45	-0.09788946
146	0xbeb5b1d1	-0.35487226
147	0x3e666b3f	0.22501849
148	0x3f25e1ca	0.6479765
149	0x3e68bb3f	0.22727679
150	0x3e93ea23	0.2888957
151	0xbf3ea105	-0.74464446
152	0x3ea2cfae	0.31799072
153	0xbeb90a3c	-0.3614062
154	0x3da9b35b	0.082861625
155	0xbd744048	-0.059631616
156	0xbede9f36	-0.43480843
157	0x3ea5d033	0.32385406
158	0xbcb74bab	-0.022374948
159	0xbeafda1a	-0.34346086
160	0xbde4c55e	-0.11170457
161	0x3dec7e44	0.11547521
162	0x3ea953da	0.33071786
163	0xbd82454a	-0.06360872
164	0x3e943e68	0.28953862
165	0x3e49f30c	0.19721621
166	0x3e1c1323	0.15241675
167	0x3d4fd4ad	0.050739933
168	0xbdcf7546	-0.1012979
169	0xbd20b8e0	-0.03923881
170	0x3f37545b	0.7161309
171	0xbdae3de1	-0.08507896
172	0x3dfd6589	0.12372882
173	0x3ed945d1	0.42436078
174	0xbd789453	-0.060688328
175	0x3e089474	0.1333788
176	0x3e2ae081	0.16687204
177	0xbc9b99a0	-0.018994153
178	0x3e0e9543	0.13924126
179	0xbc732031	-0.014839218
180	0x3db9eb4e	0.09078084
181	0x3d883a11	0.066517
182	0x3e8ccf43	0.27501878
183	0x3ee5a5a5	0.4485294
184	0x3dce2c38	0.10067028
185	0xbdac71c4	-0.084201366
186	0xbd5e345a	-0.054249145
187	0x3d6df040	0.05809045
188	0x3e277742	0.16354087
189	0xbe3d4e49	-0.18486895
190	0x3d2a9dcd	0.041654397
191	0x3e79d451	0.24397399
192	0x3e39e52e	0.18153831
193	0xbf5935e6	-0.8484787
194	0xbf3dc16f	-0.7412328
195	0x3d9e0090	0.07714951
196	0xbe8102f1	-0.25197557
197	0xbd857a50	-0.0651747
198	0xbe3caa7c	-0.1842441
199	0x3eb615e7	0.35563585
200	0x3f4945f6	0.78622377
201	0xbf71190b	-0.9417884
202	0xbeff1bad	-0.49825802
203	0x3b2d73ef	0.0026466807
204	0xbf86fd03	-1.0545963
205	0xbf21d5e7	-0.63217014
206	0xbe051fcf	-0.13000415
207	0x3ecc9703	0.39958963
208	0xbdedb90c	-0.116075605
209	0xbf361608	-0.71127367
210	0x3efff011	0.49987844
211	0xbe0d0706	-0.1377221
212	0x3ee4abc8	0.4466231
213	0xbe600fa2	-0.21880963
214	0x3e1f9ba2	0.15586713
215	0xbe8b13f8	-0.27163672
216	0xbf2792f1	-0.6545859
217	0xbe47dd4f	-0.19518016
218	0x3f00b560	0.50276756
219	0x3e853c95	0.26022783
220	0x3e7e9858	0.24862802
221	0x3f28586c	0.6575992
222	0xbc4874fe	-0.012234924
223	0xbeffb2dd	-0.4994115
224	0x3e2bc91f	0.1677594
225	0x3e27e43e	0.16395661
226	0x3ea8702b	0.32898077
227	0x3ec57b50	0.38570642
228	0xbf67a2aa	-0.9048258
229	0x3b144cde	0.0022628824
230	0xbd89d6c6	-0.06730418
231	0x3f015d29	0.50532776
232	0x3ea24930	0.31696463
233	0x3ee9395a	0.45551568
234	0x3f1b0d45	0.6056712
235	0x3da2912e	0.07937847
236	0x3ed73a6c	0.4203676
237	0xbec4bb71	-0.38424256
238	0xbd4abe3b	-0.049497824
239	0x3e2640bc	0.16235632
240	0xbda131a2	-0.07870795
241	0x3e7d1594	0.24715263
242	0x3e069cd0	0.13145757
243	0x3e3086fb	0.17238991
244	0xbf4f57c8	-0.8099332
245	0x3a1d8c4f	0.00060099823
246	0xbe4634b4	-0.19356042
247	0x3ece79ed	0.40327397
248	0xbe5e126e	-0.21686718
249	0x3e7d9bd6	0.24766478
250	0x3f73499c	0.95034194
251	0xbdbd09f1	-0.09230412
252	0x3e31381e	0.17306563
253	0xbf35df33	-0.710437
254	0x3ccd805e	0.025085624
255	0x3e81644b	0.2527183

mlp.0.bias f4 [16]
0	0xbc6e512e	-0.014545722
1	0xbe341c39	-0.17588891
2	0x3d804430	0.06263006
3	0xbe217323	-0.15766577
4	0x3ece0b26	0.4024288
5	0x3cc00201	0.023438456
6	0xbe2ea6ab	-0.17055766
7	0x3de19ce5	0.110162534
8	0x3ea13103	0.31482705
9	0xbe03a627	-0.12856351
10	0xbe54d94c	-0.20786017
11	0xbe541140	-0.20709705
12	0x3cac3661	0.021022024
13	0x3d62fad7	0.055415
14	0xbd2527bd	-0.0403211
15	0x3c399c79	0.01132881

mlp.2.weight f4 [1, 16]
0	0xbe9f6836	-0.31134194
1	0xbf584fd0	-0.84496784
2	0x3eb64133	0.35596618
3	0x3c1d1556	0.009587606
4	0x3ed7517e	0.4205436
5	0xbe9e6146	-0.3093359
6	0xbf83ada5	-1.0287367
7	0x3ed3c4aa	0.4136098
8	0x3ef2ca36	0.474199
9	0xb9b41f44	-0.0003435557
10	0x3f159aa7	0.58439106
11	0xbb881e5b	-0.0041540093
12	0xbf259b19	-0.64689785
13	0xbeaba2c8	-0.3352263
14	0x3d440fe8	0.047866732
15	0x3e9a4789	0.30132702
