data/CTC/Fluo-N2DH-SIM+/02_RES_GAT/20250718_190450/top3_model_fold4.pth (torch, 11177 bytes, 15 tensors)

gat1.att_src f4 [1, 1, 16]
0.42621905 -0.26726913 0.2776978 -0.49688318 -0.14339554 -0.2936007 -0.17618428 0.07439097
0.56276846 -0.591763 0.31438622 -0.062924996 -0.2563788 -0.1162999 0.34026074 -0.38245723
00000000: 6239 da3e 80d7 88be 682e 8e3e 7967 febe
00000010: 48d6 12be d552 96be a769 34be 4b5a 983d
00000020: 9811 103f c87d 17bf 3bf7 a03e d2de 80bd
00000030: 1544 83be a42e eebd a836 ae3e 6fd1 c3be

gat1.att_dst f4 [1, 1, 16]
0.968833 0.2071184 -1.2582045 -0.5283391 -0.080287755 0.14509104 1.2820946 0.27088782
0.94083637 -0.21826564 1.0162997 0.7842541 -0.36483547 0.60736674 0.14146751 -0.27059466
00000000: 7105 783f d916 543e d80c a1bf 3b41 07bf
00000010: e86d a4bd bf92 143e ad1b a43f cfb1 8a3e
00000020: a7da 703f 0781 5fbe 1c16 823f e0c4 483f
00000030: b7cb babe 637c 1b3f dcdc 103e 628b 8abe

gat1.att_edge f4 [1, 1, 16]
0.07696238 -0.5446105 -1.3876023 0.09374159 -0.28579098 -1.3416926 -0.13379708 -1.0513895
0.4755325 -0.3560784 0.7868663 0.44865024 -0.95433944 1.0746223 1.3121607 0.8617832
00000000: 749e 9d3d 986b 0bbf f49c b1bf 97fb bf3d
00000010: 3253 92be 95bc abbf 1a02 09be ee93 86bf
00000020: ff78 f33e e84f b6be 1270 493f 7cb5 e53e
00000030: 974f 74bf 398d 893f e2f4 a73f d39d 5c3f

gat1.bias f4 [16]
0.061346814 0.24393997 0.7140879 0.3685291 0.27996016 0.56180936 -0.11797634 -0.07210004
1.1671467 -0.18089654 0.4274011 0.9185438 0.028699512 0.3210101 -0.6253476 -0.20878308
00000000: cc46 7b3d 66cb 793e 77ce 363f d9af bc3e
00000010: f056 8f3e bdd2 0f3f 949d f1bd 30a9 93bd
00000020: 1065 953f f13c 39be 51d4 da3e b025 6b3f
00000030: 3d1b eb3c 705b a43e c816 20bf 3bcb 55be

gat1.lin.weight f4 [16, 14]
-0.068491586 -0.47828478 0.5186894 -0.5320801 0.5583838 -0.50581 0.51569575 -0.059657265
0.70083773 0.09698026 -0.21686544 0.24194859 -0.042339224 0.14159295 -0.366482 -0.115669735
-0.41824937 0.3657157 0.095826924 0.4247949 0.059530698 0.40079477 0.38377768 -0.060683224
-0.14711916 0.06385899 -0.04704882 -0.08451069 -0.09645468 0.45095974 0.16710667 -0.32414818
-0.8485551 -0.28654182 -0.8057384 -0.653731 -0.63130164 -0.23634547 -0.05322398 -0.00046055927
-0.28127608 -0.18882485 0.26108056 0.0048471936 0.23483363 -0.75697595 0.4011299 -0.8591386
-0.23842664 -0.58184975 -0.12087836 -0.20424621 0.083477095 0.2798257 -0.5139785 -0.0113034975
-0.48296034 -0.7619314 0.26404998 0.00815826 0.15021285 0.6417115 0.2962733 0.47643003
-0.07832398 -0.6989947 0.65752923 -0.2682236 0.18630391 0.05665017 -0.34925914 -0.36531195
-0.21341942 -0.65145606 -0.65335685 0.039360028 -0.25419933 -0.031039491 -0.43747076 0.3200595
-0.11011189 0.086441085 -0.26176372 -0.043556787 -0.61762017 -0.18541983 0.3578869 0.1557375
-0.051346343 0.2891318 0.7294154 0.010637034 0.829849 -0.68815666 0.0062520374 0.15985852
0.077723615 0.1357007 -0.20501606 -0.25349855 -0.26729584 -0.23756608 0.051434018 -0.60775876
-0.20783459 -0.21752867 0.521268 -0.50642383 -0.16707432 0.01657387 -0.5640758 0.08378339
-0.34049132 -0.25626072 -0.11711499 0.7736265 0.7444152 0.14111309 1.1966541 0.21003719
0.999028 -0.05817272 -0.00015848735 -0.09862556 -0.94505024 -0.11560996 0.42070526 0.4163071
0.12811562 -0.6025751 0.1332922 -0.8108525 0.00080369925 -0.657571 0.12554038 -0.21884952
-0.2979172 -0.32959965 0.112899736 -0.15176992 -0.08634346 -0.26909408 -0.14222251 -0.336506
0.85984606 -0.44947416 0.17267306 -0.27749464 0.50969625 -0.035382517 0.20827517 -0.0153735755
-0.28900445 -0.30063173 0.115774915 0.5596357 0.41137034 0.59452647 0.18069538 0.73475975
0.16547507 0.26422173 0.31113648 0.04174597 0.53119737 0.20027894 -0.0042027817 -0.115384534
0.3416015 0.031905744 0.2019773 -0.5042063 -0.17041902 -0.49082783 -0.8040152 -0.3735321
-0.5039992 -0.022205539 -0.23224658 -0.056594793 0.46349505 0.014537501 0.66879267 0.6063539
-0.06745616 -0.12852952 0.8289046 0.27340662 0.74970084 0.46567157 1.2844948 0.06818888
0.04927756 -0.17257403 -0.06941914 0.05124145 -0.6586709 -0.6704271 -0.22001171 0.17742853
0.31082726 0.030580997 0.02545672 0.031572945 0.058574997 -0.030589428 0.09884734 0.27134874
-0.07836049 0.037974153 0.062317494 -0.51034784 0.3845285 -0.32265115 -0.60386187 0.008250464
-0.38110486 -0.013647146 -0.4606212 -0.5260036 0.93594205 -0.025681004 0.32213536 -0.0642821
00000000: 5145 8cbd bee1 f4be d4c8 043f 6736 08bf
00000010: 3ef2 0e3f c47c 01bf a304 043f 2d5b 74bd
00000020: 1a6a 333f 969d c63d f911 5ebe 5fc1 773e
00000030: e56b 2dbd befd 103e 87a3 bbbe 41e4 ecbd
00000040: c824 d6be 173f bb3e e840 c43d b87e d93e
00000050: 76d6 733d f934 cd3e 827e c43e f98e 78bd
00000060: 68a6 16be 81c8 823d 43b6 40bd f113 adbd
00000070: 088a c5bd 32e4 e63e 031e 2b3e c0f6 a5be
00000080: e83a 59bf 9cb5 92be df44 4ebf ea5a 27bf
00000090: fc9c 21bf 8c04 72be 6301 5abd 3877 f1b9
000000a0: 6b03 90be 4d5b 41be 5aac 853e 35d5 9e3b
000000b0: 3a78 703e 2dc9 41bf e660 cd3e 82f0 5bbf
000000c0: 1d26 74be 1bf4 14bf 138f f7bd eb25 51be
000000d0: 0af6 aa3d 5045 8f3e 1894 03bf 4e32 39bc
000000e0: 9446 f7be f00d 43bf 8f31 873e 39aa 053c
000000f0: 66d1 193e 3447 243f 22b1 973e a3ee f33e
00000100: 5368 a0bd 51f1 32bf d653 283f 9b54 89be
00000110: 74c6 3e3e 020a 683d 18d2 b2be 2b0a bbbe
00000120: 9f8a 5abe d3c5 26bf 6542 27bf fb37 213d
00000130: 6a26 82be 8846 febc 2bfc dfbe d7de a33e
00000140: 5882 e1bd 0608 b13d e505 86be 9a68 32bd
00000150: 5b1c 1ebf b2de 3dbe f43c b73e a779 1f3e
00000160: 8b50 52bd 1509 943e f8ba 3a3f f446 2e3c
00000170: fc70 543f 092b 30bf e4dd cc3b f4b1 233e
00000180: 8f2d 9f3d 20f5 0a3e bbef 51be 90ca 81be
00000190: 00db 88be 8644 73be 7aac 523d 1496 1bbf
000001a0: 97d2 54be d6bf 5ebe d271 053f fea4 01bf
000001b0: 8815 2bbe edc5 873c 4667 10bf a096 ab3d
000001c0: e154 aebe 9b34 83be fcd9 efbd 630c 463f
000001d0: ff91 3e3f f37f 103e f62b 993f fd13 573e
000001e0: 4dc0 7f3f 8546 6ebd a02f 26b9 33fc c9bd
000001f0: d0ee 71bf eac4 ecbd ae66 d73e 3426 d53e
00000200: be30 033e 5d42 1abf c07d 083e 0894 4fbf
00000210: 58af 523a 9356 28bf a88d 003e 171a 60be
00000220: 9a88 98be 49c1 a8be fa37 e73d 9369 1bbe
00000230: d7d4 b0bd b3c6 89be c7a2 11be 844a acbe
00000240: df1e 5c3f 7a21 e6be 35d1 303e c713 8ebe
00000250: 747b 023f 42ed 10bd 1646 553e 73e1 7bbc
00000260: 64f8 93be 67ec 99be 661b ed3d 4944 0f3f
00000270: 229f d23e e332 183f 3608 393e 3719 3c3f
00000280: 4c72 293e 1248 873e 484d 9f3e d2fd 2a3d
00000290: 8dfc 073f ec15 4d3e 7db7 89bb ba4e ecbd
000002a0: 64e6 ae3e 99af 023d 23d3 4e3e aa13 01bf
000002b0: 5382 2ebe c94d fbbe f1d3 4dbf 993f bfbe
000002c0: 1706 01bf 64e8 b5bc 0cd2 6dbe f1cf 67bd
000002d0: 394f ed3e b32e 6e3c ff35 2b3f 023a 1b3f
000002e0: 7526 8abd 3e9d 03be 1833 543f f4fb 8b3e
000002f0: 65ec 3f3f 816c ee3e 536a a43f 9da6 8b3d
00000300: 44d7 493d 3fb7 30be 9f2b 8ebd 8ee2 513d
00000310: a89e 28bf 1ca1 2bbf c04a 61be d3af 353e
00000320: c024 9f3e 0085 fa3c 9c8a d03c a252 013d
00000330: 56ec 6f3d ae96 fabc 7970 ca3d 39ee 8a3e
00000340: 777b a0bd c98a 1b3d a140 7f3d 28a6 02bf
00000350: ebe0 c43e 8832 a5be b196 1abf f42c 073c
00000360: 2d20 c3be 4798 5fbc 8bd6 ebbe 2ca8 06bf
00000370: e699 6f3f f860 d2bc edee a43e 55a6 83bd

gat1.lin_edge.weight f4 [16, 2]
-0.24837577 0.34311408 1.014712 -0.0079628965 1.0732687 -0.6247991 0.0035022066 0.021560486
0.36585647 -0.18650831 1.0457838 -0.710016 0.10342173 0.0054511386 1.0252378 -0.12552772
-1.1648694 -0.09521182 0.2756389 0.27453956 -1.1043406 0.47279885 -0.24854207 0.4486331
0.58823377 -0.8144766 -1.037005 0.18184765 -1.0471945 0.6737983 -1.2915686 1.0144899
00000000: 3856 7ebe a6ac af3e 15e2 813f cf76 02bc
00000010: de60 893f d5f2 1fbf 4785 653b 9e9f b03c
00000020: 8a51 bb3e 09fc 3ebe 3edc 853f 9cc3 35bf
00000030: c6ce d33d 779f b23b fe3a 833f 578a 00be
00000040: 711a 95bf 6afe c2bd 8b20 8d3e 7390 8c3e
00000050: 085b 8dbf b112 f23e d081 7ebe 3db3 e53e
00000060: 7d96 163f 8a81 50bf 94bc 84bf 4536 3a3e
00000070: 780a 86bf 0c7e 2c3f 1f52 a5bf ceda 813f

gat2.att_src f4 [1, 1, 16]
-0.3824347 -0.16930524 0.3593287 -0.32133886 0.09149774 0.39425114 0.31826457 0.36600608
0.072083846 -0.21332854 -0.18845294 0.33773315 0.3443303 -0.5245025 0.07675563 0.23228368
00000000: 7bce c3be 5a5e 2dbe eef9 b73e 8786 a4be
00000010: 2b63 bb3d 49db c93e 93f3 a23e 2665 bb3e
00000020: b2a0 933d cc72 5abe cff9 40be 5ceb ac3e
00000030: 104c b03e cc45 06bf 0e32 9d3d c6db 6d3e

gat2.att_dst f4 [1, 1, 16]
-0.8510104 0.6798812 0.63106173 0.5272415 0.5046029 0.87536997 0.3718309 -0.7748518
0.44156635 -0.34121072 -0.4909976 0.18233663 0.0033646962 -0.75954723 -0.003989657 -0.30178118
00000000: d1db 59bf b20c 2e3f 438d 213f 4df9 063f
00000010: a82d 013f 3f18 603f 9f60 be3e b05c 46bf
00000020: fc14 e23e 2cb3 aebe 0a64 fbbe 74b6 3a3e
00000030: 3c82 5c3b b071 42bf abbb 82bb 1083 9abe

gat2.att_edge f4 [1, 1, 16]
1.0533577 -0.48565477 -0.19294326 0.9567829 0.59167 0.7630623 0.41091806 0.78501284
0.20949562 -0.4571716 -0.21943031 0.10785831 0.33618936 1.1361767 -0.32980627 0.8843735
00000000: 6dd4 863f bea7 f8be eb92 45be b9ef 743f
00000010: af77 173f 0d58 433f da63 d23e 9af6 483f
00000020: 0586 563e 6512 eabe 57b2 60be d1e4 dc3d
00000030: 0321 ac3e 3d6e 913f 5edc a8be 4d66 623f

gat2.bias f4 [16]
0.20314597 0.65125304 -0.06016381 0.28206202 0.26774785 -0.3024451 0.660244 -0.17909946
-0.11860649 0.06988297 -0.23808527 0.24146254 0.38157976 -0.31828472 -0.010950267 0.03980833
00000000: 7f05 503e 85b8 263f 546e 76bd 6f6a 903e
00000010: 3f16 893e 16da 9abe c005 293f d965 37be
00000020: f6e7 f2bd cd1e 8f3d a0cc 73be f541 773e
00000030: 6c5e c33e 37f6 a2be c068 33bc 0f0e 233d

gat2.lin.weight f4 [16, 16]
0.35513446 -0.53102726 0.7021804 0.1513989 0.15285552 0.028879765 0.19837677 0.6049227
-0.43418252 0.4697647 -0.08859486 0.16796595 0.44481134 0.67195326 -0.14114228 -0.33740056
-0.9904446 0.12328952 0.47494724 -0.3336411 0.21431078 0.5946629 0.09819655 -0.0464005
0.8338554 -0.6333215 -0.3739613 0.8754111 0.65839213 0.06882682 -1.1549882 -0.29097325
-0.21163936 -0.041271064 -0.33570832 -0.05905408 -0.09622848 0.63453096 0.2312212 -0.19501822
0.7033777 -0.040268674 0.17835677 0.42989674 -0.38810772 0.022698915 -0.4527283 -0.57132775
0.39816946 0.18856728 -0.7224519 -0.4019372 0.65480334 -0.64177805 0.0142834075 0.39580297
0.55847824 -0.116613165 0.2190669 0.6080728 -0.17055517 0.51921093 0.4966373 0.72434324
0.3246786 -0.17475888 0.14472356 1.4226671 -0.0032699252 0.35582256 0.16947888 0.5532295
0.62398714 0.5094477 0.59686816 0.21673682 0.3776192 0.24463762 -0.11095458 -0.2197196
0.58323175 0.8640201 -1.0380087 -0.36826417 0.42410234 -0.07051423 0.34152 0.043532588
0.1103315 0.52425534 0.28247318 0.16046555 -0.31124535 0.87534875 0.04358367 0.48016688
0.79020375 0.3899992 -0.53454375 -0.7740334 0.6306912 -0.027266111 0.33022797 0.029563375
0.7842065 -0.02865799 -0.3115742 0.26119962 -0.64551973 1.0195345 0.13735217 -0.08551067
0.4269781 0.101329856 0.107943274 -0.4590103 0.22051217 -0.17385317 0.69901544 -0.15047108
0.08475505 0.1377304 -0.12604594 -0.110702544 0.76450664 -0.6594451 0.47115284 0.03504903
0.52383083 -0.12812923 -0.5042466 0.23018904 0.194457 -1.1063799 0.25784227 0.025993636
0.22376928 0.49152774 0.49211147 -0.21532641 0.42681518 -0.24037093 0.25996026 0.057009365
0.010925079 -0.014858852 -0.25265542 -0.51557803 0.3534584 1.1083008 0.63380885 0.27526003
0.7793486 -0.34199125 0.9180374 0.59465736 -0.22467753 -0.23859107 -0.1389038 0.86651886
0.19766454 -0.03748411 0.2420012 -0.14276692 0.34337276 -0.112279035 0.49770316 0.30597094
0.23037903 -0.34757474 0.110910565 -0.27875748 0.33841205 -0.503187 0.077200316 0.7286019
-0.92293113 -0.13362034 0.46273565 -0.1402331 0.10073516 0.97068715 -0.09057762 0.12744331
0.5454792 0.44623646 -0.7137593 0.27086514 0.32505593 -0.6929076 -0.07060538 -0.7980744
-0.08308307 0.12838745 -0.08658718 -0.336309 -0.2303096 0.19386224 0.12240151 -1.0505006
-0.17725162 -0.3730322 -0.034733545 0.36766616 -0.015184976 0.0025608796 -0.54095846 -0.48672402
0.026888276 -0.33326033 0.26589018 -0.82944447 0.1947825 -0.043521553 0.10506269 -0.19909824
-0.46351585 -0.6716412 0.26559833 -0.26459977 0.26712254 -0.27354228 -0.21982801 0.46807766
0.35148254 -0.0128962295 -0.07167922 -0.8156545 0.78972465 -0.41385418 0.20778656 -0.2663501
0.1373127 -0.5506834 -0.4552224 0.85514146 -0.26843974 0.2124597 0.017117618 0.39460814
0.026707828 -0.2606581 0.032850474 0.6225176 0.30938482 0.20923346 -0.040878147 -0.27562937
-0.29472628 -0.038264092 0.09838584 0.27982554 0.6661235 0.10100609 0.3136338 0.39217055
00000000: 2fd4 b53e 67f1 07bf 18c2 333f 5008 1b3e
00000010: 2886 1c3e 4295 ec3c 4823 4b3e 37dc 1a3f
00000020: 2c4d debe 0085 f03e 3971 b5bd 44ff 2b3e
00000030: 50be e33e 2105 2c3f 9a87 10be c4bf acbe
00000040: c78d 7dbf 377f fc3d 492c f33e 02d3 aabe
00000050: 4974 5b3e d43b 183f 461b c93d 730e 3ebd
00000060: 8c77 553f 5c21 22bf db77 bfbe f11a 603f
00000070: 638c 283f 13f5 8c3d a7d6 93bf 72fa 94be
00000080: fdb7 58be d90b 29bd f6e1 abbe b1e2 71bd
00000090: 7013 c5bd 9f70 223f 40c5 6c3e dbb2 47be
000000a0: 9010 343f c4f0 24bd 28a3 363e 6d1b dc3e
000000b0: 0eb6 c6be 13f3 b93c 01cc e7be 8942 12bf
000000c0: dedc cb3e c817 413e 9cf2 38bf b6ca cdbe
000000d0: 31a1 273f 914b 24bf f404 6a3c b0a6 ca3e
000000e0: 6ef8 0e3f e2d2 eebd 1353 603e a9aa 1b3f
000000f0: 04a6 2ebe 02eb 043f 3f47 fe3e 8f6e 393f
00000100: 463c a63e fef3 32be 6a32 143e f519 b63f
00000110: 3e4c 56bb 602e b63e df8b 2d3e 73a0 0d3f
00000120: 9fbd 1f3f 2a6b 023f 5acc 183f 42f0 5d3e
00000130: 4e57 c13e 4982 7a3e 283c e3bd 2dfe 60be
00000140: ad4e 153f 6c30 5d3f 78dd 84bf 1f8d bcbe
00000150: f123 d93e c469 90bd b6db ae3e 3a4f 323d
00000160: 7bf5 e13d 9935 063f 53a0 903e 1551 243e
00000170: 8d5b 9fbe db16 603f ca84 323d 6fd8 f53e
00000180: cb4a 4a3f faad c73e dcd7 08bf 0e27 46bf
00000190: fa74 213f 2e5d dfbc a413 a93e e42e f23c
000001a0: c2c1 483f 29c4 eabc a786 9fbe f5bb 853e
000001b0: c840 25bf 1b80 823f 0ca6 0c3e 3820 afbd
000001c0: e09c da3e 0786 cf3d 5d11 dd3d 6603 ebbe
000001d0: f1cd 613e 9106 32be adf2 323f 1715 1abe
000001e0: 0e94 ad3d 3309 0d3e 3012 01be 04b8 e2bd
000001f0: b5b6 433f 65d1 28bf f23a f13e 928f 0f3d
00000200: c719 063f 4f34 03be 4e16 01bf adb6 6b3e
00000210: bc1f 473e db9d 8dbf e703 843e 9bf0 d43c
00000220: c623 653e 86a9 fb3e 09f6 fb3e 877e 5cbe
00000230: 8587 da3e cc23 76be 8319 853e a782 693d
00000240: 1aff 323c 8b72 73bc 0d5c 81be ecfc 03bf
00000250: 80f8 b43e cddc 8d3f 4c41 223f e2ee 8c3e
00000260: 6483 473f 7a19 afbe 8004 6b3f 773b 183f
00000270: de11 66be 3851 74be cc3c 0ebe 2ed4 5d3f
00000280: 9368 4a3e f088 19bd 2acf 773e 7e31 12be
00000290: 8ece af3e 8df2 e5bd f3d2 fe3e 39a8 9c3e
000002a0: 7be8 6b3e 51f5 b1be 1425 e33d 4db9 8ebe
000002b0: 5844 ad3e ddd0 00bf 331b 9e3d a785 3a3f
000002c0: 3745 6cbf c5d3 08be b0eb ec3e 4499 0fbe
000002d0: 3c4e ce3d f47e 783f c280 b9bd 8080 023e
000002e0: 86a4 0b3f 1b79 e43e eeb8 36bf d6ae 8a3e
000002f0: bb6d a63e 6462 31bf 8e99 90bd 9b4e 4cbf
00000300: 7527 aabd 0078 033e 9f54 b1bd b130 acbe
00000310: 48d6 6bbe d383 463e a5ad fa3d ce76 86bf
00000320: 7381 35be 14fe bebe c344 0ebd bd3e bc3e
00000330: 68ca 78bc 6ed4 273b 417c 0abf e433 f9be
00000340: cd44 dc3c 19a1 aabe c222 883e 7956 54bf
00000350: 1075 473e a843 32bd 1c2b d73d 69e0 4bbe
00000360: f351 edbe adf0 2bbf 81fc 873e 9f79 87be
00000370: 49c4 883e bc0d 8cbe 981a 61be e0a7 ef3e
00000380: 85f5 b33e b54a 53bc 8ecc 92bd bcce 50bf
00000390: 652b 4a3f b2e4 d3be 00c6 543e 0a5f 88be
000003a0: b39b 0c3e 96f9 0cbf e912 e9be 8dea 5a3f
000003b0: ef70 89be 098f 593e 3f3a 8c3c 140a ca3e
000003c0: 60ca da3c fa74 85be 388e 063d 505d 1f3f
000003d0: b067 9e3e 4c41 563e d86f 27bd 4b1f 8dbe
000003e0: 5de6 96be cfba 1cbd 847e c93d 4b45 8f3e
000003f0: 1287 2a3f 48dc ce3d 9c94 a03e 94ca c83e

gat2.lin_edge.weight f4 [16, 2]
-0.6474992 0.9719732 0.05097381 -1.0138078 -0.2076036 -0.30424586 -0.80172926 1.3612819
-0.24642451 1.2144202 -1.0597837 1.4070637 -0.23299682 1.3470687 -0.7130132 0.3249599
0.20164889 1.0138876 0.88034016 -1.0444788 -0.24911483 -0.7589726 0.12792146 0.3122053
-0.15092103 1.0893055 -0.6627138 1.2533826 -0.12894717 -1.024019 -0.8070934 0.967343
00000000: 82c2 25bf 3cd3 783f eac9 503d 74c4 81bf
00000010: 0a96 54be 1dc6 9bbe 213e 4dbf 7c3e ae3f
00000020: b556 7cbe 1f72 9b3f fea6 87bf aa1a b43f
00000030: b896 6ebe bf6c ac3f 0888 36bf 2561 a63e
00000040: 0c7d 4e3e 12c7 813f f95d 613f 7bb1 85bf
00000050: f517 7fbe 074c 42bf d8fd 023e 60d9 9f3e
00000060: 0b8b 1abe 5d6e 8b3f 9da7 29bf d76e a03f
00000070: ba0a 04be 0e13 83bf ac9d 4ebf caa3 773f

mlp.0.weight f4 [16, 32]
0.048632905 0.08151814 -0.04729337 -0.20442255 -0.033583187 0.16414158 -0.18511565 0.0974658
-0.17616381 -0.098078474 0.0032602549 -0.23201972 0.16823198 0.07405709 -0.2150033 -0.098835856
-0.14572251 -0.030598566 -0.089966215 -0.24459134 0.009488833 -0.17530592 0.029765096 -0.05369258
0.031033644 -0.051028468 -0.11223537 0.06403746 0.14137314 -0.060193367 -0.0051900265 -0.042855233
-0.061563082 0.6677339 0.58541286 0.28144473 0.36802235 0.5844555 0.877868 0.059121758
0.2119434 0.12167776 -0.22667336 0.72560006 0.062128227 -0.066452324 0.82014304 -0.28195074
0.36362162 0.27358958 0.32499677 -0.14745302 0.2470881 0.14304511 0.3513914 -0.08711154
-0.25729558 -0.08450626 -0.13736099 0.5468317 -0.13500592 -0.3202904 0.18561874 0.047116596
0.3651611 -0.4168572 0.2021123 -0.46923578 0.08128241 -0.47197902 -1.006309 -0.04734708
0.0056215515 -0.1998418 0.14177388 0.030460402 -0.48820448 -0.72579825 -0.15966707 -0.044136636
-0.22610442 0.21935531 0.5754858 0.5197949 -0.15790398 0.6786319 0.5828383 0.045889422
-0.16719496 -0.00018466252 0.15690924 0.15454379 0.29505396 -0.2951232 0.5912891 0.08991515
0.22068177 -0.44309807 -0.080771886 -0.055054486 -0.020754822 -0.28198338 -0.6704195 -0.17302498
-0.23281662 0.17895825 -0.044168692 -0.055065036 -0.4318996 -0.031965766 -0.1405822 -0.08298339
0.06882282 0.25793645 0.38013065 0.16454546 -0.10869974 0.22857419 0.5556006 -0.20316045
-0.27840587 -0.047879152 -0.14985943 0.2720796 0.4741348 0.024619173 0.13769567 -0.15686807
0.59247535 0.4398725 0.0923674 -0.4186096 0.30795518 -0.4188769 -0.66256124 -0.2585545
-0.19172831 0.49210685 0.16086388 0.037056573 -0.778594 0.73952955 -0.49703676 0.22618005
0.15328734 0.875943 0.2663283 0.12523948 0.061747693 0.051382605 -0.18799157 -0.20992287
-0.2468526 0.6126268 0.33232814 0.039759282 -0.007902325 0.6129122 -0.08586174 -0.65379435
0.12388649 -0.7327913 -0.09126832 0.08280109 0.14819445 0.00974814 -0.07275396 0.033042025
0.02590888 -0.77767575 0.18054391 -1.1042864 1.065541 0.18368794 0.2723597 0.22063294
-0.1055426 -0.55456054 0.23323831 0.3967039 0.044490717 0.34210703 0.19276826 0.4741319
0.29448268 -0.69285023 0.38114876 -1.2139031 0.98503184 -0.04363052 0.49811882 0.30084598
-0.07427317 -0.21693961 -0.004614904 -0.22007267 -0.18698162 -0.04014844 -0.24968396 -0.23359247
0.0215338 0.065450616 -0.1528923 -0.11377453 -0.07478998 -0.007226197 -0.033542503 -0.15648851
0.03723052 -0.06259813 -0.21887214 -0.18629 0.048854657 -0.01763709 0.108151704 -0.12844862
0.077236354 0.088563815 -0.2567244 -0.051481545 0.12862383 0.077947356 -0.032415994 -0.048086017
0.013460203 0.42145476 -0.17265832 0.040082876 -0.68590766 -0.30669278 0.31402943 -0.081793204
-0.09995982 -0.14960307 -0.019014379 0.27432343 0.14882995 0.0714693 0.06465168 -0.03317469
-0.086357124 0.59623885 0.027793372 0.11555674 -0.6325872 0.1265458 0.7708974 0.1982393
-0.114793904 0.036415722 -0.14019991 0.016060982 0.39164984 0.29828033 0.33230853 -0.308748
00000000: 4c33 473d fcf2 a63d b1b6 41bd 2554 51be
00000010: 868e 09bd bb14 283e f58e 3dbe 269c c73d
00000020: 4964 34be 5edd c8bd 00aa 553b 9496 6dbe
00000030: 0145 2c3e 3eab 973d d329 5cbe 746a cabd
00000040: 4838 15be d8a9 fabc 3540 b8bd 2776 7abe
00000050: 0d77 1b3c 6583 33be eed5 f33c c0ec 5bbd
00000060: 453a fe3c 3a03 51bd a8db e5bd 1226 833d
00000070: 1fc4 103e 528d 76bd 1911 aabb f888 2fbd
00000080: 9229 7cbd 9cf0 2a3f 9edd 153f 8619 903e
00000090: 6d6d bc3e e09e 153f f5bb 603f a829 723d
000000a0: b107 593e 3032 f93d 101d 68be edc0 393f
000000b0: 2b7a 7e3d 2818 88bd e5f4 513f d95b 90be
000000c0: 9d2c ba3e ef13 8c3e fa65 a63e edfd 16be
000000d0: aa04 7d3e 6b7a 123e 93e9 b33e 8967 b2bd
000000e0: 3fbc 83be 9e11 adbd 5ca8 0cbe 2afd 0b3f
000000f0: fe3e 0abe 1afd a3be d712 3e3e 55fd 403d
00000100: 65f6 ba3e 4f6e d5be 87f6 4e3e ac3f f0be
00000110: 6477 a63d 3ca7 f1be bcce 80bf 03ef 41bd
00000120: fe34 b83b 54a3 4cbe 2c2d 113e 1888 f93c
00000130: f0f5 f9be eacd 39bf c47f 23be 9ec8 34bd
00000140: eb87 67be ae9e 603e 0a53 133f 4711 053f
00000150: 95b1 21be d2ba 2d3f e434 153f 8cf6 3b3d
00000160: 2835 2bbe f8a1 41b9 d1ac 203e ba40 1e3e
00000170: 5011 973e 631a 97be b95e 173f 6f25 b83d
00000180: 67fa 613e c0dd e2be bb6b a5bd d080 61bd
00000190: 0406 aabc 2060 90be 9da0 2bbf 762d 31be
000001a0: 7b67 6ebe d540 373e 3bea 34bd e08b 61bd
000001b0: f221 ddbe 89ee 02bd c8f4 0fbe 32f3 a9bd
000001c0: fbf2 8c3d 3f10 843e 7ca0 c23e 9b7e 283e
000001d0: f89d debd 5a0f 6a3e d73b 0e3f 4b09 50be
000001e0: 378b 8ebe ee1c 44bd c074 19be 044e 8b3e
000001f0: ccc1 f23e 26ae c93c 1800 0d3e 06a2 20be
00000200: 77ac 173f f836 e13e 1f2b bd3d ff53 d6be
00000210: 4dac 9d3e 0877 d6be 9d9d 29bf 4161 84be
00000220: 6d54 44be 6ef5 fb3e 80b9 243e a2c8 173d
00000230: f051 47bf cf51 3d3f 9a7b febe be9b 673e
00000240: 5bf7 1c3e cd3d 603f 2f5c 883e c73e 003e
00000250: 26eb 7c3d 9176 523d dd80 40be 05f6 56be
00000260: eec6 7cbe 1cd5 1c3f ea26 aa3e a1da 223d
00000270: c178 01bc d0e7 1c3f 48d8 afbd 115f 27bf
00000280: 33b8 fd3d 3698 3bbf e3ea babd 9e93 a93d
00000290: 49c0 173e aab6 1f3c 0700 95bd 1357 073d
000002a0: dc3e d43c c215 47bf 81e0 383e 4259 8dbf
000002b0: a663 883f b118 3c3e bb72 8b3e 9aed 613e
000002c0: b826 d8bd aef7 0dbf 06d6 6e3e c61c cb3e
000002d0: e63b 363d a728 af3e 0b65 453e 6bc1 f23e
000002e0: 6fc6 963e a25e 31bf ee25 c33e 2d61 9bbf
000002f0: 0c2b 7c3f ebb5 32bd 6e09 ff3e 7c08 9a3e
00000300: 881c 98bd 6b25 5ebe 9f38 97bb bb5a 61be
00000310: 1c78 3fbe b172 24bd 27ad 7fbe dd32 6fbe
00000320: a767 b03c f90a 863d cd8f 1cbe 9f02 e9bd
00000330: 7d2b 99bd bcc9 ecbb dd63 09bd 863e 20be
00000340: 087f 183d 7333 80bd 0520 60be cec2 3ebe
00000350: d21b 483d a97b 90bc a47e dd3d 0988 03be
00000360: 182e 9e3d f260 b53d 6171 83be 50de 52bd
00000370: f7b5 033e dda2 9f3d a2c6 04bd d8f5 44bd
00000380: 2f88 5c3c ebc8 d73e 58cd 30be f12d 243d
00000390: a597 2fbf d606 9dbe 77c8 a03e 3283 a7bd
000003a0: bcb7 ccbd 8c31 19be 0bc4 9bbc 1f74 8c3e
000003b0: e166 183e 7f5e 923d 1a68 843d 2fe2 07bd
000003c0: 01dc b0bd 1ca3 183f edae e33c 03a9 ec3d
000003d0: 3cf1 21bf 3995 013e 8859 453f 3eff 4a3e
000003e0: 1119 ebbd a728 153d 9190 0fbe 5292 833c
000003f0: 5486 c83e 33b8 983e 5824 aa3e 3814 9ebe

mlp.0.bias f4 [16]
-0.19823371 0.1811695 0.05690084 0.044031415 0.35675088 -0.119002536 -0.06298284 -0.048680503
-0.046123914 -0.042117752 -0.22368765 -0.13213342 -0.44720188 -0.25215745 0.01529317 -0.09926708
00000000: c7fd 4abe 7f84 393e db10 693d 495a 343d
00000010: 0da8 b63e 9ab7 f3bd 26fd 80bd 3565 47bd
00000020: 6eec 3cbd aa83 2cbd 600e 65be fc4d 07be
00000030: a5f7 e4be c81a 81be 3490 7a3c 8a4c cbbd

mlp.2.weight f4 [1, 16]
0.037017915 -0.3769755 -0.95668817 -0.6098156 0.6815331 0.63598025 0.029094547 0.5587591
0.10233785 0.4057157 0.40159574 -0.080420956 0.5281341 0.36021477 -0.6853273 0.43662027
00000000: 19a0 173d ef02 c1be 84e9 74bf e01c 1cbf
00000010: f478 2e3f 9acf 223f b057 ee3c d60a 0f3f
00000020: 8296 d13d f8b9 cf3e f59d cd3e beb3 a4bd
00000030: cc33 073f 126e b83e 9c71 2fbf b18c df3e
