data/CTC/Fluo-N2DH-SIM+/02_RES_GAT/20250718_184005/manual_fold_5_best_model.pth (torch, 11177 bytes, 15 tensors)

gat1.att_src f4 [1, 1, 16]
0	0x3dbcb308	0.09213835
1	0x3ee9f87f	0.456974
2	0x3d0b0e16	0.03394898
3	0x3d475a15	0.048669893
4	0x3e1ecd78	0.15508068
5	0x3da49b0d	0.08037386
6	0xbe899030	-0.2686782
7	0xbe9317d8	-0.2872913
8	0xbda60498	-0.08106345
9	0xbe20c884	-0.1570149
10	0x3db6d21b	0.08926793
11	0xbd70603f	-0.058685537
12	0xbe77c37e	-0.24195668
13	0xbe632095	-0.22180398
14	0x3f09c73e	0.53819644
15	0x3c8474e7	0.016169025

gat1.att_dst f4 [1, 1, 16]
0	0xbe03eb4f	-0.12882732
1	0xbde7f19f	-0.113253824
2	0x3df3fa2a	0.119129494
3	0xbc5adb92	-0.013358014
4	0x3f3b29f8	0.73110914
5	0xbf08b72d	-0.53404504
6	0xbe3087be	-0.17239282
7	0xbd047045	-0.03233363
8	0x3e2fa3fb	0.17152397
9	0x3e398d2d	0.1812026
10	0xbf36dd4d	-0.7143143
11	0xbf208d00	-0.6271515
12	0xbec62db5	-0.38706747
13	0x3ea061df	0.3132467
14	0x3f207b44	0.6268809
15	0xbe483d82	-0.19554713

gat1.att_edge f4 [1, 1, 16]
0	0xbe578f21	-0.21050693
1	0x3f3cf35a	0.73808825
2	0xbf672b71	-0.9030066
3	0x3f2ecfae	0.68285644
4	0xbf04009a	-0.5156342
5	0xbe0f9162	-0.14020303
6	0xbf400b3a	-0.7501713
7	0x3f125af7	0.5717005
8	0xbfa79ca5	-1.3094679
9	0x3e88a4f7	0.26688358
10	0x3ec47dfd	0.3837737
11	0xbf2dd959	-0.6790977
12	0xbe78d605	-0.24300392
13	0xbf281693	-0.65659446
14	0xbe6e1b3a	-0.23252574
15	0xbebdaf9e	-0.37048048

gat1.bias f4 [16]
0	0xbd80f01f	-0.062957995
1	0xbe718b5e	-0.2358832
2	0xbe3d4313	-0.18482618
3	0x3ecab3f8	0.3959043
4	0x3ee92fea	0.45544368
5	0xbd650698	-0.05591449
6	0x3eb58137	0.35450146
7	0xbeb35edf	-0.35033318
8	0x3e4673f2	0.19380167
9	0xbd9bd33a	-0.07608648
10	0xbdd5e638	-0.10444301
11	0xbdbceb03	-0.092245124
12	0x3d502001	0.05081177
13	0xbeb6060d	-0.3555149
14	0xbe982500	-0.2971573
15	0x3dc5a781	0.096510895

gat1.lin.weight f4 [16, 14]
0	0x3eca4658	0.39506793
1	0xbdb22727	-0.08698874
2	0xbde9caeb	-0.11415657
3	0xbe1deb31	-0.1542175
4	0xbde4759a	-0.11155243
5	0xbe9b2056	-0.30298108
6	0x3f13482d	0.57532007
7	0xbeefc4fc	-0.46829975
8	0x3f035bc4	0.513119
9	0x3e9bd051	0.3043237
10	0xbe7b6fa9	-0.24554314
11	0x3d995e7e	0.07488726
12	0x3ece6d5b	0.40317807
13	0x3d7c9f66	0.06167545
14	0xbe698784	-0.22805601
15	0xbebb360a	-0.36564666
16	0x3e986c08	0.2976992
17	0x3ea6dac1	0.3258877
18	0x3ec16e09	0.37779263
19	0xbd3fe4b0	-0.046848953
20	0xbdf57be4	-0.11986521
21	0xbd3f382c	-0.04668443
22	0xbea4a661	-0.32158187
23	0xbe31d090	-0.17364717
24	0x3ec776cf	0.3895783
25	0x3da4f604	0.08054736
26	0x3f15a6ca	0.58457625
27	0x3df53c46	0.11974387
28	0x3c8dca88	0.017308488
29	0x3c641dbc	0.013923105
30	0xbeabf21c	-0.33583152
31	0xbe4587c5	-0.19290073
32	0x3f3f3346	0.7468761
33	0xbf178ce8	-0.5919938
34	0x3f0cffdb	0.55077904
35	0xbf4bf6d1	-0.79673487
36	0x3ec4eed6	0.38463467
37	0x3eaf0f77	0.34191486
38	0xbf15e922	-0.5855886
39	0x3e976130	0.29566336
40	0xbe82ff23	-0.2558528
41	0x3e344195	0.17603143
42	0x3f09b873	0.5379707
43	0x3e8d07a2	0.27544886
44	0xbe931625	-0.28727832
45	0xbf0956af	-0.53647894
46	0x3b2f8b52	0.0026785922
47	0x3e84a44e	0.25906605
48	0xbf1abd9f	-0.6044559
49	0xbef8b78d	-0.48577538
50	0xbd043c2e	-0.032283954
51	0xbd7afb3d	-0.061274756
52	0x3f0d28da	0.5514046
53	0x3eba5b33	0.36397704
54	0xbda6c21f	-0.081424944
55	0x3dcdf0ba	0.100556806
56	0x3f259e2a	0.64694464
57	0x3f81b226	1.0132492
58	0x3de2123c	0.11038634
59	0xbcc3494b	-0.02383866
60	0xbefe8f98	-0.49718928
61	0xbd9f6de7	-0.07784634
62	0xbe9cf0c7	-0.3065245
63	0x3e95230b	0.29128298
64	0xbf58e848	-0.84729433
65	0x3e693dc0	0.22777462
66	0x3ece40d1	0.40283826
67	0x3d9eb51c	0.077493876
68	0xbe849786	-0.25896853
69	0x3ce874a3	0.02837593
70	0xbe555b16	-0.20835528
71	0xbe2fab7e	-0.17155263
72	0xbda0ed9f	-0.078578226
73	0xbe234480	-0.159441
74	0xbf1900c1	-0.59766775
75	0x3ede29c5	0.43391243
76	0xbd68a80b	-0.056800883
77	0xbe33815a	-0.17529812
78	0xbeb65835	-0.35614172
79	0xbeaad8f9	-0.33368662
80	0x3e236187	0.15955172
81	0x3e561b83	0.20908932
82	0xbdf38330	-0.118902564
83	0x3e2092e2	0.15681031
84	0xbe9e68a6	-0.30939215
85	0x3e88ab8e	0.26693386
86	0x3f019792	0.506219
87	0x3ea356b9	0.31902102
88	0x3ebed3b6	0.37270898
89	0xbecd0c09	-0.40048245
90	0x3ea3ac18	0.31967235
91	0xbe3e816e	-0.18604061
92	0x3f18d457	0.59699005
93	0xbe04aab3	-0.12955742
94	0xbe54355d	-0.20723481
95	0xbccbe35e	-0.02488869
96	0xbe37c608	-0.17946637
97	0x3c9bc8aa	0.019016583
98	0x3ed1792f	0.40912768
99	0x3db8aa91	0.09016908
100	0xbda71a0a	-0.081592634
101	0x3ece3bec	0.40280092
102	0xbee1e5ad	-0.4412054
103	0x3ca3c817	0.019992871
104	0x3dd45f67	0.10369759
105	0x3d5d7bc7	0.05407312
106	0xbbace154	-0.0052758846
107	0xbf0c9ea8	-0.5492959
108	0xbde22f0d	-0.110441305
109	0xbe867a27	-0.2626507
110	0x3e95bf96	0.2924773
111	0xbe60add2	-0.21941307
112	0x3ee7acc6	0.45249003
113	0x3edf039f	0.4355745
114	0x3d23ff05	0.040038127
115	0xbebce7ec	-0.36895692
116	0x3b845a77	0.0040391046
117	0xbebec56d	-0.3726
118	0x3db1cab7	0.08681243
119	0x3ecbabde	0.39779562
120	0xbf085989	-0.5326162
121	0x3eac11cb	0.33607325
122	0x3f068c61	0.5255795
123	0xbdb8f88d	-0.09031782
124	0x3e380342	0.17969993
125	0x3d89fee4	0.0673807
126	0xbd882766	-0.0664814
127	0xbcbecf78	-0.023292288
128	0xbdef1570	-0.11674011
129	0x3e152e6a	0.14568487
130	0x3e03158c	0.12801188
131	0x3ece88cc	0.40338743
132	0x3e187910	0.14889932
133	0x3e7778e8	0.24167216
134	0xbe3b674f	-0.18301128
135	0x3e573e31	0.21019818
136	0x3eb6ef7f	0.35729596
137	0x3ea33627	0.31877252
138	0x3f071b02	0.52775586
139	0x3e3e5f27	0.18590985
140	0xbec5e655	-0.38652292
141	0xbf2f79c5	-0.6854518
142	0x3ea197df	0.3156118
143	0x3e93fadb	0.28902325
144	0xbe1a62ee	-0.15076801
145	0xbd5a7a27	-0.05333915
146	0x3d2f06f4	0.04273124
147	0x3ea40342	0.32033736
148	0x3e350c55	0.17680486
149	0x3e535a50	0.2063992
150	0x3f2fcdd8	0.6867347
151	0x3ea346c6	0.31889933
152	0x3e04dd92	0.12975147
153	0xbec4f0c3	-0.38464937
154	0xbf14abf5	-0.58074886
155	0xbf34a9d6	-0.7057165
156	0x3dc69c45	0.09697775
157	0x3e0f3f56	0.13989004
158	0x3df5a8bb	0.119950734
159	0xbf0a96a4	-0.5413611
160	0xbd89e6dc	-0.06733486
161	0xbe90f908	-0.28314996
162	0x3e844634	0.2583481
163	0xbe98f00e	-0.29870647
164	0x3e83cb70	0.25741148
165	0xbe58d48c	-0.2117483
166	0x3e329e6c	0.17443246
167	0xbdc66d0b	-0.09688767
168	0xbea6321f	-0.32460114
169	0xbec4fe37	-0.384752
170	0x3e393079	0.18084897
171	0x3eaf678b	0.34258685
172	0xbf071801	-0.52771
173	0x3ecf4ab9	0.40486696
174	0xbe531b14	-0.20615798
175	0x3ec90df0	0.39268446
176	0xbeab440a	-0.33450347
177	0xbe0a8774	-0.13528234
178	0xbd7d5be1	-0.0618552
179	0xbb8ceb8e	-0.0043005412
180	0x3db7f1f5	0.089816965
181	0xbdc6be96	-0.0970432
182	0xbc2ad068	-0.0104256645
183	0x3d9a9ff1	0.07550038
184	0xbd4e3a01	-0.050348286
185	0xbe496dae	-0.19670746
186	0xbe8d37e4	-0.27581704
187	0xbc9cd39c	-0.019143872
188	0xbc82dc52	-0.015974198
189	0x3ec08da9	0.37608078
190	0xbe57645a	-0.21034375
191	0xbe69ab9e	-0.22819373
192	0x3eb6f7bb	0.35735878
193	0x3e12b717	0.14327656
194	0x3e20f281	0.15717508
195	0xbec59b16	-0.38594884
196	0xbdbda941	-0.09260798
197	0x3e032281	0.12806131
198	0x3d81f2b4	0.0634512
199	0xbf153488	-0.5828328
200	0x3e0cb425	0.13740595
201	0xbed0b410	-0.40762377
202	0x3daa7005	0.08322147
203	0xbe4bbead	-0.19896956
204	0x3e5f1ad1	0.21787573
205	0xbeadf26b	-0.33974013
206	0xbead73e9	-0.33877495
207	0xbeb40f97	-0.35168144
208	0xbe5e1908	-0.21689236
209	0xbe67be5d	-0.22631212
210	0x3cae5bc7	0.021283997
211	0x3e1767f4	0.14785749
212	0x3e88c836	0.2671525
213	0x3f052526	0.5200981
214	0x3e96ffa3	0.2949191
215	0xbcf40adc	-0.029790334
216	0x3e989294	0.2979933
217	0x3f127968	0.572165
218	0xbddf8470	-0.10913932
219	0xbf1f07a5	-0.6212104
220	0x3d4692cd	0.048479844
221	0xbe216cc3	-0.15764146
222	0xbed1dd1f	-0.40989015
223	0xbdd788d0	-0.10524142

gat1.lin_edge.weight f4 [16, 2]
0	0xbec6429d	-0.38722697
1	0x3d1f7921	0.038933877
2	0xbefc0bee	-0.49227852
3	0x3f3d72c4	0.74003243
4	0x3eb86825	0.36016956
5	0xbf32e015	-0.6987317
6	0xbf1ca910	-0.6119547
7	0x3f0688a7	0.52552265
8	0x3ece4199	0.40284422
9	0xbf55b2b8	-0.8347583
10	0x3f07e8ed	0.5308979
11	0xbe8e7eac	-0.27831018
12	0x3f065674	0.52475667
13	0xbfa91ef0	-1.3212566
14	0xbf1024de	-0.56306255
15	0x3f4bd8bf	0.79627603
16	0x3e64fc0d	0.22361775
17	0xbf9a860a	-1.2072155
18	0xbec78ec8	-0.3897612
19	0x3ebaa715	0.36455598
20	0x3c8afd4e	0.016966488
21	0x3f47cb59	0.7804466
22	0x3f3c9f2e	0.7368039
23	0xbf8e44e4	-1.1114774
24	0x3cba4a4e	0.02274051
25	0xbef381b7	-0.47559902
26	0x3f31d157	0.6946005
27	0xbf6ea67d	-0.9322279
28	0x3e9739fe	0.29536432
29	0xbddb4eb8	-0.10708374
30	0x3ddc85f8	0.1076774
31	0xbeb7ab74	-0.35872996

gat2.att_src f4 [1, 1, 16]
0	0xbdac53f4	-0.0841445
1	0xbee6cc5a	-0.45077783
2	0xbd35ae77	-0.044355836
3	0xbef28516	-0.47367162
4	0xbe6a8529	-0.22902359
5	0xbef5798e	-0.479443
6	0x3dd61e9c	0.10455057
7	0x3f155cd1	0.5834475
8	0x3f1d8581	0.61531836
9	0xbe473aba	-0.19455996
10	0xbe5844f0	-0.21120048
11	0xbee3040c	-0.44339025
12	0x3e57f216	0.21088442
13	0xbe7ee0cf	-0.24890445
14	0x3ec6cbfb	0.388275
15	0x3e0bb2dd	0.1364245

gat2.att_dst f4 [1, 1, 16]
0	0xbf57a11c	-0.8423021
1	0xbe9bfd57	-0.3046672
2	0xbf754098	-0.9580169
3	0xbfb48dcb	-1.4105772
4	0xbeb1480e	-0.34625286
5	0x3ddfc896	0.109269306
6	0xbf6245d6	-0.8838781
7	0xbf275a73	-0.6537239
8	0xbfa157f6	-1.2604969
9	0xbb262560	-0.0025351867
10	0xbea5ea9a	-0.3240555
11	0x3e78e87f	0.2430744
12	0xbf1403b5	-0.57818156
13	0x3f048230	0.5176115
14	0xbf9d76ba	-1.2301857
15	0x3c1fd6ec	0.009755831

gat2.att_edge f4 [1, 1, 16]
0	0x3f073cac	0.5282695
1	0xbf5a282c	-0.8521755
2	0xbf06ed06	-0.5270542
3	0xbf668552	-0.9004718
4	0xbe1c7757	-0.152799
5	0x3e93cb7c	0.28866184
6	0xbeee7e96	-0.46580952
7	0x3f067422	0.52520955
8	0xbcf261d4	-0.029587664
9	0x3ee26f6a	0.44225627
10	0x3f2c5628	0.67318964
11	0x3f74b204	0.9558413
12	0xbde0a9a3	-0.10969856
13	0xbf71c823	-0.9444601
14	0xbf920e8f	-1.1410693
15	0x3f5e0b0a	0.86735594

gat2.bias f4 [16]
0	0xbe4fe133	-0.2030075
1	0xbe4d11c8	-0.20026314
2	0xbe4fc9a4	-0.20291764
3	0x3d07250b	0.03299431
4	0xbe56f38b	-0.20991342
5	0xbe2a0c06	-0.16606149
6	0x3c5dc681	0.013536097
7	0xbe99b595	-0.3002135
8	0xbb80aaf7	-0.0039266306
9	0x3dc49fd8	0.096008
10	0x3e60cad0	0.21952367
11	0x3ec283d9	0.37991217
12	0xbe3736be	-0.17891976
13	0xbe661e05	-0.22472389
14	0x3cd653f0	0.026163071
15	0x3d0e7323	0.03477777

gat2.lin.weight f4 [16, 16]
0	0xbea70fe8	-0.32629323
1	0x3ee28d7b	0.44248566
2	0xbdaced4b	-0.084436975
3	0xbf219614	-0.63119626
4	0xbedb0745	-0.42778984
5	0x3ecfd164	0.4058944
6	0xbdf460bf	-0.11932515
7	0xbe7e97dc	-0.24862617
8	0xbaca3584	-0.0015427326
9	0x3ee06be6	0.4383232
10	0x3da3650d	0.07978258
11	0x3ee5e32e	0.44899887
12	0xbea4e347	-0.3220465
13	0xbe89e5e3	-0.26933202
14	0x3eaaa2e5	0.33327404
15	0x3cc6f2a1	0.024285616
16	0x3e430895	0.19046243
17	0xbe7f476b	-0.24929588
18	0xbe253958	-0.16135156
19	0x3e844b1f	0.25838563
20	0x3f039e89	0.5141378
21	0x3f071627	0.52768177
22	0xbeb442a3	-0.3520709
23	0x3ee97eb9	0.45604494
24	0xbdd1b702	-0.10239984
25	0x3e66b4fe	0.2252998
26	0xbed98950	-0.42487574
27	0xbd96994f	-0.0735346
28	0x3f802b44	1.0013204
29	0xbdb86ed6	-0.09005515
30	0x3e5ef9d8	0.21774995
31	0xbe2fc8c3	-0.17166428
32	0x3e331107	0.17486964
33	0x3ead9f2d	0.33910504
34	0xbeb8e796	-0.36114186
35	0xbec04f56	-0.3756053
36	0x3d9e4594	0.07728115
37	0x3f04257b	0.5161969
38	0xbf12f7f5	-0.574096
39	0xbd97d0e0	-0.074128866
40	0xbe042acc	-0.1290695
41	0x3e344613	0.17604856
42	0xbdf3d0ab	-0.11905035
43	0x3ec4430d	0.38332406
44	0x3eaf5198	0.3424194
45	0x3f064634	0.5245087
46	0x3bc46291	0.0059931953
47	0xbe962fc9	-0.29333332
48	0xbd6629d1	-0.056192223
49	0xbd540a01	-0.051767353
50	0xbeb15b93	-0.34640178
51	0xbf29530b	-0.6614234
52	0xbf49a88b	-0.787728
53	0x3e2668fd	0.16250987
54	0xbf25813f	-0.6465034
55	0x3dd37390	0.10324776
56	0xbcb32772	-0.021869395
57	0x3e356086	0.17712602
58	0x3f15cd2e	0.58516204
59	0x3d8c068b	0.068371855
60	0x3e5b9ead	0.21447249
61	0x3eb56b2d	0.3543333
62	0x3e40e302	0.18836597
63	0xbe98e828	-0.2986462
64	0x3e0b2a29	0.13590302
65	0xbcb67de7	-0.022276832
66	0x3e7995c5	0.24373539
67	0xbe05e30a	-0.1307489
68	0xbee2fc62	-0.44333178
69	0x3edea06c	0.43481767
70	0xbee824a8	-0.45340466
71	0xbbebaab2	-0.0071919793
72	0x3d2561bd	0.040376414
73	0xbcef523a	-0.029214013
74	0xbe874903	-0.2642289
75	0xbe01ce5d	-0.12676378
76	0x3ecf0509	0.4043353
77	0xbdc5a42d	-0.09650455
78	0xbe8f499d	-0.2798585
79	0x3e57e422	0.2108312
80	0xbda91259	-0.08255453
81	0x3dc27119	0.09494228
82	0x3e5f7a08	0.21823895
83	0xbf582a4d	-0.84439546
84	0x3e0c96d6	0.13729414
85	0x3e085a16	0.13315615
86	0xbf027471	-0.50958925
87	0xbf0d7128	-0.5525079
88	0xbe8bf651	-0.27336362
89	0xbdddc73f	-0.10829019
90	0x3ec68635	0.38774267
91	0x3e4556a0	0.19271326
92	0xbe43c599	-0.19118346
93	0x3e8a3b59	0.26998404
94	0x3ea0e19a	0.3142212
95	0xbcb5de33	-0.02220068
96	0xbdb0533b	-0.08609625
97	0x3e8aaac5	0.27083412
98	0x3c9782b8	0.018494949
99	0x3cc20a1a	0.023686457
100	0xbede325c	-0.43397796
101	0xbd973baa	-0.07384427
102	0xbf103de4	-0.5634444
103	0xbd93ef06	-0.072233245
104	0x3e0f197b	0.13974564
105	0xbc4c4baa	-0.012469212
106	0x3eef4556	0.46732587
107	0x3e46ef02	0.19427112
108	0xbe2e36a2	-0.17013028
109	0xbf05b81c	-0.52234054
110	0xbe4bd308	-0.19904721
111	0xbed0a3bb	-0.40749916
112	0x3eb331b9	0.34998873
113	0x3e3fdb0a	0.187359
114	0x3e1e6c8d	0.15471096
115	0xbeb5b9dc	-0.35493362
116	0xbeae1135	-0.33997503
117	0x3e713f69	0.23559345
118	0x3e0662c8	0.1312362
119	0xbd7b958c	-0.061421916
120	0x3d03aecc	0.03214912
121	0xbebc3ce0	-0.36765194
122	0xbcde5f8f	-0.027145175
123	0x3e22bbab	0.15891902
124	0xbf2ec280	-0.68265533
125	0x3dcd13c0	0.10013533
126	0x3e86ecaf	0.2635245
127	0xbd84a2c8	-0.064763606
128	0xbeec7a74	-0.46187174
129	0x3e1e5f4b	0.15466039
130	0xbf2e589c	-0.6810396
131	0xbe52f060	-0.20599508
132	0x3eeaddda	0.45872384
133	0x3e17995a	0.14804593
134	0xbe38f539	-0.18062295
135	0xbe5c2ea5	-0.21502168
136	0xbeb17abc	-0.3466395
137	0xbb8fd2ff	-0.0043891664
138	0x3eb52ad3	0.35384235
139	0xbde21663	-0.11039426
140	0x3e3b8639	0.1831292
141	0x3dac38c9	0.084092684
142	0xbefccba0	-0.49374104
143	0x3da40355	0.08008448
144	0x3d81f274	0.063450724
145	0xbe523e5c	-0.205316
146	0xbf08e915	-0.53480655
147	0x3e5955f4	0.21224195
148	0x3f1635cf	0.58675855
149	0xbd0eec22	-0.034893163
150	0x3e069eca	0.1314651
151	0xbe55dc4a	-0.20884815
152	0x3df44d5d	0.119288184
153	0x3e721d80	0.23644066
154	0xbe156f5f	-0.14593266
155	0x3c884278	0.016633257
156	0x3e3c8b78	0.18412578
157	0xbe9ccd0d	-0.3062519
158	0xbe42779a	-0.18990937
159	0x3eeec748	0.46636415
160	0x3eeb1b8f	0.45919463
161	0x3e0d3b5c	0.13792175
162	0x3f2840b9	0.6572376
163	0x3cfae3ec	0.03062626
164	0x3e09b939	0.13449563
165	0xbe0a262c	-0.13491124
166	0x3f27d9a4	0.6556647
167	0xbeac066e	-0.33598655
168	0xbf4024bd	-0.7505606
169	0x3e9106d7	0.2832553
170	0x3ec9c784	0.3941003
171	0x3e6bb420	0.23017931
172	0xbda4ac72	-0.08040704
173	0x3ea55fc8	0.32299638
174	0x3ecc38a9	0.39886978
175	0x3e68c3c5	0.2273093
176	0xbeac46a1	-0.33647636
177	0x3c98627e	0.018601652
178	0xbf0f3e59	-0.5595451
179	0x3f1281a6	0.5722908
180	0x3f78342e	0.9695462
181	0x3eb0ff60	0.34569836
182	0x3e211c03	0.15733342
183	0x3eb1bd91	0.3471494
184	0x3f319868	0.6937318
185	0x3e30bbff	0.17259215
186	0xbd9dfb1c	-0.07713911
187	0xbf16a633	-0.5884735
188	0xbe482864	-0.19546658
189	0x3e930b5d	0.28719607
190	0xbeded81a	-0.43524247
191	0x3ed0c172	0.40772587
192	0xbe9a152b	-0.30094275
193	0x3f089160	0.53346825
194	0x3d8d7c87	0.06908517
195	0xbe58d09c	-0.21173328
196	0xbe177a6d	-0.14792795
197	0x3d917796	0.07102887
198	0xbee4c503	-0.44681558
199	0x3dccd37f	0.10001277
200	0x3dc87494	0.097878605
201	0x3d7b2b1f	0.06132042
202	0x3d3a5642	0.045492418
203	0x3f06553e	0.5247382
204	0xbe6d6eb6	-0.23186764
205	0xbe3568a4	-0.17715698
206	0xbe2be835	-0.16787799
207	0x3da2e59a	0.07953949
208	0x3eaaccad	0.3335928
209	0xbe974e49	-0.29551914
210	0x3f4e16a0	0.80503273
211	0xbe5a3177	-0.21307932
212	0xbf7eac62	-0.99481785
213	0x3f073c91	0.5282679
214	0x3f11b873	0.5692207
215	0x3bc4c33c	0.006004719
216	0xbf769c53	-0.9633228
217	0xbf0d4a7b	-0.55191773
218	0xbe5bd8d7	-0.21469437
219	0x3f27885c	0.6544244
220	0xbe6abdf3	-0.22924022
221	0x3d7ac1fb	0.06122015
222	0x3e9f929d	0.31166545
223	0xbf963c28	-1.1737108
224	0xbde82089	-0.113343306
225	0x3edf57d8	0.43621707
226	0xbe7b609b	-0.24548571
227	0xbe775ae4	-0.24155766
228	0xbe30f71c	-0.17281765
229	0x3f04251a	0.5161911
230	0xbea435e2	-0.3207236
231	0x3dae4618	0.08509463
232	0xbe955c93	-0.2917219
233	0x3ee60bf9	0.4493101
234	0x3e088558	0.13332117
235	0xbd31096f	-0.043221887
236	0x3efcac2c	0.49350107
237	0xbde7e53b	-0.11323019
238	0xbe8decdf	-0.2771978
239	0x3eb9eb01	0.36312106
240	0x3ee37a52	0.4442926
241	0xbe08d18b	-0.13361184
242	0x3dd94779	0.106093355
243	0x3e84244f	0.2580895
244	0x3cd3ebfa	0.025869358
245	0xbf2f4076	-0.68457735
246	0xbd95eba9	-0.07320339
247	0x3e9b3c6e	0.30319542
248	0x3e61cd7d	0.22051044
249	0x3d9af43a	0.07566114
250	0xbe039873	-0.12851124
251	0x3bb8a6eb	0.0056351325
252	0xbf6f0696	-0.93369424
253	0xbea5d038	-0.3238542
254	0xbd66174d	-0.056174565
255	0xbed4e226	-0.41578788

gat2.lin_edge.weight f4 [16, 2]
0	0x3ec9be0d	0.3940281
1	0xbf0a706d	-0.540778
2	0xbf6bc002	-0.92089856
3	0x3d9cb8ab	0.0765241
4	0xbf33b416	-0.70196664
5	0x3e500597	0.20314632
6	0xbefe2198	-0.49635005
7	0x3f1808a6	0.59388196
8	0xbe258c9e	-0.16166922
9	0x3f2177a1	0.63073164
10	0x3ee8f088	0.4549601
11	0xbef971d4	-0.48719656
12	0xbeadb378	-0.33925986
13	0x3f16ef73	0.5895912
14	0x3e296f44	0.1654635
15	0xbf017af8	-0.5057826
16	0xbcc736e5	-0.024318168
17	0xbecf6dce	-0.40513462
18	0x3f454230	0.7705412
19	0xbf56125e	-0.83621776
20	0x3f734d48	0.95039797
21	0xbf73d1a6	-0.95241773
22	0x3f1f04ec	0.62116885
23	0xbf2d84a9	-0.6778055
24	0xbda59db7	-0.08086722
25	0x3eea04dd	0.45706835
26	0xbecf8a3d	-0.40535155
27	0x3f22fa30	0.63663006
28	0xbef47591	-0.47745946
29	0x3eff2536	0.49833077
30	0x3f65bac2	0.89738095
31	0xbde78711	-0.11305059

mlp.0.weight f4 [16, 32]
0	0xbe0f6da5	-0.1400667
1	0x3b9142cf	0.004433013
2	0x3cadaa1c	0.021199279
3	0xbe5f61e7	-0.2181469
4	0xbbbfd65e	-0.005854412
5	0xba6c1d88	-0.0009007086
6	0xbe14406a	-0.14477697
7	0xbe3af604	-0.1825791
8	0xbe5bc594	-0.21462089
9	0x3d29bc4c	0.04143934
10	0xbd72ad88	-0.059247524
11	0xbcbaa66e	-0.022784438
12	0xbe18b4b2	-0.1491268
13	0xbe7c3cc1	-0.24632551
14	0x3c90384f	0.017604975
15	0xb90f7426	-0.00013680811
16	0xbde91cec	-0.113824695
17	0x3e030f18	0.12798727
18	0x3d90ac80	0.07064152
19	0xbdb3b788	-0.0877524
20	0xbe202838	-0.15640342
21	0xbda775c3	-0.08176758
22	0xbe0b521a	-0.13605538
23	0xbda8643a	-0.08222242
24	0xbd7a8cce	-0.061169438
25	0xbc06bed3	-0.008224207
26	0xbd712cff	-0.058880802
27	0xbd6b03f1	-0.057376806
28	0xbe1ed4d9	-0.15510882
29	0xbe20909b	-0.15680163
30	0xbd2bebc4	-0.04197289
31	0x3d58ba73	0.052912187
32	0xbe235229	-0.1594931
33	0x3e08de56	0.13366064
34	0xbd90fe63	-0.070797704
35	0xbea80a20	-0.32820225
36	0x3c9d93b0	0.019235462
37	0xbce9285c	-0.028461628
38	0xbe80c42e	-0.25149673
39	0xbe5a8e61	-0.21343376
40	0xbe5576aa	-0.20846048
41	0xbe7ba58a	-0.24574867
42	0xbec1cc96	-0.378514
43	0xbde98b08	-0.11403471
44	0xbe8ec701	-0.27886203
45	0xbd7bcb29	-0.061473045
46	0x3de26d4b	0.11056002
47	0xbe0deb48	-0.13859284
48	0xbe748d2b	-0.23881976
49	0xbe214b03	-0.15751271
50	0xbdff8878	-0.12477201
51	0xbecf61e6	-0.40504378
52	0xbd0903fb	-0.03345106
53	0xbd800c4e	-0.06252347
54	0x3b97b349	0.0046295268
55	0xbe9e0ae1	-0.30867675
56	0xbdf3108f	-0.11868393
57	0xbd07ae5f	-0.033125278
58	0xbe9b3c7b	-0.3031958
59	0xbdd8005a	-0.10546942
60	0xbe44511c	-0.19171566
61	0xbdaf1051	-0.08548034
62	0x3d22eb34	0.03977509
63	0xbe763f5f	-0.24047612
64	0xbd907f72	-0.07055558
65	0x3d1396ed	0.036032606
66	0xbd210eeb	-0.039320868
67	0x3c989c2a	0.018629152
68	0x3ea90913	0.33014736
69	0xbe4c2212	-0.19934872
70	0xbe739dd7	-0.2379068
71	0xbd20a694	-0.03922136
72	0xbc38e8cd	-0.011285973
73	0xbd95eacb	-0.07320174
74	0x3cc80f73	0.02442143
75	0xbe16e7b1	-0.14736821
76	0xbc87beaf	-0.016570417
77	0xbd9eca8c	-0.077534765
78	0xbe6e79a3	-0.23288588
79	0xbe371f18	-0.17882955
80	0xbcdb5737	-0.026774986
81	0xbe109958	-0.14120996
82	0xbdab0652	-0.08350815
83	0x3d97e1c9	0.07416112
84	0xbe002bca	-0.12516704
85	0xbe6541a8	-0.22388327
86	0xbe1be684	-0.15224653
87	0xbe6d5a78	-0.23179042
88	0x3d72c4d2	0.059269734
89	0xbe1d3ab9	-0.15354432
90	0x3d84bcf6	0.06481354
91	0xbe2b10c9	-0.16705622
92	0x3d229f4a	0.03970269
93	0xbe094e4d	-0.13408776
94	0xbdb5cca7	-0.08876925
95	0xbe2860bc	-0.16443151
96	0xbddb2dfc	-0.1070213
97	0xbda3df23	-0.08001544
98	0xbe1532f3	-0.14570217
99	0x3de1f94a	0.11033876
100	0xbe318a9c	-0.17338032
101	0x3d10f6ab	0.03539149
102	0xbcea7d8e	-0.028624322
103	0x3ca524c2	0.020159129
104	0xbe64873e	-0.22317216
105	0x3d4c512c	0.0498821
106	0xbe5d015f	-0.21582554
107	0x3d058dca	0.032605924
108	0xbd8e0264	-0.0693405
109	0xbe482090	-0.19543672
110	0xbe3d44fc	-0.18483347
111	0xbe4bef76	-0.19915566
112	0x3db6e5f1	0.089305766
113	0x3cc1f610	0.023676902
114	0xbd792d0a	-0.06083397
115	0xbd0e11b9	-0.03468487
116	0xbe4d4e72	-0.20049456
117	0x3cd20a9d	0.025639826
118	0x3d0bbf24	0.034117833
119	0xbe025ad8	-0.12729967
120	0xbe3a8398	-0.18214262
121	0xbc0cb9be	-0.008589206
122	0x3d989978	0.07451147
123	0xbdf5962c	-0.11991534
124	0xbd092649	-0.033483777
125	0xbe6e1965	-0.23251875
126	0x3c8da9fb	0.017292967
127	0xbe2f8fe4	-0.17144734
128	0x3e2d60d8	0.16931474
129	0xbec40c23	-0.3829051
130	0xbdf1dbc5	-0.11809496
131	0xbd0f4570	-0.03497833
132	0xbeab54c8	-0.3346312
133	0xbc660bc2	-0.014040889
134	0xbce31c88	-0.027723566
135	0x3e8306cc	0.25591123
136	0xbea04914	-0.31305754
137	0xbc2dbc8f	-0.010604038
138	0x3d3913c4	0.045184866
139	0xbebf67b6	-0.37383813
140	0x3e2c93e1	0.16853286
141	0x3ef2597d	0.473339
142	0xbe084b2c	-0.13309926
143	0x3cd4b4e6	0.025965165
144	0xbd4032c0	-0.0469234
145	0xbd7fb9c5	-0.062433023
146	0xbe1545fe	-0.14577481
147	0x3b82b153	0.003988424
148	0xbe1ef222	-0.15522054
149	0xbd4f3cb0	-0.050594985
150	0x3e1df749	0.15426363
151	0x3dac6cff	0.08419227
152	0x3da7bcde	0.081903204
153	0x3e8c4cfa	0.27402478
154	0x3d2f1e68	0.042753607
155	0x3e5d49b5	0.21610148
156	0x3df4d3e9	0.11954481
157	0x3e5f4b7e	0.21806142
158	0xbe72569f	-0.23665856
159	0x3dd9193b	0.106005155
160	0x3d25639a	0.04037819
161	0x3f0e9066	0.55689085
162	0x3e6e234e	0.23255655
163	0x3da0f13f	0.07858514
164	0x3cc12072	0.023575041
165	0x399e7ef8	0.00030230707
166	0x3c952c08	0.018209472
167	0x3dff6d2a	0.12471993
168	0x3e149663	0.14510493
169	0x3d872a8b	0.06599911
170	0xbe21b1c4	-0.15790468
171	0xbb051ac0	-0.0020310134
172	0x3e8fb024	0.28064072
173	0x3e131fd8	0.14367616
174	0xbe3b3fe7	-0.18286096
175	0xbd5bdcc5	-0.05367734
176	0x3d806972	0.06270112
177	0xbdd82a02	-0.10554887
178	0x3d410eb3	0.04713316
179	0xbe39d511	-0.18147685
180	0xbe41e0f9	-0.18933477
181	0xbcd75f38	-0.026290521
182	0xbe05d2b7	-0.13068663
183	0x3e31ca0c	0.17362231
184	0xbe442f56	-0.19158682
185	0xbe5d9c16	-0.21641573
186	0xbd514729	-0.051093254
187	0xbf1c39b6	-0.6102556
188	0xbcb4c572	-0.022066806
189	0x3ebbf943	0.3671361
190	0xbe845c60	-0.25851727
191	0xbe0a236b	-0.13490073
192	0xbcf1b17b	-0.029503575
193	0x3e8568e4	0.26056588
194	0x3eabce4e	0.33555835
195	0x3e0d6777	0.13809
196	0x3e970f2a	0.29503757
197	0xbdd69604	-0.10477832
198	0x3e2dbdf7	0.16966997
199	0xbe99b3f4	-0.30020106
200	0x3e397751	0.18111922
201	0x3e59a1ac	0.21253079
202	0xbe838d71	-0.2569385
203	0x3edf0a5d	0.43562594
204	0x3ce2438c	0.0276201
205	0xbe5130b7	-0.2042874
206	0x3e3ac4f4	0.18239194
207	0x3e212cb2	0.15739706
208	0x3dc0266f	0.093823306
209	0xbef7fd50	-0.4843545
210	0xbe5f7ef2	-0.2182577
211	0xbd448d07	-0.047986057
212	0xbdd47dca	-0.10375555
213	0x3dfd26f7	0.123609476
214	0xbe231be1	-0.15928604
215	0x3e2ac539	0.16676797
216	0xbe4972be	-0.19672677
217	0xbe466e29	-0.1937796
218	0x3e1c9439	0.15290917
219	0xbe8e61ee	-0.2780909
220	0xbe30839a	-0.17237702
221	0x3eac1fc6	0.3361799
222	0xbe0b39dd	-0.13596292
223	0xbcd38a57	-0.025822802
224	0xbda04b3a	-0.07826848
225	0xbdfa874a	-0.122328356
226	0xbe0d958f	-0.13826583
227	0xbe103439	-0.14082421
228	0xbc8a9943	-0.016918784
229	0xbdfa9e70	-0.12237251
230	0xbe0ba999	-0.13638915
231	0xbd16f579	-0.036855195
232	0x3b7d4bc2	0.0038649892
233	0xbdeaba6e	-0.1146134
234	0xbdf5518d	-0.11978445
235	0xbc3cb3f4	-0.011517514
236	0x3e0b16e5	0.13582952
237	0xbe687932	-0.22702482
238	0x3db660f2	0.089052096
239	0x3d83ebc0	0.0644145
240	0xbdac8e4f	-0.08425581
241	0xbddd232c	-0.10797724
242	0xbd11af29	-0.035567436
243	0x3dfb456e	0.12269102
244	0xbe7adcc5	-0.2449828
245	0x3d5e6b64	0.054301634
246	0xbdc9a1ab	-0.09845289
247	0xbc010328	-0.007874288
248	0xbe68d687	-0.22738086
249	0xbe0d8b78	-0.13822734
250	0xbe547ced	-0.2075078
251	0xbc157921	-0.009123118
252	0xbd803108	-0.06259352
253	0x3d80b2f4	0.062841326
254	0xbdba098b	-0.090838514
255	0xbd8796eb	-0.06620582

mlp.0.bias f4 [16]
0	0xbe94eef0	-0.29088545
1	0xbec123f2	-0.37722737
2	0xbe0654d3	-0.13118295
3	0xbde77a90	-0.11302674
4	0xbd8ae42c	-0.067818016
5	0xbe30b214	-0.17255431
6	0x3d4e66d5	0.050391037
7	0xbe5073f8	-0.20356739
8	0x3daaba02	0.083362594
9	0xbdbb62fd	-0.0914974
10	0xbe6b8189	-0.22998632
11	0x3c1ec9aa	0.009691635
12	0xbcf64412	-0.030061755
13	0x3e9f0adc	0.31062973
14	0x3e4a297a	0.19742385
15	0xbdfac1b1	-0.12243975

mlp.2.weight f4 [1, 16]
0	0xbdfb8d3c	-0.12282798
1	0xbdd48d73	-0.10378542
2	0xbd32359a	-0.04350815
3	0x3d289aac	0.04116313
4	0xbe735b46	-0.23765287
5	0x3ea696a7	0.32536814
6	0xbf19e547	-0.60115474
7	0xbce9d4e9	-0.028543906
8	0xbe8947fd	-0.26812735
9	0x3e35f64e	0.17769739
10	0x3ed63f05	0.41844955
11	0xbeacc332	-0.33742672
12	0xbe0db07e	-0.13836858
13	0x3e9635fe	0.29338068
14	0x3ebad620	0.3649149
15	0xbf371f32	-0.71531975
