data/CTC/Fluo-N2DH-SIM+/02_RES_GAT/20250715_163910/manual_fold_3_best_model.pth (torch, 11177 bytes, 15 tensors)

gat1.att_src f4 [1, 1, 16]
0	0xbe1497ff	-0.14511107
1	0x3e618af8	0.22025669
2	0xbe0df14a	-0.13861576
3	0x3dba0a7d	0.09084032
4	0xbe618fb8	-0.2202748
5	0x3bfff068	0.007810641
6	0xbc58f9fc	-0.013243195
7	0x3c64c225	0.013962303
8	0xbde90e9a	-0.11379738
9	0x3ebcb3e6	0.36856002
10	0xbe19a96f	-0.1500604
11	0x3eababb6	0.33529443
12	0xbec5833b	-0.38576683
13	0xbeceac0c	-0.40365636
14	0x3d70855e	0.05872094
15	0x3e22d98e	0.15903303

gat1.att_dst f4 [1, 1, 16]
0	0x3f70cf24	0.9406607
1	0xbeda0470	-0.4258151
2	0x3f701022	0.93774617
3	0x3e6bd7f7	0.23031603
4	0xbf4fedca	-0.8122221
5	0xbe569e42	-0.20958808
6	0x3f6a5b8e	0.9154595
7	0xbe3d3724	-0.18478066
8	0x3fb23a29	1.3923999
9	0xbeb6eeea	-0.35729152
10	0x3f87a4c5	1.0597159
11	0x3daa7dcc	0.08324775
12	0x3f17e206	0.5932926
13	0xbeb8a192	-0.36060768
14	0xbd8d6ce5	-0.069055356
15	0xbf0c372e	-0.547717

gat1.att_edge f4 [1, 1, 16]
0	0xbf12ce52	-0.5734607
1	0x3eae950b	0.34098086
2	0xbdc24e14	-0.094875485
3	0x3e1eaed3	0.15496378
4	0xbee9593b	-0.4557589
5	0xbebd085d	-0.36920443
6	0x3e26d76c	0.16293114
7	0x3f156827	0.5836205
8	0x3f2bb420	0.67071724
9	0xbf0a40ff	-0.54005426
10	0xbf51377d	-0.81725293
11	0xbf3af4fb	-0.7303006
12	0x3f08a26b	0.5337283
13	0x3f1404d8	0.5781989
14	0xbf195d5c	-0.5990808
15	0x3f614294	0.87992215

gat1.bias f4 [16]
0	0x3e4fdce1	0.20299102
1	0xbe17d2a0	-0.14826441
2	0x3e72cd21	0.23711063
3	0xbda1bdc1	-0.07897521
4	0x3e848c78	0.2588842
5	0x3e036e62	0.12835076
6	0x3e7cdd97	0.24693905
7	0xbd0df54c	-0.03465776
8	0x3e0d71db	0.13812964
9	0x3e742b83	0.23844723
10	0x3ee99cb1	0.4562736
11	0xbec48efe	-0.38390344
12	0xbcb91b95	-0.02259616
13	0x3ea6f15a	0.32606012
14	0xbe165f84	-0.14684874
15	0x3d632e49	0.055464063

gat1.lin.weight f4 [16, 14]
0	0x3eb0c65b	0.34526333
1	0x3ecd0e17	0.40049812
2	0x3f134d92	0.5754024
3	0xbd3ef22f	-0.046617683
4	0x3f5cc542	0.8623849
5	0xbe9f7439	-0.31143358
6	0x3f653cf4	0.8954613
7	0xbe2cc3ee	-0.16871616
8	0x3f409e4f	0.7524156
9	0x3c0edc0a	0.008719454
10	0x3f0221ee	0.5083302
11	0xbe9572aa	-0.29189044
12	0x3e3eec40	0.1864481
13	0x3e35226c	0.17688912
14	0x3ec9748b	0.39346728
15	0xbe8567b5	-0.26055685
16	0x3e3cabae	0.18424866
17	0x3eebf697	0.4608657
18	0xbec2323b	-0.37928948
19	0x3e9ff346	0.3124029
20	0xbe01df11	-0.1268275
21	0x3d840dc9	0.06447942
22	0xbea046d3	-0.31304035
23	0xbd1579a3	-0.036492955
24	0x3e246caf	0.16057085
25	0xbf1d1516	-0.613603
26	0x3e9660ab	0.29370627
27	0x3da68330	0.08130491
28	0xbd4dfff6	-0.05029293
29	0xbe17e9e8	-0.14835322
30	0x3de6c6fa	0.112684205
31	0xbe207f1c	-0.15673488
32	0x3e848316	0.2588126
33	0xbd9d500e	-0.07681285
34	0x3f19c7a7	0.6007027
35	0xbd6ad326	-0.057330273
36	0x3f839d7d	1.0282437
37	0xbe97138c	-0.295071
38	0x3ee91d05	0.45529953
39	0xbe75806d	-0.23974772
40	0x3edeee7d	0.43541327
41	0xbe827ca0	-0.25485706
42	0xbef36a7a	-0.47542173
43	0xbe31850f	-0.17335914
44	0xbe3002b1	-0.17188527
45	0xbd4412ce	-0.047869496
46	0x3ed3e429	0.4138501
47	0x3ed85ffc	0.4226073
48	0x3dd28d74	0.10280886
49	0xbe6e4f50	-0.23272443
50	0x3cf0557e	0.02933764
51	0x3d56ea5f	0.052469607
52	0x3efd2102	0.49439245
53	0x3efdec92	0.4959455
54	0x3e8a6745	0.27031913
55	0x3e9eb4ca	0.30997306
56	0xbd432b3f	-0.047648665
57	0x3f25c9e2	0.64761174
58	0x3e32bdc7	0.17455207
59	0x3e8967c8	0.2683699
60	0xbf3e3cfa	-0.7431179
61	0x3ef45ddc	0.4772786
62	0xbf10c60e	-0.5655221
63	0x3f2bc402	0.6709596
64	0xbf7e4c14	-0.99334836
65	0x3ea25e43	0.3171254
66	0x3ea18c91	0.31552556
67	0x3d7df376	0.06199976
68	0x3e865cd4	0.26242697
69	0x3ec37620	0.3817606
70	0x3e9def2b	0.30846533
71	0x3e24b96a	0.16086355
72	0x3e2a2657	0.16616188
73	0x3cd277ce	0.025691893
74	0x3f00f67a	0.50376093
75	0xbe997704	-0.29973614
76	0xbe164c10	-0.14677453
77	0xbe50fc89	-0.20408835
78	0xbd303ca0	-0.043026567
79	0x3eecc26b	0.4624208
80	0xbd0d099a	-0.034432985
81	0x3dbd2e84	0.09237388
82	0xbe24e1f6	-0.16101822
83	0xbebcd80a	-0.36883575
84	0xbf241f5d	-0.64110357
85	0x3d8b133f	0.0679078
86	0x3e2b7b27	0.16746198
87	0x3e76262b	0.24037997
88	0x3f853e8b	1.0409712
89	0x3e1126dd	0.14174981
90	0x3f590571	0.8477393
91	0xbdbbec5e	-0.09175943
92	0x3f63d787	0.89000744
93	0xbc100d06	-0.0087921675
94	0xbd8cca0c	-0.06874475
95	0x3bd963f4	0.00663423
96	0x3ea8383b	0.328554
97	0x3e4360ec	0.19079942
98	0x3df59152	0.11990608
99	0xbedad7ba	-0.4274271
100	0x3e8eb74a	0.27874213
101	0x3d9f2ff9	0.07772822
102	0x3ec09605	0.37614456
103	0x3f09f0ee	0.53883255
104	0xbe29bbc4	-0.16575533
105	0x3e9b0ec8	0.30284715
106	0xbedc46c4	-0.4302274
107	0x3ec57d59	0.38572195
108	0x3eb8d713	0.3610159
109	0xbdfeb40a	-0.124366835
110	0xbd84fa3e	-0.064930424
111	0x3e849d19	0.25901106
112	0x3f2579de	0.6463908
113	0x3e6b227c	0.22962373
114	0xbd9ce28b	-0.07660397
115	0xbe00c556	-0.12575278
116	0x3f40b1a2	0.75271046
117	0xbe663ea3	-0.22484832
118	0x3e11e3f7	0.14247118
119	0x3e2d6624	0.16933495
120	0x3f2cb25b	0.6745965
121	0xbde68c23	-0.11257198
122	0xbda82212	-0.082096234
123	0xbd972cae	-0.07381569
124	0xbe78b38e	-0.24287245
125	0x3e43b877	0.19113337
126	0x3ec7c88f	0.39020202
127	0x3a792281	0.00095037377
128	0xbead736f	-0.3387713
129	0x3f905ea7	1.1278886
130	0xbeeb3971	-0.45942262
131	0x3f8d99bf	1.1062545
132	0xbf64990a	-0.8929602
133	0x3f553ac5	0.832928
134	0xbeab33e6	-0.33438033
135	0xbd9a868e	-0.075451955
136	0xbc4a79f8	-0.012358181
137	0x3e89a183	0.26881036
138	0xbd80eac5	-0.06294779
139	0xbe6df6d1	-0.23238684
140	0x3e4fae92	0.20281437
141	0x3f5c0d58	0.8595786
142	0x3edeb343	0.4349614
143	0xbe9f8286	-0.3115427
144	0x3f316d6b	0.69307584
145	0x3e8bad99	0.27280882
146	0x3ebaa878	0.36456656
147	0xbea8d3e9	-0.32974175
148	0x3ed89120	0.42298222
149	0xbe2cbb84	-0.16868407
150	0x3ea4d9c6	0.32197398
151	0xbea7ee0e	-0.3279881
152	0xbef86708	-0.48516107
153	0xbe034886	-0.12820634
154	0x3d2feea9	0.042952213
155	0xbde0bd94	-0.10973659
156	0x3efa3748	0.488703
157	0x3e7e79eb	0.24851196
158	0xbde02f87	-0.10946565
159	0xbdaad332	-0.083410636
160	0xbc085268	-0.008320428
161	0xbe161a0e	-0.14658377
162	0xbe352298	-0.17688978
163	0xbe0f3242	-0.13984016
164	0x3f208cb5	0.627147
165	0x3d101d14	0.03518398
166	0x3ee1c245	0.44093528
167	0x3d9e2b97	0.07723158
168	0xbe0c283c	-0.13687223
169	0x3ec41878	0.38299918
170	0x3e3c5997	0.18393551
171	0x3f01131d	0.5041979
172	0x3e2750d0	0.16339421
173	0x3ea6cdc7	0.3257887
174	0x3ed9a045	0.42505088
175	0x3e9f999d	0.31171885
176	0x3d3ae017	0.045623865
177	0xbc55785c	-0.013029184
178	0x3dd0131d	0.101598956
179	0x3ecf48e6	0.40485305
180	0xbea54828	-0.32281613
181	0xbdd0ce34	-0.1019558
182	0xbec2142e	-0.3790602
183	0xbec5bf40	-0.38622475
184	0x3d509148	0.0509198
185	0x3f0dfe0a	0.5546576
186	0x3ed6a65b	0.41923794
187	0xbe6b2345	-0.22962673
188	0xbea484f7	-0.32132694
189	0x3f1f0c69	0.6212831
190	0xbe62519b	-0.22101443
191	0xbece6586	-0.4031183
192	0xbe858ea4	-0.2608539
193	0x3da7a248	0.081852496
194	0xbe14241c	-0.144669
195	0xbe6fcadc	-0.23417228
196	0x3f2e3714	0.6805279
197	0x3e3de908	0.18545926
198	0x3b74cc9c	0.0037353402
199	0x3f271711	0.6526957
200	0x3e5e8f90	0.21734452
201	0xbe317770	-0.17330718
202	0xbdcadefe	-0.09905814
203	0x3e9a80a2	0.30176264
204	0xbf247592	-0.642419
205	0x3eeb1bed	0.45919743
206	0x3f3d0c91	0.738473
207	0xbeaaffb5	-0.33398214
208	0xbf116898	-0.5680022
209	0x3bb98312	0.0056613768
210	0xbe5d3704	-0.21603018
211	0x3e2e2ac5	0.17008503
212	0x3f197383	0.5994188
213	0x3f5dc349	0.86626107
214	0xbe79b782	-0.24386409
215	0x3e62c194	0.22144157
216	0xbf290968	-0.6602998
217	0x3e8f20bb	0.2795466
218	0xbe008497	-0.12550579
219	0x3ea7e46b	0.32791457
220	0xbc577207	-0.013149745
221	0xbf08ef96	-0.5349058
222	0xbeb52437	-0.35379192
223	0xbe43b870	-0.19113326

gat1.lin_edge.weight f4 [16, 2]
0	0xbf64d804	-0.89392114
1	0xbdf01191	-0.117221005
2	0x3ed0102c	0.40637338
3	0xbeeb8b25	-0.46004596
4	0x3de99e65	0.114071645
5	0x3cc5c847	0.024143351
6	0x3e39e300	0.18153
7	0x3e5642e5	0.20923956
8	0xbe8b3f9e	-0.27196974
9	0x3f50b0aa	0.8151957
10	0xbde3aae7	-0.111165814
11	0x3f5a9bb9	0.85393864
12	0x3e212eca	0.15740505
13	0x3d8142e3	0.06311586
14	0x3f5ed3af	0.87041754
15	0x3d90a971	0.070635684
16	0x3f1b573d	0.6067999
17	0x3d6cf2cd	0.05784874
18	0xbf1e9d50	-0.6195879
19	0x3d86aca7	0.065758996
20	0xbf59e258	-0.85111
21	0x3f78f9a8	0.97255945
22	0xbf37fcd8	-0.71870184
23	0x3e1864a7	0.14882146
24	0x3e7b31cd	0.24530716
25	0xbe84b0de	-0.2591619
26	0x3eafd7ef	0.34344432
27	0xbebd33c2	-0.3695355
28	0xbf72f66a	-0.9490725
29	0x3ec2306c	0.37927568
30	0x3f00e6d8	0.5035224
31	0xbf69daf7	-0.9134974

gat2.att_src f4 [1, 1, 16]
0	0x3ee2bd5e	0.442851
1	0xbecfcb03	-0.40584573
2	0xbf378245	-0.7168315
3	0xbe896823	-0.26837263
4	0xbe8c6187	-0.27418157
5	0x3effeece	0.4998688
6	0xbefaf8fc	-0.49018085
7	0xbf0cb88f	-0.54969114
8	0xbe9ee56d	-0.31034413
9	0xbeb7b6cd	-0.35881653
10	0xbe944106	-0.2895586
11	0xbe9a52e2	-0.3014136
12	0xbe9280e5	-0.28613964
13	0xbdd1e825	-0.10249356
14	0xbe92a3cb	-0.2864059
15	0xbef3b832	-0.47601467

gat2.att_dst f4 [1, 1, 16]
0	0xbf4de7b1	-0.8043166
1	0xbf4adc5c	-0.7924249
2	0xbf24ee50	-0.64426136
3	0xbf982840	-1.1887283
4	0x3f0bb977	0.5457987
5	0xbe1ff1d6	-0.15619597
6	0xbda3c895	-0.07997242
7	0xbf07fbae	-0.5311841
8	0x3e9ece74	0.31016886
9	0xbf30ee0d	-0.69113237
10	0x3f4d4c32	0.8019439
11	0xbef4fe98	-0.4785049
12	0x3c33a325	0.01096419
13	0xbf1aadb1	-0.6042128
14	0x3ea50f4d	0.32238236
15	0xbc8efa66	-0.017453384

gat2.att_edge f4 [1, 1, 16]
0	0x3f2e7aa7	0.681559
1	0x3f702355	0.9380391
2	0xbebfebfd	-0.37484732
3	0x3cfb41d4	0.030671038
4	0x3d2658be	0.040611975
5	0x3f7b4d90	0.98165226
6	0x3ededdf1	0.43528703
7	0xbf11ca87	-0.5694966
8	0xbd1455ce	-0.036214642
9	0x3f22b9ce	0.63564765
10	0xbf2443f5	-0.64166194
11	0x3f6666f3	0.9000084
12	0xbe376b40	-0.17912006
13	0xbf6c35cb	-0.9226958
14	0x3f248f57	0.6428122
15	0x3f35b063	0.7097227

gat2.bias f4 [16]
0	0xbea4ed3f	-0.32212254
1	0x3ee026b0	0.43779516
2	0x3d75934a	0.05995492
3	0x3d258387	0.040408637
4	0xbe94522f	-0.2896895
5	0xbcf24208	-0.029572502
6	0xbe1ab057	-0.15106331
7	0x3e52dc25	0.20591791
8	0xbdd24d5b	-0.10268661
9	0x3e575226	0.21027431
10	0x3e87de07	0.2653658
11	0xbe23e775	-0.16006263
12	0xbdc51c23	-0.09624507
13	0x3d9dba68	0.0770157
14	0xbe099e07	-0.13439189
15	0x3d89e70a	0.0673352

gat2.lin.weight f4 [16, 16]
0	0xbdd4c49c	-0.10389063
1	0x3f01690b	0.5055091
2	0x3e68f6a9	0.22750343
3	0x3e8333c1	0.25625423
4	0x3f433568	0.76253366
5	0xbeb7bc45	-0.35885826
6	0x3d40d944	0.0470822
7	0x3e785720	0.24251986
8	0xbf0c5463	-0.54816264
9	0x3f2e912c	0.68190265
10	0xbf9ea0d5	-1.2392832
11	0xbe908422	-0.2822581
12	0x3eeb0174	0.45899546
13	0x3ed63e8f	0.41844603
14	0xbd9fa985	-0.07796005
15	0x3cd4e9f8	0.025990471
16	0x3ef33cde	0.47507375
17	0xbdb886e0	-0.090101
18	0x3ef46017	0.4772956
19	0x3ec61597	0.38688347
20	0xbeabbf93	-0.33544597
21	0xbd4e1b62	-0.050319083
22	0x3c70a3b2	0.0146874655
23	0x3e1558f6	0.14584717
24	0x3de34d25	0.110986985
25	0xbe258254	-0.16162997
26	0x3eae3c8a	0.34030563
27	0x3ef2f46c	0.47452104
28	0xbf15d266	-0.5852417
29	0x3efe389a	0.4965256
30	0x3eb83fb4	0.35986102
31	0xbe8f3577	-0.27970478
32	0x3e1d6a2f	0.15372537
33	0x3e8a3eb7	0.27000973
34	0x3ecc9186	0.39954776
35	0x3ec9b6f2	0.3939739
36	0xbd42d43a	-0.047565676
37	0x3ee0d28b	0.43910632
38	0x3ef09b95	0.469937
39	0x3e99656a	0.29960185
40	0x3edfd467	0.43716738
41	0xbe9d6246	-0.3073904
42	0xbc844995	-0.016148368
43	0xbe11ceef	-0.14239095
44	0xbf0f5839	-0.5599399
45	0x3f0cb80d	0.5496834
46	0xbe984dda	-0.29746896
47	0x3ea22ee9	0.31676415
48	0xbd27276c	-0.04080908
49	0x3ee700ba	0.45117742
50	0x3d81f617	0.06345766
51	0x3e560ed8	0.209041
52	0x3f2c2d19	0.67256314
53	0xbdacc5b4	-0.084361464
54	0x3f0bf840	0.54675674
55	0x3f4f9a7f	0.8109512
56	0xbdd417be	-0.10356091
57	0x3ed8995b	0.423045
58	0xbe0c7dde	-0.1371989
59	0x3dd2f6d5	0.10300986
60	0x3d63a810	0.0555802
61	0x3e810b11	0.25203755
62	0xbd5912d5	-0.052996475
63	0x3d9f6043	0.07782032
64	0xbdc868d6	-0.09785621
65	0xbe1ae0c4	-0.15124804
66	0xbcd9c397	-0.026582522
67	0xbe16d4d6	-0.14729628
68	0xbebd6913	-0.36994228
69	0xbea60c51	-0.32431272
70	0x3ef18c3d	0.47177306
71	0xbe6f7238	-0.23383415
72	0x3d1decbb	0.038555842
73	0xbe348ec1	-0.17632581
74	0xbdbbaa8d	-0.09163389
75	0xbe33ff11	-0.17577769
76	0xbf9ca8a7	-1.2238969
77	0x3ed49798	0.41521907
78	0xbf086340	-0.53276443
79	0xbf012908	-0.50453234
80	0x3eab6cce	0.3348145
81	0x3e857c96	0.26071614
82	0xbe200830	-0.15628123
83	0x3ebe17f0	0.37127638
84	0xbeefba96	-0.4682204
85	0xbeaf7aa7	-0.34273264
86	0x3e1e21a8	0.15442526
87	0x3d1de062	0.038544066
88	0xbde9b8e2	-0.11412217
89	0xbe83cf51	-0.25744107
90	0xbd6b89d6	-0.057504497
91	0x3ec9f774	0.39446604
92	0xbe08e996	-0.13370356
93	0x3dc6c75b	0.09705993
94	0x3de25dd2	0.11053051
95	0x3e41c434	0.18922502
96	0xbd193cd3	-0.037411522
97	0x3d990525	0.07471684
98	0x3db4c71a	0.08827038
99	0x3f09bb7e	0.53801715
100	0x3e55991c	0.20859188
101	0xbe2d3857	-0.16916023
102	0xbef15a78	-0.47139335
103	0x3d2a8d5a	0.04163871
104	0x3e8c1d9e	0.27366346
105	0xbe480ddf	-0.19536541
106	0xbdc32054	-0.095276505
107	0x3f119a9a	0.5687653
108	0xbf670586	-0.90242803
109	0xbdc8d3f7	-0.09806054
110	0xbf0e7807	-0.556519
111	0xbeb43241	-0.3519459
112	0x3ea4bae4	0.32173836
113	0x3e744d68	0.23857653
114	0x3f0e62db	0.5561959
115	0x3ed3339d	0.41250315
116	0x3e6a4e34	0.22881395
117	0xbee334c7	-0.44376203
118	0x3f0c9260	0.5491085
119	0x3eee7bba	0.4657877
120	0x3c749cbf	0.014929949
121	0x3ea838f4	0.32855952
122	0xbdccdbe6	-0.1000288
123	0xbeed0274	-0.46290934
124	0xbdccbbbc	-0.09996745
125	0x3dcde15d	0.1005275
126	0xbdefb259	-0.11703939
127	0x3f06f3a9	0.52715546
128	0xbe8dde74	-0.2770878
129	0x3e7222dc	0.2364611
130	0x3e89e3e3	0.26931676
131	0xbdf3a170	-0.11896026
132	0xbeac7a7d	-0.336872
133	0xbe830f79	-0.25597742
134	0x3d81bc0b	0.063346945
135	0xbee9cc15	-0.45663515
136	0xbda51474	-0.08060542
137	0x3d00867d	0.031378258
138	0xbead832a	-0.33889133
139	0x3e8e77a3	0.2782565
140	0xbf07d827	-0.530642
141	0x3d8902e1	0.06690002
142	0x3d7106d2	0.058844395
143	0xbe46003b	-0.19336025
144	0xbe715c23	-0.23570304
145	0x3f7bba80	0.9833145
146	0xbc09fb6a	-0.008421758
147	0xbe7992bb	-0.2437238
148	0x3f54c42c	0.83111835
149	0xbf036898	-0.5133147
150	0x3f045c40	0.5170326
151	0x3f3439dd	0.7040079
152	0xbefcc4df	-0.4936895
153	0x3f385040	0.7199745
154	0xbe51b629	-0.20479645
155	0xbe58efce	-0.21185228
156	0xbd24df86	-0.04025223
157	0x3f4b1b4c	0.79338527
158	0x3fde6677	1.737502
159	0x3f4721ae	0.77785766
160	0x3f2187d6	0.63097894
161	0xbef50a9f	-0.47859666
162	0x3d038eab	0.03211848
163	0xbd77ff34	-0.060546115
164	0xbef9e97c	-0.48810947
165	0x3dc460c9	0.09588773
166	0x3f4e8808	0.8067632
167	0xbe9fecc0	-0.31235313
168	0x3e65914e	0.2241871
169	0xbdf8cfdc	-0.12149021
170	0x3f72d71a	0.9485947
171	0xbe768aef	-0.24076436
172	0xbe9780cf	-0.2959046
173	0xbf0f83f3	-0.56060714
174	0xbe72d516	-0.23714098
175	0xbcd700b2	-0.026245449
176	0x3f012c98	0.5045867
177	0x3c319af0	0.010840163
178	0x3e94588d	0.2897381
179	0x3f1a50b6	0.60279405
180	0x3ed2f4ac	0.41202295
181	0x3eed32ec	0.46327913
182	0x3f703863	0.9383604
183	0xbf134809	-0.5753179
184	0x3c8787c7	0.016544236
185	0xbe964f23	-0.29357252
186	0xbf03d839	-0.51501805
187	0x3e9ef3cb	0.31045374
188	0xbf383121	-0.71949965
189	0x3ddbe95c	0.10737869
190	0xbf3f5f0e	-0.74754417
191	0xbc64a1d6	-0.0139546
192	0xbe6e47ee	-0.23269626
193	0x3ec39fac	0.38207757
194	0x3ed05a24	0.40693772
195	0x3eb1bc1d	0.34713832
196	0xbe9ae4e7	-0.30252764
197	0xbc71271c	-0.014718797
198	0x3e1ca33b	0.15296642
199	0x3ef1ca9a	0.47224885
200	0x3edee996	0.43537587
201	0xbdf7147a	-0.120644525
202	0xbedcb29a	-0.43105012
203	0x3f240c30	0.64081097
204	0xbf5ff0c5	-0.8747676
205	0x3d5e806f	0.054321703
206	0xbea74dbc	-0.32676494
207	0xbf2d87ec	-0.67785525
208	0x3da69eea	0.08135779
209	0x3dfbe9ce	0.12300454
210	0x3ea145fc	0.31498706
211	0x3e1013fc	0.14070123
212	0x3da1f706	0.07908444
213	0x3e7fa212	0.24964169
214	0x3d839c0f	0.0642625
215	0x3e430337	0.19044195
216	0xbe17e953	-0.148351
217	0x3f024a32	0.50894463
218	0xbf396a7d	-0.72428113
219	0xbe2e1d90	-0.17003465
220	0x3dd59425	0.10428647
221	0xbc1dfa74	-0.009642232
222	0x3f16ca0d	0.58902055
223	0x3e99602d	0.2995619
224	0xbe50c8e7	-0.20389138
225	0xbe686fbe	-0.22698876
226	0xbeb731c1	-0.35780147
227	0x3e53a763	0.20669322
228	0xbde0e1b2	-0.10980548
229	0xbec02f60	-0.37536144
230	0x3d678d5c	0.056531295
231	0x3f021b77	0.5082316
232	0xbd0b3ad5	-0.033991653
233	0xbe28c0f3	-0.16479854
234	0x3c95e60f	0.018298177
235	0x3e91d258	0.28480792
236	0x3ec512c6	0.38490885
237	0xbe7013ab	-0.23445003
238	0x3f2c5dde	0.6733073
239	0x3ec535f0	0.38517714
240	0xbf38d733	-0.7220337
241	0x3e88c24b	0.26710734
242	0x3ec7345a	0.3890713
243	0x3e6f39cf	0.23361896
244	0x3e72c1de	0.23706767
245	0xbe89947b	-0.26871094
246	0x3efeda7f	0.49776074
247	0x3ce523f9	0.027971255
248	0x3e28eaea	0.16495863
249	0x3f2f5213	0.6848461
250	0xbebf40ff	-0.37354276
251	0xbdd69d49	-0.104792185
252	0xbea9992b	-0.3312467
253	0xbe8cbcca	-0.27487785
254	0x3f228e8e	0.6349877
255	0x3eb6214f	0.35572287

gat2.lin_edge.weight f4 [16, 2]
0	0x3f59d3aa	0.850886
1	0xbe9228dd	-0.285468
2	0x3f5c0213	0.85940665
3	0xbf7e6d79	-0.9938579
4	0xbf1ed68f	-0.6204614
5	0x3e39177e	0.18075368
6	0xbcaf22d4	-0.021378912
7	0x3eab240b	0.33425936
8	0xbc933f21	-0.017974438
9	0xbedad36f	-0.42739436
10	0x3ede467f	0.4341316
11	0xbf714cca	-0.94257796
12	0x3edae5a8	0.4275334
13	0xbf26f4b7	-0.65217155
14	0xbed5ab9f	-0.417325
15	0x3e2ed4fd	0.17073436
16	0x3db28690	0.08717072
17	0xbdb02dc3	-0.08602478
18	0x3f486f5c	0.7829492
19	0xbda8ecae	-0.08248268
20	0xbf0c6344	-0.5483897
21	0x3f65835a	0.8965355
22	0x3f4c5d0f	0.79829496
23	0xbf81a70e	-1.0129106
24	0xbdce4818	-0.100723445
25	0x3e71965b	0.23592512
26	0xbef88569	-0.48539284
27	0x3f0c50d1	0.54810816
28	0x3f3c1f3e	0.7348517
29	0xbe47501e	-0.19464156
30	0x3f5ec533	0.8701965
31	0xbd95eb4a	-0.073202685

mlp.0.weight f4 [16, 32]
0	0xbe401d6a	-0.1876122
1	0xbe110ccf	-0.14165042
2	0x3d4f5546	0.050618432
3	0xbe820934	-0.25397646
4	0xbddb6061	-0.10711742
5	0xbe0aa897	-0.13540874
6	0x3f4234b7	0.75861686
7	0xbd13fb81	-0.036128525
8	0x3da85e3c	0.08221099
9	0xbe52aac5	-0.20572956
10	0x3e9af289	0.30263165
11	0x3f1b4c15	0.60662967
12	0x3c6c009a	0.01440444
13	0xbd9284d2	-0.0715424
14	0x3edf784f	0.43646476
15	0x3e10c905	0.14139183
16	0x3e2464e5	0.16054113
17	0x3e0ef220	0.13959551
18	0x3dc5a0b6	0.09649794
19	0xbd9b81d5	-0.07593123
20	0xbe22dc0a	-0.1590425
21	0xbdd52ce0	-0.1040895
22	0x3f5e2273	0.86771315
23	0x3dd9d7b5	0.10636846
24	0x3d3ae762	0.04563082
25	0x3e94ae74	0.29039347
26	0x3e8d746e	0.2762789
27	0xbf51d66b	-0.819678
28	0xbd329aa4	-0.043604508
29	0x3e1d79e2	0.15378526
30	0x3e2161b0	0.15759921
31	0x3eb55f76	0.35424393
32	0xbe86cbf7	-0.26327488
33	0x3edd8ff3	0.43273887
34	0x3e95d13f	0.29261205
35	0xbe877b5f	-0.26461312
36	0xbeca7b4d	-0.39547196
37	0xbe05cd9d	-0.13066716
38	0xbf435d72	-0.7631446
39	0xbf0be8da	-0.5465218
40	0x3db891c9	0.09012181
41	0xbee857a0	-0.45379353
42	0x3ee17b7e	0.4403953
43	0xbf03e752	-0.5152484
44	0xbe9bf725	-0.30461994
45	0xbe9c5b98	-0.3053863
46	0x3cff515e	0.031166729
47	0xbe62b435	-0.22139056
48	0x3ebbc044	0.36670125
49	0xbed87a22	-0.4228068
50	0xbe18ac7f	-0.14909552
51	0x3eafd560	0.3434248
52	0x3c92e5ad	0.017931784
53	0x3e449fb9	0.19201554
54	0x3c5113bc	0.012761053
55	0x3e7b5509	0.24544157
56	0xbd1fa4de	-0.03897559
57	0x3ef73540	0.48282814
58	0xbea3200d	-0.3186039
59	0x3f49b305	0.7878879
60	0xbe5e8b5e	-0.21732852
61	0x3e66a8c3	0.22525315
62	0x3f0ca953	0.5494587
63	0x3e8d2e6e	0.27574486
64	0x3cba0475	0.022707203
65	0xbdafcafc	-0.08583638
66	0xbb414457	-0.0029490197
67	0x3d992470	0.07477653
68	0xbcfef022	-0.031120364
69	0x3b6c3996	0.0036045066
70	0x3d235165	0.039872546
71	0x3de8cef2	0.11367597
72	0x3c2a59ed	0.010397417
73	0xbe31a7a7	-0.1734911
74	0xbc323e6c	-0.01087914
75	0x3d8cd4f4	0.06876555
76	0xbe0cffd3	-0.13769464
77	0xbdb156a1	-0.08659101
78	0xba3981d1	-0.0007076534
79	0xbc0fbe42	-0.008773388
80	0xbcb51f99	-0.022109793
81	0xbe5e5e85	-0.21715744
82	0xbcba2514	-0.022722758
83	0x3ded2f85	0.11581329
84	0xbdcc1bbd	-0.09966228
85	0xbe080905	-0.1328469
86	0x3d5a6c60	0.05332601
87	0x3c9f549f	0.01944953
88	0xbe4941bc	-0.19653982
89	0xbe162ba0	-0.14665079
90	0xbe1beed8	-0.1522783
91	0xbc9a4a28	-0.018834189
92	0xbdc0b4ac	-0.094094604
93	0xbe8d6650	-0.2761712
94	0xbd4ea37e	-0.050448887
95	0x3db527df	0.088454954
96	0x3caea1be	0.021317359
97	0x3e978616	0.29594487
98	0x3e8d216e	0.27564567
99	0xbda17f71	-0.07885636
100	0x3cf57e41	0.02996743
101	0x3d33a7d9	0.043861244
102	0x3f330880	0.69934845
103	0x3e816af1	0.25276902
104	0xbd33090a	-0.043709792
105	0xbc646092	-0.01393904
106	0xbde9c40e	-0.114143476
107	0x3e4999f6	0.19687638
108	0x3d892a3d	0.066975094
109	0xbe8bf2f4	-0.27333796
110	0x3e9e4482	0.30911642
111	0xbe746d60	-0.23869848
112	0x3e070db4	0.13188821
113	0x3cf85b57	0.030316992
114	0x3e6e61a0	0.23279428
115	0x3e1f3c5b	0.15550368
116	0x3d309509	0.04311088
117	0x3c0989ad	0.008394641
118	0x3f87abfb	1.0599359
119	0x3e7b6fc3	0.24554352
120	0x3b81874f	0.0039528976
121	0x3e49f058	0.1972059
122	0xbf0944b9	-0.5362049
123	0x3e1f8bcc	0.15580672
124	0x3dd17df7	0.10229104
125	0xbdf4e0f9	-0.11956973
126	0xbe196ec7	-0.14983664
127	0x3dcf67ad	0.101271965
128	0xbc8eca25	-0.017430374
129	0xbda70588	-0.08155352
130	0x3e1bf26d	0.15229197
131	0x3e1e9074	0.15484792
132	0x3d37ad39	0.044842932
133	0xbe38005b	-0.17968886
134	0xbf76c7c7	-0.96398586
135	0x3e3d7fed	0.18505831
136	0xbdeb3af3	-0.11485853
137	0x3dad3ad7	0.084584884
138	0xbefbb651	-0.49162534
139	0x3cdf591e	0.027264174
140	0xbd659594	-0.056050852
141	0x3dc4a7c6	0.09602313
142	0xbe146260	-0.14490652
143	0x3e9b405f	0.3032255
144	0xbde32138	-0.1109032
145	0x3dd0b499	0.10190696
146	0xbe1493de	-0.14509532
147	0xbc76dd94	-0.015067477
148	0xbc8cc717	-0.017184777
149	0xbe9c28f8	-0.30500007
150	0xbf8c7881	-1.0974275
151	0xbd293081	-0.041306023
152	0x3caa52d7	0.020791454
153	0xbc844e1c	-0.016150527
154	0x3d2569ec	0.040384218
155	0xbe024137	-0.1272019
156	0xbe819650	-0.25309992
157	0x3e2dfd4a	0.16991153
158	0xbde28bc0	-0.110618114
159	0x3da50c8c	0.08059034
160	0x3e573263	0.21015315
161	0xbe3cd8de	-0.18442103
162	0x3d343fec	0.044006273
163	0x3eeb6d07	0.4598162
164	0x3d7f18b4	0.062279418
165	0x3ec5c11b	0.3862389
166	0xbf8c0b0c	-1.0940871
167	0x3e8b70d2	0.27234513
168	0x3e001d1d	0.12511106
169	0x3ee4ae64	0.446643
170	0xbeb1517b	-0.34632477
171	0x3f172597	0.5904173
172	0xbd6bb018	-0.057540983
173	0x3eac67cd	0.33672944
174	0xbeb27775	-0.34856763
175	0x3e8303ee	0.25588936
176	0xbe8947bb	-0.26812539
177	0x3e855ed8	0.26048923
178	0xbc83a02d	-0.016067589
179	0xbed2b986	-0.41157168
180	0xbd8239ab	-0.063586555
181	0xbd6feafa	-0.0585737
182	0xbf5a0ef5	-0.8517907
183	0xbf0cd391	-0.55010325
184	0x3e660c79	0.22465695
185	0xbed110dd	-0.40833178
186	0x3ea71e2e	0.32640213
187	0xbeba0b92	-0.36336952
188	0xbed0866e	-0.40727562
189	0xbe34c312	-0.17652538
190	0x3c8056aa	0.015666325
191	0xbe950378	-0.2910421
192	0xbe45729c	-0.19282001
193	0x3e8a917e	0.27064127
194	0x3e98ccff	0.298439
195	0x3d44d128	0.04805103
196	0x3e7fe83e	0.24990937
197	0x3ea606dd	0.3242711
198	0x3f15981a	0.58435214
199	0x3e67836b	0.22608726
200	0x3e20c24a	0.15699115
201	0xbde859a8	-0.113452256
202	0x3e2054a8	0.15657294
203	0xbe06ce35	-0.13164599
204	0x3ecc4665	0.39897457
205	0xbe59a2d7	-0.21253525
206	0xbc380387	-0.01123131
207	0xbe6a2b59	-0.22868098
208	0xbd8fb28e	-0.070164785
209	0x3e8752e9	0.26430443
210	0x3dbf1a23	0.09331157
211	0xbe3ff91d	-0.18747373
212	0x3dda6fbf	0.10665845
213	0x3eb11bea	0.3459161
214	0x3f05993f	0.5218696
215	0x3dc9589a	0.098313525
216	0xbd896687	-0.06709009
217	0xbd93ae09	-0.07210929
218	0x3e3fa9ff	0.18717192
219	0x3e062b78	0.1310252
220	0x3e4dd020	0.20098925
221	0xbea4192a	-0.3205045
222	0xbd191eba	-0.03738282
223	0xbe4d4e1f	-0.20049332
224	0x3f43186e	0.7620915
225	0x3d845c68	0.064629376
226	0xbed5a25d	-0.41725436
227	0x3f28739e	0.6580142
228	0xbe2aa88c	-0.16665858
229	0xbdd8a607	-0.10578542
230	0x3f49b4bf	0.7879142
231	0x3dbfb9f6	0.09361641
232	0x3e2d16d3	0.16903238
233	0x3dec8d3e	0.11550377
234	0xbe9ffb69	-0.31246498
235	0xbf1e6e51	-0.6188708
236	0x3e8272ca	0.25478202
237	0x3e8a6040	0.27026558
238	0xbe94cde5	-0.29063335
239	0x3e7837f0	0.24240088
240	0xbb3c350c	-0.0028718142
241	0xbd0f9c08	-0.035060912
242	0x3ddd67e7	0.108108334
243	0xbee907e8	-0.45513844
244	0x3eae1ab8	0.3400476
245	0x3df0779d	0.117415644
246	0x3d902db0	0.07039964
247	0xbeb03159	-0.3441265
248	0x3c89ca8c	0.016820215
249	0xbf7e36e6	-0.9930252
250	0xbec1e0a3	-0.37866697
251	0x3f95e872	1.1711562
252	0x3ebdb8bd	0.37055007
253	0xbf12cbd0	-0.57342243
254	0xbc4551e9	-0.012043455
255	0xbec64363	-0.38723287

mlp.0.bias f4 [16]
0	0x3e849605	0.25895706
1	0xbc1bd8fb	-0.009512181
2	0xbe3dcfe6	-0.18536338
3	0xbd6a9736	-0.057273112
4	0x3d31eef6	0.04344078
5	0x3de358ec	0.11100945
6	0x3dec76da	0.11546107
7	0xbf46f39e	-0.7771548
8	0x3ca9ece6	0.020742845
9	0x3e617f00	0.22021103
10	0x3ecb7889	0.397404
11	0xbd7737ca	-0.06035594
12	0xbe45a7c3	-0.19302277
13	0x3e44e42d	0.19227667
14	0xbb01961d	-0.0019773312
15	0xbc7ee92b	-0.015558521

mlp.2.weight f4 [1, 16]
0	0x3e5c92da	0.21540394
1	0xbee65866	-0.44989318
2	0x3e01a224	0.12659508
3	0x3ec69e6a	0.38792735
4	0xbd9e2c7e	-0.0772333
5	0xbf250d70	-0.6447363
6	0x3e3ae32b	0.1825072
7	0x3f7da294	0.990762
8	0xbe750350	-0.23927045
9	0x3ee26d9e	0.44224256
10	0x3ed4d13e	0.4156589
11	0x3e9463c4	0.28982365
12	0x3ec3eb54	0.3826548
13	0xbe3cd8de	-0.18442103
14	0xbf2406ea	-0.6407305
15	0xbeea292b	-0.45734534
