data/CTC/Fluo-N2DH-SIM+/02_RES_GAT/20250715_163910/manual_fold_1_best_model.pth (torch, 11177 bytes, 15 tensors)

gat1.att_src f4 [1, 1, 16]
000000 56 d1 82 3d 1c a4 53 be 7b de 19 3e a8 e4 35 3c
       0.06387584 -0.20668072 0.15026276 0.011101879
000010 df a9 74 be 30 8a d2 3d 54 7c f9 3d 63 a9 02 3e
       -0.23892926 0.102802634 0.12181917 0.12759928
000020 7e a6 d7 3c 43 d3 a0 3e 1f ff 29 3e a0 57 d6 3e
       0.026324507 0.3141118 0.16601227 0.41863728
000030 64 49 20 3f cd 93 c4 3e 95 51 6f be b7 9a c7 3e
       0.62611985 0.38394013 -0.23370965 0.38985226

gat1.att_dst f4 [1, 1, 16]
000000 74 4c 57 3c a6 3e ca 3e 3a eb 1a 3f c7 91 07 3f
       0.013140786 0.39500922 0.6051518 0.52956814
000010 73 0b 47 3e 5c 0c 9b 3f f8 5b 17 bf b5 9f 7a bd
       0.19437961 1.2113147 -0.5912471 -0.061187465
000020 56 a9 c6 3f 65 60 03 3e 97 bd 6b bc a2 1f 0f 3f
       1.5520427 0.1282974 -0.014388463 0.5590764
000030 d4 91 74 bf eb df 5e 3f 52 c2 6a bd 2e 10 ba 3e
       -0.95535016 0.8706042 -0.057314225 0.3634047

gat1.att_edge f4 [1, 1, 16]
000000 cf 7f b5 3d a1 77 93 3e 06 78 e3 be 75 cb 05 3f
       0.08862268 0.28802207 -0.44427508 0.52263576
000010 d2 f8 73 bf 3f 49 38 3f 9d 91 65 be 3f c3 1d 3f
       -0.95301545 0.71986765 -0.22418828 0.61626047
000020 80 45 43 3f de b9 1f be 40 4a 1c 3f b8 1c 50 bf
       0.76277924 -0.15598246 0.61050797 -0.8129382
000030 b3 87 29 3f 08 e2 23 3f 83 4e 5a 3f 4f c6 b6 3e
       0.66222686 0.6401677 0.8527605 0.35698172

gat1.bias f4 [16]
000000 5e fb 07 3e d9 56 f3 3d 96 ae 83 3d 47 9a e7 3d
       0.13279483 0.11881799 0.06429784 0.11308723
000010 1f 33 b0 3d 59 1b 21 3d c1 43 05 3e 51 2b 0d 3f
       0.086035006 0.03933272 0.13014127 0.5514422
000020 ee 03 e5 3d bc 1e e7 bd 0e ac 27 bd ef 0d d0 3e
       0.1118239 -0.11285159 -0.04093557 0.4063563
000030 9d f3 c1 3d 80 ee 4d be 1b 45 bd bc 8b 22 3f be
       0.09470294 -0.20110512 -0.023104241 -0.18665521

gat1.lin.weight f4 [16, 14]
000000 72 ad f4 bc 0b 32 9a 3b 35 83 0c bd 3d 92 69 3e
       -0.029867861 0.0047056726 -0.034304816 0.22809692
000010 c8 ba c9 3d f1 df 88 be 16 54 80 3e 59 6e 16 bf
       0.09850079 -0.26733354 0.25064152 -0.5876213
000020 43 3d 57 be 7c 39 37 bd 51 93 d2 be fd cb e2 3d
       -0.21019463 -0.044732556 -0.41128018 0.11074064
000030 28 5e 14 be c0 00 b5 be b4 47 9d be 4b af e5 be
       -0.14489043 -0.35352135 -0.30718768 -0.448603
000040 33 6f 0d be b2 a8 d0 bd 79 f4 0a 3e d4 cb e2 be
       -0.1381195 -0.10188426 0.13569821 -0.44296134
000050 ef ae e7 3e 16 2e e0 3d eb 62 66 3e b9 53 c5 3d
       0.4525065 0.1094629 0.22498672 0.096351095
000060 71 cd 0d bd 48 75 a9 be 50 c3 00 be 7d 11 6a 3e
       -0.034619752 -0.3309729 -0.12574506 0.22858234
000070 71 a7 d7 3e 59 d8 99 bd 20 24 45 bd 51 22 f9 3e
       0.42119935 -0.07511968 -0.048130155 0.48658994
000080 23 58 93 be b5 1d 95 3d a8 c0 0b be 8d 38 98 be
       -0.2877818 0.07281057 -0.13647711 -0.29730645
000090 6c 03 be 3c a9 89 81 bd 60 45 93 3e 07 34 4f bc
       0.023194991 -0.06325085 0.28763866 -0.012646682
0000a0 25 8b 78 3e 3f 81 86 be c6 8b 9a 3e 7f 5e 1e 3f
       0.2427183 -0.26270482 0.30184764 0.6186294
0000b0 3c f9 f2 3c aa 85 97 3c 6d b0 b9 be 31 d6 b3 be
       0.02965986 0.018496353 -0.36267415 -0.35124353
0000c0 ae a9 e7 3e 41 c9 2d 3d 1c a1 df 3e e8 b2 37 3e
       0.45246643 0.04242826 0.43677604 0.17939341
0000d0 f8 8f 4b be 1e c8 96 3e 5f f7 02 bf 12 4c c9 3e
       -0.19879138 0.29449552 -0.5115871 0.3931585
0000e0 0d 71 aa be b6 eb 90 bc 0f 87 9f 3e ff e1 08 bd
       -0.33289376 -0.01769052 0.3115773 -0.03341865
0000f0 6d 5f 77 be 2e 25 4f 3e c4 63 fd 3e 7d 2a cd 3e
       -0.24157496 0.20229027 0.49490178 0.40071478
000100 71 59 3e be c1 37 e6 3e 4c 64 93 3e dd 88 b2 be
       -0.18588807 0.44964412 0.28787458 -0.34870043
000110 29 9b 8d 3d 6d c2 1f be 69 13 98 3e 9c 44 58 be
       0.0691436 -0.15601511 0.2970231 -0.21119922
000120 64 1d 08 3c c0 f1 b6 3e f4 24 53 bb 91 a4 c2 3e
       0.0083077885 0.35731316 -0.003221807 0.3801618
000130 f7 7a 4d bf 91 0b 87 3f 96 38 02 3d 6b 7a fc bd
       -0.80265754 1.0550405 0.031792246 -0.12328037
000140 7a 39 80 be 45 5b 43 3e e1 16 0c bf b1 c5 4c be
       -0.2504385 0.19077785 -0.5472241 -0.19997288
000150 44 9a f9 be 83 00 f0 be 1f 67 c0 3e 0a af 32 3e
       -0.48750508 -0.4687539 0.37578675 0.17449585
000160 5a 26 92 be 66 d2 42 be 60 94 87 be 56 00 9b 3e
       -0.28544885 -0.19025573 -0.2648039 0.30273694
000170 06 35 26 be 59 58 85 be 3a de 70 bd 7f 2f b3 3d
       -0.16231164 -0.26043966 -0.05880568 0.087492935
000180 eb 0d a2 3e 2c c6 38 3d 50 87 50 be 56 cd b6 bd
       0.31651244 0.045110866 -0.20364118 -0.089258835
000190 9c 1b dd bd 7a 78 14 bf c3 af 05 3e 6f 86 3d bf
       -0.10796282 -0.5799633 0.13055329 -0.74033254
0001a0 48 66 0e bf 56 c7 02 bf 9c 86 30 bf d2 d5 d5 bd
       -0.5562482 -0.5108541 -0.689554 -0.104411736
0001b0 4e 59 75 3e 53 78 32 bd c3 ee 6c be 92 18 48 3d
       0.23959848 -0.04357178 -0.23137955 0.048851557
0001c0 04 e1 88 be 4c f1 d0 3e bc 47 8f bc eb 62 79 3f
       -0.26734173 0.40809095 -0.01749026 0.9741656
0001d0 6d 8a 2c bf 72 73 a7 3f e2 99 23 3d e7 c2 86 3f
       -0.6739872 1.3082106 0.039941676 1.052823
0001e0 c6 cb 1a bf aa 78 f0 bd 43 14 e0 be e8 e8 90 3d
       -0.60467184 -0.11741765 -0.43765458 0.07075673
0001f0 6a c0 76 be 84 7a 01 bb 8e 8a f6 3d b8 ac c9 bd
       -0.24096838 -0.0019756863 0.12038146 -0.098473966
000200 af 93 17 be dc e1 d9 be 06 bc 7f be 96 22 51 3e
       -0.1480243 -0.4255513 -0.24974069 0.2042335
000210 37 ff 64 be 20 43 13 3b 11 b6 03 bf 80 67 99 be
       -0.22362982 0.002247043 -0.51449686 -0.29961777
000220 a8 ba 41 be 86 45 96 be 00 5c 30 3e f7 12 03 be
       -0.1891886 -0.29349917 0.17222595 -0.12800203
000230 56 e3 c1 3e 19 b8 89 be 2f 15 6f 3e 7e f3 1e 3f
       0.37868756 -0.26898268 0.23347925 0.6209029
000240 63 7a ee be 7f eb 0f 3f 44 24 65 bf 01 af db 3c
       -0.4657775 0.56218714 -0.8950846 0.026816847
000250 ea e3 07 be 03 a2 72 bd f7 b8 42 3f 96 b0 03 3e
       -0.13270536 -0.059236538 0.76063484 0.12860331
000260 20 ac 25 3e 6f e0 34 bd 56 5e dd bd 4a 80 ed 3d
       0.16178942 -0.04415935 -0.10809009 0.11596735
000270 dc 7f 05 be 6b a7 a0 3e 3d 5a 23 bd 9f 21 06 3e
       -0.13037056 0.3137773 -0.03988098 0.13098763
000280 43 3c 84 be ee 3c 59 3d 48 ca 16 bf 26 af 86 3c
       -0.25827226 0.053036623 -0.58902407 0.01644094
000290 a5 0c d5 bd d5 ae f9 bd b9 88 f7 be 31 bc a6 3d
       -0.104028024 -0.1219155 -0.483465 0.081413634
0002a0 46 96 d4 be 29 8c 77 3e e8 ec 32 be 25 30 ce be
       -0.415209 0.2417456 -0.17473185 -0.40271106
0002b0 c3 18 c8 be 46 21 34 bf 38 39 62 3b 27 c5 a3 3d
       -0.39081392 -0.7036327 0.0034518968 0.07996588
0002c0 eb ac 38 be 8b cc 23 3f 73 04 5b 3e dd 77 64 3e
       -0.18034713 0.6398398 0.21388416 0.22311349
0002d0 17 72 db be b6 49 ba 3e 55 41 b7 3e eb b9 8e 3e
       -0.4286048 0.36384362 0.35792032 0.2787622
0002e0 40 34 7b 3c 75 cc 36 3e c6 f3 ed 3e aa 37 ad 3d
       0.015332282 0.17851432 0.46475047 0.08457883
0002f0 45 10 82 3d fd 6e 13 bd ee 76 c4 be 3d d1 28 be
       0.063507594 -0.03599452 -0.38371986 -0.16486068
000300 e7 d6 9d bd f5 d2 6a be a9 63 15 3e 47 d5 96 3e
       -0.07707005 -0.22932036 0.14588799 0.29459593
000310 0a 1c 24 3e 8c 54 e3 be 9c 47 f1 3e 10 b3 67 3e
       0.16026321 -0.44400442 0.47124946 0.226269
000320 2a 2c bf 3e 75 93 53 be 15 00 e4 3e bb 32 76 be
       0.37338382 -0.20661719 0.44531313 -0.2404279
000330 1c c5 12 3f 1c 22 4f be c8 cf 7d 3e 52 3f f4 3d
       0.57332015 -0.20227855 0.24786294 0.1192614
000340 ac 6f 5b 3f c8 46 4c 3f b8 1e cc bd 68 6d db 3d
       0.8571727 0.79795504 -0.09966797 0.10714227
000350 cf 74 8a 3d 9c f0 6c bd b5 a4 92 3e 3f 2e 27 3e
       0.06760561 -0.05784665 0.28641286 0.16326235
000360 c3 c4 d4 be 01 45 9d 3e b3 08 43 3c b9 b1 cd 3e
       -0.41556367 0.30716708 0.0119039295 0.40174654
000370 7d d7 5a be 57 5b ba be 75 6d 62 3d e0 6d fe 3d
       -0.21371265 -0.36397812 0.055280168 0.12423301

gat1.lin_edge.weight f4 [16, 2]
000000 9e 49 d6 3d 4e 04 02 be ac 77 12 bf 81 19 46 3f
       0.1046326 -0.12696955 -0.57213855 0.77382666
000010 ac 9a 96 3b e7 70 46 bf 0b b8 22 be de 2a 9a 3e
       0.004596075 -0.77516025 -0.1589052 0.3011083
000020 54 6f b9 3e a9 9b 14 bf 93 b6 3b bf b5 32 34 3f
       0.3621775 -0.5805002 -0.7332546 0.7038987
000030 1b c9 33 3f 9f 05 09 be f9 46 fd be d6 ff bc 3d
       0.7022874 -0.1338105 -0.4946821 0.09228484
000040 2b 7a 39 bf 9b ef 28 3f 3b d2 57 3e 64 f8 87 3e
       -0.7245204 0.6599061 0.2107629 0.26556695
000050 14 99 1e bf fd a6 58 3f c8 18 5c 3e 38 96 13 bf
       -0.6195233 0.84629804 0.21493828 -0.5765109
000060 b6 76 34 be 29 a7 fa 3e 21 e6 16 bf 41 41 d0 3e
       -0.1762341 0.48955658 -0.589449 0.40674785
000070 a5 be 8a be a0 0c 31 3f 47 32 2c be 56 43 27 3f
       -0.27098575 0.6915989 -0.16816054 0.6533712

gat2.att_src f4 [1, 1, 16]
000000 2c ca 45 bf 9f 27 6b bf 5c aa 06 3f 13 b4 d2 be
       -0.77261615 -0.9185733 0.526037 -0.4115301
000010 00 1b 08 3e 97 99 cd be d9 34 8b be e0 7f e7 bb
       0.1329155 -0.40156242 -0.27188757 -0.0070648044
000020 a5 ee 98 be e7 ac dc 3c 26 cc ec 3e cb 03 93 3c
       -0.2986957 0.026937915 0.46249503 0.017946145
000030 ab 11 85 3e 3e 0d d6 be 3a fb 05 bd ce 80 d9 be
       0.25990042 -0.41806978 -0.03271029 -0.42481083

gat2.att_dst f4 [1, 1, 16]
000000 0f 9e 0e bf 98 54 c4 be 3d 83 86 3e 63 1e 0f 3e
       -0.5570993 -0.3834579 0.26272002 0.13976435
000010 75 09 f6 be 3f 81 f0 bc f9 ad 04 bf 13 64 aa 3d
       -0.4805409 -0.029358504 -0.5182796 0.08319869
000020 79 28 01 be 32 2d 36 be b2 92 9d 3e c3 2b 97 3e
       -0.12613095 -0.17790678 0.30775982 0.29525575
000030 e4 22 f4 be f0 44 3b 3f 43 60 40 be 02 44 83 3e
       -0.4768287 0.73152065 -0.18786721 0.25637823

gat2.att_edge f4 [1, 1, 16]
000000 06 7c aa bf 40 cb d2 bf 73 dd c1 bf 02 35 87 bf
       -1.3319099 -1.6468277 -1.5145706 -1.0563052
000010 79 33 6d 3f 52 d7 ca 3f 61 df 2e 3e 4d 1e c8 bf
       0.92656666 1.584696 0.170774 -1.5634247
000020 b0 85 8d 3f b0 7c d6 bf 15 5e 9b bf 6e c6 af bf
       1.1056423 -1.6756802 -1.2138087 -1.3732431
000030 87 fe a5 3f a2 b3 fe be 3c 2f b4 bf 33 3a a6 bf
       1.29683 -0.49746424 -1.4076915 -1.2986511

gat2.bias f4 [16]
000000 79 bb c4 3c e2 f3 47 bd d7 09 83 bd 96 f2 bc 3e
       0.024015175 -0.04881657 -0.06398361 0.36903828
000010 9e c1 8d 3d 6a de b1 be 5a a5 e6 bb 3a 19 9c 3e
       0.06921695 -0.3474 -0.0070387544 0.30487996
000020 35 cf 01 be a9 c5 a0 3d a8 15 14 3e 96 43 d4 bd
       -0.126767 0.07850201 0.14461386 -0.103644535
000030 36 16 ed 3d 60 d4 12 3f ab 5d 1c be 48 f4 0f 3e
       0.11576502 0.5735531 -0.15270106 0.1405803

gat2.lin.weight f4 [16, 16]
000000 86 ba 09 bf 8b 0b e1 3e 5b 1e ba 3e 10 07 67 3e
       -0.5380024 0.4395412 0.36351284 0.22561288
000010 12 a5 c1 be a1 c9 9d be a2 e0 69 3c f2 95 ec bd
       -0.3782125 -0.30817893 0.014274748 -0.11552037
000020 16 ea b5 be 66 72 76 be 10 dc b0 3d f6 be 11 bd
       -0.35530156 -0.24067077 0.086357236 -0.035582505
000030 95 ee 0b 3d b7 79 a1 3e 9d 28 ee bc bf 03 e7 be
       0.034163076 0.31538174 -0.0290721 -0.45120046
000040 e8 39 99 3e f0 dc ce bd b7 cb a1 3e a1 20 ca be
       0.2992699 -0.10100734 0.31600735 -0.3947802
000050 d8 b0 56 3e bd 0e 98 bd 03 0a 07 3f 4d 6b 12 be
       0.20965898 -0.07424686 0.5274965 -0.14298744
000060 6c 9b 77 be 50 92 4b be dd a9 9f 3e cc 60 a2 be
       -0.24180382 -0.19880033 0.31184283 -0.31714475
000070 26 4d e4 3e f5 7d 33 3e bc ba 27 3f 82 d1 05 be
       0.4459011 0.17528518 0.6551931 -0.13068202
000080 3c ff 4c be 15 2c be be 5a e2 cd bd 9e 9a 01 bf
       -0.20019239 -0.37143007 -0.10052939 -0.5062655
000090 19 c4 9e 3e dc 26 3f 3e 1c e5 4b be 79 c9 a3 bb
       0.31008986 0.18667167 -0.19911617 -0.0049983826
0000a0 49 82 89 be 1d db 82 3e 31 43 c3 be 13 5f ba be
       -0.26857212 0.25557795 -0.381372 -0.3640066
0000b0 6c c7 25 3c c4 d7 67 3e 89 c5 11 bf 22 1a 12 be
       0.010118347 0.22640902 -0.5694204 -0.14267781
0000c0 67 ab 37 3e bd 14 03 3f 4d 02 bb be d3 57 09 3e
       0.17936479 0.5120352 -0.36525193 0.13412409
0000d0 d5 3a 19 bc 08 fa 81 3d 5d 25 0c 3e a0 3f 01 3f
       -0.009352406 0.06346518 0.13686128 0.5048771
0000e0 93 b3 c9 be 04 e5 c1 3e af 6d e2 3d d1 3b 74 3d
       -0.39394817 0.37870038 0.11056077 0.059627358
0000f0 a3 08 6c be 4d 1d e9 be d9 ea 21 3c 49 93 21 3e
       -0.2305017 -0.45530167 0.009882652 0.15778841
000100 34 9a 51 3e 97 53 13 3f 14 6b 8a 3e 68 14 50 bd
       0.2046898 0.5754942 0.2703482 -0.05080071
000110 ad 71 1e 3f a8 a0 1a 3f 8d 31 12 be 9f 65 81 bf
       0.61892205 0.6040139 -0.14276715 -1.0109137
000120 95 a5 57 3f 5a 95 18 be b8 31 4e 3e f4 90 2d 3e
       0.84237033 -0.14900723 0.20136154 0.16949826
000130 bc 49 00 3e 99 0b 3c be f5 7b 34 bf 64 31 09 3b
       0.12528127 -0.18363799 -0.70501643 0.002093398
000140 32 81 0c bf 1b 5b db 3d e5 b5 a1 3c ea 1d 6c be
       -0.54884636 0.10710736 0.019740054 -0.23058286
000150 20 82 ec bc c4 2a f2 3e bf 08 77 3e 0a e6 17 bf
       -0.028870642 0.47298253 0.2412443 -0.59335387
000160 5e 49 e9 3e 70 84 92 3d 16 b5 30 3f 4d 74 24 3f
       0.45563787 0.07154167 0.69026315 0.6423996
000170 d3 c6 a3 3e 1d 6c c2 bd 0e 0a c0 3d 68 f3 bb 3e
       0.31987628 -0.09493277 0.09376918 0.36709142
000180 43 8d 1a be cb a2 6f 3e 6b 9a 38 bd 6b 55 3e be
       -0.1509295 0.23401944 -0.04506914 -0.18587272
000190 c1 0c 24 3e 71 d8 5b 3d 39 8f fd 3e ed 7c 02 3f
       0.1602049 0.05367321 0.49523333 0.5097187
0001a0 bd dc e4 3e f1 28 c1 bc 1e 1f c4 bc 0f 27 16 bd
       0.4469966 -0.023579093 -0.02394062 -0.036658343
0001b0 f9 cc ab be 70 b8 8f be bc 8b 07 3e b4 ac 67 bc
       -0.3355482 -0.28070402 0.13236898 -0.014140297
0001c0 6d 71 30 bc f5 73 6a 3e f7 b4 05 3f 89 64 f2 3e
       -0.01076923 0.22895797 0.52229255 0.47342327
0001d0 40 bb b0 3d 28 b6 59 bf 83 f6 09 be 05 eb 3c 3f
       0.08629465 -0.85043573 -0.13472943 0.7379611
0001e0 0a 77 3b be 4e 10 9b 3d 29 99 a4 be 9c e0 47 be
       -0.18307129 0.07571469 -0.32148102 -0.19519275
0001f0 59 14 a7 3e e3 fc 37 bd f4 94 a8 bf 20 34 b5 3e
       0.32632712 -0.044918906 -1.3170457 0.3539133
000200 be 5f 0b bd 5b a4 ca be 07 57 cd be 2c ef 5b 3e
       -0.034026854 -0.39578518 -0.4010546 0.21477956
000210 e7 49 d2 bd 44 57 e4 bc 48 34 d6 be d4 60 85 be
       -0.10268002 -0.027873643 -0.41836762 -0.26050436
000220 da 91 90 be 98 d6 e5 3d ba fa 6c bd cc c3 a2 bd
       -0.28236276 0.11222571 -0.0578563 -0.079475015
000230 1e 6e 0a bd cf cd 50 3e c9 8d 78 be 04 17 07 be
       -0.033796422 0.2039101 -0.24272837 -0.13192374
000240 9a c8 f1 be 8a 3a 49 3e b4 f8 02 3e c8 50 5e bd
       -0.4722336 0.19651237 0.12790185 -0.054276258
000250 f5 d6 9b bd b3 49 df bc a9 60 60 be a9 aa 88 bb
       -0.07609359 -0.027256822 -0.21911873 -0.004170735
000260 01 53 06 3f 61 a5 4b 3e 26 27 4e 3e 6a b5 9f 3e
       0.52470404 0.19887306 0.20132121 0.31193095
000270 7b 33 a4 3e e8 e9 05 be e0 65 b1 be 09 2b 93 3d
       0.32070526 -0.1307751 -0.34648037 0.07185943
000280 1c 63 23 bf 39 40 d3 be 7e d9 cf 3e c2 71 db 3e
       -0.63823104 -0.41259935 0.4059562 0.42860228
000290 a9 df 23 3e 27 19 c0 be 81 18 2a 3e 41 0c e2 bb
       0.16003288 -0.3751919 0.1661091 -0.0068984334
0002a0 fd f3 d1 be f5 37 60 3d 76 c6 0e 3f eb 80 02 bf
       -0.4100646 0.054740865 0.5577158 -0.50977963
0002b0 3a 08 bc be e9 95 ac 3e 72 90 12 3f 61 1a 15 3e
       -0.36725026 0.33708122 0.57251656 0.14560844
0002c0 f5 c7 9e 3d 78 04 65 be 0e d3 14 3e 47 53 bd be
       0.077529825 -0.22364986 0.14533636 -0.36977598
0002d0 ea e9 a3 3d 06 f7 04 be 4a 76 f3 be 62 62 46 bf
       0.080036 -0.12984857 -0.47551185 -0.7749387
0002e0 11 1a de be dd 96 e9 3d 01 ff 47 be 9b 36 be be
       -0.43379262 0.11405728 -0.1953087 -0.37151036
0002f0 63 b9 97 be 7e 10 93 3e 51 d9 92 be df 7a 5f 3e
       -0.29633626 0.2872352 -0.28681424 0.21824215
000300 4e 9d eb 3e 93 ad a7 3e 13 33 e4 bd 88 a0 f1 bc
       0.4601845 0.32749614 -0.11142554 -0.029495493
000310 52 ca 04 3f c3 c5 36 bd c6 94 b9 3c 83 e5 06 3f
       0.51871216 -0.044622194 0.022653949 0.5269396
000320 63 c8 b5 bd d8 d0 1b bd ff 82 ec 3d a3 58 c7 3e
       -0.08876111 -0.038040966 0.11548423 0.38934812
000330 f2 3d 8c 3d 22 67 37 bf 52 2f 74 bd 93 6a 8d be
       0.06847753 -0.71641743 -0.05961544 -0.27620372
000340 aa c2 e1 3d 96 87 03 bf 9d b9 8a 3e e2 48 be 3e
       0.11023457 -0.5137876 0.27094737 0.3716498
000350 19 94 d3 bb 18 c3 42 bf d3 89 c8 bd 62 30 14 3f
       -0.0064568636 -0.7607894 -0.09791913 0.57886326
000360 8f d4 a0 bf 64 cd bb 3e e8 c9 99 3e ac e5 3c 3f
       -1.2564868 0.36680138 0.30036855 0.7378795
000370 5b 8e 8b 3e e5 de 35 3e d7 c1 b6 be 0d 6e ce bd
       0.27257046 0.17760809 -0.35694763 -0.10079584
000380 81 60 15 be a6 77 40 3e 94 c7 bc 3c 3e 10 c9 be
       -0.14587595 0.18795642 0.023044385 -0.39270204
000390 9b 0f 09 3f 80 86 f7 3e 90 bb 9f 3e 4c fe 53 3d
       0.5353944 0.48344803 0.31197786 0.05175619
0003a0 eb ff 02 3f 8a 35 12 3f da 12 82 3d 58 51 fb 3c
       0.5117175 0.57112944 0.06351252 0.030678436
0003b0 18 d7 1b be 42 5e a5 bd 5c 2e d3 3d 3e d3 6f be
       -0.1521877 -0.08074619 0.10311577 -0.23420426
0003c0 bf a2 c1 3e 85 83 8b 3e 1f bd 31 3e 9c 6e a3 3e
       0.37819478 0.2724878 0.173573 0.31920326
0003d0 0c b6 df 3e ec 63 fb bd 85 87 66 be b1 c3 05 be
       0.43693578 -0.12274918 -0.22512634 -0.13062932
0003e0 94 ef 10 bf b0 7d 8c 3e 52 9a 9f be e5 af 5e 3d
       -0.5661557 0.27439642 -0.31172425 0.054366965
0003f0 b4 d7 bf be f9 d7 bd 3e b3 90 c5 be 5f 53 39 3d
       -0.37469256 0.37078837 -0.3858696 0.045245524

gat2.lin_edge.weight f4 [16, 2]
000000 77 d5 d9 3f 47 34 c1 3e a0 84 c7 3f f9 d0 1d 3e
       1.7018269 0.37735197 1.5587349 0.15411748
000010 99 60 c7 3f 8a e3 1e 3f d6 25 db 3f 7b 8c 23 3f
       1.5576354 0.6206595 1.7120922 0.6388623
000020 0c 36 91 bf 33 4b 09 bf 99 33 a9 bf 40 fa 69 3e
       -1.1344619 -0.5363037 -1.3218871 0.22849369
000030 43 7a 7b be 14 3c d6 3d fb 7e ae 3f 29 68 15 bd
       -0.24558358 0.10460678 1.3632501 -0.036476288
000040 fb 30 ac bf 1a cf 39 3d 9c 6e aa 3f 9a 0b 61 3f
       -1.3452448 0.045363523 1.3315005 0.8790833
000050 42 32 fb 3f 4b 9d a9 3e 79 96 ce 3f e9 94 86 be
       1.9624712 0.33127818 1.6139671 -0.26285484
000060 7f fd e5 bf 24 44 3f bf 8f c0 b4 3e 62 d1 19 3f
       -1.7967986 -0.7471335 0.3530316 0.6008512
000070 4d 59 cc 3f 4e a7 8c 3e 2d 83 e1 3f 8f 89 86 3e
       1.5964752 0.27471393 1.7618157 0.26276824

mlp.0.weight f4 [16, 32]
000000 d9 ca 3e be ac 7a 37 3d ed 7d 03 be e5 03 da be
       -0.18632068 0.044794723 -0.12841006 -0.42581096
000010 b6 f0 c9 bd d2 17 2a 3d 64 a8 65 bd 82 5b 75 bd
       -0.09860365 0.041526623 -0.056068793 -0.05990172
000020 ab fa 0a 3d d8 e9 8e be 68 85 21 3e d4 90 13 be
       0.03393046 -0.27912784 0.15773547 -0.14410716
000030 82 ad 65 be e0 02 e8 3b ce 6e c5 3b 26 e8 59 be
       -0.22429469 0.007080421 0.006025172 -0.21279964
000040 88 79 a8 3d 2e 23 58 3e ad c6 de 3d 8b c6 95 be
       0.08226305 0.2110717 0.10877738 -0.2925304
000050 aa 6e 94 be 81 a0 50 be 82 71 11 3e 4f 37 d5 be
       -0.2899068 -0.20373727 0.14203456 -0.4164376
000060 b0 8a 14 be 50 1e 37 be ea 1f 74 3e d8 f0 21 be
       -0.1450603 -0.17882657 0.23840299 -0.15814531
000070 ab 5e fb bd 9c 4a 51 be ea 4b 11 bd 49 16 d9 bd
       -0.12273916 -0.20438617 -0.035472788 -0.10599954
000080 a8 39 42 3d dd 3e 0d be ee a8 da bd b6 df 36 bd
       0.047418267 -0.13793512 -0.10676752 -0.04464694
000090 bb 58 5f bd eb f8 b1 3e 7b a7 1a 3d e7 86 c8 3d
       -0.05452798 0.34760222 0.037757378 0.097913556
0000a0 b6 09 bb 3d a9 7f 53 3e c0 26 d4 ba 85 af 84 3e
       0.091327116 0.20654167 -0.0016185865 0.2591516
0000b0 1b f6 0a 3e e6 41 c8 3e 3f ec 23 3d 0e 92 ea 3d
       0.13570444 0.39112777 0.040020224 0.11453639
0000c0 32 c0 84 3e 81 28 96 bd 23 d0 17 3e e9 51 f9 3d
       0.25927883 -0.07331944 0.14825492 0.12173826
0000d0 7f 30 e6 bd 0a 86 dc 3d ec 90 0d be 11 3f 65 3e
       -0.11239719 0.107677534 -0.13824815 0.22387339
0000e0 bc b1 b3 bb 33 76 68 3d d1 3d 78 be be aa fc bc
       -0.005483834 0.05675335 -0.24242331 -0.030843135
0000f0 a1 59 e4 3d 9f 99 0f 3f 4c 05 5b bd 70 6d 46 3e
       0.11149908 0.5609378 -0.05347185 0.19377685
000100 4f b4 e5 bc 3b 12 98 bd 65 15 3a be 29 60 67 3e
       -0.02804008 -0.07425352 -0.18172224 0.22595276
000110 81 68 74 be ce a2 24 be 49 50 92 3d 12 b2 7c be
       -0.2386799 -0.1607773 0.071442194 -0.24677303
000120 fc 2b 6d 39 6b a8 06 3d e4 c3 a8 3b fe 3b 62 be
       0.00022618467 0.03287546 0.005150305 -0.22093198
000130 a1 b8 12 3e 3f 63 25 bd 45 57 03 bd 15 cb a1 bd
       0.14328243 -0.04037785 -0.03206565 -0.07900063
000140 3a e9 43 be d3 c9 b6 bd fa 63 74 3d d0 0d c5 bd
       -0.19131938 -0.08925214 0.059665658 -0.09621775
000150 5b 94 54 be 1c 3d 08 bd 29 79 6b be 7a 32 19 bc
       -0.20759718 -0.033261403 -0.22995438 -0.009350413
000160 13 eb 20 3d 55 42 90 3c 14 47 28 bc 0f f6 a1 bd
       0.039286684 0.017609755 -0.010270853 -0.0790826
000170 6f 04 4b be b3 57 c0 3d 82 8f 55 be f5 d6 06 bd
       -0.1982591 0.09391727 -0.20855525 -0.032919843
000180 50 8b 7d bd a4 69 14 3e ac 88 f9 bd f3 6d 82 3e
       -0.061900437 0.14493424 -0.12184271 0.2547451
000190 5e ef 19 bd 5b 0f ec bc ff 64 6c 3e 39 c4 06 3e
       -0.037581794 -0.028815916 0.23085402 0.1316079
0001a0 6f 84 da bd 6b a6 df bd 98 0e 45 3d 04 95 2d 3d
       -0.10669791 -0.109204136 0.04810962 0.04237844
0001b0 7a 8d 17 3d e4 3b 49 be 28 be fa 3e f0 87 35 bd
       0.037000157 -0.19651753 0.48973203 -0.044319093
0001c0 36 10 74 be 88 8c bb 3e 62 45 93 bc 91 03 0a 3e
       -0.23834309 0.36630654 -0.01797742 0.13477923
0001d0 29 4f 21 3e c8 da 3e 3d 73 02 fd 3d 45 3a 2c be
       0.15752853 0.046595365 0.12353983 -0.16819103
0001e0 4d 04 bb 3a 16 16 46 be 5e 3d d4 bc 77 ea bd 3d
       0.001426825 -0.19344363 -0.025908168 0.09273236
0001f0 db 13 28 3e 2c c4 14 be 99 ee c9 3e 81 d6 6f be
       0.16413824 -0.14527959 0.39439848 -0.2342167
000200 c8 e4 65 3e d9 88 10 3e 7a be 27 bb 6c 47 ee 3e
       0.22450554 0.14114703 -0.002559571 0.46538866
000210 48 7f 81 bf 58 85 a1 3c fe 36 84 3e 6a e6 3d 3e
       -1.0116968 0.019716904 0.25823206 0.18544927
000220 fc f9 01 be 7c 47 8b bd 9c 31 ac 3e 19 da 51 3d
       -0.12693018 -0.06800744 0.336316 0.051233385
000230 c9 84 f1 3e 27 04 3a 3f ef a6 b2 be 92 6e b7 bc
       0.4717162 0.72662586 -0.34892985 -0.022391591
000240 7d b1 80 3e f4 0c ea 3d ec cb 77 bd 5a 8a a9 3e
       0.25135413 0.11428252 -0.06049721 0.33113366
000250 b6 6c 91 bf 41 7a b2 bd b2 8e ee bc e5 4c 4f 3d
       -1.1361301 -0.08714724 -0.029120777 0.05061044
000260 4f a8 c8 3c 45 d4 07 bd 96 0f 09 3f 91 62 13 be
       0.024494318 -0.03316142 0.5353941 -0.14393069
000270 42 ec ac 3d b2 7c 22 3f 6d 2e c6 be 58 03 4f 3e
       0.084435 0.6347152 -0.38707295 0.2021612
000280 4d d9 97 bc f5 d9 ee 3c d4 dd 72 3e 74 d8 13 bc
       -0.018536234 0.029156664 0.23717433 -0.009023774
000290 f0 18 f6 3d 34 6b e1 3d 6a c2 0c 3e 34 37 35 3e
       0.12016475 0.110067755 0.13746038 0.1769684
0002a0 63 c5 6c bd f4 4e 94 3e cc f9 0a 3e 07 5b 96 bc
       -0.05780543 0.28966486 0.13571852 -0.018353952
0002b0 a1 3e ed 3b 86 75 0a 3f c9 ae 9a 3e 75 43 80 3e
       0.007240132 0.54085577 0.30211475 0.25051466
0002c0 e3 ec ab 3d 6b 64 3b be d2 82 27 3e 65 69 ee 3c
       0.08394792 -0.18300025 0.16358498 0.02910299
0002d0 54 fa 91 3d 2a d6 bb bc a2 97 10 be b9 c7 f5 3e
       0.071278244 -0.02292927 -0.14120343 0.4800394
0002e0 f4 9d 43 3e d1 08 3f 3e 05 2b 1f 3e fe 6e dc 3b
       0.19103223 0.18655707 0.15543754 0.0067270985
0002f0 20 a2 6d bd 24 a1 05 3f e6 3d ad bd 18 6f 1a 3e
       -0.058015943 0.52199006 -0.08459072 0.15081441
000300 9f 14 e3 bc 2a 13 1e bd 97 11 e6 3d 91 54 d6 3b
       -0.027719794 -0.038592495 0.11233824 0.006540843
000310 7f 77 11 be 53 42 11 be 8d 74 81 be 92 bf 29 3d
       -0.1420574 -0.14185457 -0.25284234 0.04144246
000320 a1 b1 5a 3e b5 84 c9 3b cd a1 30 3c f7 72 87 bd
       0.21356823 0.006149853 0.010780764 -0.06613725
000330 08 53 91 be 77 f1 c5 3c 33 1a 9c bd 05 4f af b9
       -0.2838366 0.024162991 -0.076221846 -0.00033437475
000340 55 c5 43 be 05 30 83 be fc 70 33 be 58 8b 87 3d
       -0.19118245 -0.25622573 -0.17523569 0.066183746
000350 18 a9 ac bd 0e 55 52 be 22 55 27 be 8d c7 db 3d
       -0.084306896 -0.20540258 -0.1634107 0.10731421
000360 61 fe e6 bc cf 14 42 bc f9 43 60 be 6a db 59 bd
       -0.02819747 -0.0118457815 -0.2190093 -0.053187765
000370 e7 a9 44 be 61 56 69 3d 09 23 5e be b1 ee 2c be
       -0.19205438 0.056967143 -0.21693052 -0.16887929
000380 45 43 89 3e 28 f9 47 3e ce d8 4e 3d 22 6d e4 3d
       0.26809135 0.1952864 0.05049973 0.11153628
000390 77 d9 af 3d 62 b0 f0 3c 2c c0 6b 3e a2 e8 88 3c
       0.085864 0.02938098 0.23022527 0.01671249
0003a0 bf 2c c5 3e 5b 4f 60 bd 3c c0 bb 3e a3 a0 9f bd
       0.385107 -0.05476318 0.366701 -0.07794311
0003b0 12 95 79 3e 77 98 c2 be e3 00 5f 3e 6d 7f 30 bc
       0.24373272 -0.38006946 0.21777682 -0.010772568
0003c0 93 bd c7 bd 1c 52 2a 3e 7a df a0 bc fe e6 bb 3b
       -0.09752955 0.16632885 -0.019637812 0.0057343235
0003d0 bf b5 e3 3d c7 1c 05 3e a7 77 b4 3c 3c d9 97 be
       0.1111865 0.12999259 0.022029711 -0.29657924
0003e0 3e 73 09 3e 7c 7f bf 3d ad 34 8d 3e 87 93 66 bd
       0.13422868 0.093504876 0.2757925 -0.056293037
0003f0 c1 fb 19 3c 84 50 96 be 78 49 18 3e 7b 16 91 3d
       0.009398402 -0.29358304 0.14871776 0.07084366

mlp.0.bias f4 [16]
000000 df 97 de bc 3c 79 ab 3e 87 9e fc bd 97 8e fb be
       -0.027172027 0.33490932 -0.12334924 -0.49132225
000010 dc fd bc 3e da 36 b3 3d 3e 69 4b be 37 b8 63 bd
       0.3691243 0.087506965 -0.19864365 -0.055595603
000020 4b c2 19 3e 94 2c 21 be 2c be 63 3d 40 24 26 bd
       0.15015523 -0.15739661 0.055601284 -0.040561914
000030 3a e8 c9 bd 7f 38 1f 3d 94 55 53 bc ee 73 86 be
       -0.09858747 0.03887224 -0.012898821 -0.26260322

mlp.2.weight f4 [1, 16]
000000 bc e9 4d 3e ac 3a bf be 9a 38 1a 3e 2c 00 a2 3e
       0.20108694 -0.3734945 0.15060654 0.31640756
000010 48 ed 46 3f 9a a3 a0 be 1c 73 20 be e3 cc 02 3e
       0.7770581 -0.31374818 -0.1566891 0.1277347
000020 68 c6 8d be 50 e0 34 bf 31 61 51 be dc 18 ba 3e
       -0.27690434 -0.70654774 -0.20447232 0.3634709
000030 8d b2 99 3e 0a b4 b6 3e 06 c6 4e 3e d0 52 43 3b
       0.30019036 0.35684234 0.20192727 0.0029803999
