data/CTC/Fluo-N2DH-SIM+/02_RES_GAT/20250715_012025/manual_fold_5_best_model.pth (torch, 11177 bytes, 15 tensors)

gat1.att_src f4 [1, 1, 16]
000000 e8 1a 6f be 30 c0 ef bd 85 18 2c be 65 b7 39 3f
       -0.23350108 -0.11706579 -0.16806228 0.7254546
000010 75 40 0a bf 4c 88 e7 be c1 25 9b 3e 1a 27 93 3d
       -0.54004604 -0.45221174 0.3030224 0.071851924
000020 be 96 a0 be 3a c6 7a bd 84 ae 91 be 22 8b 07 3f
       -0.31365007 -0.0612242 -0.28453457 0.52946675
000030 35 d8 82 bd 56 8e 08 be 37 80 ca be ae 01 2e 3e
       -0.063888945 -0.13335547 -0.39550945 0.16992828

gat1.att_dst f4 [1, 1, 16]
000000 53 d0 a5 3e e8 05 f3 bc 91 b1 14 3f f0 fd 12 bf
       0.323855 -0.029665902 0.58083445 -0.5741873
000010 3d 0f 25 bf 58 26 4a bf 11 98 72 3d 38 44 03 bd
       -0.64476377 -0.7896476 0.059227053 -0.03204748
000020 99 16 75 bf c3 d0 38 be ad 2c 17 be 37 15 3d bd
       -0.95737606 -0.18048386 -0.14763136 -0.04616281
000030 86 1f c9 3e dd 4f 68 3e 2a 9c 59 3f 8c c9 0d bf
       0.39281863 0.22686715 0.8500391 -0.5538566

gat1.att_edge f4 [1, 1, 16]
000000 9b ad 7b 3e cc 05 2f be 3d 76 d3 3e d1 82 89 3f
       0.24577944 -0.17092055 0.41301146 1.0743047
000010 12 24 81 3f aa 28 0d 3f 4f 04 13 3f 8d 2d 9e 3f
       1.0089133 0.55140173 0.5742845 1.2357651
000020 a9 fa 30 bf eb da ae 3e 08 64 ae 3e 1f 79 89 3f
       -0.6913248 0.34151396 0.34060693 1.0740088
000030 a6 b2 ef 3e 1f 94 04 3f ed 98 99 3e 8a 8f e0 be
       0.46815985 0.51788515 0.29999486 -0.43859512

gat1.bias f4 [16]
000000 ae a7 a1 bc 48 ea e2 bd b3 6b 3a 3e 89 c2 16 3f
       -0.019733276 -0.11079842 0.18205146 0.5889059
000010 d0 1f 85 be 28 2b ac bd 52 69 9a 3e be d8 ef 3d
       -0.26000834 -0.08406669 0.30158478 0.11711262
000020 34 76 15 3e d8 92 0b bf f9 8b ec bd bd 12 5c 3e
       0.14595872 -0.5452094 -0.11550135 0.21491523
000030 07 f8 04 3f 43 23 4a be ac 49 ca 3e a9 df 81 3d
       0.5194096 -0.19740014 0.39509332 0.06341488

gat1.lin.weight f4 [16, 14]
000000 1c 25 af be bb 8d ac bc b8 b4 9c 3e 5f 63 c9 3e
       -0.34208 -0.021063676 0.30606627 0.39333627
000010 a0 33 bf bd 54 3f 7b 3e 56 a8 3f bf 08 54 27 3e
       -0.093360186 0.24535877 -0.74866235 0.16340649
000020 06 a2 5b be e4 d6 3d bd 39 53 13 be 2f 93 a0 3e
       -0.21448526 -0.046347514 -0.14387216 0.31362292
000030 6c ab ba 3d 70 40 d1 bd 4e 73 3e be d4 3d b4 be
       0.091147274 -0.102173686 -0.18598673 -0.3520342
000040 d7 d1 81 be b9 18 84 3e 56 64 d2 be 11 a4 c4 3d
       -0.25355408 0.25800112 -0.41092175 0.09601606
000050 25 c4 59 3e 8e 02 bd be 64 98 62 3e f7 b5 b1 3e
       0.2126623 -0.36916012 0.22128445 0.3470914
000060 ce dc cd 3b e9 63 3c 3e 37 67 bd be 2a 96 ac 3e
       0.0062824255 0.18397488 -0.3699281 0.33708316
000070 02 58 3f 3d b0 0d 1a 3e d8 c1 25 3f 0a b5 80 be
       0.04671479 0.15044284 0.6474891 -0.25138122
000080 30 c2 b2 be ae b6 33 3e 07 b9 68 3e 97 40 b4 3e
       -0.34913778 0.17550156 0.22726832 0.35205528
000090 a3 82 0d bf 85 3b 1e 3f ed 4f 2a 3d 1a c8 d7 3e
       -0.5527746 0.6180957 0.04158013 0.42144853
0000a0 bc cf 09 be 35 94 34 3c dd cc 71 3e e0 1b 53 be
       -0.1345815 0.011021663 0.23613305 -0.20616102
0000b0 46 58 3d be c5 f2 61 bf 3f e2 24 3f e3 95 03 bf
       -0.18490705 -0.8826106 0.64407724 -0.51400584
0000c0 bc 29 2e 3f ea e4 96 be c9 ad e5 3e f7 c2 62 3e
       0.6803243 -0.29471523 0.4485915 0.22144686
0000d0 36 89 21 be 1e 36 80 be 21 a5 97 be 56 38 08 be
       -0.15774998 -0.25041288 -0.2961817 -0.1330274
0000e0 ed fe 1b bf 9f 29 91 be e1 0b c3 3d 39 f8 68 3e
       -0.6093586 -0.28352067 0.0952375 0.2275094
0000f0 a0 69 a1 3e ff 0b be be d3 bc 98 3e e8 25 24 3e
       0.31525898 -0.37118527 0.2983156 0.16030085
000100 93 cf ae 3e 3a af 9d be 24 48 79 3e fd d0 2a 3f
       0.34142742 -0.3079775 0.24343926 0.6672514
000110 c0 42 29 3f 62 18 54 3e b7 a6 eb be 99 75 16 bf
       0.6611748 0.20712426 -0.4602563 -0.5877319
000120 04 31 1e 3f 62 a4 e9 3d 5e ca 72 3e 14 14 55 be
       0.6179354 0.11408307 0.2371001 -0.2080844
000130 4b b2 1b be 8a db a1 3e c4 b0 e6 3e 20 59 74 3e
       -0.15204732 0.31612808 0.45056736 0.23862123
000140 fd 09 75 be 61 c1 1d 3e cc b8 f3 3e e5 b3 b1 bd
       -0.23929591 0.154058 0.47601926 -0.0867689
000150 76 9b 0f 3e 1c 60 65 3c bf 45 ed bc b6 a9 35 3f
       0.14024147 0.013999965 -0.028963922 0.70962083
000160 f6 9a 2d 3d d4 cd 0f 3f f1 ee eb be d1 aa 26 3e
       0.04238411 0.56173444 -0.46080735 0.16276099
000170 38 85 ee be 79 78 02 3e 8e 92 15 3f cf e4 d9 be
       -0.46586013 0.12741269 0.5842675 -0.4255738
000180 15 bb 82 3c 94 1e 4a 3d 80 6c 51 3e 80 b8 d9 3e
       0.015958348 0.049345568 0.20451546 0.42523575
000190 76 b6 dd bd 14 0a 44 be 21 bf 1c be 91 86 80 3e
       -0.10825817 -0.1914447 -0.15307285 0.25102666
0001a0 cb e4 a2 3e 09 3d 83 be 27 5a 4a bc c6 ed 6c bd
       0.3181518 -0.25632504 -0.012350596 -0.057843946
0001b0 ca 45 9b 3d 36 c4 87 be 08 70 44 be 12 e3 00 3e
       0.075816706 -0.26516885 -0.19183362 0.1258662
0001c0 25 e1 54 be cc d9 1c bf 2b 35 32 3e b6 c0 f5 be
       -0.20789011 -0.6126983 0.17403094 -0.4799859
0001d0 6f 7c 49 3e a3 4c 32 bf 38 d6 78 3e 59 0f af be
       0.19676374 -0.6964819 0.24300468 -0.34191397
0001e0 36 5c 1a 3d 89 f4 ea bd 1c b2 76 be b3 d8 eb 3e
       0.037685595 -0.11472423 -0.24091381 0.46063766
0001f0 02 fc 8a 3e 1a d5 ac be 3c c7 ae bc 6c 98 d2 be
       0.27145392 -0.33756334 -0.021335237 -0.41131914
000200 24 be 20 3e c5 a8 d1 be a9 0e 06 3e 6f ff 37 3d
       0.15697533 -0.40949073 0.1309153 0.044921335
000210 21 b5 08 3f 76 24 a9 3b f0 05 07 be f2 4a 02 3d
       0.5340138 0.005161817 -0.13185859 0.031809755
000220 72 17 db 3e 3b c8 b6 3e e6 f0 00 3f f9 98 0b 3f
       0.42791325 0.3569964 0.5036758 0.5453029
000230 9e b7 02 be af 86 64 be d8 47 2b 3d e4 ed cd 3d
       -0.12765357 -0.22317003 0.041816562 0.1005514
000240 25 36 5e be 70 c3 cb bd cb 75 1a be 76 65 79 bc
       -0.21700342 -0.09949386 -0.15083997 -0.015221944
000250 9e d5 a5 3e 2e 04 4f bc bc 5d 03 3d 0d bc c4 3e
       0.3238954 -0.012635274 0.032071814 0.3842472
000260 a3 f4 68 3e be 61 ae bb 90 6b 19 bd 0f f9 c6 3e
       0.22749572 -0.0053217104 -0.037456095 0.38861892
000270 92 8f a6 3e c9 7b d2 3e b3 c8 94 3e ff 6d c2 3e
       0.3253141 0.41110066 0.2905937 0.37974545
000280 16 b7 54 3e 36 42 5f 3e 2b de 4a 3e 52 21 82 3e
       0.20772967 0.21802601 0.19811313 0.25416046
000290 91 50 09 be 5b 25 d4 bd bc 2a 9e be 1a ef 97 bc
       -0.1340964 -0.103586875 -0.3089198 -0.01854663
0002a0 d4 00 6b bd 16 5f 40 3f e5 a8 19 3d f7 7e 3f be
       -0.057373837 0.7514509 0.037514586 -0.18700777
0002b0 e1 24 d5 3e bc 70 d8 be 13 99 80 be 6d 3f d0 be
       0.416297 -0.4227351 -0.25116786 -0.4067339
0002c0 25 5d bb 3e 14 94 85 3e dc b7 a1 3e 50 63 00 be
       0.365945 0.26089537 0.31585586 -0.12537885
0002d0 00 3e 84 be b9 7f 60 be 61 45 84 3e e1 9c 5a be
       -0.25828552 -0.21923722 0.25834182 -0.21348907
0002e0 ea 5e 42 3f 77 82 7d be 99 8b 8b 3b 6d a9 c6 3e
       0.7592608 -0.247568 0.0042585847 0.38801137
0002f0 a8 e7 e6 be 5f 22 ba be 5f ed c5 3d 0a c5 f6 be
       -0.45098615 -0.36354348 0.096644156 -0.48197204
000300 64 25 3f 3f b5 14 35 3d 31 a9 b8 3e 69 14 ac 3e
       0.7466643 0.0442092 0.36066583 0.33609322
000310 df 59 d7 3e 32 76 82 be cb 78 b1 3e 35 f2 ff 3e
       0.42060754 -0.254808 0.3466247 0.49989477
000320 65 2a 12 bf 8a 92 41 3f d1 5d 9a be 6c db b8 3e
       -0.5709594 0.75614226 -0.301497 0.36104906
000330 f2 97 b5 be a7 93 b1 3e 12 0d a6 3c 43 39 ec 3d
       -0.35467488 0.34682962 0.020269904 0.11534359
000340 af 39 53 3d bc 3f 22 3d 94 ed b8 be 55 73 2a bf
       0.051568683 0.039611563 -0.36118758 -0.6658223
000350 65 d8 ae 3e 06 1d 86 bd ae 95 8c 3d 1f e7 fa 3e
       0.3414947 -0.065485045 0.06864487 0.49004456
000360 33 d9 dc be 5c 1f ba 3e 37 c2 89 bd 15 cf 12 3f
       -0.4313446 0.3635205 -0.06726497 0.5734723
000370 a1 d5 08 3f eb a8 8e bb 53 ae e9 3d dc ad 6c be
       0.5345097 -0.0043536327 0.11410203 -0.23113197

gat1.lin_edge.weight f4 [16, 2]
000000 7d 44 0d be 8b e4 84 3e 89 2a 3e bd 02 cf fd bd
       -0.13795657 0.25955614 -0.046427283 -0.12392999
000010 c6 10 d9 be 4a e8 e2 bb b4 e5 8b bf 4e ac ab 3e
       -0.4239561 -0.0069246637 -1.0929475 0.33529896
000020 8b b4 3b bf 40 b2 73 bc 2b 71 65 bf 35 da d9 3e
       -0.7332236 -0.014874041 -0.89625806 0.4254929
000030 42 d6 08 bf bc e8 3b be 03 6d 4c bf a8 5f de 3e
       -0.5345193 -0.183505 -0.7985384 0.43432355
000040 35 ed c5 3e 00 cd bd be a1 a4 7b be 62 d8 2e 3f
       0.38657537 -0.37070465 -0.2457452 0.68298924
000050 1d e9 c7 be 02 e0 75 bd 47 7a 5c bf d9 3d 3b 3f
       -0.3904504 -0.060028084 -0.8612408 0.7314125
000060 4d f9 62 bf 9d 55 12 be 79 ed f0 be c8 70 8f 3a
       -0.8866165 -0.14290471 -0.47056177 0.0010943646
000070 43 89 d6 bd f6 ba ed 3e 51 4a 8e 3e 74 05 07 bf
       -0.10475399 0.46431702 0.27791074 -0.52742696

gat2.att_src f4 [1, 1, 16]
000000 c5 fa 59 3f da 0a 38 bf 13 38 fa be 31 59 02 3f
       0.8514827 -0.7189156 -0.48870906 0.50917345
000010 4a f4 89 bf 50 81 67 3f 91 94 0a 3f 6f b4 32 be
       -1.0777676 0.9043169 0.54132944 -0.17451642
000020 21 fe 4d bf db bb ee bb c4 4b 18 bc 16 f9 aa bf
       -0.80465895 -0.0072855777 -0.009295408 -1.3357265
000030 13 18 e4 3e 9c 39 6c 3f 9f b8 a7 be 48 c4 39 be
       0.44549617 0.92275405 -0.32758042 -0.18141282

gat2.att_dst f4 [1, 1, 16]
000000 df 88 0a 3e 16 11 e7 be 68 30 8d 3e f0 db 62 3e
       0.13528775 -0.45130223 0.27575994 0.22154212
000010 d6 8b 83 3e 01 e4 0b 3e f5 87 13 3e 16 85 3c bf
       0.25692624 0.13661195 0.14407332 -0.73640573
000020 00 b4 88 3e 41 97 3e bf 61 fb b3 3e c4 35 67 3f
       0.2669983 -0.74449545 0.35152724 0.90316415
000030 61 d7 df be 42 68 02 bf d2 56 5a bf 06 44 09 3f
       -0.4371901 -0.50940335 -0.8528873 0.5361942

gat2.att_edge f4 [1, 1, 16]
000000 43 a7 b3 3f f5 a1 45 3f 6d b9 c0 bf 01 45 d5 bf
       1.4035419 0.7720025 -1.5056587 -1.6661683
000010 45 c5 cd be 48 33 5a 3e 4b 34 5d bf 42 d4 a4 3f
       -0.40189567 0.21308625 -0.8640792 1.2877276
000020 fb 1c 9f 3f 0c f9 b1 bf 52 73 ac bf 90 27 bd bf
       1.2430719 -1.3904128 -1.3472693 -1.4777699
000030 07 9c c5 3f 0a 88 8d bf 1e 6a 6c bf f1 88 a6 bf
       1.5438241 -1.1057141 -0.9234942 -1.3010541

gat2.bias f4 [16]
000000 d0 91 d5 3d ce 6e 0f 3e af 0a 2a 3e df 13 00 3f
       0.10428202 0.14007112 0.16605638 0.5003032
000010 a3 87 17 3f 7a 63 35 3e 4f 85 81 3e 5d 9f c6 3d
       0.5919134 0.17713729 0.2529702 0.09698365
000020 e9 a4 02 be b9 0b 06 bc 82 19 8b bd 33 2a 69 be
       -0.1275822 -0.008181506 -0.067919746 -0.22770004
000030 eb 2a da bb ca 2f d6 3c 9f 52 67 bd cb 11 a8 bd
       -0.0066579483 0.026145834 -0.056475278 -0.08206519

gat2.lin.weight f4 [16, 16]
000000 8f 19 3c 3e 8c c3 95 be 20 aa 81 3d 9b 87 9a bf
       0.18369125 -0.29250753 0.06331277 -1.2072634
000010 d9 69 07 3f 1d 5c 5b 3e b7 bf 25 3f 08 34 48 3e
       0.52895886 0.21421857 0.6474566 0.19551098
000020 bd 76 85 be c2 c5 d6 bd a6 d6 e0 3d a0 e4 87 bd
       -0.26067153 -0.10486938 0.10978441 -0.06635404
000030 17 cd 32 be 18 82 36 3e de f0 0d 3f 06 ae 5c 3e
       -0.17461048 0.17823064 0.5544566 0.2155076
000040 65 74 ac 3e 14 d6 04 bf 46 4b b7 3e 56 87 53 be
       0.33682552 -0.5188916 0.35799617 -0.20657095
000050 45 9e 65 be 19 72 4d 3e a3 67 44 be 83 7c 99 3d
       -0.22423656 0.20063056 -0.1918016 0.07494452
000060 51 05 6f bf 96 13 26 bf c5 3b 3a 3e 03 82 8d 3d
       -0.9336749 -0.64873636 0.18186863 0.069095634
000070 38 18 2a be 9e a7 44 3e 7c eb 06 3f 63 bc 2c be
       -0.16610801 0.19204566 0.5270307 -0.16868739
000080 2d 60 20 bf b9 1c a9 3e 04 bd bf be f1 5d 1f 3f
       -0.6264675 0.33029726 -0.37448895 0.6225272
000090 cc 24 5e 3e d2 fe d4 3e ab 68 3d be 20 c6 bb 3d
       0.21693724 0.41600662 -0.18496959 0.09168649
0000a0 e2 87 e7 bd 65 86 96 3e 7e 3a bb be 0f 24 e8 bd
       -0.113052145 0.2939941 -0.36568063 -0.11335003
0000b0 fd 51 82 3d 29 5c ef 3e 31 7f 8d bf 64 66 cf 3e
       0.06363294 0.4675 -1.1054441 0.40507805
0000c0 56 3e 1f ba 5e 3b 4f 3e 0d 6f e0 3e 0f 5c a0 bf
       -0.00060746574 0.2023749 0.43834725 -1.2528094
0000d0 55 4f 56 bd cc aa 6d be 46 2a 00 3f 50 81 eb 3e
       -0.05232175 -0.23209685 0.50064504 0.45997095
0000e0 83 6b 28 bd 57 b4 fa be be d3 81 bc c8 ef d2 3e
       -0.041118156 -0.48965713 -0.015848037 0.41198564
0000f0 95 c0 dd bd 75 1a f5 be 38 80 42 3f c4 eb fc 3e
       -0.10827748 -0.47871748 0.75976896 0.49398625
000100 49 ac 10 3e 6f bb 94 3e 9b ab d6 3e ee 29 6d 3f
       0.14128222 0.2904925 0.419278 0.92642105
000110 ec 8c 39 be a9 ff a6 3d 9a 5b e9 be ba f8 59 3e
       -0.18120164 0.08154232 -0.455777 0.21286288
000120 44 e1 a6 3e 61 0c 66 be d2 e1 9a 3e a4 f9 39 3e
       0.3259374 -0.2246566 0.30250412 0.18161637
000130 bf 12 64 3f ec 27 9d 3e 0e 9e 43 bf 99 78 95 bf
       0.89091104 0.3069452 -0.7641305 -1.1677428
000140 1c 7d 42 bf a5 ea 90 3e 0e e6 61 bd 41 72 2f 3f
       -0.7597215 0.2830402 -0.055151038 0.6853371
000150 01 aa 19 be 0b 88 17 3f 41 3a ff be 28 45 5d 3e
       -0.15006258 0.5919196 -0.49849132 0.21608412
000160 d9 a4 d0 3e 41 f7 fc bd 14 05 30 3d 1d ae 59 be
       0.4075077 -0.123518474 0.042973593 -0.21257825
000170 88 97 5e be 5a 6d ce 3e 0d 21 d5 be 0f f8 ae 3e
       -0.21737492 0.40317804 -0.41626778 0.3417363
000180 30 3b bc 3d 6d 8f bb be 58 ea 36 3f a0 56 97 3e
       0.091909766 -0.36632863 0.7145133 0.29558277
000190 d9 1c b9 3e 48 5f e1 bd 2c b5 61 3e 0e cf b7 3e
       0.36154822 -0.110045016 0.22041768 0.35900158
0001a0 d6 00 68 bd 77 bb 2e bf 5c 7d 40 bc 44 79 8d be
       -0.056641422 -0.682548 -0.011748638 -0.2763158
0001b0 ed 4b d9 bd de 92 30 be 5a f8 e9 3e 01 79 b3 be
       -0.10610185 -0.17243525 0.4569729 -0.35053256
0001c0 dc d6 10 bd 4d e9 24 be ad f0 a5 3e d4 7d 13 bf
       -0.035361156 -0.16104622 0.32410184 -0.57613873
0001d0 8f 9a ab be 7e 54 e2 bd ce e3 e9 3e d1 57 a8 3d
       -0.33516356 -0.11051272 0.45681614 0.08219875
0001e0 71 47 49 bf 49 08 8c be 97 71 9b 3e 67 57 44 3e
       -0.78624636 -0.2735007 0.303601 0.19173966
0001f0 1e eb a9 be aa fc 12 bd 0e 0d 37 3f c8 30 8a 3d
       -0.33187193 -0.03588549 0.71504295 0.067475855
000200 74 8e 84 be 98 6b ac bd 95 8a b1 3e 3d f9 2f bf
       -0.25889933 -0.084189594 0.34676042 -0.6873968
000210 7d cf 53 be 45 81 4d 3e 12 3b b8 bd a7 a2 8d be
       -0.20684619 0.20068844 -0.08995642 -0.27663156
000220 7c da a2 be a0 a9 1a 3e 46 e8 85 be e8 38 db be
       -0.31807315 0.1510377 -0.26153773 -0.42816854
000230 27 91 82 3f 84 dd 0b bf 30 8b a6 be 4e 97 ae be
       1.0200547 -0.5463488 -0.32528067 -0.3409981
000240 2a ec 01 3f c7 5e 85 3e 25 f7 5c be ea 0d 10 3f
       0.5075098 0.26048872 -0.21578653 0.5627123
000250 f0 d8 13 3f 33 47 21 3e 25 a5 d8 bb cf 73 42 bf
       0.57752895 0.15749817 -0.0066114836 -0.7595796
000260 ca a6 9e 3d 17 58 22 3f d0 d0 4d 3e ec b0 c3 be
       0.07746656 0.63415664 0.20099187 -0.38220918
000270 19 f4 a5 be f0 1d 1d 3f 2a 79 cd be 41 e3 13 3f
       -0.32412794 0.61373806 -0.40131503 0.57768637
000280 d3 3c e0 be f8 d1 d8 3e 79 19 69 bd 88 b0 e0 3d
       -0.43796405 0.42347693 -0.05690906 0.10971171
000290 1d f0 75 3e fa f2 36 3e 53 87 27 3d ee 9b b9 bd
       0.24017377 0.17866126 0.04090054 -0.09062944
0002a0 d3 96 a7 3e 45 81 b1 3d 8d a1 c8 be aa 26 8e 3e
       0.32732257 0.08667234 -0.39185753 0.27763873
0002b0 32 6d 7c bf 7e b1 99 be fe 9b d3 bd 82 89 88 be
       -0.9860412 -0.30018228 -0.103324875 -0.2666741
0002c0 2f 17 33 3e af 8c c7 3d a4 28 e5 be fe af c7 3d
       0.17489313 0.0974363 -0.4475757 0.09750365
0002d0 dc 3f 5b 3c 93 6f c1 bd e6 b1 7c be e8 86 80 be
       0.0133819245 -0.09445109 -0.24677238 -0.25102925
0002e0 85 b3 94 be 13 86 49 3e 9e a6 f1 be a1 53 ca 3d
       -0.29043213 0.19680052 -0.4719743 0.09879232
0002f0 51 e7 9a 3f cd f7 b3 3e 2c fb 91 3e 06 67 7b bf
       1.2101842 0.35149994 0.2851194 -0.98204076
000300 dc 99 bb bb 91 26 bb 3e 4f 85 36 bb 53 a3 1a bf
       -0.0057251286 0.3655286 -0.0027850454 -0.60405463
000310 56 aa 7b 3e 06 92 a7 3e e4 8e 7b 3e fd d1 88 bd
       0.24576697 0.32728595 0.24566227 -0.06680677
000320 8b 2a 0b 3f 94 93 e6 3e 01 df 02 bd 8b 1e 8c bd
       0.5436179 0.45034468 -0.031950954 -0.06841763
000330 e2 63 4c 3f b6 2b 50 3e 6a 09 ed be 2a d0 15 3d
       0.7983991 0.20329174 -0.46296245 0.036575474
000340 ca a6 f7 bd b0 c1 22 bf 1f a5 f2 3e d9 da 16 3f
       -0.12092359 -0.63576794 0.47391602 0.58927685
000350 53 00 f6 3e ac 75 21 bb cb 25 01 bf d9 bd c2 3d
       0.48047122 -0.0024636788 -0.5044829 0.09508867
000360 cc 1c d0 3e 47 c8 bb be 00 af a7 3e da f9 a2 be
       0.4064697 -0.36676237 0.32750702 -0.31831247
000370 2e ab 68 be 48 15 b0 be 0f 0d f3 3d fa 17 49 3e
       -0.2272155 -0.34391236 0.11867725 0.19638053
000380 d3 62 4c bd f4 a5 0c be 60 14 48 3e 77 7c 63 bf
       -0.049898934 -0.13735181 0.19539022 -0.88861793
000390 f0 ee 2a 3f e1 84 ae bd bc 9f 26 3f f1 69 cd be
       0.6677084 -0.085214384 0.65087485 -0.4011989
0003a0 63 34 2f 3f 11 54 3f 3f 2f eb 0a 3f 17 14 bb 3d
       0.6843931 0.7473765 0.5426511 0.09134691
0003b0 2e 9e ff bd a1 6e 1a 3f 70 df 44 ba 0d 91 aa bd
       -0.12481342 0.60325056 -0.00075101014 -0.083284475
0003c0 65 bc 8f be 08 48 91 bd ba a1 e4 be 11 28 27 be
       -0.2807342 -0.07093817 -0.44654638 -0.16323878
0003d0 32 cf 72 3e e9 cb a4 be b1 00 b1 be 1a 52 84 bc
       0.23711851 -0.3218682 -0.3457084 -0.01615243
0003e0 58 67 e1 3d ee 89 7f 3d 72 4d 90 3d 48 18 b2 3d
       0.110060394 0.0623874 0.070460215 0.086960375
0003f0 57 f6 a1 be f4 89 b6 be 58 6b 92 bd 99 25 5f be
       -0.31633255 -0.35652125 -0.071493804 -0.21791686

gat2.lin_edge.weight f4 [16, 2]
000000 3f 75 9f bf 00 35 22 bf bd 74 46 bf a2 af 8b bd
       -1.2457656 -0.6336212 -0.7752188 -0.06820609
000010 f4 bf 6c 3f f1 6b 30 3f 3a ab 8b 3f 64 9f 87 3e
       0.924804 0.68914706 1.0911629 0.26488793
000020 4b 17 99 3e 0b 74 24 3e 11 fe c4 be 08 0c 3d bf
       0.29900584 0.16059892 -0.38475087 -0.73846483
000030 b3 c8 53 3f bc 58 78 3f 60 75 a4 bf 9a 3b 26 bf
       0.8272812 0.970104 -1.284832 -0.64934695
000040 8a b9 e2 bf 42 2f 87 bf 5f 4b ae 3f 2f 68 55 3f
       -1.7712872 -1.0561297 1.3616751 0.83362097
000050 49 e5 a7 3f ad 6d 54 3f b2 01 c3 3f 6e ca 13 3f
       1.3116847 0.8297985 1.5234892 0.5773076
000060 5b 1c 96 bf 7e 5a d7 be 17 d2 cf 3f 2c 59 81 3f
       -1.1727403 -0.42061228 1.6235989 1.0105338
000070 66 59 39 3f 47 d4 57 3e b5 e8 ba 3f df ac ab 3e
       0.72402036 0.21077071 1.4602267 0.33530328

mlp.0.weight f4 [16, 32]
000000 03 f7 80 3d c0 6f fb 3d b0 00 1d bf 12 5a e0 3e
       0.06297114 0.12277174 -0.61329174 0.43818718
000010 a3 e5 8d be 8a c3 ce be 80 1e 62 be 72 b4 9f bd
       -0.2771426 -0.4038356 -0.22081947 -0.07798089
000020 29 6f 2d 3e 2d 69 78 be 0f 69 a7 be 86 26 5a 3d
       0.16936935 -0.24258871 -0.3269734 0.053259395
000030 f9 05 d9 3c 1f 41 06 bd af 9a e7 bd f9 39 82 be
       0.026492106 -0.032776948 -0.113088004 -0.25434855
000040 2b 9c b6 3d e5 c4 00 be 7e f1 18 bf fc 9d 92 3e
       0.089165054 -0.1257511 -0.5974349 0.28636158
000050 19 d9 f6 bd b8 05 f7 be 6e 2c ef 3c 1f 48 44 3e
       -0.12053127 -0.4824655 0.02919599 0.19168137
000060 78 e6 84 3e b0 6c 81 be 82 13 8d be 03 01 17 3e
       0.25957084 -0.25278234 -0.27553946 0.1474648
000070 af ff a6 bc 88 5b 9a bd 05 98 4d be 8c 9c 22 be
       -0.020385591 -0.075369895 -0.20077522 -0.1588003
000080 b0 2c a1 3e 71 61 ce bc 35 e8 a3 be 5f b3 81 3e
       0.31479406 -0.025192948 -0.32013097 0.25332162
000090 f6 c1 0e be f0 bb a9 3c 2b 69 58 3e 91 5d 29 3e
       -0.13941178 0.020719498 0.21133868 0.16539599
0000a0 ce cd fc bc f4 cc 31 be b6 c3 23 bd d2 39 6b be
       -0.030859854 -0.1736334 -0.039981566 -0.22971275
0000b0 87 35 90 bd cf f2 d5 bd 55 37 01 3d da d6 13 be
       -0.070414595 -0.10446703 0.03154691 -0.14437428
0000c0 47 60 52 be ad 25 91 be 30 4d 30 3e f8 f3 5a be
       -0.2054454 -0.28349057 0.17216945 -0.21382129
0000d0 1e 50 a2 3d e4 4b 65 3e f7 a3 65 3c 30 ca 1b be
       0.079254374 0.22392231 0.014016143 -0.15213847
0000e0 02 67 0d 3d 7a 50 65 3d 0e 05 15 be 6f 83 45 3e
       0.034522064 0.05598495 -0.1455271 0.19288419
0000f0 8d 5c 3b 3e a4 a7 10 3e cd ea a0 be 24 21 db bd
       0.18297024 0.1412645 -0.3142914 -0.106996804
000100 56 94 0b 3e c2 48 24 3e b3 44 8a bf e7 22 f3 3e
       0.13630804 0.1604338 -1.0802215 0.47487566
000110 ef 21 5b bf 55 25 55 bf df 46 21 be ed 5a 44 3e
       -0.85598654 -0.8326009 -0.15749691 0.1917531
000120 8a 91 8c be a5 00 9c 3d c5 4d a9 be 44 8c 48 bd
       -0.27454787 0.076173104 -0.33067146 -0.048961893
000130 4c 2c c1 3c a6 35 a6 be 9e 92 b5 3c dd f5 e3 bd
       0.023580693 -0.32462806 0.02216464 -0.11130879
000140 3b a6 e9 3d fb b4 c2 3d e3 e1 6b bf 87 85 b2 3e
       0.11408659 0.095071755 -0.9214155 0.34867498
000150 71 c5 66 bf 0e 8b 7b bf ca da 37 be f8 04 96 3e
       -0.9014502 -0.98259056 -0.17954555 0.29300666
000160 d2 5f 84 be c2 e4 1b be 99 59 03 bd 2e 7d ae be
       -0.25854355 -0.15223983 -0.03206787 -0.3407988
000170 cf 37 d5 bd a1 bc 9c be 2a bd 9e bd 49 5a c7 3d
       -0.10411035 -0.30612662 -0.07750924 0.097340174
000180 32 fb d3 3e 01 e3 12 be 75 bb 2f 3e cf 85 f2 3c
       0.41402584 -0.14344408 0.17161353 0.02960482
000190 16 f8 7d bf 6f a3 f5 bd 38 37 17 be 03 2b 15 3e
       -0.99206674 -0.11994063 -0.14767158 0.14567189
0001a0 aa 57 fb 3d 0b 4e 67 3d 05 3b 28 3e ac 47 4a be
       0.1227258 0.056470912 0.16428764 -0.19753903
0001b0 25 42 1d 3e 36 58 dc be 8f 4a 46 3e 49 eb 41 3e
       0.15357263 -0.4303605 0.1936438 0.1893741
0001c0 eb 56 8c 3e 15 f3 cb bb f6 b1 64 3e d3 62 75 3d
       0.27410063 -0.006224046 0.22333512 0.0599087
0001d0 3c 27 95 bf e3 4e b0 be fe 14 26 be 8e b9 29 bc
       -1.1652598 -0.34435186 -0.16218945 -0.010359181
0001e0 34 87 f2 3e 54 bc 30 3e d5 c2 f4 3d 49 74 9e 3d
       0.47368777 0.17259341 0.11951224 0.077370234
0001f0 0f 12 8b 3e 30 8e e0 be 50 d2 08 3e 70 86 d4 3c
       0.27162215 -0.4385848 0.13361478 0.025943011
000200 b3 83 9b 3e 44 cf c8 bd 63 06 2c 3d 8c ab d6 3d
       0.30373916 -0.09805158 0.04199828 0.10481939
000210 a6 92 4f 3c ef 53 63 bd 66 0f 73 3e d8 00 3d 3e
       0.012669241 -0.055499967 0.23736343 0.18457353
000220 7e a7 13 3d 06 84 45 bd 95 7f 6a bd 06 ec 14 3d
       0.036048405 -0.04822161 -0.057250578 0.036357902
000230 cb c9 3e be 89 b5 8a 3e d6 47 f4 3c b9 ee 84 be
       -0.18631665 0.27091625 0.02981941 -0.2596338
000240 44 b5 d5 3e 8a db ae 3d fc 9b 76 bd 8d 2f 84 3e
       0.41739857 0.085379675 -0.060207352 0.25817528
000250 18 70 04 bc 98 73 32 3b 94 78 fe 3d 46 b2 86 3e
       -0.008083366 0.0027229544 0.12425342 0.26307887
000260 2f 5e 5c be 8b ef 57 bd 91 b1 e6 bc 04 81 51 bd
       -0.21520303 -0.05271868 -0.028160842 -0.05114843
000270 28 88 21 be e6 1a 25 3e 42 ee 1e bc 29 d1 75 be
       -0.15774596 0.16123542 -0.00970036 -0.2400557
000280 ec 36 3e 3e 08 e2 05 3c 33 23 f9 3e 0e e8 15 3e
       0.18575639 0.008171566 0.48659667 0.14639303
000290 68 9c 71 bd c4 14 8d 3e e6 20 b1 3e 62 5a 75 3e
       -0.05898705 0.27554905 0.34595412 0.2396026
0002a0 02 22 f3 be 61 99 09 bd 71 f7 d2 bd c4 3d 80 3d
       -0.47486883 -0.03359354 -0.10301102 0.06261781
0002b0 a4 3f cd bd f8 ac 52 3d 2a 26 8d 3e a4 be 97 bc
       -0.10021904 0.051434487 0.2756818 -0.018523522
0002c0 c5 f3 f5 3d 31 7d 11 3d aa 50 6a 3e aa 5f 86 3e
       0.12009386 0.035519782 0.22882333 0.2624486
0002d0 48 88 bb be e9 b6 b8 3e 49 a0 9b 3e 3e 24 93 3d
       -0.36627412 0.3607705 0.30395725 0.07184647
0002e0 97 3b 1d bf 20 09 42 be 18 65 59 be 25 30 3a bd
       -0.6141905 -0.18948793 -0.2122997 -0.04545607
0002f0 8b 08 d2 bc 3a d7 d5 3e 82 aa 68 3d 20 21 b3 bd
       -0.02563884 0.41765767 0.056803234 -0.087465525
000300 bb a5 9e 3e 31 f0 75 bd a3 c0 71 3e 93 4f 80 bc
       0.30985817 -0.060043518 0.23608641 -0.015662944
000310 07 b8 cc 3c f2 60 5f bc 79 a7 32 3d 00 83 d1 b9
       0.024990095 -0.013633953 0.043616746 -0.0003996119
000320 09 83 e8 be 34 4f cd 3a 5b ca f0 bd 3e 36 6e 3c
       -0.45412472 0.0015663863 -0.11757346 0.0145392995
000330 52 14 ad 3c 5a f5 55 3d 37 50 f7 3d 38 d4 08 bc
       0.021127854 0.05223594 0.12075847 -0.008351378
000340 c9 00 2c 3e 78 07 e0 3d d7 62 9b 3e 3f 1d 63 3e
       0.16797175 0.109389246 0.30348846 0.22179125
000350 94 55 06 be 9c 4a 03 3e 12 42 fd 3d 3d c2 b9 ba
       -0.13118583 0.1282143 0.123661175 -0.0014172267
000360 3e 3f 67 bf a2 9d 73 bd aa 1f 3b be d8 14 24 3d
       -0.90330875 -0.059476502 -0.18273798 0.04005894
000370 eb 8b 7f bd a5 0d 94 3d 7d bf 18 3e e1 e6 1d 3d
       -0.062389296 0.07229165 0.14916797 0.03855026
000380 84 2a 48 be 2b 78 0a 3d b0 63 6f 3d 1a 82 11 be
       -0.19547468 0.033806007 0.05844468 -0.14209786
000390 87 d1 70 3c 33 3b 80 bd c3 d4 e7 3d 53 01 b8 bd
       0.014698393 -0.06261291 0.11319878 -0.089846276
0003a0 0d 56 06 bd ba d9 d5 bd 8d b6 55 be ee db 61 bc
       -0.03279691 -0.10441919 -0.20870419 -0.0137853455
0003b0 b6 f9 ff 3c e9 bb 75 be 7e c7 0c be e5 fa 6c be
       0.031247001 -0.23997463 -0.13747975 -0.23142584
0003c0 b2 88 07 3e b3 f5 ca 3b a2 c9 19 bd e6 30 2f bd
       0.13235739 0.0061938404 -0.037545808 -0.042771243
0003d0 a2 39 9a 3c 89 79 17 be 13 52 2e be 65 d6 5d be
       0.01882631 -0.14792456 -0.17023496 -0.21663816
0003e0 40 a8 95 bd 7a 29 ac bd 48 e1 59 be f6 c6 c6 bd
       -0.07307482 -0.084063485 -0.21277344 -0.097059175
0003f0 f6 a4 d6 bd 5c 20 1f be d1 f3 0f be 89 69 8c bc
       -0.104806826 -0.15539688 -0.14057852 -0.017140167

mlp.0.bias f4 [16]
000000 6a 16 45 bd 0a 54 24 be 1d 3d 39 3d b4 7d 96 3c
       -0.04811708 -0.16047683 0.045224298 0.018370487
000010 f8 d3 da 3a e5 52 44 3e 58 d9 74 3e 7f 77 69 bd
       0.0016695252 0.19172247 0.23911035 -0.056998726
000020 89 ef 46 be 90 2f 18 bd f3 8f 6c be 19 dd 67 3d
       -0.19427313 -0.037154734 -0.23101787 0.05660734
000030 08 74 20 bd 25 8d 53 be ae 37 1c be 75 f9 bf 3e
       -0.039173156 -0.20659311 -0.15255615 0.37495008

mlp.2.weight f4 [1, 16]
000000 54 cb 34 3e 58 0c c6 be 47 89 ad 3e 91 b4 92 3e
       0.17655689 -0.38681293 0.33893797 0.28653386
000010 0e 21 08 be 1d 20 1d be 2d e8 d7 bd 5d c3 31 be
       -0.1329386 -0.15344281 -0.10542331 -0.17359681
000020 90 0a 25 be a5 10 45 bd 95 7a 12 be 1f 7e b8 be
       -0.1611731 -0.048111577 -0.14304574 -0.36033723
000030 bc e1 fc 3e da e0 50 3c db 1d 41 bd 4b 9d ce 3e
       0.49390972 0.012748921 -0.047147613 0.4035438
