data/CTC/Fluo-N2DH-SIM+/02_RES_GAT/20250715_012025/manual_fold_4_best_model.pth (torch, 11177 bytes, 15 tensors)

gat1.att_src f4 [1, 1, 16]
0	0x3e9d71ba	0.3075083
1	0x3f019a60	0.5062618
2	0xbdc5f17d	-0.09665201
3	0x3e3f1307	0.18659602
4	0xbd303c24	-0.043026105
5	0xbe80718f	-0.25086638
6	0xbef0e4ba	-0.47049505
7	0x3e8345cb	0.25639185
8	0x3eeca201	0.4621735
9	0xbf1049e7	-0.56362766
10	0xbf086e43	-0.53293246
11	0x3d534e8d	0.051588584
12	0x3ec14701	0.37749484
13	0xba93cea5	-0.0011276795
14	0xbe02c2e3	-0.12769656
15	0x3ede87c2	0.4346295

gat1.att_dst f4 [1, 1, 16]
0	0xbeb70c7f	-0.3575172
1	0xbf27e97f	-0.6559066
2	0xbe09e64b	-0.13466756
3	0x3d3d12af	0.046160396
4	0xbef20361	-0.47268203
5	0xbef20e7f	-0.47276685
6	0x3dc6c243	0.09705021
7	0xbef17860	-0.4716215
8	0x3ef0925c	0.46986663
9	0xbd9b875c	-0.07594177
10	0x3e5bebf8	0.21476734
11	0x3e639869	0.22226109
12	0x3ea9afbc	0.33141887
13	0x3f22f119	0.63649136
14	0x3de706a9	0.11280567
15	0xbe2aaa94	-0.16666633

gat1.att_edge f4 [1, 1, 16]
0	0xbeb00f3a	-0.34386617
1	0x3e9629bc	0.29328716
2	0x3f159809	0.5843511
3	0xbdbd1854	-0.09233156
4	0x3eafdcce	0.34348148
5	0xbf175a84	-0.5912249
6	0x3dc3d1c0	0.09561491
7	0xbe9468d7	-0.28986236
8	0x3f1ae379	0.60503346
9	0x3d8ce428	0.06879455
10	0xbe58b751	-0.2116368
11	0x3cb50452	0.022096787
12	0x3ed82148	0.42212892
13	0x3f17923c	0.5920751
14	0x3ec37078	0.38171744
15	0xbeaacbf6	-0.33358735

gat1.bias f4 [16]
0	0x3d3672ec	0.04454319
1	0xbcc563cf	-0.024095444
2	0xbc68c8d0	-0.014208034
3	0xbe508cdd	-0.20366235
4	0x3e7a1091	0.24420382
5	0xbe3ea926	-0.18619213
6	0xbe95ee3d	-0.29283324
7	0xbca891cb	-0.020577332
8	0xbd29c4e0	-0.04144752
9	0x3e0052a1	0.1253152
10	0x3e917a70	0.28413725
11	0x3e74876f	0.23879789
12	0xbe269ccb	-0.1627075
13	0x3e019449	0.12654223
14	0x3d92980f	0.07157909
15	0xbdabcb10	-0.083883405

gat1.lin.weight f4 [16, 14]
0	0x3e086bab	0.13322322
1	0x3eacba20	0.33735752
2	0x3e26612c	0.16248006
3	0xbe5b1268	-0.2139374
4	0x3ed9a322	0.42507273
5	0x3ef1c6d9	0.4722202
6	0x3eac9d9f	0.33714005
7	0xbeb70536	-0.35746163
8	0x3e1d5164	0.1536308
9	0xbe7c08e6	-0.2461277
10	0x3e9070e9	0.28211144
11	0xbe595d7a	-0.21227065
12	0xbeccd2ad	-0.40004483
13	0x3d563eb4	0.052305892
14	0x3eb20550	0.34769678
15	0xbf0a577d	-0.54039747
16	0xbdc9a578	-0.09846014
17	0x3ee1f31d	0.44130793
18	0xbda54c17	-0.080711536
19	0x3e6236c2	0.22091201
20	0xbda34e2c	-0.079738945
21	0x3d9638d7	0.0733506
22	0xbe63e50f	-0.22255348
23	0xbe0983a2	-0.1342912
24	0xbe65066c	-0.22365731
25	0x3deaa738	0.11457676
26	0x3d9d8ab6	0.07692473
27	0xbea6f364	-0.32607567
28	0x3e51883e	0.20462129
29	0xbf03512f	-0.5129575
30	0x3dccae28	0.09994155
31	0x3f0c6691	0.54844004
32	0x3e72b969	0.23703541
33	0x3d511e62	0.051054366
34	0x3d60f45b	0.054920536
35	0x3ea5dfa8	0.323972
36	0x3f0d0e94	0.5510037
37	0xbe173bdf	-0.14768933
38	0xbbfb3f1c	-0.0076674353
39	0xbeca0025	-0.39453235
40	0x3ee04092	0.43799263
41	0x3eb166a0	0.3464861
42	0xbf1ae016	-0.6049818
43	0x3d8badea	0.06820281
44	0xbebf6256	-0.37379712
45	0xbe13c033	-0.14428787
46	0x3eb3af14	0.35094512
47	0x3ebb7de7	0.36619493
48	0x3e86fffb	0.26367173
49	0x3ca95568	0.020670608
50	0xbe75d06b	-0.24005286
51	0x3edfa92d	0.43683758
52	0xbe93de6b	-0.2888063
53	0xbdb29bc6	-0.08721118
54	0xbcea4c28	-0.028600767
55	0x3ddffe35	0.10937158
56	0x3ee5bd46	0.44870967
57	0x3e2b0b40	0.1670351
58	0x3e4e8b20	0.2017026
59	0x3f1a779c	0.6033876
60	0x3edecdc3	0.4351636
61	0xbc9d6406	-0.019212734
62	0x3e96bcb5	0.29440847
63	0x3f0b0c30	0.5431547
64	0xbea8fdbc	-0.33006084
65	0xbe608471	-0.21925522
66	0xbe5de4c2	-0.21669295
67	0xbec413d3	-0.38296375
68	0xbd3f19b5	-0.046655376
69	0xbe888ceb	-0.26670012
70	0xbea63ef7	-0.32469913
71	0xbe1d53ca	-0.15363994
72	0x3e782363	0.24232249
73	0xbe9606ae	-0.2930197
74	0xb9d94840	-0.00041443296
75	0xbf0e345d	-0.5554865
76	0x3daa0c07	0.08303075
77	0xbf023ea2	-0.5087682
78	0xbe54cc32	-0.2078102
79	0x3dacdefa	0.08440967
80	0x3e884386	0.26614016
81	0x3ece1f2b	0.40258154
82	0xbee1d085	-0.441044
83	0xbe562bd9	-0.20915164
84	0xbe9825f9	-0.2971647
85	0x3e91e8ba	0.2849787
86	0xbd04fa1b	-0.03246508
87	0xbf0d9eab	-0.55320233
88	0xbd36b203	-0.04460336
89	0xbe4a4267	-0.19751893
90	0xbeae70d7	-0.34070465
91	0xbe4699cf	-0.19394611
92	0xbe525d30	-0.2054336
93	0x3debf3b1	0.1152109
94	0x3ee1bb0d	0.4408802
95	0xbe6474ff	-0.22310255
96	0x3e9e0695	0.30864397
97	0xbe93c41f	-0.28860566
98	0xbe02ae57	-0.12761818
99	0xbf27accd	-0.6549805
100	0xbe2004a7	-0.15626775
101	0x3da366f2	0.0797862
102	0x3e425531	0.1897781
103	0x3ebe1743	0.37127122
104	0xbd1fd086	-0.039017223
105	0x3e3e107d	0.18560977
106	0xbdd5a9aa	-0.104327515
107	0x3f08cf23	0.53441066
108	0x3eaebb50	0.34127283
109	0x3eaea633	0.34111175
110	0x3f0727e3	0.5279524
111	0xbd94b19a	-0.07260437
112	0xbec7bae0	-0.39009762
113	0xbea0ef2d	-0.31432477
114	0xbe50ef2b	-0.20403735
115	0xbecd0ae3	-0.40047368
116	0x3dd833c0	0.105567455
117	0xbb8fd0cc	-0.004388904
118	0x3cb7b5fc	0.022425644
119	0x3ed28b49	0.4112189
120	0xbe65c09e	-0.22436759
121	0xbe80ca38	-0.2515428
122	0xbd6317ba	-0.05544255
123	0xbeb0b40e	-0.3451237
124	0xbe9a1b0b	-0.30098757
125	0xbe6d524a	-0.23175922
126	0xbe792ab6	-0.24332699
127	0x3d5ee712	0.054419585
128	0x3f0966a1	0.53672224
129	0xbeeee2e1	-0.4665747
130	0x3ec13f0d	0.37743416
131	0xbe3b159d	-0.18269964
132	0x3e726be4	0.2367397
133	0xbedf3f7e	-0.43603128
134	0xbd0bed46	-0.03416183
135	0x3f057ca2	0.521433
136	0x3f08649b	0.5327851
137	0xbd5310e8	-0.051529795
138	0x3ed62c8d	0.41830865
139	0xbed4de42	-0.4157582
140	0xbe163022	-0.14666799
141	0xbf0ecf54	-0.5578511
142	0xbe1faa93	-0.15592413
143	0xbe84b4d2	-0.25919205
144	0x3db13d71	0.08654297
145	0xbdb563c7	-0.08856922
146	0xbd80c3da	-0.06287356
147	0x3abebb79	0.0014551721
148	0xbe2a4ea6	-0.16631564
149	0x3f18e22a	0.597201
150	0x3e9e3d76	0.30906266
151	0x3ed128ca	0.40851432
152	0xbda018e2	-0.07817246
153	0xbe6021e6	-0.21887931
154	0x3eb34fec	0.35021913
155	0x3ec4dcbe	0.38449663
156	0x3d1e064a	0.038580216
157	0x3ebe7608	0.37199426
158	0x3ec808d1	0.39069226
159	0x3cc59bd2	0.024122152
160	0xbe5ce095	-0.21570046
161	0x3e9ee4e6	0.3103401
162	0x3ea8575b	0.32879147
163	0xbe928462	-0.28616625
164	0xbebb496a	-0.36579448
165	0x3b5ced6e	0.0033710855
166	0x3de2d1e1	0.110751875
167	0x3ece56ed	0.40300694
168	0x3eaa0925	0.33210102
169	0xbe9ead83	-0.30991754
170	0x3e77627c	0.24158663
171	0xbe25fccf	-0.1620972
172	0x3e85745b	0.26065335
173	0xbe4ca58c	-0.19985026
174	0xbe15faf6	-0.14646515
175	0x3ead7aae	0.3388266
176	0xbeb489fe	-0.3526153
177	0xbeddbeb5	-0.4330956
178	0xbb93487e	-0.0044947257
179	0x3da3f521	0.08005739
180	0xbec12ff4	-0.37731898
181	0xbcdd5018	-0.02701573
182	0x3edf1723	0.4357234
183	0x3e779871	0.24179246
184	0x3ebfc0fe	0.3745193
185	0x3e64ed32	0.22356108
186	0x3ebe2c99	0.371434
187	0xbdaa2261	-0.083073385
188	0xbe280e6d	-0.16411753
189	0x3e0ac406	0.1355134
190	0xbded2c71	-0.11580742
191	0x3d152004	0.036407486
192	0xbed61f3f	-0.41820714
193	0x3eacbe14	0.33738768
194	0x3ec69670	0.3878665
195	0x3e70559d	0.23470159
196	0xbf25f4f0	-0.6482687
197	0xbe861650	-0.26188898
198	0x3f0fcb47	0.5616955
199	0x3eccb5e0	0.3998251
200	0x3e8dcf1d	0.27697077
201	0x3e28244f	0.164201
202	0x3ea10c44	0.3145467
203	0xbeaccb34	-0.33748782
204	0xbe0d4c23	-0.13798575
205	0x3f06e1b0	0.5268812
206	0xbe3a963c	-0.18221372
207	0x3ed2050d	0.41019478
208	0xbe479952	-0.19492081
209	0x3cc29413	0.023752248
210	0x3e9aca85	0.30232635
211	0xbe26cb11	-0.16288401
212	0xbe731e99	-0.23742141
213	0x3e351e6b	0.17687385
214	0x3e77bf62	0.241941
215	0xbdc8ad8d	-0.09798727
216	0x3ea1e31b	0.3161858
217	0x3e7c9965	0.2466789
218	0x3eb75252	0.35804993
219	0xbea471a2	-0.32117945
220	0xbe7d4ba6	-0.24735889
221	0xbe807865	-0.25091854
222	0x3e7530cb	0.23944394
223	0xbd9016d1	-0.07035602

gat1.lin_edge.weight f4 [16, 2]
0	0xbf150b12	-0.58220017
1	0x3f0cf27b	0.55057496
2	0xbcf20de8	-0.029547647
3	0x3ec5445a	0.3852871
4	0x3f2601b5	0.64846355
5	0x3f020bed	0.5079945
6	0xbe33f64f	-0.17574428
7	0x3eb8dfd1	0.36108258
8	0x3e03f931	0.12888028
9	0x3e5b672d	0.21426077
10	0xbed178d7	-0.40912506
11	0xbe2a8685	-0.16652878
12	0xbcd41e26	-0.025893282
13	0xbead1ffb	-0.33813462
14	0xbe31199e	-0.17294928
15	0xbd40b08e	-0.047043376
16	0x3e537a4a	0.20652118
17	0x3e9c0b87	0.30477545
18	0xbc774725	-0.015092646
19	0xbf0ec605	-0.55770904
20	0xbefb3453	-0.49063358
21	0x3e7ee885	0.24893387
22	0x3e4e57eb	0.20150726
23	0x3ecdd157	0.40198776
24	0xbe899ded	-0.268783
25	0x3dee0a79	0.11623091
26	0x3e4d6089	0.20056356
27	0xbd1577c6	-0.036491178
28	0xbd03456d	-0.03204863
29	0xbf12ef6c	-0.5739658
30	0xbec16f1c	-0.37780082
31	0x3d972d17	0.07381647

gat2.att_src f4 [1, 1, 16]
0	0x3e520426	0.20509395
1	0xbe6000f1	-0.21875359
2	0xbf144c93	-0.57929343
3	0x3e7e301a	0.24823037
4	0x3e4a9d1a	0.19786492
5	0x3ec7fbe8	0.39059377
6	0x3f0e3830	0.55554485
7	0xbf04c9b5	-0.5187028
8	0xbef06dd2	-0.46958786
9	0x3ef35296	0.47523946
10	0x3ec99738	0.39373183
11	0xbf36e2cf	-0.7143983
12	0xbefe8371	-0.49709657
13	0xbef81ebf	-0.48460957
14	0x3ec8c313	0.3921133
15	0x3dab149a	0.08353539

gat2.att_dst f4 [1, 1, 16]
0	0xbf02764a	-0.50961745
1	0xbe8b64d0	-0.2722535
2	0xbf077756	-0.5291647
3	0x3f70e360	0.94096947
4	0x3f235c90	0.63813114
5	0x3f15f203	0.58572406
6	0xbcaa0fad	-0.020759428
7	0x3f10b324	0.56523347
8	0x3dab320e	0.083591565
9	0xbef87f94	-0.48534834
10	0x3f2d56a7	0.67710346
11	0xbf2d05d7	-0.67587036
12	0xbedbeee6	-0.42955703
13	0x3ef8aac5	0.48567787
14	0x3e40d49a	0.18831101
15	0x3f02ac60	0.51044273

gat2.att_edge f4 [1, 1, 16]
0	0xbf658ba0	-0.89666176
1	0xbda8a476	-0.082344934
2	0xbe3e1732	-0.18563536
3	0xbef11dcf	-0.47093055
4	0xbeb33866	-0.35003966
5	0xbdd7781a	-0.105209544
6	0xbeb0c103	-0.34522256
7	0x3def4ea9	0.11684925
8	0xbe138044	-0.14404398
9	0xbec55759	-0.38543203
10	0xbf2d2ee9	-0.67649704
11	0x3ead8569	0.33890846
12	0x3da75323	0.08170154
13	0xbe5b52da	-0.21418324
14	0xbe2b9f47	-0.16759978
15	0xbf1155f0	-0.56771755

gat2.bias f4 [16]
0	0x3d6f4111	0.05841166
1	0x3e23f76f	0.16012357
2	0x3d493ad7	0.04912838
3	0xbb280565	-0.002563798
4	0xbe1cdd24	-0.15318733
5	0xbe3c5832	-0.18393019
6	0xbdd68597	-0.10474699
7	0xbdc4399e	-0.09581302
8	0x3daa65c4	0.083201915
9	0x3c5804b5	0.013184716
10	0xbd99df00	-0.07513237
11	0xbd4d17b4	-0.050071433
12	0x3e0bde3c	0.13658994
13	0x3e8fb3cd	0.28066865
14	0x3dab39c6	0.08360629
15	0xbd47efa3	-0.04881252

gat2.lin.weight f4 [16, 16]
0	0xbec03004	-0.37536633
1	0x3d3a1025	0.045425553
2	0x3ed1813d	0.40918913
3	0xbd269a10	-0.04067427
4	0x3d5afa67	0.05346146
5	0x3d027346	0.031848215
6	0xbda9f869	-0.082993336
7	0x3ec38691	0.38188604
8	0xbea86c73	-0.3289524
9	0x3eb9bcd3	0.36276874
10	0x3e9a69ca	0.30158836
11	0xbe2d2357	-0.16908012
12	0xbe78ed99	-0.24309386
13	0xbe715c2e	-0.2357032
14	0x3e6a78c2	0.22897628
15	0xbe041667	-0.12899171
16	0x3dd9c437	0.10633128
17	0x3de4a3da	0.11164065
18	0x3e815b93	0.25265178
19	0xbebbb20d	-0.3665928
20	0x3eee897b	0.46589264
21	0x3e1a299e	0.15054938
22	0x3c0367f2	0.008020388
23	0xbeaad38d	-0.33364525
24	0x3e75675b	0.23965208
25	0x3dd638e0	0.10460067
26	0x3d7994a6	0.060932778
27	0x3e537240	0.20649052
28	0x3dfb5653	0.122723244
29	0x3def6525	0.11689214
30	0x3d0d6209	0.03451732
31	0x3d9dd4d1	0.07706607
32	0xbdce72c0	-0.100804806
33	0x3e2a559a	0.16634217
34	0x3da0b957	0.07847851
35	0xbd278978	-0.040902585
36	0xbe9915e6	-0.2989952
37	0xbde0196d	-0.109423496
38	0x3da2c0da	0.0794694
39	0x3ee8b6a3	0.4545184
40	0xbe0a7ac9	-0.13523401
41	0x3ef59281	0.47963336
42	0x3f37d891	0.7181483
43	0xbd192085	-0.03738453
44	0x3e12d435	0.14338763
45	0x3df5513e	0.11978386
46	0x3e92b936	0.2865693
47	0x3e650a8a	0.22367302
48	0xbee815e0	-0.4532919
49	0xbe54debf	-0.20788096
50	0x3e5eb77e	0.21749684
51	0x3ddbb6ae	0.10728203
52	0xbe1ece10	-0.15508294
53	0x3e6dbb92	0.23216084
54	0x3ebb0321	0.36525825
55	0xbd9b37c8	-0.07578999
56	0x3dbb7189	0.091525145
57	0xbee15185	-0.44007507
58	0xbfb5a9a0	-1.419239
59	0xbd4060c3	-0.04696728
60	0xbe9c2ef3	-0.3050457
61	0x3cabd02b	0.020973286
62	0x3dad6dde	0.08468221
63	0x3ed0d93f	0.40790746
64	0xbe93ed1b	-0.28891835
65	0x3ea50111	0.32227376
66	0x3ed27358	0.41103625
67	0x3ecbcb4f	0.3980355
68	0xbe0205d0	-0.1269753
69	0x3de76089	0.112977095
70	0xbe8dca39	-0.27693346
71	0xbe0d7782	-0.1381512
72	0x3ef4304a	0.47693092
73	0x3e4c5776	0.19955239
74	0x3ee0184b	0.43768534
75	0xbeaa9ee7	-0.33324358
76	0x3ef48ecc	0.47765195
77	0xbefeadc6	-0.49741954
78	0x3f28c139	0.65919834
79	0x3e1f386f	0.15548871
80	0xbae07ded	-0.0017127373
81	0xbea57e74	-0.3232304
82	0xbee2ba1c	-0.44282615
83	0x3ddbbf2a	0.10729821
84	0xbe5e90ee	-0.21734974
85	0x3ee40b13	0.445397
86	0xbde1ee55	-0.11031786
87	0xbec29601	-0.3800507
88	0xbdf263ff	-0.11835479
89	0xbe8ee07a	-0.27905637
90	0xbe99117a	-0.29896146
91	0xbe166bf3	-0.14689617
92	0x3e97bed6	0.29637784
93	0xbf030393	-0.5117733
94	0x3cb3f2bc	0.02196633
95	0x3eb69ecf	0.35668036
96	0xbe9cc5cc	-0.30619657
97	0xbf2201b9	-0.6328388
98	0xbf0d8fb7	-0.55297416
99	0xbe3de75d	-0.1854529
100	0x3e943b33	0.28951415
101	0x3de8bf2f	0.113645904
102	0xbe0e6de2	-0.13909104
103	0x3e2c0300	0.1679802
104	0x3ea45d7e	0.3210258
105	0xbdfb1278	-0.12259382
106	0x3d6ab31c	0.05729972
107	0xbec8cb0d	-0.39217415
108	0xbdb12adf	-0.08650755
109	0xbdecd54d	-0.115641214
110	0xbe20d1c5	-0.1570502
111	0x3deb69d3	0.11494794
112	0x3e4f8d28	0.2026869
113	0xbcaa7837	-0.020809276
114	0x3ee1cb4f	0.44100425
115	0x3d5d06d2	0.053961582
116	0x3e9a1ddc	0.30100906
117	0x3e1aeb8e	0.1512892
118	0xbd765b26	-0.06014552
119	0x3d93847e	0.07203005
120	0x3d913e58	0.07091969
121	0xbf02efb5	-0.51147014
122	0xbebc4b9e	-0.3677644
123	0x3eb3ab20	0.35091496
124	0xbeeba934	-0.4602753
125	0x3e4dcf60	0.20098639
126	0xbe331309	-0.1748773
127	0x3ed9d839	0.42547777
128	0xbdcb25e2	-0.09919335
129	0x3ea0f773	0.3143879
130	0x3f1a0c51	0.60175043
131	0xbe87d2c2	-0.26527983
132	0x3e886262	0.2663756
133	0x3f231f48	0.63719606
134	0x3ef5c4e9	0.48001793
135	0x3f21db0f	0.6322488
136	0x3e6e1c50	0.23252988
137	0x3f278650	0.6543932
138	0x3ef45140	0.4771824
139	0x3e78441a	0.24244729
140	0xbe89f358	-0.2694347
141	0x3cb5a633	0.022173977
142	0xbcf00cba	-0.029302943
143	0x3c6a6883	0.014307144
144	0xbdf4e6e4	-0.119581014
145	0xbc4bca89	-0.012438425
146	0xbe6f1a91	-0.23349978
147	0x3e4f638d	0.2025282
148	0x3d483554	0.048878983
149	0xbe54eb05	-0.20792778
150	0x3eb260a8	0.34839368
151	0xbf107e33	-0.56442565
152	0xbe5e01a6	-0.21680316
153	0xbd7d713a	-0.06187556
154	0xbd2fb8d4	-0.042900875
155	0xbecc91cd	-0.39954987
156	0xbe9a4650	-0.3013177
157	0xbe93cd8a	-0.2886775
158	0x3e677418	0.2260288
159	0xbefaa5e7	-0.48954698
160	0xbccead26	-0.025229048
161	0xbef269d4	-0.47346365
162	0xbe2d2ea0	-0.16912317
163	0x3ee1a9f1	0.44074968
164	0xbf1623cf	-0.5864839
165	0x3ed57eaf	0.41698214
166	0xbc0c3e05	-0.0085597085
167	0x3de47fd7	0.11157196
168	0xbd4681b2	-0.04846353
169	0x3e0633c3	0.13105683
170	0x3e026096	0.12732157
171	0x3dc10a56	0.094257995
172	0x3eca41a5	0.39503208
173	0xbe4acfdd	-0.19805856
174	0xbe89d762	-0.26922137
175	0xbd03d5a8	-0.03218618
176	0x3d6f1184	0.058366314
177	0x3e2e3e87	0.1701604
178	0x3e346c3e	0.17619416
179	0xbf06afe2	-0.52612126
180	0x3e226b01	0.15861131
181	0x3db2834a	0.08716448
182	0xbdca1117	-0.09866541
183	0x3d88b41e	0.066749796
184	0x3e987d8f	0.29783294
185	0x3e8cd2b0	0.27504492
186	0xbe236de7	-0.15959893
187	0xbe89007e	-0.26758188
188	0x3dd9fa3c	0.106434315
189	0x3ecfdd10	0.40598345
190	0x3e089673	0.13338642
191	0x3c8ef2eb	0.017449817
192	0x3ef32444	0.47488606
193	0x3edae92f	0.4275603
194	0xbd5fab07	-0.054606464
195	0x3cd4345c	0.025903873
196	0x3e15e824	0.14639336
197	0x3d08055b	0.033208232
198	0x3e15eeff	0.14641951
199	0xbc8d621b	-0.017258694
200	0xbe9ef18c	-0.3104366
201	0xbd180372	-0.03711266
202	0xbb1ff68a	-0.0024408423
203	0x3ec26f48	0.37975526
204	0x3df6ce41	0.120510586
205	0x3e604715	0.21902116
206	0x3e8ac438	0.27102828
207	0x3e723e39	0.23656549
208	0xbe31e227	-0.17371427
209	0x3e6df528	0.23238051
210	0xbd7300c6	-0.05932691
211	0xbde68e9e	-0.11257671
212	0x3ec781f2	0.38966328
213	0xbf2aaf58	-0.66673803
214	0x3dab92ae	0.08377586
215	0x3d2663b5	0.04062243
216	0x3e3f80c7	0.18701468
217	0x3e186638	0.14882743
218	0x3d933174	0.07187167
219	0x3f024359	0.50884014
220	0xbe8c4113	-0.27393398
221	0x3ecf192d	0.40448895
222	0x3e304e8a	0.1721746
223	0x3e0672a5	0.13129671
224	0xbf079386	-0.5295948
225	0xbea20cce	-0.31650394
226	0xbe004475	-0.12526114
227	0x3ed4101f	0.4141855
228	0x3cd6bef6	0.026214104
229	0x3e684cf5	0.22685607
230	0x3dfa4c10	0.12221539
231	0x3ec759c3	0.3893567
232	0xbe2b998f	-0.16757797
233	0x3e00b14f	0.12567638
234	0x3f33f80a	0.7030035
235	0xbea104dd	-0.31449023
236	0x3d47de6a	0.048796095
237	0x3ea07a60	0.31343365
238	0x3ef12edb	0.4710606
239	0xbeb26abe	-0.34847063
240	0xbe4b1795	-0.19833215
241	0x3c7f9176	0.015598645
242	0x3e6aa36f	0.22913907
243	0x3eb99412	0.3624578
244	0x3e3f0f91	0.18658282
245	0x3e2c0725	0.167996
246	0x3d66208d	0.056183387
247	0xbe824f96	-0.25451344
248	0xbe78964a	-0.2427608
249	0x3cbee31b	0.023301652
250	0xbe9a2cca	-0.30112296
251	0xbe06c1c9	-0.1315986
252	0x3f0942f2	0.53617775
253	0xbe80f452	-0.25186402
254	0x3d0c109b	0.034195524
255	0x3e6c8d3e	0.23100755

gat2.lin_edge.weight f4 [16, 2]
0	0x3e27e5e3	0.16396289
1	0xbea72486	-0.32645053
2	0xbe98f6f2	-0.29875904
3	0x3eb468df	0.3523626
4	0x3e926de1	0.28599456
5	0x3e883b26	0.26607627
6	0x3ec43cbe	0.38327593
7	0xbef47153	-0.4774271
8	0x3f1a5449	0.6028486
9	0xbef10373	-0.47072944
10	0x3dec0bf9	0.11525721
11	0x3ea8acc8	0.32944322
12	0x3e82903e	0.25500673
13	0xbee4fe9d	-0.44725505
14	0x3e45c6c2	0.19314101
15	0xbca0b5dd	-0.01961797
16	0xbe434d3c	-0.19072431
17	0xbef08a9a	-0.46980745
18	0x3f0fa749	0.5611463
19	0xbe8a14e6	-0.2696907
20	0x3cc5d258	0.024148151
21	0xbf1807a6	-0.5938667
22	0xbc96c4a1	-0.018404307
23	0x3f4a6189	0.79055077
24	0xbe9808a2	-0.29694086
25	0x3e7d9942	0.24765494
26	0xbeb60355	-0.35549417
27	0x3e02d32f	0.12775873
28	0xbdca75ff	-0.09885787
29	0xbf0596c8	-0.521832
30	0x3e9d418f	0.3071408
31	0xbf68d4df	-0.90949816

mlp.0.weight f4 [16, 32]
0	0x3dc8266d	0.09772954
1	0x3cdcbb06	0.026944648
2	0x3e03f48d	0.12886257
3	0x3ce465de	0.027880605
4	0xbdb552ac	-0.08853659
5	0x3e377183	0.17914395
6	0xbd92cb06	-0.0716763
7	0x3d8a1e47	0.06744056
8	0xbe1d9026	-0.1538702
9	0x3d35a8bc	0.04435037
10	0x3dba0fe2	0.09085061
11	0x3cde004f	0.027099757
12	0xbcf97286	-0.030450117
13	0xbe68a97f	-0.22720908
14	0x3c693310	0.014233366
15	0xbdc2c53a	-0.09510274
16	0x3c92cedb	0.017920902
17	0xbe037546	-0.12837705
18	0xbd87c47f	-0.066292755
19	0xbe4961b9	-0.19666184
20	0xbe2eca75	-0.17069419
21	0x3dbe42e8	0.09290105
22	0x3e0d5f4f	0.13805889
23	0xbe198295	-0.1499122
24	0xbe4cdc8e	-0.2000601
25	0x3e4e8f19	0.20171775
26	0xbd62d652	-0.055380173
27	0x3e21928c	0.1577856
28	0x3dd0e668	0.102001965
29	0xbe091f04	-0.13390738
30	0x3de19462	0.1101463
31	0xbe5b27a2	-0.21401837
32	0xbbd1deae	-0.0064047193
33	0xbddc7c80	-0.10765934
34	0x3e0202a6	0.12696323
35	0xbdc7154e	-0.097208604
36	0xbe2a5467	-0.1663376
37	0xbd9d535b	-0.076819144
38	0xbd838ac1	-0.064229496
39	0x3c942b8d	0.018087173
40	0xbe2689e2	-0.16263536
41	0xbe27dc11	-0.16392542
42	0x3cfdd980	0.030987501
43	0xbd1ecd2e	-0.038769893
44	0xbe22fdb1	-0.15917088
45	0xbd476560	-0.048680663
46	0xbba4cbef	-0.0050291936
47	0x3d40c008	0.047058135
48	0x3ccaa1ed	0.024735415
49	0x3cd2160e	0.025645282
50	0x3dd3cad3	0.1034142
51	0xbd42f7e8	-0.047599703
52	0xbd6a7980	-0.057244778
53	0xbdca3f87	-0.09875398
54	0xbe001ac3	-0.12510209
55	0xbe09880d	-0.13430806
56	0xbe2a58ea	-0.1663548
57	0xbe26461d	-0.16237684
58	0xbe118925	-0.14212473
59	0x3d8f7b0f	0.070058934
60	0x3d85d68f	0.065350644
61	0xbd030186	-0.031983875
62	0x3dbdafc0	0.09262037
63	0xbe27b882	-0.16378978
64	0xbe2f38aa	-0.1711146
65	0xbe36e6dd	-0.17861505
66	0xbde51976	-0.11186497
67	0x3daf8bf2	0.08571614
68	0xbd1cd25a	-0.038286544
69	0xbd09a84d	-0.03360777
70	0x3cb58429	0.022157745
71	0xbe2e79a2	-0.17038587
72	0xbe30a05a	-0.1724867
73	0xbcdbb845	-0.026821265
74	0xbd6d0da8	-0.05787435
75	0xbe01d966	-0.12680587
76	0x3ddaadde	0.10677694
77	0xbdeb6390	-0.114935994
78	0x3e62eab4	0.22159845
79	0xbe720bd1	-0.2363732
80	0xbd2e4bda	-0.042552806
81	0xbe14b2b0	-0.14521289
82	0xbc8cf533	-0.017206764
83	0xbdc242bd	-0.094853856
84	0xbdc63f72	-0.0968007
85	0xbe0a7880	-0.1352253
86	0x3d88cec5	0.06680063
87	0x3d4f46b0	0.050604522
88	0xbd3ba988	-0.045815974
89	0x3dc6f382	0.09714414
90	0x3dd2e20a	0.1029702
91	0x3bbb6896	0.0057192547
92	0x3dd2527f	0.10269641
93	0xbe1a5597	-0.15071712
94	0x3e7bb59f	0.24581002
95	0x3c46a154	0.012123425
96	0x3e624b84	0.2209912
97	0xbd0ae758	-0.033912033
98	0x3e8aea55	0.27131906
99	0xbe2de285	-0.16980942
100	0x3dd70946	0.10499816
101	0x3dbb3316	0.09140603
102	0x3d257a01	0.040399555
103	0xbe065905	-0.13119896
104	0x3e6c5a1f	0.23081253
105	0x3af9d3e7	0.0019060344
106	0x3d966276	0.07342999
107	0xbe0e6b92	-0.13908222
108	0xbdbdf390	-0.092749715
109	0xbddb04f3	-0.10694303
110	0x3ea5a0ff	0.32349393
111	0x3ca46adc	0.020070486
112	0x3e8faf8b	0.28063616
113	0xbd1950de	-0.037430637
114	0x3e95d521	0.29264167
115	0x3e06ba97	0.13157116
116	0x3e9e5d38	0.30930495
117	0x3ec05030	0.37561178
118	0x3da75ffb	0.08172604
119	0xbd5f9deb	-0.05459396
120	0x3e0ad12a	0.13556352
121	0x3dc5809a	0.096436694
122	0x3da452a6	0.080235764
123	0x3de3659b	0.11103364
124	0xbe6a67bd	-0.22891136
125	0xbe21cd0c	-0.15800875
126	0x3e845421	0.25845435
127	0x3dc057ac	0.09391722
128	0x3e847ad8	0.25874972
129	0x3e0cee79	0.13762845
130	0x3ed71ec4	0.4201566
131	0xbe2b5423	-0.16731314
132	0x3e28a02d	0.16467352
133	0x3d20108c	0.03907828
134	0xbbcae5c8	-0.006191943
135	0x3e3d68d9	0.18497027
136	0x3df9befb	0.1219463
137	0xbe5c4c3c	-0.21513456
138	0xbe26d966	-0.16293868
139	0x3e1e341a	0.15449563
140	0x3d9eb334	0.07749024
141	0xbd2e87f1	-0.042610113
142	0x3e9c237d	0.30495825
143	0xbdaad211	-0.08340848
144	0x3e82af95	0.25524583
145	0xbe5b4467	-0.21412812
146	0x3ec10e29	0.37706116
147	0xbe961a7b	-0.29317078
148	0xbdadd8c1	-0.08488608
149	0x3f4e2e65	0.8053954
150	0x3e1e8560	0.15480566
151	0x3e1f067b	0.15529816
152	0x3eac6d98	0.33677363
153	0xbe2a01dd	-0.16602273
154	0x3e3794cf	0.1792786
155	0xbe36ce1d	-0.17852063
156	0xbc91d466	-0.017801475
157	0xbe588fea	-0.21148649
158	0x3ea10797	0.31451103
159	0x3dbbde3f	0.091732495
160	0xbe059a34	-0.13047105
161	0xbe352db5	-0.17693217
162	0x3ca2b3ac	0.019861065
163	0xbe1f23c0	-0.15540981
164	0xbe547683	-0.20748334
165	0x3de5a78d	0.112135984
166	0x3d737c19	0.05944452
167	0xbe1f1b3c	-0.15537733
168	0xbe5cc0fe	-0.21557996
169	0x3db16f00	0.0866375
170	0xbe64e85a	-0.2235426
171	0xbcb91e27	-0.022597386
172	0x3da6a446	0.081368014
173	0x3c46a0cb	0.012123297
174	0xbd884316	-0.066534206
175	0xbdb33714	-0.0875074
176	0xbe09a7e0	-0.13442945
177	0xbe67c245	-0.22632702
178	0xbe0216c2	-0.12703994
179	0x3db91317	0.09036844
180	0xbcfb6c23	-0.030691212
181	0xbe53de40	-0.2069025
182	0xbc4addfd	-0.012382028
183	0xbdac2679	-0.084057756
184	0xbe504f2f	-0.20342706
185	0xbd0f66bb	-0.03501008
186	0x3c77c464	0.015122507
187	0x3cda4a6d	0.026646817
188	0x3dd94a8b	0.10609921
189	0xbe3543a1	-0.1770158
190	0xbd8f83e8	-0.07007581
191	0x3c478dce	0.012179805
192	0x3d8431ef	0.064548366
193	0x3ddc0c85	0.107445754
194	0xbe1135c8	-0.14180672
195	0xbcffa850	-0.031208187
196	0x3d3e6514	0.046483114
197	0xbd34cce3	-0.044140708
198	0xbdf7d1f4	-0.12100592
199	0xbd58dc48	-0.05294445
200	0x3de3b36a	0.11118205
201	0x3e0c20d1	0.13684393
202	0xbde97e15	-0.11401001
203	0xbde9a1b9	-0.11407799
204	0x3e854121	0.26026252
205	0x3ddb9b2f	0.10722958
206	0xbe95f43a	-0.29287893
207	0x3da4f3a9	0.08054287
208	0xbe43ebc4	-0.19132906
209	0xbd6a3db6	-0.05718776
210	0xbe593b61	-0.21214058
211	0x3e4b3e9e	0.19848105
212	0xbd25f767	-0.040519144
213	0x395d3254	0.00021094951
214	0xbd82de7c	-0.06390092
215	0x3e539e43	0.20665841
216	0x3d72c880	0.059273243
217	0xbdfc0fe7	-0.12307721
218	0x3a17a75e	0.00057851325
219	0xbdb45021	-0.08804346
220	0x3e16210d	0.14661045
221	0x3de7905c	0.11306831
222	0xbe5f7d26	-0.21825084
223	0xbdb05ad0	-0.08611071
224	0xbb53b94e	-0.0032306495
225	0x3e5a00cc	0.21289366
226	0xbb221d1e	-0.0024736593
227	0x3d8e4e85	0.0694857
228	0xbdb6927e	-0.0891466
229	0x3b2cb184	0.0026350925
230	0xbdfa6450	-0.12226164
231	0x3d55483f	0.052070852
232	0x3cf339f4	0.02969072
233	0x3dabf312	0.08395971
234	0x3df55e0d	0.119808294
235	0xbdaffb5f	-0.08592867
236	0x3e977caa	0.295873
237	0x3e83354e	0.25626606
238	0xbe12a161	-0.14319374
239	0x3dca1ed8	0.09869164
240	0xbe721a7f	-0.2364292
241	0x3dc1f02d	0.09469638
242	0xbe19362b	-0.1496207
243	0x3d1957dc	0.037437305
244	0xbe541736	-0.2071198
245	0xbd7a24ef	-0.06107038
246	0xbc2134c6	-0.009839242
247	0x3e5706f0	0.2099874
248	0xbe05a0d3	-0.13049631
249	0xbe204c99	-0.1565422
250	0xbe162dae	-0.14665863
251	0x3d8bff42	0.06835796
252	0xbc7ba28f	-0.015358581
253	0x3e4e5685	0.20150192
254	0x3d7b44cf	0.061344918
255	0x3de3c70f	0.11121952

mlp.0.bias f4 [16]
0	0xbd514396	-0.051089846
1	0xbe25346a	-0.16133276
2	0xbe14a9df	-0.14517926
3	0x3e015f28	0.12633955
4	0xbd7c9ec7	-0.06167486
5	0xbde17764	-0.110091
6	0x3e198cb0	0.14995074
7	0x3e5efe8e	0.21776792
8	0xbe1fe9e9	-0.15616573
9	0x3e436003	0.19079594
10	0x3e19996b	0.1499993
11	0xbc25a54e	-0.0101102125
12	0x3e34698a	0.17618385
13	0xbe5eb2bd	-0.2174787
14	0xbe06b0dc	-0.13153404
15	0x3e079a79	0.1324252

mlp.2.weight f4 [1, 16]
0	0x3d1999b5	0.037500102
1	0x3c81d750	0.01584974
2	0x3d1b093c	0.037850603
3	0x3e7b14e1	0.24519683
4	0x3e90f5eb	0.2831262
5	0xbc6e8c44	-0.014559809
6	0xbe66fa41	-0.22556402
7	0xbe5e749f	-0.21724175
8	0x3d194194	0.037416056
9	0x3e8be3aa	0.2732213
10	0xbd5f4f40	-0.054518938
11	0x3e847f57	0.25878403
12	0x3e36a8ee	0.17837879
13	0xbddf5800	-0.109054565
14	0x3d52dd8e	0.051480822
15	0xbd68c328	-0.05682674
