data/CTC/Fluo-N2DH-SIM+/02_RES_GAT/20250714_180938/manual_fold_3_best_model.pth (torch, 11177 bytes, 15 tensors)

gat1.att_src f4 [1, 1, 16]
000000 ca 20 41 be 17 1b 52 3e f6 8f 46 be eb 90 4b 3e
       -0.18860164 0.20518146 -0.19390854 0.198795
000010 71 bc 75 be c0 b9 82 bd 06 52 bf 3d b3 b1 02 3f
       -0.23997666 -0.06383085 0.093418166 0.510524
000020 3a 9a 7c bc 1c 07 0f be a2 fb 08 3e 96 11 0f bf
       -0.01541763 -0.13967556 0.1337724 -0.5588621
000030 ad 80 6e 3e 29 5f 9c 3d 0c eb 85 bd ef 68 7d 3e
       0.23291273 0.07635338 -0.06538972 0.2474706

gat1.att_dst f4 [1, 1, 16]
000000 3e 72 89 bf a0 52 b6 3e 98 26 a1 3e b3 04 dc be
       -1.0737989 0.35609913 0.31474757 -0.42972335
000010 83 fe cc be d2 50 42 be 2e 6b c2 3e 5b 40 26 be
       -0.40037927 -0.18976143 0.37972397 -0.16235487
000020 ab 5e 5b bf 1a 44 19 bf 3e 66 51 bf e3 43 b9 3e
       -0.85691327 -0.5986954 -0.81796634 0.36184606
000030 a3 f1 5b be e2 49 ed bc 31 54 0c bf 1d 28 e3 3e
       -0.21478896 -0.028965894 -0.54815966 0.44366542

gat1.att_edge f4 [1, 1, 16]
000000 8b 8f 87 bf 8e a2 aa 3f 38 e0 73 3f 84 50 6d bf
       -1.0590681 1.3330858 0.95264006 -0.9270098
000010 d1 2c bc 3f 1c b6 97 bf 0b 39 bb bf b9 6c 22 3f
       1.4701177 -1.185245 -1.4626783 0.6344715
000020 ea a7 5a bf b3 25 73 3f e0 7d 27 3e 41 6f 9c bf
       -0.85412467 0.949794 0.16356611 -1.2221452
000030 8b 02 86 3f 4d d8 86 bf 99 63 c2 bf e2 a1 53 3f
       1.0469526 -1.053476 -1.5186645 0.8266889

gat1.bias f4 [16]
000000 2b fb 98 be 9f ab 80 3e 66 3c 0b 3f b7 c2 11 3e
       -0.29879126 0.25130937 0.54389036 0.14234434
000010 45 3d 93 3e d4 6c c7 3e ab 9d 05 3f e0 ad f4 3e
       0.28757682 0.38950217 0.5219371 0.47788906
000020 86 a8 ac be ea 8c c4 3e e6 f9 73 3e 04 aa e3 3e
       -0.33722323 0.3838876 0.23825797 0.4446565
000030 2b 89 e3 3b 22 95 b6 3e e0 4c 05 3f dc dd 8f 3e
       0.006943842 0.35660654 0.52070427 0.28098953

gat1.lin.weight f4 [16, 14]
000000 66 25 00 3f 45 25 ab 3e bb 73 6b be 18 3d 23 3f
       0.50057065 0.33426872 -0.22993366 0.63765097
000010 de 43 7c 3e bc 2d d9 3e 25 f0 22 3f fb 41 f1 3d
       0.24635264 0.42417705 0.6364768 0.11780163
000020 82 6c 80 3e f4 a1 d7 3d 31 40 62 bd 1c 03 26 bc
       0.25082785 0.10528937 -0.055237 -0.010132577
000030 cf ad 1c 3f 5c ef 4d bc 60 05 96 be 32 93 85 bd
       0.6120271 -0.012569275 -0.29300976 -0.06522216
000040 58 2f ad bd 6a 6f 94 3f 54 06 9b bf dd 31 b6 3f
       -0.08456296 1.1596501 -1.2111306 1.4233967
000050 43 5f a0 bf 84 a9 27 3f 25 cb 04 bf 0f 6c 4d 3d
       -1.2529072 0.65493035 -0.51872474 0.05015188
000060 66 f7 92 bd 5a e8 4e ba 34 9c 64 3d 51 4a 37 3d
       -0.07176094 -0.00078928994 0.05581303 0.044748608
000070 e5 69 d3 3d 45 ad a4 be d7 32 4e 3d f2 68 00 bf
       0.10322932 -0.32163444 0.050341453 -0.50160134
000080 f6 46 b5 3f d4 d9 a1 bf cf 0a 98 3f b8 62 a5 bf
       1.416228 -1.2644601 1.1878299 -1.2920752
000090 4e ab 99 3f 00 a7 b9 3e 62 47 71 bc d0 10 c4 3d
       1.2005403 0.36260223 -0.014726492 0.09573519
0000a0 fd d9 00 be 0e 9d 73 3d 8e 49 cb 3e fc 49 0e 3d
       -0.12583156 0.05947595 0.39704555 0.034738526
0000b0 a2 42 eb be 7b 69 a5 3f 85 96 b1 bf 1f 08 3d 3f
       -0.45949274 1.2922815 -1.387406 0.73840517
0000c0 94 07 4c bf 13 8e 5a 3f 70 63 70 bf 92 5e 23 be
       -0.79699063 0.8537304 -0.9390173 -0.15954044
0000d0 e4 1f 47 3e 70 91 d9 bd 20 de cd bb 4e 22 dd bc
       0.19445759 -0.10623443 -0.006282583 -0.026993897
0000e0 48 2e a7 3d 2c 3b 91 3d aa 28 b6 bd 5a a3 89 bf
       0.08163124 0.07091364 -0.08894475 -1.0752976
0000f0 7b 31 00 3f 3f 93 5a bf eb 8c f7 3e b4 d6 c9 be
       0.500755 -0.8538093 0.483497 -0.39421618
000100 99 dd 04 3f 8c 13 96 be 9a bd 95 3e ed e7 c3 3c
       0.5190063 -0.29311788 0.29246217 0.023914302
000110 ba d6 74 3e 38 41 06 3d ca 7b 92 3d 08 32 eb 3d
       0.23910037 0.03277704 0.07152517 0.11484152
000120 78 1a 82 be 37 e6 b2 3f 5c 96 ed be 98 d7 9c 3f
       -0.2541082 1.3976506 -0.46403778 1.2253294
000130 4b 7d 78 bf 59 b2 ae 3f 21 81 35 bf 1d 22 8f 3e
       -0.9706618 1.3648177 -0.7090016 0.27955714
000140 83 90 0f 3e de c2 ab 3e 64 0b 80 bd f0 15 c5 bd
       0.1401997 0.3354711 -0.062521726 -0.09623325
000150 61 44 a1 3d 96 75 2d 3f 20 87 a0 be 2c b5 b1 bf
       0.0787437 0.67757547 -0.31353092 -1.3883414
000160 2b ec 58 3f 23 2e 44 bf cd 9b ad 3e 8b 3b c2 bf
       0.84735364 -0.766329 0.3390793 -1.5174421
000170 80 87 60 3f 9b 2f 08 3e b2 89 0e 3e b0 ec 0b bd
       0.87706757 0.1329941 0.13919714 -0.03416127
000180 8a 5c 2d bd d0 bd 90 bb 2f a1 4b 3e 9e f2 48 be
       -0.04232458 -0.0044171587 0.19885705 -0.19623801
000190 15 4d 16 3f 39 44 9d 3f 62 86 8a bf 5f 17 b3 3f
       0.5871137 1.2286445 -1.082226 1.3991507
0001a0 f9 1d 8a bf 60 13 93 3f 3b 82 85 bf 83 19 ed bd
       -1.0790397 1.1490288 -1.0430368 -0.115771316
0001b0 8a 5e 26 be 9c 74 33 3e 8b 13 13 be bb 4d 1d be
       -0.16247001 0.17524952 -0.14362924 -0.15361683
0001c0 fa 3f f6 3e b8 b7 ad bd 28 df b4 3e 1f 7c 0a 3e
       0.48095685 -0.08482307 0.35326505 0.13523911
0001d0 13 b9 24 3f 8f e9 e8 3e 32 61 52 3f b0 19 11 3f
       0.643449 0.4549069 0.8217956 0.5667982
0001e0 61 7b a2 3e 80 31 da bd 23 28 89 3e a8 a7 69 3e
       0.31734756 -0.106539726 0.26788434 0.22817862
0001f0 60 78 fa bd 19 d7 0e bd 6a 93 2e bd f7 90 e9 3d
       -0.12229991 -0.0348731 -0.042621054 0.11404603
000200 f1 44 39 be 9f 1e 11 3f 96 bd 08 3e c1 a3 44 3f
       -0.18092705 0.5668735 0.13353571 0.7681237
000210 26 bf 8b be 24 bb 86 3f 54 41 0c bf 4d d0 5b bd
       -0.27294272 1.0525861 -0.5478718 -0.053665448
000220 12 16 60 3e 6d 9e 5c bd cf 8c c7 3d 89 92 5c 3d
       0.21883419 -0.053862024 0.09743654 0.053850684
000230 1e 39 32 3e c9 5b f3 3e dc c1 81 3e 4e 59 00 3f
       0.17404601 0.47530964 0.25343215 0.5013627
000240 f4 2c 37 3f 74 e5 8d 3e 37 49 5b 3f 42 16 0e 3f
       0.7155297 0.2771412 0.8565859 0.5550271
000250 d5 9e 96 3f e8 d3 30 3f c4 8b 3a be 91 3b 0c bf
       1.1767222 0.69073343 -0.18217379 -0.5477839
000260 87 00 34 be 4d 1f 86 bc 22 60 17 3f 9f 25 e2 3d
       -0.17578326 -0.016372347 0.5913106 0.11042332
000270 a5 c4 ef bd e3 13 43 bf d2 47 10 3f 74 1d 65 bf
       -0.11707429 -0.7620222 0.5635959 -0.89498067
000280 6d 26 96 3f c8 c2 bb bf 09 8a 8a 3f d3 78 77 3e
       1.1730477 -1.4668818 1.0823375 0.24167185
000290 1c 3b 9e 3c e6 88 8b be 06 8e 17 3e 22 77 82 bd
       0.019315295 -0.27252883 0.14800271 -0.06370379
0002a0 86 21 07 3b 78 7c 2c bf dd 06 08 3d 5d ca fb 3e
       0.0020619347 -0.67377424 0.03320967 0.49177828
0002b0 0f 75 dd 3e 5e 9f 7d bd 7c 71 1e be 50 04 ca 3e
       0.4325337 -0.061919563 -0.15472978 0.39456415
0002c0 f1 5b bf bd bd 69 a8 be 9f 92 5d be 1a f8 1a 3e
       -0.09343708 -0.32893172 -0.21637963 0.15133706
0002d0 fb b2 b1 be 30 2d 2d bb d8 65 b2 bc ec 9d 2b be
       -0.34706864 -0.002642464 -0.021777079 -0.16759461
0002e0 ec 47 95 bd 5d 35 01 3f a7 9c 7b bf f6 4f 9f 3f
       -0.07289109 0.5047205 -0.9828591 1.2446277
0002f0 d0 0a 93 bf 18 14 72 3f 7d 22 2a bf 66 2b 4a 3e
       -1.1487675 0.9456191 -0.66458875 0.19743118
000300 2a d2 4c 3f 52 ef 58 be 61 d0 68 3e 4d 46 08 3e
       0.80008185 -0.21185043 0.2273574 0.13308068
000310 cb f1 8c ba f6 58 42 be 82 95 a6 3e ed 23 0d 3f
       -0.0010753212 -0.18979248 0.3253594 0.55132943
000320 18 04 ef 3c de 1b 96 3f 97 82 32 bf 72 ed 5c 3f
       0.029176757 1.1727254 -0.69730514 0.8629981
000330 ba ff 33 bf b3 4f 07 3e 15 49 01 3e ce b3 e1 bd
       -0.7031208 0.13213997 0.12625535 -0.11020623
000340 d3 ae d2 bd 0c 0c c8 3c db 1b bd be b6 ab 88 3e
       -0.10287251 0.024419807 -0.36935315 0.26693505
000350 a4 7c e5 be dc 44 ab be d6 bb d2 be c4 b4 68 bf
       -0.44821656 -0.33450973 -0.41158932 -0.90900826
000360 48 80 fb be 00 65 28 bf 14 fc 07 be 7a f9 6f 3d
       -0.49121308 -0.65779114 -0.13279754 0.05858753
000370 41 d2 97 3e ce 0a ba bd 54 b2 05 3e 97 c4 58 bd
       0.29652599 -0.09084092 0.13056308 -0.052921858

gat1.lin_edge.weight f4 [16, 2]
000000 7d db a9 3f b4 39 72 bf ed 9a a7 bf ba 52 2c 3e
       1.3270108 -0.946193 -1.3094155 0.16828433
000010 fd 83 86 bf 60 90 49 3f 8d 6f 86 3f 15 86 4c bf
       -1.050903 0.78735924 1.0502793 -0.7989209
000020 ed 22 ba bf 96 ad 4c bc 33 64 4f 3f 8c 37 7d bf
       -1.4541909 -0.012492558 0.81012267 -0.9891288
000030 0d 28 c1 3f 88 b6 89 be a3 9d 9a bf 00 3c 8e 3f
       1.5090348 -0.26897073 -1.2079357 1.111206
000040 09 29 5a 3f 88 bd 62 bf 68 c1 0b bf 50 3d 62 3f
       0.85218865 -0.8857045 -0.5459199 0.88374805
000050 bf 9c cb be 88 52 b1 be 1f 2c b6 3f 33 96 de be
       -0.39768025 -0.3463328 1.4232215 -0.43473968
000060 49 b9 c9 bf 73 02 1f 3f 25 91 86 3f f5 63 51 bf
       -1.575967 0.6211311 1.0513045 -0.8179315
000070 bd 80 a8 3f 65 b4 3c bf 77 c4 6c bf 38 3e 8b 3f
       1.3164288 -0.7371276 -0.9248728 1.0878363

gat2.att_src f4 [1, 1, 16]
000000 74 ae f2 3e c1 ec 64 be b5 bf 60 3d 92 bc 31 bd
       0.47398722 -0.2235594 0.054870326 -0.043392725
000010 0a 0f 76 be df 9d 11 bc 1f d1 35 3f 77 b4 ad bd
       -0.24029174 -0.008887737 0.7102222 -0.084816866
000020 83 b5 e2 3e ed 10 0c 3e b0 86 08 3f f6 96 b4 3e
       0.44279107 0.13678332 0.53330517 0.35271424
000030 84 e4 b1 be 8c 29 d8 be 4e 4d 14 be 78 88 74 3e
       -0.34744656 -0.42219198 -0.14482614 0.23880184

gat2.att_dst f4 [1, 1, 16]
000000 eb a5 c1 3e 81 f0 7b bf 08 9a 68 bf a9 50 ec bd
       0.37821898 -0.98413855 -0.90860033 -0.11538822
000010 01 ea 61 bf aa 17 51 be 62 0c 2f 3f 0f 0a 4e bf
       -0.88247687 -0.20419183 0.6837827 -0.804841
000020 71 aa 3e 3f d1 b0 03 3f e1 9f 8e 3d 3c fb fc be
       0.7447882 0.51441675 0.06964088 -0.49410427
000030 05 9f 25 bf ee c8 1d be 1b 39 89 3e 65 2b 05 bf
       -0.6469577 -0.1540868 0.2680138 -0.5201934

gat2.att_edge f4 [1, 1, 16]
000000 3f fe 5f 3d 43 7f 86 bf d0 17 4f 3f 06 fb 71 3f
       0.054685827 -1.0507587 0.8089571 0.94523656
000010 83 18 54 bf d1 17 83 3f 12 69 21 bf fe 37 3d bf
       -0.828499 1.0241643 -0.6305095 -0.7391356
000020 a0 ce 06 bf 37 c0 7d bf b1 e9 88 3f e7 a4 81 bf
       -0.52659035 -0.9912142 1.0696317 -1.0128449
000030 03 e5 05 3f 29 17 35 be 26 33 8a bf 69 41 28 bf
       0.5230257 -0.17684616 -1.0796859 -0.6572481

gat2.bias f4 [16]
000000 af 24 5b 3e a6 ae 9d 3d 1b b4 a9 bd 62 86 24 3f
       0.21400712 0.07699327 -0.082863055 0.6426755
000010 85 6d 82 3e 38 cb c8 3e ba d6 b3 3d 9e bc 73 3e
       0.25474182 0.39217544 0.0878119 0.2380242
000020 a8 2a d1 bd f2 6a 22 be be 8e c4 3e 0d 49 aa 3e
       -0.10213214 -0.15861109 0.38390154 0.33258858
000030 27 9d a9 3e c7 45 9f 3e 81 2d 01 3e eb dc c3 bc
       0.3312771 0.31107923 0.12615015 -0.023909053

gat2.lin.weight f4 [16, 16]
000000 b7 9d dd 3e df 02 28 3e 57 b5 b7 be f1 e1 b8 3d
       0.4328439 0.16407345 -0.3588054 0.0902747
000010 64 d2 8c be 35 67 05 be c0 a8 52 bf 30 d1 c2 3e
       -0.27504265 -0.13027652 -0.8228874 0.38050222
000020 c3 86 3d be 0c 8b 1b 3f 14 55 c3 be 16 b3 50 be
       -0.18508439 0.60759044 -0.38150847 -0.20380816
000030 57 76 af 3e bd c3 d1 3e 9b 6e 8a 3e db 44 85 3e
       0.34269974 0.4096965 0.2703751 0.26029095
000040 2c 87 ab bc 6e 8f 98 3d ad 79 d0 3e d6 94 11 be
       -0.020938478 0.07449232 0.4071783 -0.14216933
000050 17 29 23 be cb c1 05 bf bf 4d 5d be 03 a2 0a bf
       -0.15933643 -0.5224883 -0.21611689 -0.5415346
000060 7e 58 6b bc 4e b1 00 be 16 87 86 bf c2 96 70 be
       -0.01436436 -0.12567636 -1.0509975 -0.2349501
000070 19 50 e8 3e f5 00 eb bd b2 d5 43 bd 58 2b 85 be
       0.4537361 -0.11474792 -0.047811218 -0.2600963
000080 f4 a3 84 3e da 7c b0 3d 39 f7 50 be 0f 50 48 bd
       0.25906336 0.086175635 -0.20406808 -0.048904475
000090 cf c5 19 3e 3e 53 e6 be f0 0b af be 3a 58 e1 be
       0.15016864 -0.44985384 -0.34188795 -0.44012624
0000a0 9e 4e 58 3d 73 9f e9 be 1e 51 d6 be cd e8 77 be
       0.05280935 -0.45629463 -0.41858763 -0.242099
0000b0 3e f6 37 bf 46 14 0c be 77 a3 c1 be ca 2c b2 3d
       -0.7186011 -0.13679609 -0.37820026 0.08699949
0000c0 46 72 16 3f 79 01 e6 be 65 6b d3 3f 1f d9 2a bf
       0.5876812 -0.44923 1.6517149 -0.6673755
0000d0 29 ab 6b 3f d6 8c 07 be 2f 90 87 3f 3a b1 9d be
       0.92058045 -0.13237318 1.0590876 -0.30799276
0000e0 d8 38 3b 3f 23 c7 28 3f 4b b6 8d 3f 59 84 c1 3f
       0.7313361 0.6592886 1.1071256 1.5118514
0000f0 2e 23 fd 3e b4 a9 e1 bd 5e 95 cf 3e 19 01 3e 3f
       0.49440902 -0.110186964 0.40543646 0.74220425
000100 2c 59 d7 be d6 dd 03 bf ce 88 50 bc fd 7c a9 3e
       -0.4206022 -0.5151037 -0.012727929 0.3310317
000110 34 22 20 3f 6b 0c 74 be ca c8 eb be 3e 57 0c bf
       0.6255219 -0.23832862 -0.46051627 -0.5482062
000120 d0 85 00 bf 50 ec d4 be e4 11 17 bf 07 0a d4 bd
       -0.5020418 -0.41586542 -0.59011674 -0.10353475
000130 b8 83 42 3d 56 b2 b4 3d 95 c9 0d bf 5c 89 55 bd
       0.047488898 0.088230774 -0.55385715 -0.05213295
000140 48 9b e7 3e 29 8f de 3e a7 c2 8e be 6e c9 1d 3f
       0.45235658 0.43468598 -0.27882883 0.6163548
000150 68 5c 21 be a8 b9 13 bf 7f 3e c4 bd 69 ca b3 3d
       -0.15757906 -0.57705164 -0.09582233 0.08778841
000160 32 8a 42 bc 1c 02 51 bd 93 89 4d be 81 91 4c bd
       -0.011873769 -0.051027402 -0.20072012 -0.04994345
000170 81 a5 42 3f eb 9b 9d 3d f6 1a 55 be 76 81 0f 3f
       0.7603379 0.076957546 -0.20811066 0.56056917
000180 1a 46 f0 be 8b 68 b7 be 51 06 ac 3f 7e 95 b6 bd
       -0.46928483 -0.35821947 1.3439428 -0.08915232
000190 f0 f3 a7 3f 1e f1 24 bf e4 56 88 3f b9 f8 c5 be
       1.3121319 -0.64430416 1.0651517 -0.38666323
0001a0 60 99 1b bf e5 f0 f4 be 62 1b a1 be 75 c3 81 3f
       -0.60780907 -0.47840038 -0.31466204 1.0137774
0001b0 41 a9 1c bf 23 40 53 be d1 05 87 bd b3 81 3b 3f
       -0.6119576 -0.20629935 -0.06592906 0.7324478
0001c0 5d b0 98 3e 29 87 a5 3d b4 83 52 3e de 59 22 3f
       0.29822055 0.080824204 0.20558053 0.63418376
0001d0 c0 81 ac be d2 7b dd 3e aa d8 9f bf 55 95 05 3f
       -0.3369274 0.4325853 -1.2487996 0.5218099
0001e0 57 12 0e be 6c 48 d7 be 02 07 45 3e 79 34 35 3d
       -0.13874184 -0.4204744 0.19240955 0.044239495
0001f0 04 7e e0 bd 9a 88 c5 3e 16 a6 ac be cc 46 f4 be
       -0.109615356 0.3858078 -0.33720464 -0.47710264
000200 0a d6 40 3e a8 48 b0 3e fa 53 8c bf 57 60 0d 3f
       0.1883165 0.34430432 -1.0963128 0.5522513
000210 db 07 19 bf a6 c6 6f 3f e8 e3 96 be 7b 17 62 3f
       -0.5977761 0.9366249 -0.29470754 0.8831708
000220 5a f1 58 3e 43 ce 2f 3f cc 28 41 be b1 88 36 bf
       0.21185818 0.68674105 -0.18863219 -0.71302325
000230 02 27 7f 3d cf 3c e0 3e 30 bd 06 3f f3 a4 ee bd
       0.06229306 0.43796393 0.5263243 -0.11652555
000240 80 9d 05 bf c1 ee 96 3e 92 de 50 3f 02 95 ba 3e
       -0.5219345 0.2947903 0.81589615 0.3644181
000250 ee 2f a6 3e 9f 1e 7f 3e e0 82 7f 3f 89 e2 83 3d
       0.32458442 0.24914025 0.99809074 0.064396925
000260 3c 57 8a 3d 17 9f 3f 3e c0 07 71 be fd 8c 09 3f
       0.0675492 0.18713032 -0.23538113 0.53730756
000270 0e d3 b9 be 0f 6f 15 bd 99 e6 90 be 46 5e 03 bd
       -0.36293834 -0.036482867 -0.28300932 -0.032072328
000280 86 c9 9e 3d 2b b7 8e 3f 1f 0b 87 be d8 48 df 3e
       0.07753281 1.1149648 -0.26375672 0.43610263
000290 5a b2 3a bf dd 71 98 3f f8 8b 7a bf b7 62 75 3f
       -0.7292839 1.1909748 -0.97869825 0.9585375
0002a0 cf 97 3f bf 17 d1 2e 3f f7 f2 af be 33 7e 7f bf
       -0.74841017 0.68287796 -0.34365055 -0.9980194
0002b0 27 e5 f9 bd 9d da 47 3f 88 4d a7 3f 5d 76 4f bf
       -0.122019105 0.7806795 1.3070536 -0.81039983
0002c0 8e a4 e2 3d 01 b3 f5 3d 27 4e ba 3e a6 3e 86 be
       0.110665426 0.11997033 0.3638775 -0.26219672
0002d0 a0 a9 d2 3e d3 00 79 3e 52 65 f9 be 54 d7 98 be
       0.4114504 0.2431672 -0.48710114 -0.29851782
0002e0 00 21 97 3c 80 c8 a5 3e 49 9e 86 be 98 f4 53 be
       0.018448353 0.32379532 -0.26292637 -0.20698774
0002f0 93 71 fe 3e dc c5 9c bd ef 5d 82 3e 50 d8 1c 3f
       0.49696025 -0.07654926 0.2546229 0.61267567
000300 29 34 47 be 9d 28 a3 3f 7f 32 83 3e 51 ce cf 3f
       -0.19453491 1.2746769 0.25624463 1.6234838
000310 ce 22 96 3e 77 9c 78 3f 18 04 38 bf 6e 09 ac 3f
       0.2932343 0.97113746 -0.71881247 1.3440378
000320 f3 fe 98 be 71 bb bc 3e 31 92 13 bf 6e 08 39 bd
       -0.2988201 0.36861756 -0.57644945 -0.045174055
000330 84 cb 66 3e f4 60 91 3f ee 2d 20 3f c0 e6 89 3e
       0.22538573 1.1357713 0.62570083 0.2693386
000340 db 03 c2 bd 4e 40 41 3f 3e c0 26 bd 20 0d 84 3d
       -0.094733916 0.75488746 -0.04071068 0.06447816
000350 e9 b9 13 bf 34 b8 5d 3f a6 75 57 bf c9 12 83 3e
       -0.5770555 0.86609197 -0.8416389 0.2560027
000360 4e 32 03 bf 6e 95 48 3f 48 40 9a 3e 4d b0 2b bc
       -0.51248634 0.7835301 0.30127168 -0.010479045
000370 b3 32 0f 3f ee 8b c1 3e d1 e6 8d 3f 36 07 45 bf
       0.55936736 0.3780207 1.1086065 -0.7696413
000380 63 88 54 be 8a 37 11 3e d0 a9 bf 3f ae 32 74 bd
       -0.20755152 0.14181343 1.4973698 -0.059618644
000390 48 d3 7f 3f 33 bf f3 be b7 c2 b7 3f 08 54 8d 3e
       0.99931765 -0.4760681 1.4356297 0.27603173
0003a0 06 2c b0 be 97 d2 db bd c8 23 8f be 7c 1e ad 3f
       -0.34408587 -0.10733526 -0.27956986 1.3524928
0003b0 f3 40 09 bf dc b3 56 3e bb fe e9 be a8 5b ca be
       -0.5361473 0.20967048 -0.45702156 -0.39523053
0003c0 d4 ea 5c 3f 51 f3 c8 3e c7 1b e6 3e fd e0 84 3e
       0.8629582 0.39248136 0.44943067 0.25952902
0003d0 dc 3e 61 bf 53 21 7f 3e 70 07 0b bf 26 d2 00 bf
       -0.8798654 0.24915056 -0.54308224 -0.5032066
0003e0 44 1c 51 3f 3f ea ce 3e 3b 13 a6 3f 51 6e ba be
       0.81683755 0.4041309 1.2974619 -0.3641229
0003f0 54 02 10 3e 9c d4 31 bf 0c 6d a3 bd d4 ad aa 3e
       0.14063388 -0.6946504 -0.079797834 0.33335745

gat2.lin_edge.weight f4 [16, 2]
000000 8b 56 0b be 37 dc 46 3f a8 80 9d 3f 83 a2 3c bf
       -0.13607232 0.7767977 1.2304888 -0.73685473
000010 9a a6 ad be a2 d3 54 3f 70 f9 1b bf 1d ff 15 3f
       -0.3391617 0.83135426 -0.60927486 0.58592397
000020 c4 15 93 3f 0e 9a 08 bf 9d 99 5d bf 97 af 40 3f
       1.1491017 -0.5336007 -0.8656252 0.7526793
000030 6f 04 48 3f ad 74 c4 be b5 9e 9b 3f 30 d2 0f be
       0.78131765 -0.38370267 1.2157809 -0.14045024
000040 69 dd bc 3e 01 be 57 bf 23 f7 2b 3f e6 21 50 bf
       0.36887673 -0.842743 0.67173976 -0.81301725
000050 9c 83 84 bf ac a0 97 3e 58 c7 fb 3e f4 5c 48 bf
       -1.0352664 0.2961477 0.49175525 -0.78266835
000060 e8 9b 18 bf d8 02 3d 3f 0b 9a 27 3e 96 59 39 bf
       -0.59612894 0.73832464 0.16367356 -0.7240232
000070 4c f8 6a 3f 20 52 77 bf 23 3d 1b 3f 2a 82 0d bf
       0.9178512 -0.9660969 0.6064016 -0.5527674

mlp.0.weight f4 [16, 32]
000000 0b 7a a0 bd 5a bd f3 bd 23 0b 80 be fd 87 0b be
       -0.07835778 -0.1190135 -0.25008497 -0.13626094
000010 2b d2 12 3e c5 81 a0 3d 39 ef 95 3e 38 51 01 3d
       0.14337985 0.078372516 0.29284075 0.031571597
000020 33 f2 91 3e 60 e8 6b 3e a9 5d bc 3e 3c 4e 0d be
       0.28505096 0.23037863 0.36790207 -0.13799375
000030 c8 66 26 3e 50 c8 9c 3e 11 24 8a 3d 61 a1 88 bd
       0.16250145 0.30621576 0.0674516 -0.066714056
000040 5f 4a 0a be f4 bc db 3d 26 e3 be bd 6e 85 fe 3d
       -0.13504933 0.10729399 -0.09320669 0.124277934
000050 84 f2 e1 be 67 ba 9c be 0f f0 94 3e 49 dc 2b 3c
       -0.44130337 -0.30610964 0.290894 0.010489532
000060 28 08 20 be f9 d6 9c 3e e0 b9 62 3d 8f 24 7d be
       -0.15628111 0.3063276 0.055353045 -0.24720977
000070 00 b9 ac bb 67 ca 23 3e 97 16 83 3e 43 63 aa 3e
       -0.005271077 0.15995179 0.25603172 0.33278856
000080 8c e5 3b bd cb 85 5b bd 4f 04 8b 3e a4 97 73 3e
       -0.04587321 -0.05359439 0.27151725 0.23788315
000090 07 2d 30 be 8e ea af 3d 1b 73 60 3e 65 d6 42 be
       -0.17204677 0.0858966 0.21918909 -0.19027098
0000a0 48 fb 5d be 32 0d 08 bd e9 f4 97 be 2c 80 10 bd
       -0.21677887 -0.03321571 -0.2967904 -0.035278484
0000b0 73 c1 72 3e e5 9e 15 bf 9a 70 6f 3e 3c 08 57 bc
       0.23706608 -0.5844558 0.23382798 -0.013124522
0000c0 35 e7 3e 3c 69 d4 80 3e 2a ca 1b 3e f6 2a 74 3d
       0.011651804 0.25162056 0.15213838 0.059611283
0000d0 6c 6a 02 3f c5 8b 04 3f 6b 7a 0f be 2c 9b 4a bb
       0.50943637 0.5177577 -0.14011542 -0.0030915244
0000e0 b3 30 9e be ca 7d 01 bc 79 d5 9b be 90 96 c6 bd
       -0.3089653 -0.007903526 -0.30436304 -0.09696686
0000f0 a9 eb bf 3e 60 8c bf be 14 c2 4c bd fc 84 83 3e
       0.37484482 -0.37411785 -0.049989775 0.25687397
000100 c1 70 cc bd 1b 53 b0 3d c4 bb 9e 3c 1c 22 93 3e
       -0.099824436 0.08609601 0.019376643 0.2873696
000110 e0 c0 04 3e 0a da 87 3e 5f 62 4e bd a1 30 ae bc
       0.12964201 0.26533538 -0.050386783 -0.021263422
000120 a9 95 b6 bd 02 72 1b be c3 da 34 be ac 52 8c 3e
       -0.08915264 -0.1518021 -0.17661576 0.27406824
000130 b0 aa 11 be 06 25 ea ba 94 39 59 be a9 a8 fb 3d
       -0.14225268 -0.0017863817 -0.2121337 0.12288029
000140 f1 c9 8c 3e a2 d0 64 3e ba bf 41 3d 4f 5e 2f 3e
       0.2749782 0.22345212 0.047301985 0.1712582
000150 1c fe 04 3f 6d dc 1f 3f 81 ee 49 be ec 3e cf 3c
       0.5195024 0.6244572 -0.19719888 0.025298558
000160 6c 76 ce bd ae b6 bb 3d 68 a9 eb bd 70 1a 25 3e
       -0.10081181 0.09165703 -0.11506921 0.16123366
000170 1e d4 6b 3e a4 76 0f 3e 18 80 b3 be c7 6a d4 3d
       0.23030135 0.14010102 -0.35058665 0.10371929
000180 c8 14 ae 3d a1 4e 97 3e 2d ff 58 bd a7 ca 6a 3e
       0.085000575 0.29552177 -0.05297773 0.22928868
000190 9f b7 ec bc 01 b1 35 bf 49 e9 71 be 66 e7 83 bb
       -0.028896151 -0.7097321 -0.23624147 -0.0040253876
0001a0 ec 50 6e bd 11 08 88 be 52 de 02 3e e3 b7 85 bc
       -0.058182642 -0.26568654 0.12780121 -0.016323036
0001b0 21 d1 33 be 3a af 88 bd 42 bf 0b 3d 0e 4b 45 3e
       -0.17560245 -0.06674047 0.034117945 0.19266912
0001c0 76 ac e6 3e 44 f3 53 3e 36 cf 2a 3d 10 7d 79 3d
       0.45053452 0.20698267 0.041701518 0.060910285
0001d0 c6 5c 88 3c 41 da 79 be 84 bc 2f bf c4 80 24 3e
       0.0166458 -0.24399664 -0.68647027 0.16064745
0001e0 da 04 e7 3d eb c2 a0 bd 85 f1 b8 3e 21 72 83 bd
       0.11280222 -0.07849678 0.36121765 -0.06418253
0001f0 0e 7a 77 3e 49 b1 91 bd 94 8b 8e 3c 58 c6 d0 bc
       0.24167654 -0.071138926 0.01740054 -0.025485203
000200 17 f1 07 bf 6e da 7e be ca 55 b0 3d 94 14 0b 3f
       -0.5310225 -0.24888012 0.08610113 0.54328275
000210 cf 41 13 bf 19 eb 18 bf d0 82 e7 3e bb 58 b2 be
       -0.5752229 -0.5973373 0.4521699 -0.3483332
000220 74 60 67 be 74 d1 42 3e be 79 f8 be 02 07 09 3e
       -0.22595388 0.19025213 -0.48530382 0.1338158
000230 4b 57 38 bf 5f b3 b6 be c0 d2 ca 3e 75 05 4f 3f
       -0.720082 -0.35683724 0.39613914 0.808677
000240 18 98 d2 3e 75 bd 48 3e ba 3b cc 3d b5 86 d0 be
       0.41131663 0.19603522 0.099723294 -0.40727773
000250 11 6d 64 3d 30 62 2b 3f 7b 78 00 bf 26 6f a3 3e
       0.055768076 0.669467 -0.5018384 0.31920737
000260 c1 f5 ea 3e 66 82 94 be dc 54 0e 3f 71 3c 0d be
       0.4589062 -0.29005736 0.55598235 -0.13792588
000270 f3 8f 1f 3f 45 38 83 3e 48 87 e9 be 35 cb 71 bf
       0.62329024 0.25628868 -0.45611024 -0.94450694
000280 8a 7a 1a 3e f7 c4 c6 3e 4e c1 95 3d 3b 5c 44 3e
       0.15085807 0.38822147 0.073122606 0.19175808
000290 56 8e 0d bf e1 fe bc be 74 13 12 bf 62 68 10 3e
       -0.5529531 -0.36913207 -0.57060933 0.14102319
0002a0 c6 ff c1 3c c7 50 e7 be 55 6a ef 3e 61 0d ac 3e
       0.023681533 -0.45178816 0.46760812 0.33603957
0002b0 91 58 4f bd 87 bf db 3e 2b 61 39 be 5d 5e ae 3e
       -0.050621573 0.4291956 -0.18103473 0.34056368
0002c0 83 6d 14 3e e3 1f 4f 3e bc 2d 34 be 68 4c fa bd
       0.144949 0.20227008 -0.17595571 -0.122216046
0002d0 64 39 80 bf 81 e1 99 3e e0 f1 70 bf a5 32 ae 3e
       -1.0017514 0.30054858 -0.9411907 0.34023014
0002e0 b1 a3 c6 3e 1e bd 2b be 0b a0 10 3f 83 df e8 bd
       0.38796762 -0.16771361 0.56494206 -0.113707565
0002f0 00 ff 75 3e 89 74 ee 3e 6c cd c3 be 44 57 7b be
       0.24023056 0.46573284 -0.38242662 -0.24545008
000300 06 86 53 be b8 03 83 3d d4 cc 6c 3d f0 38 76 be
       -0.20656595 0.06397194 0.057812527 -0.24045157
000310 3d c1 5e 3d c7 28 87 3d ad c3 22 be da f4 30 be
       0.054383505 0.065995745 -0.15894957 -0.17280903
000320 67 3d 86 3d 07 67 62 be 0e 0d 88 3d 68 aa bc 3b
       0.0655468 -0.22109614 0.06643115 0.0057576187
000330 5e f8 04 3d 42 3a 98 bc 76 5a 8b bd 5b cc 8d 3d
       0.032463424 -0.018582467 -0.068043634 0.06923743
000340 b8 5d 3b 3d 99 60 67 be 46 72 e7 bd a3 75 02 3d
       0.045743674 -0.22595443 -0.11301093 0.03185047
000350 c6 7f 83 3d a0 fe 1b bd fd 4b 02 be b0 eb 40 be
       0.06420855 -0.038084626 -0.127243 -0.18839908
000360 f8 c0 8e bd 22 eb 08 be 43 b1 51 be 53 64 ea 3c
       -0.069703996 -0.13370946 -0.20477776 0.028612291
000370 52 31 e3 3a 30 26 53 3d 9e 5a 42 bc 12 58 d4 bd
       0.0017333424 0.05155009 -0.011862425 -0.103683606
000380 76 54 f4 3d 43 6e 16 3d 68 78 f5 bd 8b 66 4e be
       0.11930172 0.036726248 -0.11985856 -0.20156305
000390 b2 96 29 3e 41 a6 76 3e f2 6d 1b be 27 15 82 bb
       0.16561392 0.24086858 -0.1517866 -0.0039698067
0003a0 7f 77 d4 3e 48 84 24 3e 49 56 b1 3e cf 3f f7 be
       0.41497418 0.16066086 0.34636143 -0.4829087
0003b0 05 6c 60 3e d8 30 1f 3e cf 31 b7 bc 80 f3 3e bf
       0.21916206 0.15545976 -0.022362618 -0.745903
0003c0 a6 19 9f be ba 4c 59 be b7 18 2b be 6e 9d a2 3e
       -0.31074256 -0.21220675 -0.16708647 0.31760734
0003d0 98 96 18 bf 14 c6 3e bf 69 f8 cf 3e f6 e8 7a bd
       -0.5960479 -0.74520993 0.4061921 -0.061257325
0003e0 8f a0 bd bd f9 20 73 3e bc b7 0f be e1 5c ac bd
       -0.0925914 0.23743047 -0.14034933 -0.08416153
0003f0 ac 28 51 bd a2 67 cd bc ed 77 9c 3e 39 4b eb 3e
       -0.05106418 -0.02507383 0.30560246 0.45955828

mlp.0.bias f4 [16]
000000 5f b4 65 be b9 66 0f 3e a0 a1 09 3d da f2 6a 3e
       -0.22432087 0.1400403 0.033601403 0.22944203
000010 9b b0 08 be be 18 05 3e e0 34 58 be 29 fb a5 bd
       -0.1334862 0.1299772 -0.2111392 -0.081045456
000020 3f a8 64 3e 85 dc b7 3e 3e 7f 68 be d1 89 f6 3c
       0.22329806 0.3591043 -0.22704789 0.030095013
000030 66 ac 2d bc ef ba 11 3f 3b 70 6e 3d c5 80 13 bc
       -0.010600185 0.56925863 0.0582125 -0.009002869

mlp.2.weight f4 [1, 16]
000000 eb 80 52 be 48 3c 14 3e a6 6a 98 3e 83 d5 39 3e
       -0.20556991 0.1447612 0.29768866 0.18147855
000010 a6 f9 bc bf b0 82 05 3f 9c 61 39 3c b0 e5 8b be
       -1.4763687 0.5215254 0.011314776 -0.27323675
000020 97 0e 89 3e 7a 42 8c 3e 0f 78 3e bd aa 2d 94 be
       0.26768944 0.27394468 -0.046501216 -0.2894109
000030 31 66 45 be ce b4 13 3f b8 27 bc be 8f 8a 8b be
       -0.19277264 0.5769776 -0.36749053 -0.2725415
