data/CTC/Fluo-N2DH-SIM+/02_RES_GAT/20250714_180938/manual_fold_2_best_model.pth (torch, 11177 bytes, 15 tensors)

gat1.att_src f4 [1, 1, 16]
0	0xbe20f074	-0.15716726
1	0x3e9bee94	0.30455458
2	0x3dbeaafd	0.09309957
3	0x3f04f87c	0.5194166
4	0xbd37f2dd	-0.044909347
5	0x3ec4f837	0.38470623
6	0x3eeb4edf	0.4595861
7	0x3ecf0039	0.40429857
8	0x3e23c558	0.1599325
9	0x3e4ffdb5	0.20311625
10	0x3d278144	0.04089476
11	0xbf3bc666	-0.73349607
12	0x3f0d4db1	0.5519667
13	0x3b66a1f0	0.0035191737
14	0x3dc60fc3	0.09670975
15	0x3ed0d732	0.4078918

gat1.att_dst f4 [1, 1, 16]
0	0x3e459448	0.19294846
1	0x3e66798d	0.22507305
2	0xbed3870b	-0.41313967
3	0x3f598b92	0.8497859
4	0xbed84f60	-0.42248058
5	0x3cc9fe48	0.024657384
6	0x3c4eebe0	0.012629479
7	0x3f03292b	0.5123469
8	0x3e9871f6	0.29774445
9	0x3e8ea2de	0.27858633
10	0x3e89c352	0.2690683
11	0xbf1ab511	-0.60432535
12	0x3e776f18	0.24163473
13	0x3d9fa457	0.07795017
14	0xbd88bc20	-0.06676507
15	0xbe9ee016	-0.3103034

gat1.att_edge f4 [1, 1, 16]
0	0x3f73f254	0.9529164
1	0xbf415a39	-0.75528294
2	0xbf2dee54	-0.67941785
3	0xbf781ebc	-0.96921897
4	0x3f7cbbea	0.98724234
5	0x3ef891d1	0.4854875
6	0x3f546cdb	0.829786
7	0xbf402f88	-0.75072527
8	0x3f04208e	0.51612175
9	0x3e3f6fc4	0.18694979
10	0xbf09e67d	-0.5386732
11	0x3e918a18	0.2842567
12	0x3f0f0035	0.5585969
13	0x3e3a6fad	0.18206663
14	0x3f63794b	0.88856953
15	0x3f407293	0.75174826

gat1.bias f4 [16]
0	0xbe9f6ff8	-0.31140113
1	0x3ed14e3e	0.40880007
2	0x3f3ac0ac	0.72950244
3	0x3f484bf1	0.7824088
4	0x3f282b3b	0.65690964
5	0xbe3a9cc8	-0.1822387
6	0x3e4261b6	0.18982586
7	0x3ee3af86	0.4446985
8	0x3ed27677	0.41106007
9	0xbda534e0	-0.08066726
10	0xbdf331cc	-0.118747324
11	0x3d1ed2c6	0.038775228
12	0xbed8f0c8	-0.42371202
13	0xbeac4950	-0.33649683
14	0x3dda3b3f	0.106558315
15	0x3f0423d6	0.5161718

gat1.lin.weight f4 [16, 14]
0	0xbe33e027	-0.17565976
1	0x3e226c26	0.15861568
2	0x3e9a5457	0.3014247
3	0xbd5d9288	-0.05409482
4	0x3ea6ab5a	0.32552606
5	0x3d4750fa	0.04866121
6	0x3e9780fc	0.29590595
7	0x3f310211	0.6914378
8	0xbea68c6b	-0.32529005
9	0xbda68bc3	-0.08132126
10	0xbe809115	-0.2511069
11	0x3e9a8fae	0.30187744
12	0x3f4878db	0.7830941
13	0x3d83c577	0.06434148
14	0x3d6fc0af	0.058533367
15	0x3dc6a50a	0.096994475
16	0xbd9a647b	-0.075386964
17	0xbeedec31	-0.46469262
18	0x3ddd4994	0.108050495
19	0xbe89a927	-0.26886865
20	0x3f50a248	0.8149762
21	0xbeddd44a	-0.43326026
22	0x3e95f863	0.29291067
23	0x3eda2d89	0.42612866
24	0x3e697d59	0.22801723
25	0xbe6624ba	-0.22474948
26	0xbeaedc0c	-0.34152257
27	0x3dd86b5c	0.10567352
28	0xbe1b46c7	-0.15163718
29	0x3eb3dc6c	0.35129106
30	0x3e907713	0.28215846
31	0x3d15503a	0.036453463
32	0x3f1da0ea	0.6157366
33	0xbe1a4cf9	-0.15068425
34	0x3ec79239	0.38978747
35	0xbe84e044	-0.2595235
36	0xbc94a897	-0.018146796
37	0x3dc42d09	0.09578902
38	0x3f19393f	0.59852976
39	0xbe0fa40f	-0.14027427
40	0xbdf8daca	-0.12151106
41	0xbe802e49	-0.25035313
42	0x3eb250e1	0.3482733
43	0x3ebd2dff	0.36949155
44	0x3dfcf2bc	0.123509854
45	0xbe4104d9	-0.18849505
46	0x3f5f2144	0.87160134
47	0xbf3fc7c3	-0.7491419
48	0x3f0eaa84	0.55728936
49	0xbf823b0c	-1.017427
50	0x3eb52b13	0.35384426
51	0xbd435c9f	-0.047695752
52	0x3e8ae84b	0.2713035
53	0x3d158f2b	0.03651349
54	0xbf8db509	-1.1070873
55	0xbd2c7ec9	-0.0421131
56	0x3e8c2f01	0.2737961
57	0x3f8c5192	1.0962393
58	0xbda63897	-0.081162624
59	0xbf0911c4	-0.53542733
60	0x3f173b5b	0.59074944
61	0xbf179270	-0.5920782
62	0x3f70210a	0.93800414
63	0x3b393bb4	0.0028264346
64	0x3f60bcbf	0.87788004
65	0xbe567568	-0.20943224
66	0xbed77932	-0.42084652
67	0xbde98ff3	-0.11404409
68	0xbef8e8cf	-0.4861512
69	0x3e4d2254	0.20032626
70	0x3ebe97e2	0.37225252
71	0x3ea8b4b0	0.32950354
72	0xbe0ef0e5	-0.13959081
73	0xbdf2d871	-0.11857689
74	0xbea27ce3	-0.31735906
75	0xbdd3a81e	-0.103348
76	0xbefb3e45	-0.49070945
77	0xbe8b32df	-0.2718725
78	0xbf466766	-0.77501523
79	0xbe243ff4	-0.16040021
80	0x3f1e72e1	0.6189404
81	0x3b710e80	0.0036782324
82	0x3de2e3c5	0.110786
83	0xbe7ae142	-0.24499992
84	0x3d9f44e5	0.077768125
85	0x3db78cfe	0.08962439
86	0x3eca2d28	0.39487576
87	0x3bca827a	0.006180105
88	0xbf00419f	-0.5010013
89	0xbe7bf65a	-0.24605694
90	0xbe7b72d2	-0.24555519
91	0xbe859a0a	-0.26094085
92	0xbdc579f4	-0.09642401
93	0x3da92318	0.08258647
94	0x3ec40193	0.3828245
95	0x3df97a84	0.12181571
96	0x3ee0ac65	0.43881527
97	0xbd863e98	-0.065549076
98	0x3dd2baa2	0.10289504
99	0xbf300802	-0.6876222
100	0xbe92d199	-0.28675535
101	0xbe89910a	-0.2686847
102	0xbe91dc0e	-0.284882
103	0x3dd72602	0.10505296
104	0xbd4f7188	-0.05064538
105	0xbf004cfd	-0.50117475
106	0xbe2e9fe2	-0.17053178
107	0xbe3d33af	-0.18476747
108	0x3dd63d22	0.10460879
109	0xbe4cc9be	-0.19998834
110	0xbd674e0a	-0.05647091
111	0x3a36ea5e	0.00069776725
112	0x3cd0bd1b	0.025480798
113	0xbeeabe64	-0.45848382
114	0xbdca2130	-0.09869611
115	0xbe913a64	-0.2836486
116	0x3f00e65b	0.50351495
117	0xbf2c1404	-0.6721804
118	0x3e7eba02	0.24875644
119	0xbf16ad0e	-0.5885781
120	0x3edf67b1	0.43633798
121	0xbd36ac39	-0.044597838
122	0xbe49eaa8	-0.1971842
123	0x3c5f12f2	0.013615357
124	0xbf08b682	-0.53403485
125	0xbd0129b1	-0.0315339
126	0xbf02af5a	-0.51048815
127	0x3de6ae3e	0.11263703
128	0xbe748892	-0.23880222
129	0xbeaaad29	-0.33335236
130	0x3e28fb08	0.16502011
131	0x3d5acaa3	0.053415906
132	0xbe91dc17	-0.28488228
133	0x3d21af1a	0.03947363
134	0xbe42be92	-0.1901801
135	0x3ee08fcd	0.4385971
136	0x3d6d920b	0.058000606
137	0xbe432f0c	-0.19060916
138	0xbe2bf8c1	-0.16794111
139	0x39db8f92	0.00041877903
140	0x3f695d71	0.91158205
141	0xbcf54848	-0.029941693
142	0x3e6a6c99	0.22892989
143	0xbede118d	-0.43372765
144	0x3edda9e8	0.4329369
145	0x3e48a856	0.19595465
146	0x3e8d443b	0.27591118
147	0xbed3debf	-0.4138088
148	0x3d71bc31	0.059017364
149	0x3ebaba4a	0.36470252
150	0x3d3582c1	0.04431415
151	0x3e43278c	0.19058055
152	0x3e1b88f9	0.1518897
153	0xbd987e43	-0.074459575
154	0x3e790092	0.24316624
155	0x3ea13dd0	0.31492472
156	0x3e9e00a3	0.3085986
157	0x3ef71df0	0.48265028
158	0xbf39ff63	-0.72655314
159	0x3e94b3f6	0.2904355
160	0x3d615cbc	0.05502008
161	0x3f2979c2	0.6620141
162	0xbd8e731c	-0.06955549
163	0xbefe08a9	-0.49615982
164	0x3e2d2adb	0.1691088
165	0x3f303d25	0.688433
166	0x3e54be24	0.20775658
167	0xbe1fd600	-0.15608978
168	0x3e2b3ac2	0.16721633
169	0xbf1e4f2b	-0.6183955
170	0x3e78b045	0.24285991
171	0xbd29ce9e	-0.04145681
172	0x3d85f3e7	0.06540661
173	0xbdebc5ea	-0.115123585
174	0xbea7c552	-0.3276773
175	0xbdded9c8	-0.10881382
176	0xbe0d6d8b	-0.13811319
177	0xbde07a15	-0.10960785
178	0x3f0a56b0	0.54038525
179	0x3e05a39e	0.13050696
180	0x3e1ffd0a	0.1562387
181	0xbd29ea75	-0.04148336
182	0xbe28c622	-0.16481832
183	0x3d7cde84	0.061735645
184	0x3d0ea55f	0.03482568
185	0x3d34e24d	0.04416113
186	0xbe93a35a	-0.28835565
187	0xbe0ddd4a	-0.13853946
188	0xbe907aa7	-0.28218576
189	0x3e8af473	0.27139625
190	0x3ebff241	0.37489513
191	0xbd4be886	-0.0497823
192	0x3da82872	0.08210839
193	0x3ea7d4d0	0.3277955
194	0xbf12642e	-0.5718411
195	0x3ec9428d	0.39308587
196	0x3de5096d	0.111834385
197	0xbf068756	-0.52550256
198	0x3e84f8db	0.25971112
199	0xbec2447d	-0.37942877
200	0xbf170a87	-0.5900044
201	0xbe8451b1	-0.25843576
202	0xbe01feae	-0.12694809
203	0x3e50ad82	0.20378688
204	0xbf14bd4e	-0.58101356
205	0xbdf4e47a	-0.11957641
206	0x3df6cfae	0.120513305
207	0xbea07d03	-0.31345376
208	0x3f0a3cdb	0.5399911
209	0xbe02dc9e	-0.12779471
210	0x3e9287d8	0.28619266
211	0x3f72fe75	0.9491952
212	0xbed83898	-0.42230678
213	0xbf3679bf	-0.7127952
214	0x3f269f1a	0.6508652
215	0xbef5de2b	-0.48021063
216	0x3f2c760b	0.6736762
217	0xbf30971c	-0.68980575
218	0x3f1aa4c2	0.6040765
219	0x3efe8d9d	0.49717417
220	0xbe419bfc	-0.1890716
221	0x3e1807aa	0.14846674
222	0xbf294056	-0.66113794
223	0x3e72a248	0.23694718

gat1.lin_edge.weight f4 [16, 2]
0	0xbf271b7d	-0.6527632
1	0x3ec793f3	0.38980064
2	0x3f148f8e	0.5803155
3	0xbe842fac	-0.2581762
4	0x3f35bf91	0.7099543
5	0x3e497810	0.19674706
6	0x3f68bcb8	0.9091296
7	0xbe96444c	-0.2934898
8	0xbf3de55c	-0.741781
9	0x3f68c543	0.90926
10	0xbefa293c	-0.48859584
11	0x3eaafaf4	0.33394587
12	0xbf03435d	-0.51274663
13	0x3f5a2508	0.85212755
14	0x3f6581f2	0.89651406
15	0xbf0bce98	-0.5461211
16	0xbf5428c7	-0.8287472
17	0x3eb79fae	0.35864013
18	0xbc9731e3	-0.018456405
19	0x3f417f7a	0.7558514
20	0x3f08b091	0.5339442
21	0xbea216ae	-0.31657928
22	0xbebc1015	-0.3673102
23	0xbed393ed	-0.41323796
24	0xbf1be906	-0.6090244
25	0x3eab3294	0.33437026
26	0xbd1e3c42	-0.038631685
27	0xbdd8e90b	-0.105913244
28	0xbf66fb1a	-0.902269
29	0x3ef422dc	0.47682846
30	0xbf0c4f21	-0.5480824
31	0x3f621dd9	0.88326794

gat2.att_src f4 [1, 1, 16]
0	0x3ed14431	0.40872338
1	0xbe829c00	-0.25509644
2	0x3e4759fd	0.19467922
3	0x3e91694b	0.28400645
4	0xbdca66ea	-0.098829105
5	0xbecd7e83	-0.40135583
6	0x3eb86b29	0.36019257
7	0x3eb52d8b	0.3538631
8	0xbdfa8dad	-0.12234054
9	0xbe267dbc	-0.16258901
10	0x3f126a0b	0.5719306
11	0xbeba386f	-0.3637118
12	0xbf0c2e8b	-0.5475852
13	0x3f0bda59	0.5463005
14	0xbef10ac0	-0.47078514
15	0x3ddca7bc	0.1077418

gat2.att_dst f4 [1, 1, 16]
0	0xbf3c0772	-0.7344886
1	0xbe78c1c9	-0.24292673
2	0xbf0bc9e5	-0.5460494
3	0x3e982a5b	0.29719815
4	0x3f9a92e7	1.2076081
5	0x3dc32810	0.09529126
6	0x3eb39c81	0.3508034
7	0xbf021634	-0.5081513
8	0xbf17d7e4	-0.593138
9	0x3e2e7b71	0.17039277
10	0x3e98bc2f	0.29831073
11	0xbf64fbbe	-0.8944663
12	0xbf69240b	-0.9107062
13	0xbe6b7770	-0.2299478
14	0xbee106d5	-0.43950525
15	0xbe820fe7	-0.25402758

gat2.att_edge f4 [1, 1, 16]
0	0xbe75289e	-0.23941275
1	0xbeeb7509	-0.45987728
2	0x3d5c40c3	0.0537727
3	0xbeef2faf	-0.46716067
4	0xbe4f09eb	-0.20218627
5	0xbf3b6b82	-0.7321092
6	0xbf27578c	-0.6536796
7	0xbf124711	-0.5713969
8	0x3eb0f117	0.34558937
9	0xba9f7954	-0.0012166896
10	0xbf0472b2	-0.5173751
11	0xbf15bee4	-0.584944
12	0xbe895191	-0.26820043
13	0x3e32c30b	0.17457215
14	0xbf48c601	-0.7842713
15	0x3eab6032	0.3347183

gat2.bias f4 [16]
0	0x3dcf2cf4	0.10115996
1	0x3f5deb88	0.8668752
2	0x3badca6c	0.0053036716
3	0x3e9feb51	0.3123422
4	0x3eeafd5a	0.45896417
5	0x3ea05958	0.31318164
6	0xbde0fa89	-0.10985286
7	0x3eef3818	0.46722484
8	0x3f3e4a50	0.7433214
9	0x3ecc369c	0.39885414
10	0x3dbc0ce6	0.09182148
11	0x3f4f4ce8	0.80976725
12	0x3e4331fb	0.19062035
13	0x3eeabc43	0.45846757
14	0xbe1f8079	-0.15576352
15	0x3d710500	0.05884266

gat2.lin.weight f4 [16, 16]
0	0x3e39d59e	0.18147895
1	0xbec941dc	-0.3930806
2	0x3ebdf3e9	0.3710015
3	0xbe9a64c6	-0.3015501
4	0x3e7f3096	0.24920878
5	0xbd7f5a0c	-0.062341735
6	0x3e02a688	0.12758839
7	0xbd5a4002	-0.0532837
8	0xbec0aebc	-0.37633312
9	0xbf5ee815	-0.8707288
10	0xbd5f7d12	-0.054562636
11	0xbf749814	-0.9554455
12	0xbef66748	-0.48125672
13	0xbe58ac28	-0.21159422
14	0xbf061fc8	-0.52392244
15	0x3eb1c3a5	0.34719577
16	0x3dc90332	0.098150626
17	0x3ed34ac4	0.4126798
18	0x3f347485	0.70490295
19	0x3f5f2ec5	0.8718074
20	0x3fbccab1	1.4749357
21	0xbf04c9b8	-0.518703
22	0xbf210ab1	-0.6290694
23	0x3b19056e	0.0023349184
24	0x3e4d8b3b	0.20072643
25	0xbe5c3819	-0.21505775
26	0x3f8550ec	1.041532
27	0xbd7d084d	-0.061775494
28	0xbf8f0116	-1.1172206
29	0xbe616027	-0.22009335
30	0xbe94c305	-0.29055038
31	0x3f47d538	0.7805972
32	0xbe9082ce	-0.28224796
33	0xbe853c3e	-0.26022524
34	0xbf4321ed	-0.7622364
35	0xbe114181	-0.14185144
36	0x3cf03411	0.029321702
37	0x3e5c418d	0.2150938
38	0x3deb8ce4	0.11501482
39	0x3e746277	0.23865686
40	0xbf1203e9	-0.57037216
41	0xbdf6af91	-0.120452054
42	0x3d9fe35d	0.07807038
43	0x3c21373a	0.009839827
44	0x3d9262e9	0.07147772
45	0x3e5e3302	0.21699145
46	0x3cbe4d74	0.023230292
47	0x3dda4cd3	0.10659184
48	0x3f217d2e	0.63081634
49	0x3e4eaca0	0.20183039
50	0x3ec9f6c8	0.39446092
51	0xbde3cbc6	-0.11122851
52	0xbd8c73e5	-0.06858043
53	0x3c8f2388	0.017472997
54	0x3edf372c	0.4359678
55	0x3ec71823	0.38885602
56	0x3e4313fb	0.1905059
57	0x3eb2733d	0.34853545
58	0xbed8c513	-0.42337856
59	0x3e7dd062	0.24786523
60	0x3d6c3c5c	0.05767475
61	0xbd976774	-0.07392779
62	0x3ea527d1	0.3225694
63	0xbd7fce63	-0.062452685
64	0xbd33023a	-0.043703295
65	0x3ea8053e	0.328165
66	0xbd8620d5	-0.06549231
67	0x3da34746	0.07972579
68	0xbe4f1a78	-0.20224941
69	0x3dcba126	0.09942846
70	0x3ed83f98	0.42236018
71	0x3f2bb83b	0.6707799
72	0x3df60d79	0.120142885
73	0xbe9e7b9a	-0.30953676
74	0x3e521e1a	0.20519295
75	0x3e705c24	0.23472649
76	0x3ea0c5e7	0.31400988
77	0xbe4a9fe3	-0.19787554
78	0x3f0b0fe8	0.54321146
79	0xbe8b995e	-0.27265447
80	0xbe5662f9	-0.20936193
81	0x3e8a755b	0.2704266
82	0x3cd9ba75	0.026578167
83	0x3e6a5c7f	0.22886847
84	0x3e8be6c0	0.27324486
85	0xbecf25ce	-0.4045853
86	0x3f00459f	0.50106233
87	0x3e79456d	0.2434289
88	0x3e761294	0.24030524
89	0xbf17d65c	-0.5931146
90	0xbe70dcae	-0.23521683
91	0xbe93261d	-0.28740016
92	0xbe31722f	-0.17328714
93	0xbe8a74f0	-0.2704234
94	0x3ea4de43	0.32200822
95	0xbd7d2b8d	-0.06180911
96	0x3ee75024	0.4517833
97	0x3ecec9b3	0.4038826
98	0x3d8a4f8a	0.06753452
99	0x3ea02d18	0.31284404
100	0x3edba87c	0.4290198
101	0x3d58e18c	0.052949473
102	0x3e4e4762	0.20144418
103	0xbe87385b	-0.26410183
104	0x3f09c7bf	0.53820413
105	0xbde93199	-0.11386413
106	0xbdd35752	-0.103193894
107	0x3d02643f	0.031833883
108	0xbd8bfca7	-0.06835299
109	0xbe2ed9d8	-0.17075288
110	0xbf21c17b	-0.6318585
111	0x3f2f8b23	0.6857168
112	0x3f1e51d9	0.6184364
113	0xbe8e7557	-0.27823898
114	0xbb8fd372	-0.00438922
115	0xbeb78102	-0.35840613
116	0xbea2f87d	-0.31830207
117	0x3d613a24	0.054987088
118	0xbea95922	-0.33075815
119	0xbf43d9b9	-0.76504093
120	0xbf447518	-0.7674117
121	0xbf1da725	-0.6158317
122	0xbf08a646	-0.53378713
123	0xbe2d0208	-0.16895306
124	0xbed6cabd	-0.41951552
125	0xbe2979ef	-0.1655042
126	0xbcac639c	-0.021043591
127	0x3dced65a	0.10099478
128	0x3f0ff8f6	0.5623926
129	0x3f51de96	0.81980264
130	0x3f64a4fb	0.8931424
131	0x3f8c374d	1.0954376
132	0x3f2cab5a	0.6744896
133	0xbef6c83a	-0.48199636
134	0xbf19d2e9	-0.6008745
135	0xbe5290aa	-0.20562997
136	0x3f649e14	0.8930371
137	0x3e9fc493	0.31204662
138	0x3f2d2219	0.67630154
139	0xbe569eb4	-0.20958978
140	0xbedd3e5a	-0.43211633
141	0xbf0434d6	-0.5164312
142	0xbe931137	-0.2872407
143	0x3f952a94	1.1653619
144	0x3e803996	0.25043935
145	0x3f1b11ae	0.6057385
146	0x3ef8e04b	0.48608622
147	0x3f3475f4	0.7049248
148	0x3f405325	0.7512687
149	0xbf0cf62a	-0.55063117
150	0x3de7fbc3	0.113273166
151	0xbb903c14	-0.004401693
152	0x3f1d1e70	0.6137457
153	0xbda3ae62	-0.07992245
154	0xbdb3b1d1	-0.0877415
155	0x3e731d33	0.23741607
156	0xbe8558ca	-0.26044303
157	0xbd95e14c	-0.073183626
158	0xbe53e117	-0.20691334
159	0x3f596b65	0.84929496
160	0xbe4db804	-0.20089728
161	0xbe2d8424	-0.16944939
162	0x3f1c2950	0.6100054
163	0x3f01f451	0.5076342
164	0x3c3595bc	0.011083063
165	0xbe6653a8	-0.2249285
166	0xbeae7b67	-0.34078524
167	0xbe4a13da	-0.19734135
168	0x3e928cc8	0.28623033
169	0xbe82d213	-0.255509
170	0x3ec716d7	0.38884613
171	0x3cfcfbb2	0.030881736
172	0xbe8927fb	-0.26788315
173	0x3e0cd411	0.13752772
174	0x3e5cdf77	0.2156962
175	0x3f2055a8	0.626307
176	0xbedb0617	-0.42778084
177	0xbcace5be	-0.021105643
178	0x3d1bbb85	0.03802063
179	0x3c817dae	0.015806999
180	0xbe74b784	-0.2389813
181	0x3e9432b5	0.28944936
182	0x3e9bc2e1	0.30422118
183	0x3f0173bf	0.5056724
184	0xbe92e7ae	-0.28692383
185	0x3d28a687	0.041174438
186	0xbdedb8bb	-0.116075
187	0x3e6a9763	0.22909312
188	0xbb122ea4	-0.0022305632
189	0x3e5bf968	0.2148186
190	0x3c25a8b8	0.0101110265
191	0xbea740ca	-0.32666618
192	0xbf02d401	-0.5110474
193	0xbdbe453e	-0.09290551
194	0xbefad0d7	-0.48987457
195	0xbec3f2e7	-0.38271257
196	0xbe4d1942	-0.20029166
197	0xbe7a242f	-0.24427865
198	0x3e36cbb5	0.17851146
199	0x3e9ee654	0.310351
200	0xbe22481f	-0.15847825
201	0x3d69b4b6	0.057057105
202	0x3f46ca08	0.77652025
203	0x3f12b07a	0.5730053
204	0x3d356b83	0.044291984
205	0x3f85b4fe	1.044586
206	0xbe97f2cd	-0.2967743
207	0x3e40bdf9	0.18822469
208	0x3f0dbbf0	0.55364895
209	0xbe7fb0d9	-0.24969806
210	0x3e526019	0.20544471
211	0x3e7aa026	0.24475154
212	0x3f00e3ac	0.503474
213	0xbe01b58f	-0.12666915
214	0xbf092c08	-0.5358281
215	0x3e0121f4	0.12610608
216	0x3d9614b4	0.073281676
217	0xbd02ddbe	-0.03194975
218	0x3e30e8dd	0.1727633
219	0xbe2c4fb3	-0.16827278
220	0xbd9af4ab	-0.07566198
221	0xbe872d98	-0.26401973
222	0xbe974ef3	-0.2955242
223	0x3efde9b3	0.4959236
224	0xbe8b9b3d	-0.27266875
225	0xbe177b96	-0.14793238
226	0xbe83fe12	-0.25779778
227	0xbec14f85	-0.3775598
228	0xbdce31b0	-0.10068071
229	0xbda662cb	-0.08124312
230	0x3e00152f	0.12508081
231	0xbedb5753	-0.4284006
232	0x3ebbc44f	0.3667321
233	0xbebfc1f3	-0.3745266
234	0x3e4316af	0.19051622
235	0xbdd7450e	-0.10511218
236	0x3dc305c1	0.09522582
237	0x3e954cb5	0.29160085
238	0x3e004110	0.1252482
239	0x3e41130f	0.18854927
240	0x3e8db9ba	0.2768076
241	0x3e4eef50	0.20208478
242	0xbf230f14	-0.6369488
243	0xbee27a9c	-0.4423417
244	0xbe1d170a	-0.1534082
245	0x3e1cf3f5	0.15327437
246	0x3eac6add	0.3367528
247	0xbec1466b	-0.37749037
248	0xbecc57ca	-0.39910728
249	0xbdb0fab3	-0.08641567
250	0x3e7e97f7	0.24862657
251	0x3eae3ddc	0.3403157
252	0xbdfd2fa6	-0.12362604
253	0x3e106792	0.14102009
254	0xbe922734	-0.28545535
255	0xbe0b3a06	-0.13596353

gat2.lin_edge.weight f4 [16, 2]
0	0x3e8acd23	0.27109632
1	0x3e97b9e3	0.29634008
2	0xbeeaaef8	-0.45836616
3	0xbe7b0371	-0.24513032
4	0xbc01284d	-0.007883144
5	0x3eff509c	0.49866188
6	0xbf220040	-0.6328163
7	0xbf26fc9f	-0.6522922
8	0xbf34ad6d	-0.70577127
9	0xbf85403e	-1.041023
10	0xbf42fa8c	-0.76163554
11	0xbf881d4b	-1.063394
12	0xbe53e879	-0.2069415
13	0xbe957bbc	-0.29195964
14	0xbee15d60	-0.44016552
15	0xbf99c3a9	-1.2012836
16	0x3f25fd78	0.6483989
17	0x3f314314	0.6924298
18	0xbd63583e	-0.055504076
19	0x3f8b4e76	1.0883319
20	0xbf135024	-0.5754416
21	0xbf78c434	-0.9717438
22	0xbf12f4e0	-0.574049
23	0xbf19457e	-0.5987166
24	0x3e9c8c86	0.3057596
25	0x3e8b42d7	0.27199432
26	0xbd82e097	-0.06390493
27	0x3f8e89a6	1.1135757
28	0xbee689bf	-0.45026967
29	0xbeccf735	-0.40032354
30	0xbe0b2a38	-0.13590324
31	0x3f820ac6	1.0159538

mlp.0.weight f4 [16, 32]
0	0x3dc0f0b7	0.09420913
1	0x3eca2fa5	0.39489475
2	0xbdf59a71	-0.11992348
3	0xbe9b63ea	-0.30349666
4	0xbec3a8d0	-0.3821473
5	0x3e48bd75	0.19603522
6	0x3eaa01c0	0.3320446
7	0x3f8e7fb1	1.1132718
8	0x3e956a17	0.29182503
9	0x3edbec77	0.42953846
10	0x3eacc42d	0.3374342
11	0xbf193f81	-0.59862524
12	0xbefdf223	-0.49598798
13	0x3eb1ea1c	0.34748924
14	0xbd56bf92	-0.05242879
15	0xbd7cceba	-0.061720587
16	0xbebe7b71	-0.37203553
17	0xbe01c9f3	-0.12674694
18	0x3de07d30	0.109613776
19	0xbdcb06ed	-0.0991343
20	0x3e365bd5	0.17808469
21	0xbe4ec24f	-0.2019131
22	0xbe292bc3	-0.165206
23	0xbe4bcd4d	-0.19902535
24	0xbe766d68	-0.24065173
25	0xbe525cbc	-0.20543188
26	0xbe0d5c30	-0.13804698
27	0x3f77e463	0.96832865
28	0x3eb05f2e	0.34447616
29	0xbe00cd61	-0.12578346
30	0xbe663b31	-0.22483517
31	0x3ece1605	0.40251175
32	0x3e7a36c3	0.24434952
33	0x3c8d0bfa	0.017217625
34	0x3da2b55b	0.07944747
35	0x3e169629	0.14705719
36	0x3ed6b27c	0.41933048
37	0x3d60fb49	0.054927144
38	0xbd91affe	-0.07113646
39	0xbf19fe2b	-0.60153455
40	0xbf006e62	-0.5016843
41	0xbe48d91d	-0.19614072
42	0xbeab5375	-0.3346211
43	0x3e912179	0.2834585
44	0xbda72501	-0.08161355
45	0xbda3c020	-0.07995629
46	0xbdf81844	-0.12114003
47	0x3c0625c1	0.008187712
48	0x3e9b94aa	0.3038686
49	0x3e59482a	0.21218935
50	0x3c82a2f9	0.015946852
51	0x3e2e919e	0.17047736
52	0x3ca1c0b8	0.019745216
53	0x3e7cca32	0.24686506
54	0x3e858b5e	0.2608289
55	0xbed31ffc	-0.4123534
56	0x3ed69ee2	0.41918093
57	0x3ea56478	0.32303214
58	0x3e808c1d	0.25106898
59	0xbf376b41	-0.7164803
60	0x3f5f71bc	0.8728292
61	0x3e434c6a	0.19072118
62	0xbe12db58	-0.14341486
63	0x3d130e31	0.035902206
64	0x3e68124d	0.22663231
65	0x3dea941a	0.114540294
66	0x3c48c4c1	0.012253941
67	0x3e24cf92	0.16094807
68	0x3eaf972e	0.34295028
69	0x3dba59f1	0.09099186
70	0xbe933dbb	-0.28758034
71	0xbeb8b2fa	-0.36074048
72	0xbf133ed7	-0.5751776
73	0xbe1d54a1	-0.15364315
74	0xbd7d4379	-0.061831925
75	0x3e4d83f0	0.20069861
76	0x3d2fe64c	0.042944238
77	0xbe4db2f3	-0.20087795
78	0xbe474ce2	-0.19462922
79	0x3ea048bb	0.3130549
80	0x3eeb8ef1	0.46007493
81	0x3e4701f5	0.1943434
82	0xbeab235d	-0.33425418
83	0x3e15085f	0.14553975
84	0x3a96a97a	0.00114946
85	0x3dee55ec	0.11637482
86	0x3d8521a1	0.06500555
87	0xbf57327a	-0.84061396
88	0x3f20b67b	0.62778443
89	0x3e7baeb3	0.24578361
90	0x3cf68a82	0.030095343
91	0xbecdb90c	-0.40180242
92	0x3f590db6	0.84786546
93	0x3e8743f2	0.26419026
94	0xbe0f0987	-0.13968478
95	0xbec19a41	-0.37813
96	0xbd5c4960	-0.053780913
97	0xbea6b346	-0.3255865
98	0xbe204a48	-0.15653336
99	0xbe889d85	-0.26682678
100	0xbe7ebc80	-0.24876595
101	0xbd35b249	-0.04435948
102	0xbe452d9d	-0.19255681
103	0xbe240382	-0.16016963
104	0xbdf34128	-0.11877662
105	0xbe07b241	-0.13251592
106	0xbc44fa85	-0.012022619
107	0x3cb69db0	0.022291988
108	0xbe0cd26e	-0.13752148
109	0x3df7b07e	0.1209421
110	0xbe6b6298	-0.2298683
111	0x3c8943f2	0.016756032
112	0xbdb65aa3	-0.08904006
113	0xbd97d8b6	-0.07414381
114	0xbe0e0c86	-0.13871965
115	0xbe8395ed	-0.25700322
116	0xbe844c52	-0.25839478
117	0xbe57231c	-0.21009487
118	0xbe1b0333	-0.15137939
119	0x3cebeb98	0.028798863
120	0xbe355361	-0.17707588
121	0x39998805	0.00029283777
122	0xbcce3e23	-0.025176113
123	0xbe24352c	-0.16035908
124	0x3d8434e8	0.064554036
125	0xbdc18aee	-0.09450327
126	0x3d8b203e	0.06793259
127	0xbd0ca9f0	-0.034341753
128	0x3ea77ac1	0.3271084
129	0xbd741bb4	-0.059596732
130	0x3eabbdcb	0.33543238
131	0xbd42f014	-0.047592238
132	0xbe119fac	-0.14221066
133	0xbe1aa80b	-0.15103166
134	0xbd6c651b	-0.05771361
135	0x3d5e1790	0.05422169
136	0xbe335d70	-0.17516112
137	0xbe3ffba3	-0.18748336
138	0xbe9f3259	-0.310931
139	0x3ec42d44	0.38315785
140	0x3e8845b7	0.26615688
141	0xbe3b894b	-0.18314092
142	0xbc05d69e	-0.0081688445
143	0x3f209876	0.62732637
144	0x3e4b8c24	0.19877678
145	0xbd98f6a2	-0.074689165
146	0x3e91086d	0.2832674
147	0xbe554882	-0.20828441
148	0xbda46036	-0.08026163
149	0xbdd35abf	-0.10320043
150	0xbe7f9d8e	-0.24962446
151	0x3e250367	0.16114579
152	0xbc8ef6c6	-0.017451655
153	0x3d1e1a04	0.03859903
154	0x3c580ba3	0.013186368
155	0x3f2408e6	0.6407608
156	0x3e4334a8	0.19063056
157	0xbe0aa002	-0.135376
158	0x3ccedb97	0.025251193
159	0x3eab545f	0.33462808
160	0x3da411e6	0.08011226
161	0x3c77c885	0.015123491
162	0x3ebbc08d	0.36670342
163	0x3ed20d96	0.4102599
164	0x3ed5d7ce	0.41766208
165	0xbda912de	-0.08255552
166	0xbe122ad6	-0.14274153
167	0xbf19c957	-0.60072845
168	0xbeb5fd17	-0.35544655
169	0xbd175ad1	-0.036951844
170	0xbead2464	-0.33816826
171	0x3e82e16d	0.2556261
172	0x3db886ec	0.09010109
173	0xbebc8ef7	-0.36827824
174	0x3e29e446	0.16590986
175	0x3ec73ead	0.38915005
176	0x3ec90c35	0.39267126
177	0x3e2c84d7	0.1684755
178	0x3c8314ca	0.016001124
179	0x3e8ffcc4	0.28122532
180	0xbe162d79	-0.14665784
181	0x3d69d5ad	0.057088543
182	0xbe0aeffe	-0.13568112
183	0xbf75bcd7	-0.9599127
184	0x3f01b44a	0.50665724
185	0x3eb59a1e	0.35469145
186	0x3e592176	0.2120417
187	0xbf55d316	-0.83525217
188	0x3f3e3589	0.7430044
189	0x3e99752f	0.29972216
190	0xbdd38b3a	-0.1032929
191	0xbea7fac1	-0.32808498
192	0x3e626d26	0.2211195
193	0xbd8b3d6e	-0.06798826
194	0xbe343b1a	-0.1760067
195	0xbe11a40b	-0.14222734
196	0xbd9d4035	-0.07678262
197	0xbdfae38a	-0.12250431
198	0xbdd7bfab	-0.10534605
199	0xbd0b4e0c	-0.03400998
200	0x3da83276	0.0821275
201	0xbd030ea9	-0.031996403
202	0xbe66b952	-0.22531632
203	0x3e0af6fb	0.13570778
204	0x3be1b5c0	0.0068881214
205	0xbcccd022	-0.02500159
206	0x3dd80c7e	0.10549258
207	0x3d87b772	0.06626786
208	0x3c3bc993	0.011461633
209	0xbc91fd90	-0.017821103
210	0xbdaa5a4b	-0.08318003
211	0x3c348101	0.011017085
212	0x3db40f65	0.08791999
213	0x3e07adf0	0.13249946
214	0x3e0f1742	0.13973716
215	0xbe2ca099	-0.16858138
216	0xbd03a6d0	-0.032141507
217	0xbd55fce2	-0.05224312
218	0xbe5c30c5	-0.21502979
219	0xbe0e92d8	-0.13923204
220	0xbdbd91b6	-0.09256308
221	0x3dcdac0a	0.100425795
222	0x3de10913	0.10988059
223	0x3d253b56	0.04033979
224	0x3d293b72	0.041316457
225	0xbf97f1eb	-1.1870703
226	0xbd828285	-0.06372551
227	0xbefb38d5	-0.49066797
228	0xbe48d66c	-0.19613045
229	0xbde8e429	-0.11371643
230	0xbe8f0a1e	-0.27937406
231	0x3f051b9b	0.5199525
232	0xbecfb15f	-0.4056501
233	0xbca95d63	-0.020674413
234	0xbe516648	-0.20449173
235	0x3f2085a7	0.6270394
236	0x3f17ccf8	0.5929713
237	0xbe2226b3	-0.15835075
238	0x3dca65b2	0.09882678
239	0x3bd6d3a0	0.0065559894
240	0x3dcc1f3d	0.09966896
241	0x3f8ebd7e	1.1151578
242	0xbcb2dcb4	-0.021833755
243	0x3b6688d6	0.0035176775
244	0x3db93e21	0.09045053
245	0x3e245504	0.16048056
246	0x3d172da0	0.036908746
247	0xbdae923e	-0.08523987
248	0x3ebe7174	0.37195933
249	0x3e8b78e3	0.27240667
250	0x3ec1423f	0.37745854
251	0xbe207650	-0.15670133
252	0xbf48389c	-0.7821138
253	0x3ca1ff2b	0.019774994
254	0x3c1f12b3	0.009709048
255	0xbe0005ae	-0.12502167

mlp.0.bias f4 [16]
0	0xbe30adaf	-0.17253755
1	0x3ed06156	0.4069926
2	0x3e77a7fa	0.24185172
3	0xbe1319d5	-0.14365323
4	0x3d9d7ede	0.076902136
5	0x3e2eca3e	0.17069337
6	0xbe1603ed	-0.14649935
7	0xbd19425d	-0.037416805
8	0xbe2a9271	-0.16657425
9	0xbdeec0b0	-0.11657846
10	0x3e245fd8	0.16052186
11	0x3da10392	0.07862009
12	0x3e8c26f6	0.27373475
13	0xbe568455	-0.20948918
14	0x3e5aadae	0.21355316
15	0xbe524745	-0.20535

mlp.2.weight f4 [1, 16]
0	0xbf1d2ebb	-0.6139943
1	0x3e7a81cd	0.24463578
2	0x3e70e600	0.23525238
3	0x3d795901	0.060875896
4	0x3e28dbb1	0.16490056
5	0x3e941578	0.2892263
6	0x3de6eaa6	0.112752244
7	0xbf2fa9ff	-0.6861877
8	0xbf10877a	-0.5645672
9	0xbf480b85	-0.7814258
10	0x3ed5c6a3	0.4175311
11	0xbf093a24	-0.5360434
12	0x3e1eafa3	0.15496688
13	0xbe1c184c	-0.15243644
14	0x3e5a3213	0.21308164
15	0xbf3378be	-0.7010611
